CaseModels/04 200-Bus/_BaseModel_MAG.pth (torch, 328145 bytes, 7 tensors)

bias f4 [200]
000000 fb a3 c2 3d 7b a8 ac 3d 73 c4 d7 3d ea 26 b3 3d
       0.09503933 0.084305726 0.105355166 0.08747657
000010 d5 69 db 3d 39 23 f3 3d 46 14 9f 3d c3 bc b9 3d
       0.10713545 0.118719526 0.07767539 0.090692066
000020 d9 67 99 3d d2 8d d2 3d f4 2c a3 3d cd cf aa 3d
       0.074905105 0.10280956 0.079675585 0.08340416
000030 ca b8 af 3d 79 75 7b 3d 90 ad 96 3d 6c cb 6e 3d
       0.085801676 0.061391328 0.07357323 0.058299467
000040 ef 92 a7 3d d4 eb 99 3d 76 9e 9f 3d 0d bd a5 3d
       0.08182322 0.07515684 0.07793896 0.08092699
000050 bf e8 be 3d d3 45 c6 3d e9 12 cf 3d b2 05 e3 3d
       0.093217365 0.09681287 0.10111029 0.11085071
000060 af de bd 3d 02 e1 df 3d f3 57 d5 3d f5 04 ca 3d
       0.09270989 0.10931589 0.104171656 0.09864227
000070 0b 08 a7 3d b9 d9 6b 3d ac 15 b1 3d 8f 5a 88 3d
       0.08155831 0.057580683 0.08646712 0.06657898
000080 2b 38 b4 3d 90 7a c4 3d 17 2d b8 3d 1c 8c ab 3d
       0.08799776 0.095936894 0.08992975 0.08376333
000090 e6 a6 7c 3d 4f 31 b3 3d 8e 46 ad 3d f5 89 c2 3d
       0.061682604 0.08749639 0.08460723 0.094989695
0000a0 e3 9a 95 3d f2 71 c0 3d b1 2e 8d 3d c2 a3 ab 3d
       0.07304933 0.09396733 0.06893671 0.08380844
0000b0 6c a6 a6 3d 02 df b0 3d 73 50 f4 3d 7c 02 e9 3d
       0.08137211 0.08636285 0.11929407 0.11377427
0000c0 2e 16 f7 3d f2 8f 03 3e 45 0c fb 3d ea f4 05 3e
       0.12064777 0.1284788 0.122581996 0.13081709
0000d0 a5 b7 f5 3d c7 78 a4 3d 49 6e b4 3d ba 2c c9 3d
       0.11997918 0.08030849 0.08810098 0.09822984
0000e0 2f 17 cc 3d 77 54 78 3d eb 3f 8c 3d 24 71 cc 3d
       0.099653594 0.060627427 0.06848129 0.09982517
0000f0 5a af a7 3d 98 59 b0 3d 4b da ab 3d f9 ad d3 3d
       0.081877425 0.08610839 0.083912455 0.10335917
000100 29 ab f6 3d c4 0e ee 3d 3d 84 fd 3d 89 fd f6 3d
       0.12044365 0.1162391 0.12378738 0.12060077
000110 46 e4 05 3e f1 49 05 3e 6a 99 04 3e e2 19 11 3e
       0.1307536 0.13016488 0.12949148 0.1417003
000120 95 99 0e 3e 4f c1 aa 3d ff 8c d0 3d 02 81 fd 3d
       0.13925774 0.08337652 0.10183143 0.12378122
000130 b7 15 e7 3d 65 12 ae 3d fd 62 c0 3d 0a e7 a5 3d
       0.11283439 0.08499602 0.093938805 0.08100708
000140 ad ad a5 3d ec 25 bf 3d e7 73 a0 3d 2c cb b4 3d
       0.08089767 0.09333405 0.078346066 0.088278145
000150 73 b1 d6 3d 7f 92 a3 3d 93 1e b9 3d b1 33 a1 3d
       0.104830645 0.07986926 0.09039035 0.078711875
000160 9f dd 92 3d 78 50 03 3e 20 25 ff 3d fa bc 6d 3d
       0.07171177 0.12823665 0.12458253 0.05804155
000170 ae fb c6 3d bc 68 f3 3d a2 37 90 3d 06 fb bf 3d
       0.09715973 0.11885211 0.07041861 0.09374051
000180 68 73 8b 3d ad 39 c6 3d 8b 99 bc 3d 87 ad 9e 3d
       0.06809121 0.096789695 0.092089735 0.077479415
000190 4e ce c9 3d 17 c4 a5 3d d9 03 99 3d 78 e3 f7 3d
       0.098538026 0.08094042 0.07471437 0.12103933
0001a0 ea f7 03 3e 0f da 73 3d b4 77 87 3d b1 30 a8 3d
       0.1288754 0.05953413 0.066146284 0.08212412
0001b0 9c c3 a3 3d 12 27 c0 3d e7 26 ac 3d 5f 15 c9 3d
       0.07996294 0.09382452 0.084058575 0.09818529
0001c0 83 66 9e 3d 32 61 04 3e dd 95 fc 3d a6 6d dc 3d
       0.07734396 0.12927702 0.12333272 0.10763101
0001d0 dc 07 7d 3d f7 5d a5 3d 4a 6d 83 3d 87 25 bd 3d
       0.061775073 0.08074563 0.064173296 0.092356734
0001e0 a3 27 9c 3d 6c 10 a8 3d 41 a3 ee 3d 2d 04 b9 3d
       0.076247476 0.08206257 0.11652232 0.090339996
0001f0 19 20 e6 3d 05 64 0d 3e 75 18 07 3e 78 6e 92 3d
       0.11236591 0.13807686 0.13192923 0.071499765
000200 e3 a8 a7 3d 08 8b a7 3d 90 b1 b9 3d fc c4 9a 3d
       0.081865095 0.08180815 0.090670705 0.07557103
000210 4a 57 e8 3d 63 15 dc 3d 97 58 09 3e aa 50 0b 3e
       0.11344774 0.10746267 0.134127 0.1360499
000220 d7 ee c6 3d 23 5b cc 3d 13 3a 99 3d c6 9a a1 3d
       0.09713524 0.099783204 0.0748178 0.07890849
000230 04 10 bc 3d 2f eb b6 3d 63 cc 75 3d c6 55 5f 3d
       0.09182742 0.089315765 0.06000937 0.05452516
000240 37 78 b4 3d 2b 71 aa 3d b9 e5 f3 3d e8 b8 83 3d
       0.08811992 0.08322366 0.119090505 0.064317524
000250 44 0f c6 3d 6e f2 b8 3d b8 c6 fd 3d f3 1e 04 3e
       0.096708804 0.09030615 0.12391418 0.12902431
000260 d9 53 0d 3e 82 e8 06 3e ef 0a d9 3d 0c 9d cc 3d
       0.13801517 0.13174632 0.105977885 0.09990892
000270 f5 07 c1 3d 7f d4 d3 3d ea 83 8a 3d c2 50 b6 3d
       0.09425346 0.10343265 0.06763442 0.08902122
000280 eb ab c5 3d 15 35 96 3d d1 31 d6 3d bc 44 b4 3d
       0.096519314 0.07334343 0.104587205 0.088021725
000290 37 66 da 3d 8d 01 aa 3d 0e 45 02 3e 1b f3 cc 3d
       0.10664027 0.08301077 0.12721655 0.10007306
0002a0 e8 6e af 3d 19 6b 09 3e f4 6a bc 3d c6 78 8e 3d
       0.085660756 0.13419761 0.09200087 0.069566295
0002b0 b1 25 ba 3d b8 87 bf 3d 47 e7 a1 3d ea d7 be 3d
       0.0908922 0.09352058 0.07905441 0.09318526
0002c0 72 dd 95 3d c2 0d 96 3d 04 b7 aa 3d f2 b0 91 3d
       0.07317628 0.07326843 0.08335689 0.07113828
0002d0 67 87 a6 3d d2 1c 05 3e 52 94 08 3e 2f 78 b1 3d
       0.08131295 0.12999275 0.1333783 0.08665501
0002e0 eb 6a cc 3d 00 8a b9 3d c3 e1 e3 3d b1 f0 7f 3d
       0.099813305 0.090595245 0.11127045 0.0624854
0002f0 72 27 00 3e 84 50 db 3d 43 df 96 3d 93 df c4 3d
       0.12515047 0.107087165 0.073668025 0.09612956
000300 37 b3 cc 3d ae db ae 3d 67 35 bf 3d 86 b4 ab 3d
       0.0999512 0.08537994 0.093363576 0.083840415
000310 1b fe df 3d 8e 82 b9 3d cd bd ba 3d 6c 79 ab 3d
       0.10937139 0.090581045 0.09118233 0.08372769

fc1.weight f4 [138, 416]
000000 ec 40 5d 3c 99 a9 d4 bc 47 96 2e bb 83 6b ff bc
       0.013504248 -0.025959777 -0.0026639865 -0.031179195
000010 f8 ed f2 bb 45 bd 1d bc 80 a4 22 bc 09 28 6c bd
       -0.007413622 -0.009627645 -0.009926915 -0.057655368
000020 63 1d 90 bd 97 a7 09 3b 83 99 bc 3b 90 9d 83 bd
       -0.07036855 0.0021004432 0.0057556047 -0.06426537
000030 d5 fd 2a 3c 9c 8d 5d bd e6 30 11 bc 19 24 6e bd
       0.010436495 -0.054090127 -0.008861756 -0.058139894
000040 f7 a6 8a bd 71 ea a3 bb 62 7d 1a 3c 55 1a 92 3c
       -0.06770127 -0.005002313 0.009429308 0.017834822
000050 23 65 6d bd 24 92 99 bb 9d 49 0e 3c da b9 8e 3c
       -0.05795778 -0.004686611 0.008684543 0.017422605
000060 0d 51 29 bc f3 92 bd 3b ed 35 82 bd cc 67 16 bd
       -0.010334265 0.00578534 -0.06357942 -0.036720082
000070 40 4a 59 bd cf a5 71 bd e1 03 d6 3b b4 a4 90 3c
       -0.053049326 -0.058996018 0.006531224 0.017656662
000080 02 a0 b7 3c c9 ab ae 3c 53 cc 8f bd c7 ab 26 bc
       0.022415165 0.021322148 -0.070213936 -0.010172791
000090 bb 61 34 bd 95 12 46 bd 6a 2d 36 bd 4f 32 8f 3c
       -0.044038516 -0.048357565 -0.044476904 0.017480044
0000a0 4d 05 c2 bc 2c 27 2d bc ef 8c 35 bd cb 1d 89 bd
       -0.023684168 -0.010568421 -0.044323858 -0.06695136
0000b0 b3 c7 82 bd 9e 5b 81 bb 31 f8 e6 bc ab 45 68 bd
       -0.06385746 -0.003947689 -0.028194519 -0.056707066
0000c0 26 4c a9 bb 4a 26 1d bd 73 f7 4c bd e2 65 96 bc
       -0.0051665483 -0.038366593 -0.050040673 -0.018359128
0000d0 4e c7 ce 3c 42 4e fa 3b cd f8 22 bd ed 99 89 bd
       0.02524152 0.0076387236 -0.039788056 -0.06718812
0000e0 76 b5 f0 bb 8d af bc 3c 0f 54 32 bd f3 b9 cb ba
       -0.0073458506 0.023032928 -0.043537196 -0.0015543088
0000f0 79 e3 ae 3c 16 68 a5 bb 76 88 1b 3c e7 de 99 3c
       0.021348702 -0.0050478084 0.009492984 0.018783046
000100 de d0 b7 3c 5f 11 1b bd 34 59 e7 bc 8e 57 91 bc
       0.022438463 -0.037858363 -0.028240778 -0.017741945
000110 95 09 41 bd da a8 b9 bc 39 44 81 bd f9 98 c7 3c
       -0.04712828 -0.022663523 -0.063118406 0.024364935
000120 8e 7b 8a 3c 2c 68 2d bd b6 3d fb 3b 05 79 06 bd
       0.016904619 -0.042335674 0.0076672686 -0.032830257
000130 79 0a c9 bc ff 22 bb 3c 8b ea 3f bd 28 d1 8b bd
       -0.024541127 0.022843836 -0.046854537 -0.06827003
000140 52 83 df bc 14 84 65 bc 78 69 42 3c 3d e6 9a 3c
       -0.027284298 -0.014008541 0.011865966 0.018908614
000150 dd 2e ea 3a 88 7e e7 bc ab 09 9f bc 70 e5 78 3a
       0.001786675 -0.028258577 -0.01941379 0.0009494638
000160 a7 75 0c bd ca fe a6 3c f3 d6 07 bd 48 66 65 3b
       -0.03429189 0.020385165 -0.033163976 0.0035003591
000170 7d 3f 59 bc ff 4f 80 bd 0a 05 b8 3b 3d 93 29 bc
       -0.013259766 -0.06265258 0.005615835 -0.010350046
000180 ea d9 8c bb 79 4b 26 bd 22 dc 22 bb b6 73 5d bd
       -0.0042984383 -0.04059932 -0.0024850448 -0.05406543
000190 f6 8c 0d bb 71 da 5a bd 0e ad a3 bb dc 75 1c 3c
       -0.0021598912 -0.05343098 -0.004994995 0.009549584
0001a0 5c 7a 72 bd de 49 32 bd 7f 5d df bc d2 c7 85 bd
       -0.059198722 -0.043527476 -0.027266262 -0.06532253
0001b0 0d 8a 27 bd 2a 89 8a bd 18 b8 6b bd b9 6a 9f 3c
       -0.04090314 -0.06764443 -0.057548612 0.019460069
0001c0 73 49 b5 bb 72 db c1 3c d8 e3 ca bb a3 30 80 3c
       -0.0055324375 0.02366421 -0.006191712 0.015648192
0001d0 48 b7 4c bd 6c ed 69 bd 16 41 0a bd 5b 41 b8 bc
       -0.049979478 -0.05711119 -0.033753477 -0.022492101
0001e0 c4 28 5c bd 1d a9 bb 3b 20 5f 79 bd fa 67 45 3c
       -0.053749815 0.005726947 -0.060881734 0.012048716
0001f0 4a 0d 28 bd ec 1f 0e 3c 69 83 0c bd 77 e7 be bb
       -0.0410283 0.008674603 -0.03430501 -0.0058259326
000200 cc c1 00 bd e6 d1 bc b6 35 5f b4 3b c5 d3 4d 3b
       -0.03143482 -5.627272e-06 0.0055045136 0.0031406742
000210 a7 39 ce bb 27 f8 70 bd f3 52 99 3c 1f 84 84 3c
       -0.006293494 -0.058830407 0.018716311 0.016176281
000220 c7 52 89 bd 6a 25 1e bc 88 a4 8c bd 52 41 50 bc
       -0.06705242 -0.009652475 -0.06867319 -0.012710886
000230 ff 35 9a 3b fb 69 cd 3c 39 6e 90 3c 6f 2c 84 bd
       0.004706144 0.02507495 0.017630683 -0.064537875
000240 81 85 0a bd 0b 4d 2e bd 5c 52 29 bc 06 3b 80 bd
       -0.033818725 -0.042553943 -0.010334577 -0.06261258
000250 c9 56 a9 bc a5 fd 7e bb 02 8e 8c bd ef 63 7d bd
       -0.020671265 -0.0038908508 -0.06863023 -0.061862882
000260 2f 8b 64 3c e3 c9 0e bd 2e 6f d1 bb 7e 4b 06 bd
       0.0139492 -0.034860503 -0.0063914275 -0.03278684
000270 0e 19 e8 bc 8d 53 9a bc c9 b2 44 bd 4a 6a 70 bd
       -0.02833226 -0.018838668 -0.048022065 -0.058695115
000280 b4 0a 62 bd 11 e2 e1 3b 09 d6 8f bc 87 54 5b bd
       -0.05518599 0.0068934043 -0.017558115 -0.05354741
000290 69 d0 66 3c 35 48 ca bb ea fc 82 bc 87 8c ed bc
       0.014087775 -0.0061731585 -0.01598974 -0.028997673
0002a0 31 ef 87 bd 93 af 21 3c 7a 36 83 bd d8 19 a3 3c
       -0.06637419 0.00986852 -0.06406875 0.019909784
0002b0 e6 19 3f bd 6b a6 7a bd 00 52 d8 3b c3 91 75 bd
       -0.046655558 -0.061193865 0.006601572 -0.059953462
0002c0 5b d7 86 bd 86 f3 9e bc 49 a2 3a bd f0 51 8e 3c
       -0.065840445 -0.01940323 -0.045564923 0.017373055
0002d0 27 29 a8 bb 54 54 8c bc 23 5c 9d 3c 20 b0 da 3a
       -0.005131859 -0.017130055 0.019208973 0.001668457
0002e0 0d fe 41 bd 5e 7a 8d bd 4e c2 7f bd 5b 32 63 bd
       -0.047361422 -0.06908105 -0.062441163 -0.055467945
0002f0 70 a2 18 bd 2f e3 ca 3b e1 f6 5e bd 5a e2 6e bd
       -0.037264287 0.006191633 -0.05443466 -0.058321334
000300 d8 99 e5 bc cf 51 71 bd dc 35 06 39 d0 ea aa 3c
       -0.02802746 -0.05891591 0.000127993 0.02086392
000310 5a 90 73 bd 35 0b 81 bb 50 dd e1 3b 82 94 63 bd
       -0.059463836 -0.0039381036 0.0068928376 -0.05556155
000320 5f 04 c7 3c bd 8d 17 bd 0f bd 7c bd 36 8f 2c bc
       0.024294076 -0.037000407 -0.061703738 -0.010532191
000330 f8 42 5e 3c 37 c6 2f bd 92 5c 2f bd 99 cb 96 3c
       0.013565771 -0.04291364 -0.04281289 0.01840763
000340 97 be ce 3c 02 3c 95 bc f5 a9 81 bd 01 52 19 bd
       0.025237365 -0.01821709 -0.06331245 -0.03743172
000350 85 87 59 bd 4d 2a 44 bc cc 16 ea bc 2c 8f 40 3c
       -0.053107757 -0.011972976 -0.028575324 0.011752885
000360 a2 6a 28 bd 32 cb 9d 3c 99 78 1c 3d 08 92 05 bc
       -0.041117318 0.01926193 0.03820095 -0.008152492
000370 b1 d4 2c 3d e4 19 32 3c 78 98 19 bc d4 25 6c 3c
       0.042195026 0.010870431 -0.00937473 0.014413316
000380 59 50 20 3d 58 2f 08 3c f8 22 8b bc e2 83 e1 bc
       0.039139125 0.008312069 -0.016984448 -0.027528707
000390 80 ec 8d b9 9c e0 1c 3c 3d af 45 3d 99 21 0b 3d
       -0.00027069822 0.009575035 0.048262823 0.033967588
0003a0 06 b9 f7 3c d0 bd b4 bc 2f f1 1a 3d db 63 11 3d
       0.030239593 -0.022063166 0.037827667 0.03549562
0003b0 ee 5c 98 3c 40 23 23 bc 30 6a c1 3b fe 61 3c bd
       0.018599 -0.009957135 0.005902551 -0.04599189
0003c0 c7 ba 29 3d 38 c2 a4 bc 7c f1 01 bd f7 d6 0f 3d
       0.04143789 -0.020112142 -0.031724438 0.035117116
0003d0 93 11 06 3d 02 b8 b3 3c af b7 df bc f5 84 30 bd
       0.032731604 0.021938328 -0.027309267 -0.043095548
0003e0 20 cc ac 3a ee 92 e2 3c 66 5a b0 bc 6b 79 15 3d
       0.0013183393 0.027657952 -0.02152748 0.036492746
0003f0 c8 1e 19 bc c3 e6 2c bd 34 57 50 3c 2b a8 e2 bc
       -0.009345718 -0.04221226 0.012716103 -0.02766808

fc1.bias f4 [138]
000000 0c 45 cd bc 48 2c 85 3d ab 1e 0f bd d9 40 07 bd
       -0.025057338 0.065025866 -0.034941357 -0.033020828
000010 65 a5 3b 3c ff 90 6f bd 31 b2 02 bd 44 64 20 3c
       0.011453007 -0.05848789 -0.031908218 0.00978953
000020 c0 bb 72 ba c1 a9 9c 3d 69 51 7e bc e0 f3 0b bc
       -0.00092595443 0.076495655 -0.015522339 -0.008542031
000030 9f ad 7c 3d 76 5e cc 3c 10 df 14 ba df b7 77 bd
       0.061689015 0.024947386 -0.0005678991 -0.060478088
000040 a5 db 52 3c c2 15 fd bc 50 34 64 3d 2c 24 9d 3c
       0.01286975 -0.030894164 0.05571395 0.019182287
000050 ed be 1e 3d 37 c2 49 bd f1 05 0d bd 88 93 3c bc
       0.0387563 -0.049257483 -0.034429494 -0.011509784
000060 61 64 a1 bd 1f c2 ba bc b5 22 4f bb 2f e6 b8 bb
       -0.07880474 -0.022797642 -0.003160638 -0.0056426744
000070 0b 0e 11 3d 46 6a 02 bd 2b 3f ed bc f4 a1 89 3d
       0.035413783 -0.03183963 -0.028960785 0.06720343
000080 ab f8 29 3d 39 5d da bb 5d 99 05 3d fe c2 b9 3c
       0.041496914 -0.006663945 0.03261696 0.022675987
000090 13 7c bc 3c 1d 81 ed 3c e4 27 21 3d f7 d3 1b bd
       0.023008382 0.02899223 0.039344683 -0.038043942
0000a0 92 a9 a9 3c e2 8d 8b 3c 58 2d 26 bc d7 ea 5f bd
       0.02071074 0.017035428 -0.010142647 -0.05466732
0000b0 2b 18 8f ba 0a 3d 86 bd cb a3 a8 bc 2c 3b 8f 3c
       -0.0010917237 -0.06554611 -0.020585915 0.01748427
0000c0 3e 9f 6e bd ed a3 cd bc 46 32 14 bb 3c d4 26 bd
       -0.058257334 -0.02510258 -0.0022612973 -0.040729746
0000d0 b5 46 ce 3d 1c f2 0d bc fd 43 6c bd c0 d7 ec bb
       0.1007208 -0.00866368 -0.057682026 -0.007227868
0000e0 00 71 38 bd 4b ba 86 bc 6d f3 e1 bc 58 88 83 bb
       -0.04502964 -0.016446253 -0.027581895 -0.004014056
0000f0 27 a8 45 bd 9a dc db bb 8f 13 90 3c 3c 11 2b 3b
       -0.048256066 -0.0067096474 0.017587451 0.0026102802
000100 e4 30 03 bc 5c 44 4b bd 19 eb 42 3d ee 61 1a bd
       -0.008007262 -0.04962574 0.047587488 -0.03769105
000110 da a0 a5 bc 27 bf 2d bc 01 08 38 bd e2 31 53 bd
       -0.020218302 -0.010604656 -0.044929508 -0.051561244
000120 c4 93 60 bc be e5 69 bb 8e 9e be 3c e5 b8 b7 bc
       -0.013707105 -0.0035689916 0.023268964 -0.022427032
000130 32 21 2d 3d 15 1c b7 bc 5c 64 fe bc 35 81 2e bd
       0.042267986 -0.022352258 -0.031053714 -0.04260369
000140 88 91 0a 3c 39 cd af 3c 2e 0e d3 bc 0f 07 0e bc
       0.008457549 0.021460162 -0.025763597 -0.008668675
000150 b3 cb 72 b9 1c f2 42 bc fb a2 dd bc a8 ac ed bc
       -0.00023154802 -0.011898544 -0.027055254 -0.029012993
000160 bf 29 24 bd f1 96 7d 3d a1 2f 29 bd 5c 5f 92 bc
       -0.040078875 0.061911527 -0.041305188 -0.017867737
000170 3e bf 71 bd a9 19 ba bb 9f 60 da bc 29 e0 b5 bd
       -0.059020273 -0.0056793285 -0.0266574 -0.08880646
000180 46 21 9f 3d 6b ee a5 3d c5 09 ea 3c 19 71 ca 3c
       0.07770018 0.08102115 0.028569112 0.024712132
000190 d4 7f 94 bc 0e aa d2 bc 83 15 09 bd 6f 22 96 3a
       -0.01812736 -0.025715854 -0.03346778 0.0011454354
0001a0 4a 4b be 3d 8e 5a 8b bc 37 03 40 bc 69 cc 4f bd
       0.09291704 -0.017010953 -0.0117195165 -0.05073205
0001b0 b1 4a e7 3c 9c 17 9b 3c 53 65 19 3d 32 94 70 3c
       0.028233858 0.018932156 0.037450146 0.01468377
0001c0 09 88 1c bd 81 78 85 3c 55 0b 94 b8 aa b1 22 3d
       -0.03821567 0.016292812 -7.059301e-05 0.039720215
0001d0 b7 39 85 bc dd 60 da 3d 25 97 80 bc 64 30 2d bd
       -0.016262872 0.106630065 -0.015697071 -0.042282477
0001e0 96 b3 96 bb ce 30 b3 3c 6e 21 c1 bc cb ca 35 3d
       -0.004599045 0.021873858 -0.02357551 0.04438285
0001f0 ec 53 36 bd 9c b6 08 bc 80 e9 df bb 3f 43 92 3d
       -0.044513628 -0.008344319 -0.0068332553 0.071417324
000200 a8 f5 13 bc 49 83 e5 bc af 74 65 bc 5f ec cc 3c
       -0.009030737 -0.028016703 -0.01400487 0.025015054
000210 46 05 81 3d 2a 47 46 3d fa 37 c0 bc c1 db 66 bc
       0.06299834 0.04840771 -0.023464192 -0.014090479
000220 d5 6e 65 bb 6e d4 12 3d
       -0.0035008688 0.03584712

fc2.weight f4 [69, 138]
000000 ff 3a 41 3d 1c b7 69 bd ed fe e1 bc 1f a6 55 bd
       0.047175404 -0.057059392 -0.027587378 -0.05216038
000010 3a 7f 23 bc 27 24 8d 3d f4 fc 95 bd 70 72 ac 3c
       -0.009979064 0.06891661 -0.073236376 0.021050662
000020 b8 36 27 3c fb f4 d2 bb 1b 43 a7 bc 0c 40 57 bd
       0.010205917 -0.0064378954 -0.02041774 -0.052551314
000030 28 6f aa 3c e2 5e 98 bd cd 53 b1 bd df 48 55 3d
       0.020804957 -0.074399725 -0.08658562 0.05207145
000040 88 27 d1 bd 94 e9 e2 bc d9 73 4f 3c f2 9f c1 bb
       -0.10212618 -0.02769927 0.012661898 -0.0059089595
000050 9f 34 85 3c a1 53 36 bd bc 31 86 3c 58 61 36 3d
       0.016260443 -0.04451335 0.016381137 0.044526428
000060 b1 12 d4 bc 0f 9d 23 bc e7 8b e4 bb 0e 52 e5 bc
       -0.025887819 -0.009986176 -0.0069746855 -0.027993228
000070 07 60 b8 3b 16 04 c4 bc 9a d9 1a bd 0e c4 7e 3b
       0.0056266817 -0.02392773 -0.037805177 0.0038874182
000080 a7 a5 56 bd e6 29 90 bd 7f bd ab bd cb 63 a9 3d
       -0.052404072 -0.070392415 -0.08385753 0.08270987
000090 9b b1 10 3d 13 33 b1 bc a7 a1 b0 3d bf 89 53 3d
       0.035325628 -0.0216308 0.08624583 0.051645037
0000a0 c8 69 54 3d 0f 72 88 bd e1 1c 72 3b c2 f6 ed 3b
       0.051858693 -0.0666238 0.0036943483 0.007262082
0000b0 07 b2 95 3c ca 96 fe ba 9f 59 19 3d 74 ea d5 bb
       0.018273367 -0.0019423601 0.037438985 -0.006528193
0000c0 30 dc ab ba 99 f1 c0 3d ea 73 97 3c 86 28 8f 3d
       -0.0013111886 0.09421081 0.01848789 0.06990151
0000d0 72 ae 1e 3c 00 12 15 3a 49 4e 67 bd a6 27 ef bc
       0.009685146 0.0005686581 -0.056471143 -0.02919371
0000e0 9c 57 62 bd 4d 2a b7 bd b6 fe 12 bd 7c d7 3b bd
       -0.055259332 -0.08943615 -0.035887443 -0.0458598
0000f0 60 9d 21 bc ea 69 5b bd 44 0c 33 bc b5 81 5d bd
       -0.009864181 -0.053567804 -0.010928217 -0.054078776
000100 29 c2 15 bd bc a8 c9 3c 35 8b 94 3c 24 1b 9e bb
       -0.03656212 0.024616592 0.018132785 -0.0048250128
000110 18 1a 31 bd 10 7e 91 3d 83 ea 7d bc 50 ab 3e bd
       -0.043237776 0.07104123 -0.0154978065 -0.046550095
000120 00 f0 e3 38 d7 82 89 bd c6 5c 56 3d 55 12 19 3b
       0.00010868907 -0.06714409 0.05233457 0.0023356874
000130 58 78 3c bd dd 1d 47 bd 0c 04 18 3d 75 b8 3e bd
       -0.046013206 -0.048612464 0.037113234 -0.04656263
000140 4e 3f 8d 3c 09 f9 9d bb 3a f4 a9 3d de d3 3c bd
       0.0172421 -0.004820947 0.08298536 -0.04610049
000150 05 2c e1 bb 70 a4 5b 3c 9b 1b b0 bc 1d 46 13 ba
       -0.0068717026 0.013405904 -0.021497538 -0.00056180527
000160 20 d6 a4 3d cc 43 2c bd e5 3a 07 3d 18 b4 24 bd
       0.080486536 -0.042056844 0.03301515 -0.040210813
000170 6c 42 ef 3b a0 96 aa 3d 60 41 24 3d e7 6e 08 3a
       0.0073016193 0.08329511 0.04010141 0.0005204514
000180 0a e6 44 bd 53 9f 12 bd 1e 92 4a bd 13 91 8b 3d
       -0.048070945 -0.035796475 -0.049455754 0.0681478
000190 8f 79 83 bd b1 83 45 3d 58 cc 40 3d 5f 88 88 3c
       -0.0641967 0.048221294 0.047069877 0.01666659
0001a0 6f fd 90 3d 98 f4 ce 3c a7 3c 3a 3d 29 06 63 3d
       0.070795886 0.025263116 0.045468 0.055425797
0001b0 16 65 8e bc ea 3c 59 3c 42 dd 91 bd c3 f4 75 bd
       -0.017382186 0.013259152 -0.0712228 -0.060047876
0001c0 00 b8 0b 3c be fd 54 3d 7b d6 db 3c de e2 ad 3c
       0.008527756 0.0519998 0.02683567 0.021226343
0001d0 28 23 24 bd 49 09 29 bd 4e d5 05 3d de 7a 24 bd
       -0.04007259 -0.04126862 0.032674126 -0.040156238
0001e0 ea 94 0e ba c8 44 3e 3c 00 f8 5d 3d 4b 16 81 3c
       -0.000543906 0.011613078 0.05419159 0.0157577
0001f0 b1 df 90 bd b0 77 59 bd 58 f1 3d 3d 16 be c5 bd
       -0.07073916 -0.05309266 0.04637274 -0.09655397
000200 30 fa 63 3d 1b 7e 9f bb a2 ea 02 bc c7 ef 46 bd
       0.05565852 -0.004867328 -0.007990511 -0.048568513
000210 11 74 e0 bb 9e 2d 0f 3d 98 bf 7b 3d da 74 c7 bc
       -0.0068497737 0.034955613 0.061462015 -0.024347711
000220 b7 53 66 3c 87 2d b4 3c e0 8c 02 bd fe a6 b7 bd
       0.014058045 0.021994365 -0.03187263 -0.08967398
000230 84 5e 8c bc 80 14 80 3d 76 fe 42 bb ae c6 42 3d
       -0.017134912 0.0625391 -0.0029753721 0.047552757
000240 82 39 5c bd 38 1d 82 bc 00 7a 24 bc 6e 62 b6 bd
       -0.05376578 -0.015883073 -0.010038853 -0.08905493
000250 4b e9 6e 3d 0d 15 35 3d 7f 9c b0 39 e8 31 4a 3d
       0.058327954 0.04420953 0.00033685935 0.049364
000260 36 fa 79 bd cf eb 71 3d 16 13 02 3a 44 c3 97 bd
       -0.061029635 0.059062775 0.00049619505 -0.07410291
000270 7f d8 8c bd 81 75 94 3d 93 e6 3c 3c ce ea f3 3c
       -0.06877231 0.072489746 0.011529583 0.02977505
000280 8d 8d 89 bd 68 a7 fc 3c 06 97 67 bd cb ea b7 bd
       -0.06716452 0.030841544 -0.05654051 -0.0898033
000290 27 2b 01 3d ce 37 a1 3c 2e f0 2e bd 0e 53 ed bc
       0.031535294 0.01967993 -0.042709522 -0.028970268
0002a0 d8 af 63 3c 33 9c 47 bd dc 90 3e 3d 53 01 21 bd
       0.013896905 -0.048732948 0.046524867 -0.039307903
0002b0 e8 ac a3 bc a4 8c 69 bc 43 de 97 bd 3b 5a f5 3c
       -0.019979909 -0.014254723 -0.0741544 0.029950252
0002c0 55 d9 46 3d 18 63 95 bd cc 0e 94 bd 10 6e bb bc
       0.048547108 -0.07294291 -0.07229385 -0.02287963
0002d0 fb 0a 67 3d b1 f3 a8 bb 0d ea 3f bc 78 de d5 bc
       0.056406956 -0.0051560034 -0.011713517 -0.026107058
0002e0 79 9f 5b bd 6a ad 18 bd 08 c3 50 bd e3 46 8b bd
       -0.05361888 -0.037274756 -0.050967246 -0.0680063
0002f0 1f 5b 06 3d e0 33 9e 3d 60 0e 43 bc 4a 1b a1 bd
       0.032801744 0.07724738 -0.011905283 -0.07866533
000300 94 58 b3 bd 7c 19 8f bd e4 18 97 3c 53 71 54 3c
       -0.08757129 -0.06987283 0.018444486 0.012966472
000310 5c 5a 32 3d 42 2c e5 bb 65 49 96 3d 28 b9 8c 3d
       0.043543205 -0.0069938013 0.07338218 0.06871253
000320 5a 44 b6 bd fc 3d 16 bd 2b fb 72 bd 09 1f 3e 3d
       -0.08899756 -0.036680207 -0.059321564 0.046416316
000330 c5 53 43 3b 5a c0 ed bc bd a0 7e bd 87 66 51 3d
       0.002980457 -0.029022384 -0.06216501 0.05112317
000340 e4 9c a2 bc 76 2c a9 3d 2a 0f 76 bd 37 6d 77 3c
       -0.019850202 0.082604334 -0.060073055 0.015101722
000350 d4 af 85 bd cd d1 9d bd 67 10 3f 3d f4 45 b7 bd
       -0.06527677 -0.07706032 0.046646502 -0.089488894
000360 30 2e 36 3d 80 ee 1c bb 3c f5 cd bc e9 5f b5 bd
       0.04447764 -0.0023945868 -0.02514135 -0.08856184
000370 cc 82 9e bc 32 a5 e7 3b aa c0 1f 3d d4 5b a8 bd
       -0.019349478 0.0070692534 0.0390021 -0.0822064
000380 72 b3 f0 3c 24 41 8b 3d 23 9a 34 bd 24 2a 3f bd
       0.029382441 0.06799534 -0.04409231 -0.046671048
000390 00 d4 fa 39 c3 35 80 3d e9 7e 3d b9 3f a2 76 3d
       0.00047841668 0.06260254 -0.00018071722 0.060213324
0003a0 c4 ed 18 3d 22 f9 2d 3d 86 c5 a6 bc d1 79 7d bd
       0.037336126 0.04247392 -0.020357858 -0.06188375
0003b0 a3 8c be 3c 5c 51 c6 3c 11 f5 4f bd d2 ed 94 3d
       0.02326042 0.024208717 -0.050770823 0.07271923
0003c0 4c c6 31 bd e7 8a 96 3d 8b 56 a2 bd 48 f6 f3 3c
       -0.043402 0.07350712 -0.07926663 0.029780522
0003d0 ae 81 a4 3c 30 5b dd 3b 31 34 d1 3c 23 fd 31 3d
       0.020081367 0.006755255 0.025537582 0.0434543
0003e0 ec fc aa bd b0 71 b4 b9 f3 4c a0 bd 51 49 37 bd
       -0.08349022 -0.0003441698 -0.07827177 -0.044747654
0003f0 31 5a 51 3b 31 a7 2a bc 69 38 3f 3d 80 d9 39 3c
       0.0031944627 -0.010415838 0.046684656 0.01134336

fc2.bias f4 [69]
000000 5b 0b c4 3d 39 a8 1f bd 66 ec 03 3e 93 04 17 3d
       0.095724784 -0.03897879 0.12883148 0.036869597
000010 67 20 5e 3d 30 57 0a bd f5 dc 30 3c 85 29 70 bd
       0.05423012 -0.033774555 0.010794868 -0.058633346
000020 5f 63 f6 3b 0c 01 a1 3d 12 62 8a 3d 88 84 6e 3d
       0.00751917 0.07861528 0.06756987 0.05823186
000030 45 35 9b 3d c0 0d 80 3d 50 fd cf 3c f5 78 d3 bb
       0.0757852 0.062526226 0.025389344 -0.006453628
000040 fd 01 69 3d f1 25 0b 3d 49 1f 06 3e 7c 14 de 3d
       0.05688666 0.03397173 0.13097872 0.10843751
000050 39 ab 1f 3c 46 7b fd 3d 0c 22 4d bd 14 3f cf bd
       0.0097454125 0.12377028 -0.050081298 -0.10119453
000060 f9 4b 2b 3e 9e 15 80 bd 85 b6 6c 3d d6 7a ac bb
       0.167282 -0.06254123 0.05779125 -0.0052636666
000070 70 59 6f 3c 97 99 0f bd 46 b6 a6 bd e5 a7 c6 3c
       0.014608726 -0.035058584 -0.08140235 0.02424998
000080 0f 1f 39 3b 09 14 12 bc bd b6 69 bd 99 38 e3 3d
       0.0028247272 -0.00891591 -0.05705904 0.110947795
000090 9e d5 07 3d 21 38 f0 38 1b 06 cf bd 8f 48 ae 3c
       0.033162706 0.000114545466 -0.101085864 0.021274833
0000a0 f4 80 10 bd 7d 11 ad 3c 1e 74 1c 3c 79 e2 5f 3c
       -0.03527923 0.021126503 0.009549169 0.013664835
0000b0 59 03 a3 3d 45 5f ea 3a 11 0d d6 3d 3d c4 a3 bd
       0.07959623 0.0017881176 0.10451711 -0.07996414
0000c0 ed 27 25 3e b8 c2 b4 3a d2 1a c2 bd d4 7d 89 bd
       0.16128512 0.0013790941 -0.09477772 -0.06713453
0000d0 2b 1d ed 3c 5c c1 05 bd 36 07 d9 3d 5a ed c3 bb
       0.028944572 -0.032655105 0.105970785 -0.0059792222
0000e0 66 0c 47 bd fb ef dc bc 9b a1 ce bd b3 ba 8a 3d
       -0.04859581 -0.0269699 -0.100894175 0.06773891
0000f0 4b dd 87 3c 0a 13 e0 3d 2d c1 f9 3d 8e 9b 9e bd
       0.016585013 0.109411314 0.121950485 -0.077445135
000100 9a c1 15 3c 49 6a 46 bb c3 2e 09 3e e2 af ed bc
       0.0091403965 -0.0030275753 0.13396744 -0.029014532
000110 de 70 02 bd
       -0.03184592

fc3.weight f4 [200, 69]
000000 58 b4 09 bd cf cb 6a bd 85 52 99 3d 10 06 13 3d
       -0.033619255 -0.057323273 0.074864425 0.035894454
000010 aa a4 26 3c f8 dc f1 bc 0e 4b 90 bd 7d 61 c8 bc
       0.010171095 -0.029524311 -0.070455655 -0.024460549
000020 39 2e c0 3c 36 3c 35 3d 87 d0 c5 3c 86 42 2c bc
       0.02345954 0.044246875 0.024147285 -0.010513907
000030 5e 9c 8c 3c dd 79 6d 3d e9 00 7a bd d9 6e 5d 3d
       0.017164405 0.057977546 -0.061036024 0.05406079
000040 c2 24 c4 bc 1a 16 ef 3d 95 e3 95 bd 44 f4 1b bd
       -0.023943309 0.116741374 -0.073187985 -0.038074747
000050 51 96 ab 3d 19 3f 30 3c 4d e6 5d bd db 66 d8 3d
       0.0837828 0.010757231 -0.05417471 0.10566493
000060 7c 7f ad 3d f2 e5 29 bd 9f 22 c6 bd 70 2f 99 3c
       0.08471581 -0.04147906 -0.09674572 0.018699378
000070 f3 d1 ca bd 2c 85 5f 3d ab b3 d3 3c 3a 19 a6 3d
       -0.09903326 0.054570362 0.025842508 0.0811028
000080 43 8b b7 bd 8c d6 86 bd 3c d3 81 3d 0d 2f 35 3d
       -0.08962109 -0.0658389 0.06339118 0.044234324
000090 81 d6 d6 bd 48 46 97 bd 0a d3 01 bd fd e4 aa 3d
       -0.10490132 -0.07386452 -0.031695403 0.08344457
0000a0 82 18 5c 3d bb 3f 79 3d 65 49 99 bd 0b 08 44 bd
       0.05373431 0.060851794 -0.07484702 -0.047859233
0000b0 47 5b 50 bd c2 8d f2 3c 08 f4 28 3d 05 22 ef 3d
       -0.0508683 0.029608611 0.04124835 0.116764106
0000c0 c2 14 87 3d 1b e2 ae bd 31 73 35 bd 46 8c 33 bd
       0.06595756 -0.0853922 -0.04429931 -0.043834947
0000d0 54 9a bb 3d 18 ef 00 3e 8a 5c 4f bd 69 98 59 3d
       0.09160295 0.12591207 -0.05062536 0.053123865
0000e0 5f 29 e6 3c df 8f dc 3c d7 48 15 3d f0 b9 d7 bd
       0.0280959 0.026924072 0.03644642 -0.10533512
0000f0 d1 60 24 bd 43 ff 86 bc d9 5c 2c 3b 4f 6b b6 bd
       -0.040131394 -0.01647914 0.0026300459 -0.08907186
000100 7b 92 d5 bd bc f3 e6 bb 12 af 0c 3e ac eb ec bd
       -0.104283296 -0.0070480984 0.13738659 -0.11568388
000110 1c 81 78 bd 0c 9f 96 3d 6c 9d 0f 3d 6d 87 f0 bd
       -0.060670003 0.073545545 0.03506224 -0.117445804
000120 8b 76 29 bd 80 14 06 bd aa 5b bc 3d 67 57 84 3d
       -0.041372817 -0.032734394 0.09197171 0.06461983
000130 35 e1 ef 3d d9 09 fa bd b4 c1 00 3e d0 85 7e bd
       0.11712877 -0.122089095 0.12573892 -0.062139332
000140 3d 4e ec 3c 00 0d 2f 3c 2d 38 83 3a 48 e6 06 bb
       0.0288459 0.010684252 0.0010011249 -0.0020584036
000150 0c b0 25 3d d5 87 b3 3c 9f a7 01 3e f7 63 1c 3c
       0.040451095 0.021915356 0.12661599 0.009545318
000160 84 6d 86 3d de 97 03 bd 9a e7 eb 3d 0a 13 05 3b
       0.06563857 -0.032127254 0.11518784 0.0020305538
000170 1a 2e dc bd 7e 7c e9 3c 3d d9 6e 3b 5f c3 6f 3d
       -0.10750981 0.028501745 0.0036445402 0.05853593
000180 0f 25 35 bd 27 db 8e bd e5 b4 f4 bd 2b 5b cd bd
       -0.044224795 -0.06975394 -0.119485654 -0.100271545
000190 bc 5b 22 3d 02 1a 80 3d e2 fa 53 bd b5 fd 7c 3d
       0.039638266 0.062549606 -0.051752932 0.06176539
0001a0 a3 ac a0 3c a4 d4 df 3d 3f 95 76 3d 65 c4 36 bb
       0.01961357 0.1092923 0.060200926 -0.0027888056
0001b0 ea 11 83 bc 33 29 e2 bd 4d 67 ab bc b4 1d b5 bd
       -0.015999753 -0.110430144 -0.020923281 -0.08843556
0001c0 1d 5d 8e bd 4b 91 58 bb 79 09 b7 3c 49 4e f4 3d
       -0.06951354 -0.0033045586 0.022343384 0.11928994
0001d0 7a 22 1c bd 0f 64 e2 3c 2e 77 35 bd b4 53 b8 3c
       -0.038118817 0.027635602 -0.04430311 0.02250085
0001e0 9c e1 31 3b 1d 15 ca 3d e5 7d 3b bd 94 8c 7b bc
       0.002714253 0.09867308 -0.04577436 -0.015353341
0001f0 11 06 1a bd 72 33 8d bd 90 5a 33 3d 41 d5 a0 3c
       -0.03760344 -0.06894578 0.04378754 0.019632937
000200 59 31 96 3d 29 a8 3b bc ef b2 c2 3d a4 28 bb 3c
       0.07333631 -0.011453667 0.09506785 0.022846527
000210 84 49 35 3c 14 ba 3d 3c 90 3a 81 bd f5 65 98 3d
       0.011064891 0.011580009 -0.06309998 0.07441322
000220 a8 cf f9 3c 8b 1d 70 bd 3f 2e 68 bd 41 46 0b 3d
       0.030494526 -0.058621924 -0.05668473 0.034002546
000230 44 b3 81 bd 14 3e 05 bd a5 0f 51 3d 3e 7b a3 bd
       -0.0633302 -0.032529905 0.05104031 -0.07982491
000240 74 95 36 3d 98 54 5f bd cf 2d c3 3d 2c f4 1d 3d
       0.044576123 -0.054524034 0.09530222 0.03856294
000250 01 f0 03 3e 41 de 88 bc 1f f7 58 3d 94 db 81 3d
       0.12884523 -0.016707541 0.052970048 0.06340709
000260 54 4d e3 bb 4d ca b4 bc 47 16 8f 3c 98 59 0a 3d
       -0.0069367085 -0.02206912 0.017466677 0.03377685
000270 de 02 9d 3b 12 e6 44 bb a6 2b 5c 3c 14 b5 87 3d
       0.0047916016 -0.003004436 0.013438141 0.06626335
000280 7f 53 89 3c 28 cb b1 bd ef c4 df 3c a6 a1 e4 3b
       0.016763447 -0.08681327 0.027315585 0.006977278
000290 18 ce a9 bd 5c ed 3c bd 74 91 c3 3b 4c 68 a3 bd
       -0.082912624 -0.0461248 0.005968267 -0.079788774
0002a0 46 2d 4d bd 9d d3 9a 3d 07 68 f4 3c 18 5f 05 3e
       -0.050092004 0.07559893 0.02983476 0.13024557
0002b0 91 84 d4 bc d9 8a 37 ba a0 37 7d bc 22 b8 e8 3d
       -0.025942119 -0.0007001586 -0.015455157 0.113632455
0002c0 dd a6 8e bd a9 1a 7d 3d 66 1a 17 bd b3 0e 52 bc
       -0.069654204 0.061793003 -0.03689041 -0.012820887
0002d0 c6 8f fc bc 60 48 20 bd 32 01 45 3c 2e 9c 97 bc
       -0.030830275 -0.039131522 0.012024211 -0.01850709
0002e0 c3 a4 de bd f3 45 99 3d 80 27 0d 3e 93 6b 01 3e
       -0.108712696 0.07484045 0.137846 0.12638693
0002f0 71 46 5d 3c 2d f0 4b 3d 1b ab db bd 07 95 a1 3d
       0.013505564 0.049789596 -0.10725995 0.07889753
000300 a9 e6 8d bb 74 59 0c 3e 06 fd 6c bd 11 41 c5 3d
       -0.0043304753 0.13705999 -0.05785849 0.09631551
000310 e1 73 6f 3d e6 d6 3e 3d 80 31 08 3d a9 5f e6 bc
       0.05846012 0.046591662 0.033250332 -0.028121786
000320 ed f4 5f 3d 53 1e 8e 3d 36 b9 87 bd 6e 5f 98 bd
       0.05467694 0.06939378 -0.06627123 -0.07440077
000330 9d d6 b1 3d 90 ec 04 bc 74 aa 0f bd 96 01 4a bd
       0.08683512 -0.0081130415 -0.035074666 -0.04931792
000340 1b d4 5e bd c6 45 d0 bd e8 8c 05 bd d2 42 c3 3d
       -0.0544015 -0.10169558 -0.03260508 0.09534229
000350 09 c1 c5 bd e4 ba 95 3d d4 e7 d3 bd 76 65 e7 bc
       -0.09655959 0.07311037 -0.10346952 -0.028246623
000360 14 4a 41 3d 88 ee 01 3c fd 6e 7e 3a d5 97 ab 3d
       0.047189787 0.007930405 0.00097058696 0.08378569
000370 24 0d c8 3d 9c 74 81 bd 67 b0 94 bc 72 2f cb 3d
       0.097681314 -0.063210696 -0.018150521 0.09921159
000380 b1 d9 73 3d e8 6a 3b 3c 34 ac 29 3d 05 60 21 3d
       0.05953378 0.011439063 0.04142399 0.039398212
000390 94 97 92 3d 1e d9 76 bd 06 b5 9d bc b7 bf fe 3c
       0.071578175 -0.060265653 -0.019251358 0.031097276
0003a0 6d 2c 0e bd 8d 81 a7 3d 1e aa be bc 4a b5 a7 bd
       -0.034710336 0.08179007 -0.023274478 -0.08188875
0003b0 4e e2 d4 3d 0c 9b ec bc e9 ce a8 3d c9 40 23 bd
       0.10394727 -0.028882526 0.0824259 -0.039856706
0003c0 34 82 d3 3d 90 f9 f7 3d 94 b9 53 3b 52 07 82 3d
       0.10327569 0.12108147 0.0032306658 0.063490525
0003d0 16 2f dd 3d d9 a2 d7 bc ee 2c 13 bc b6 28 7d 3c
       0.107999966 -0.026322769 -0.00898288 0.015451601
0003e0 0f 03 0d bd b0 76 5c bb 2d 36 31 3c ec 22 48 3d
       -0.034426745 -0.003364008 0.010816139 0.04886143
0003f0 db 29 12 bd 14 fc c7 bd c3 a5 ba 38 99 a4 f9 3d
       -0.035684448 -0.09764877 8.900047e-05 0.12189598

fc3.bias f4 [200]
000000 c5 08 06 3e 57 47 d3 3d df ae 9f bb 3b 71 65 3d
       0.13089283 0.10316341 -0.004873141 0.056016188
000010 8f 40 a9 3d fd 8e dd 3d 90 bf d5 3d 99 30 9d 3d
       0.08264267 0.108182885 0.10436928 0.07675285
000020 60 11 04 3d 3a b5 90 3d e6 11 17 3e 11 78 b8 3d
       0.032243133 0.07065816 0.14752921 0.09007276
000030 16 24 9a 3d 01 15 2d bb ff 4a 30 bd f2 7b 18 3d
       0.07526414 -0.0026410224 -0.04304027 0.03722758
000040 a3 7b 99 3d 9b 16 06 3e cf 50 40 3e 78 c1 23 3c
       0.07494285 0.13094561 0.18780826 0.009994857
000050 ec da f7 bb 31 6a e3 3d 46 be 25 3d 74 ca 45 3e
       -0.0075639393 0.11104239 0.040464662 0.19315511
000060 d5 8f 52 3e 5d 3f 34 bc bc 64 22 3e 9d 7d ee 3c
       0.2056268 -0.011001435 0.1585874 0.029112631
000070 fd f1 a4 3d e7 a9 2d 3e 87 cf 77 bc 6f 9b d7 3d
       0.08053968 0.16959344 -0.015125162 0.105276935
000080 9a d4 48 3d 66 88 d8 3d c6 22 2d 3e da 1e 5d bc
       0.049030878 0.10572891 0.16907796 -0.013496125
000090 b1 5b ea 3d 8f 82 53 3d 02 db b5 bc d7 3d 14 3e
       0.1144327 0.051638182 -0.022199158 0.14476715
0000a0 cb 96 37 3e 46 70 ec 3d 95 a1 d0 3d 94 df a6 bc
       0.17928617 0.11544852 0.10187069 -0.020370282
0000b0 e4 6d 45 3c 16 5a 0b 3b bd da fa 3d 66 ec 11 3e
       0.012050126 0.0021263412 0.12248752 0.14250335
0000c0 26 fb 40 3e 4a 6c 59 3e 30 a4 24 3e 10 70 43 3d
       0.18845806 0.21232715 0.16078258 0.047714293
0000d0 7b 52 f9 3d 74 6b 49 3e 54 97 b6 bb ee 88 26 3c
       0.12173935 0.19669896 -0.005572239 0.0101644825
0000e0 ea 3f 55 3d 79 d7 c6 3d da a3 a3 3b cc 41 b8 3d
       0.052062906 0.09709067 0.004993898 0.08996925
0000f0 86 7f 21 3e c3 c2 28 3e 9e bd 0b 3e 6f 1c b2 3d
       0.15771303 0.16480546 0.13646552 0.086968295
000100 19 39 4c 3e 9b 8a 4e 3e a2 da 29 3e 7d 4c 74 3e
       0.19943656 0.20170061 0.16587308 0.23857303
000110 3b 5b ed 3d 05 6a 14 3e 34 96 b4 3d b5 14 e6 3d
       0.115896665 0.14493568 0.088177115 0.11234418
000120 42 74 fc 3d 3a cb 22 3d 07 66 08 3d 20 dc 8a 3d
       0.12326862 0.039744593 0.033300426 0.06780267
000130 19 e5 4d 3e 75 39 4a 3e 21 60 df 3d 28 35 8b 3d
       0.20106925 0.1974848 0.10907007 0.06797248
000140 ad 5b 36 bc 22 34 ad 3d 0d dc a0 3d 80 89 e4 bc
       -0.011130256 0.08457209 0.07854471 -0.027897596
000150 0d 31 b8 3b db fc 78 3d c8 d2 c7 bc d3 97 e8 3d
       0.0056210817 0.060788017 -0.0243925 0.11357083
000160 ac 93 c5 bc 8b 25 c4 3d 9e d2 c7 3d ca 06 1f 3e
       -0.024118267 0.09577473 0.09756969 0.15529934
000170 16 18 5e 3d ee 90 53 3e 0d 20 e7 3a bc eb cb 3c
       0.05422219 0.20660755 0.0017633453 0.02489268
000180 7c 41 dd 3d 2b 65 35 3e 6d 2d ba 3d c2 be 47 3e
       0.10803506 0.17714374 0.090906955 0.19506362
000190 e9 81 e6 bb 9c a3 cd bb 77 d7 46 3e 84 84 b6 3d
       -0.0070345295 -0.0062756073 0.19418131 0.08911994
0001a0 f0 0a 2a 3e 2f ca 1b 3e 7a 55 1b bd ef 80 0a 3c
       0.16605735 0.15213846 -0.037923314 0.008453592
0001b0 20 d8 be 3d 10 f5 0c bc 01 c1 c2 3d 4b 61 66 bc
       0.09318566 -0.008603349 0.09509469 -0.014061282
0001c0 1e 13 13 3e 20 3b 3f 3e 2f b0 99 3d 6a 2c ca bb
       0.14362761 0.18674898 0.075043075 -0.0061698454
0001d0 9b 5b 0c 3e ed 39 f8 3d 92 bf 1a 3e f3 1d 96 3d
       0.1370682 0.121204235 0.15112141 0.07329931
0001e0 71 8a 27 3e e6 d2 36 3e d3 d4 6f 3d 22 8c 07 3e
       0.16361405 0.17853889 0.058552574 0.1323705
0001f0 66 9b fb 3c f1 73 49 3d 55 58 e5 3d 4e 15 bb 3d
       0.030713748 0.049182836 0.111984886 0.09134923
000200 25 73 b1 3d 60 ad 78 bc 8c 7d 09 3e b4 38 67 3b
       0.0866454 -0.015178055 0.13426799 0.00352816
000210 e4 19 a2 3d 0f 97 39 bc 52 ec 19 3d 98 49 ac 3d
       0.079150945 -0.011327519 0.03757889 0.084124744
000220 b5 88 2a 3e d7 64 99 3d 06 af 1b 3e 70 6a 48 3e
       0.16653712 0.07489937 0.15203485 0.19571853
000230 c2 40 88 3c 06 37 1f bb 97 34 02 3e e2 6c 28 3e
       0.016632441 -0.002429427 0.12715374 0.16447785
000240 91 a6 b3 3d c2 ae 11 3e f3 ec 2d 3e 77 75 1f 3d
       0.087720044 0.14226821 0.1698492 0.038930383
000250 68 26 b0 3d d4 91 ac 3d 80 5e d6 3b 7b 47 79 3e
       0.086010754 0.08426252 0.006542027 0.24343674
000260 d2 af 26 3d 03 46 4e 3d c2 54 5a 3e d2 c2 00 3e
       0.04069502 0.050359737 0.21321395 0.12574318
000270 8f 62 0e 3e 55 73 26 3e 66 02 63 3d 76 77 b5 3d
       0.13904785 0.16254933 0.05542221 0.08860676
000280 15 27 52 3e 58 99 35 3d e0 f6 1c 3e f3 4d 41 3e
       0.20522721 0.044335693 0.1532855 0.18877392
000290 49 fd f2 3b 20 8c 1d 3e 5e e7 f4 3d 94 93 b9 3c
       0.007415448 0.15385485 0.11958192 0.022653379
0002a0 58 fb 95 3d af 5b 8f 3d f5 e1 2a 3e f0 37 f5 3d
       0.07323331 0.06999909 0.16687758 0.1197356
0002b0 35 d4 f7 3d 29 f7 db 3c af a4 98 3c e4 3c f1 3d
       0.12101022 0.026851254 0.018633215 0.11779192
0002c0 6a ca cb 3d b9 89 23 3e f0 78 3f 3e fa 75 25 3e
       0.09950717 0.15970506 0.18698478 0.16158286
0002d0 cc c0 1e 3e a2 0b 4f 3e 17 25 a0 3d 73 ea a1 3c
       0.15503234 0.20219281 0.07819574 0.019765114
0002e0 09 83 65 3d 9b ed 04 3e 0f 0b 51 bb ca 62 2f 3e
       0.056033168 0.12981264 -0.003189746 0.17127529
0002f0 ac 86 27 3d 92 a8 09 3d c7 00 00 3e 6e f4 9d bc
       0.040899917 0.033608027 0.12500297 -0.019281592
000300 12 5b d5 bb 35 3c 37 3e b9 e7 63 3d ba 8d 0c 3e
       -0.0065111006 0.17894061 0.05564091 0.1372594
000310 71 5d 27 3e a8 21 98 3d 5a ae 71 bc 64 6e 58 bc
       0.16344239 0.074282944 -0.014751041 -0.013209913
