CaseModels/04 200-Bus/_baseModel_vang.pth (torch, 328156 bytes, 7 tensors)

bias f4 [200]
00000000: 5444 f5bc 90a1 21bd a26a 2abc fe41 a7bd
00000010: 5c21 85bc 0e09 bebd 209a aebc 7788 22bd
00000020: e83e 6dbd cd69 59bc e846 ebbc 6b60 4fbd
00000030: fbf2 37bd 15cd 13bd 4cf0 c2bc 502e a53c
00000040: d328 51bd b760 183c 6361 5cbd 1c94 6dbd
00000050: 0243 47bd e5e2 8cba 6800 383c 7cbb 48bd
00000060: 5d88 abbd 4c72 c0bd 624e 73bc 35e9 95bd
00000070: dfad 96bd 9564 9dbc 1a6b 04bd 5f3d aebd
00000080: 5343 9bbd 8737 febc 45cb 56bb 3e09 44bd
00000090: bfb7 59bd 0ebf 1fbd fb81 1dbd 2a76 08bd
000000a0: 052a f9bb 582b ddbc 2d3b 37bd 32d9 cabc
000000b0: 0000 64bd 2a13 71bc 2ef1 26bd 8486 41bd
000000c0: f32a 36bd a447 9fbd 86ae 79bd 0d71 99bd
000000d0: cfd1 0ebd f736 a4bc 0773 40bd e520 7abd
000000e0: 82c5 2ebd dc9a c0bd d63f 4cbd a2ae 6abb
000000f0: 1abb 8ebd c3f6 1f3c 13de ea3b 3813 92bc
00000100: 42d7 c1bd e11f 9abd 83c4 b6bc ac7d 92bc
00000110: 3a2d febc 30ef 11bd 3546 0f3d b1b3 133d
00000120: 8b6f 03bc 1275 ad39 cca9 a3bd 359b 34bd
00000130: 1529 c7bc 5458 b8bd 6c5f 01bd 8f1b 3cbd
00000140: 5679 8cbd af45 a8bd e6dc 973b db29 0ebc
00000150: 004b c8bc 4f02 abbd e187 6a3c d15f 0dbd
00000160: 1498 f5bc 065a e6bb 060d 03bd ef79 27bd
00000170: 7a58 66bd d5e7 13bd 7fcb d1bb 31f3 7dbd
00000180: 71f1 56bd 1d6b e2bb 0669 9dba d67d 89bd
00000190: 05f9 50bd 168b 56bd 731b 32bd 349e b23a
000001a0: 5f69 63bd 0e7e aa3c 2f2a 98bd b276 bfbc
000001b0: f79a 33bd 9b5a a6bd 13b6 46bd 2ab8 46bc
000001c0: c07e a1bc 26de ffba 537d 41bd ba5e 03ba
000001d0: 8c7d 2bbd d209 54bd 0e5f c3bc c896 eb38
000001e0: 14f8 0d3b 97f9 963c 24d2 103c d132 5cbd
000001f0: 68f5 253d 26d7 2cbc 4d4c c23c 7970 61bd
00000200: 63e9 8fbd 69ee 073d c957 02bd d7d4 a8bd
00000210: e252 9fbc d6a5 17bd 1993 023c 3ebc 8b3d
00000220: 7c4d 333b 947c 263c 725a 5bbd 498b ea3a
00000230: 4c51 8e3c 5db9 66bd 0c03 e7bc 6d37 4ebd
00000240: 5a7c 2dbd 0970 30bd edda a3bc 7c8b 95bd
00000250: c6d8 813c 9082 87bc f5a8 bfbc 29c5 913d
00000260: ffea 723d 7f42 853d b5ab ef3c 9785 2fbd
00000270: e786 1bbb cf01 aa3c 30dd 3cbc 7a7e 6fbd
00000280: 50f4 05bd e565 93bd 4bc4 babd 2d62 88bd
00000290: 5c31 1cbd 5961 a5bd 9a1d 72bc e785 66bd
000002a0: 1a37 74bd 143c 293c ebd6 a3bd e80a a1bd
000002b0: 8814 303c 0a44 bbbd 8c73 17bd 152d 39bd
000002c0: ed4c 9dbd 6549 13bd 16f6 1dbd 9043 b2bd
000002d0: 08fa 30bd 581b e0bc d381 a2bc f71d cbbd
000002e0: ac95 86bc 23fc fbbc dadb 4d3c c171 a6bd
000002f0: dcc3 6b3a a988 9abd b471 e03c c375 b9bd
00000300: 61b3 01bd 58c8 4dbd 4798 4dbd 61c5 10bc
00000310: 771e 08bd 5c50 3bbd 2376 bdbb 20c1 bdbc
-0.029939808 -0.03946072 -0.0104014 -0.08166884 -0.016251259 -0.09279071 -0.021313727 -0.039680924
-0.05792132 -0.013269854 -0.028720334 -0.05062906 -0.04490946 -0.036084253 -0.023796223 0.020163685
-0.051064324 0.009300402 -0.053803813 -0.058002576 -0.048647888 -0.0010748772 0.011230566 -0.049006924
-0.083756186 -0.093968004 -0.014850231 -0.07319871 -0.07357382 -0.019213 -0.032328703 -0.08507799
-0.075812005 -0.031032337 -0.0032774967 -0.047860377 -0.05315375 -0.039000563 -0.038454037 -0.033315815
-0.007603886 -0.026998207 -0.04473417 -0.02476177 -0.055664062 -0.014714042 -0.04075735 -0.047247425
-0.044474553 -0.07777336 -0.060957454 -0.07492266 -0.034868058 -0.02004574 -0.0469847 -0.061066527
-0.042668827 -0.09404537 -0.049865566 -0.0035809656 -0.069692805 0.009763422 0.0071675866 -0.01783143
-0.09464885 -0.07525612 -0.022310501 -0.01788219 -0.031027425 -0.035628498 0.034979064 0.03606004
-0.008022199 0.00033084356 -0.079913706 -0.04409333 -0.024311582 -0.09001222 -0.031585142 -0.04592472
-0.068590805 -0.08216416 0.0046344874 -0.008676971 -0.024449825 -0.0835005 0.014314623 -0.034515206
-0.029979743 -0.0070297746 -0.031994842 -0.04088777 -0.05623672 -0.036109764 -0.0064024325 -0.061999504
-0.05247635 -0.0069097416 -0.0012009449 -0.067134544 -0.051018734 -0.052378736 -0.04348321 0.001362747
-0.05552041 0.02081206 -0.07429921 -0.023372028 -0.043848958 -0.0812275 -0.048513483 -0.012128869
-0.01971376 -0.0019521161 -0.04723866 -0.0005011369 -0.041867778 -0.051767178 -0.023849037 0.000112337584
0.0021662759 0.01842956 0.008839164 -0.0537594 0.04051724 -0.010549342 0.023718024 -0.055038903
-0.07026937 0.03318635 -0.031822 -0.08243721 -0.019448701 -0.037023388 0.007969641 0.06823014
0.0027359417 0.010161538 -0.053553052 0.0017894293 0.01737275 -0.05632912 -0.028199695 -0.050345827
-0.04235492 -0.043075595 -0.020001853 -0.07301995 0.015850436 -0.01654175 -0.023395995 0.071176834
0.05930614 0.06506824 0.029256681 -0.04285201 -0.002373153 0.020752816 -0.011527345 -0.058470227
-0.032703698 -0.07197169 -0.09119471 -0.066593505 -0.03813301 -0.08075208 -0.014777565 -0.056280043
-0.05962286 0.010329265 -0.07999977 -0.07863408 0.0107470825 -0.09143837 -0.03697543 -0.04520901
-0.07680688 -0.035958666 -0.038564764 -0.08704293 -0.0432072 -0.027356789 -0.019837296 -0.09917825
-0.016428791 -0.030759877 0.012564624 -0.081271656 0.0008993724 -0.07545597 0.027397968 -0.090556644
-0.03166521 -0.05023989 -0.05019405 -0.008836121 -0.03323218 -0.045730934 -0.0057819053 -0.023163378

fc1.weight f4 [138, 416]
00000000: c3d7 613d 7f7e 3ebd 9fb1 b9bd debc 853d
00000010: 84ad 773d 5090 aebc d4a6 acbc 8009 9abd
00000020: ca66 893d 079c 533d 4713 4c3d dd7b 973d
00000030: 22f7 11bc 8a66 613d d098 acbd dd6d 8e3c
00000040: 245f 9a3d f09e 07bd 6694 95bd 855f 14bd
00000050: bd72 7cbc 0d36 54bd 4c0c 123d 2fa7 22bb
00000060: 7652 b9bc b2ab 19bd 953d e83c 4009 46bc
00000070: f8e1 91bd 87e3 98bc 39a3 81bc c24c a3bc
00000080: 395c 2b3c eb8b 853c 2d2e e5bc f708 ea3d
00000090: f263 003d d096 0abd c218 05bd 68b4 2fbd
000000a0: e5c0 bfbd 3815 443d 4f14 5abd 561f dcbc
000000b0: 9380 76bb 896a 533d 1dd1 453d ab6c 973d
000000c0: 4c12 c5bc 2415 95bd fb66 073d d7da 9ebd
000000d0: aaa0 8abd 78eb a33d 90e7 573d d38e a8bd
000000e0: 0389 9d3d 17b4 52bd 78b9 0d3d e958 823d
000000f0: 8757 2f3d 9fc5 8e3d 5b95 e43c c6e0 3d3d
00000100: 17a3 9a3d 7298 d63d a2c6 443d fab5 9fbc
00000110: 41b9 b3bc 7c6c d3bc 2584 d03c 37f5 293d
00000120: 4db8 fb3c bb98 263c ca4f 463d 056f c13d
00000130: e6c1 783d 8d8f b03d e8a5 67bd 58f4 82bc
00000140: 28a2 90bb 8c49 933d 24d0 fb3c 65a0 033c
00000150: 4600 993c 0f6c 273d 433e e73c 6fb6 5bbd
00000160: c067 babc e5d1 fb3c 6970 05bd 832b 653d
00000170: 242d dfb9 ad02 82bc 6f9b 91bd 7905 61bd
00000180: 47e8 c0bc ca62 8abd f03b a23c a09e 533d
00000190: 7e9a 8dbd d327 f03c e19c 0fbd 7166 823d
000001a0: 891b debc 36ac 8c3d 70ce 5bbd 5ef7 0f3d
000001b0: fb3f ab3d 8450 7ebc 5516 cfbd 596b bb3d
000001c0: 5028 293d da33 3bbd 1221 7ebd 197c 9bbd
000001d0: b5fa 3a3d 7bf2 3b3d 904d 313d 8237 923d
000001e0: 940e 033d 394b 293d 8d1f 65bc 77a2 75bc
000001f0: c48b 433d 2efe 63bc 6d99 e6bc 4453 7ebd
00000200: 3a7d eebc 1c29 b6bb 9a52 a33c f67f 28ba
00000210: 0f31 8bbd 7bbe 223c 642e 823d 78b8 ef3c
00000220: 7927 84bd 68b4 fcbc 388b b7bd 8378 98bd
00000230: ec31 09bd 0da6 39bd c3bf 54bd d617 d83c
00000240: 17d4 883d 9869 19bd 3a68 17bd d118 07bd
00000250: 2f87 24bd 12f5 f03d 79b6 69bd 29da 00bd
00000260: db00 ec3b 4a8b 943c 2e44 c13c 5b7a 483d
00000270: 0923 223d 18ee a6bd 8381 603d 6d2c 3ebd
00000280: dcd4 ffbb 7ab1 b03d 5616 c23c 1ee8 67bd
00000290: b8b1 253d a41a 43bd 2c95 2dbd 85d9 b83d
000002a0: f0e0 b1ba 4df2 c23c 4269 2d3d 35f3 993d
000002b0: 1cf3 163d 2c00 be3d 0585 833d 582c 8dbc
000002c0: 43f9 e03a 1399 a13a 1791 943d 2bbc da3c
000002d0: 472d 7abd edbe ddbb 3752 6f3d 3018 743d
000002e0: 8160 c93d 34c5 323d ad82 a5bd b8d8 993c
000002f0: df42 063c cb7e b83d 224e c43d 399a 94bc
00000300: dd8f 0cbd 4864 d737 410a 14bc 7be5 0bbd
00000310: 81b0 49bd 05c5 2a3d 75fa 96bd 1e88 173d
00000320: 79bb 78bc c2ff 80bd 9040 15bd f7c6 58bd
00000330: 7429 f3bc 96fa 45bd 9b7e a53b 3107 b33c
00000340: cac2 78bd 34fa 0c3d 8b6e e5bb 5b6f f83c
00000350: fc71 ebbc c67e 393d 1053 84bd d6e9 03bc
00000360: eb62 d4bc 01c0 1c3d eb4d 2f3c 09d4 463d
00000370: cab4 27bd 718b 11bc 2e28 f3bc dffc e53c
00000380: 10ae f0bc c946 cfbc 039b fe3c e941 4d3c
00000390: 963a 063b 8667 3b3c 4a38 eabc 4797 ddbb
000003a0: b537 febc be11 a0bc 3d49 0f3d 61a0 413d
000003b0: 611e 0e3d 3685 75bc be5c 54bc 9380 0fbc
000003c0: 04e7 23bd ae13 073d a7d1 83bc 8aaa 803c
000003d0: 5999 06bd 7b33 453c f1ee 453c 3edc c8bc
000003e0: 7cbc eabb f364 23bd 956a 023d 91cb 403b
000003f0: 4301 ddbc 0f57 f9bc aafd b9bb edaf f23b
0.055137407 -0.046507355 -0.09067082 0.06530164 0.06046821 -0.021309048 -0.021075644 -0.07521343
0.067090586 0.05166247 0.04982307 0.07396672 -0.008909019 0.05502943 -0.08427584 0.017386371
0.07537678 -0.03311056 -0.073036954 -0.036223907 -0.015408215 -0.05180936 0.03565626 -0.0024818887
-0.022622328 -0.037517257 0.028349677 -0.012087166 -0.07123178 -0.018663181 -0.015824901 -0.019934062
0.010458999 0.01630207 -0.02797612 0.11427491 0.031345315 -0.033835232 -0.032494314 -0.04289666
-0.093629636 0.0478718 -0.053242024 -0.02687041 -0.0037613257 0.05161527 0.04829513 0.07393774
-0.024056576 -0.07279423 0.033057194 -0.07756584 -0.067689255 0.080038965 0.05271107 -0.082303666
0.076921485 -0.05144128 0.034600705 0.063646145 0.042808082 0.06971287 0.02790325 0.04635694
0.07550638 0.104782954 0.048040994 -0.019495953 -0.021938922 -0.025808565 0.025453636 0.04149362
0.03072753 0.01016825 0.048415937 0.094450034 0.06073179 0.0862113 -0.056554705 -0.015985653
-0.004413862 0.07191762 0.030738898 0.0080338465 0.018676888 0.040874537 0.02822793 -0.05364078
-0.02275455 0.030739734 -0.032577906 0.0559497 -0.00042567507 -0.015870417 -0.07109725 -0.05493686
-0.023548258 -0.06757124 0.019803971 0.05166495 -0.06914233 0.029315865 -0.03506172 0.063671954
-0.02711274 0.06868784 -0.05366367 0.035148017 0.08361813 -0.015522126 -0.10111681 0.09151334
0.04129821 -0.045703746 -0.062043257 -0.07592029 0.04564925 0.045885544 0.04328686 0.071394935
0.031996325 0.041331504 -0.013984573 -0.014992348 0.047740713 -0.013915582 -0.028149331 -0.062091127
-0.029112447 -0.0055591 0.019936848 -0.0006427759 -0.067964666 0.009933109 0.063565046 0.029262766
-0.06452841 -0.030847743 -0.08962101 -0.07444861 -0.033494875 -0.045324374 -0.05194069 0.026378553
0.06681078 -0.037454218 -0.036964633 -0.03298265 -0.040167984 0.117654935 -0.057058785 -0.031458054
0.0072022504 0.018132824 0.02359208 0.048944812 0.039584193 -0.081508815 0.054811012 -0.046429086
-0.0078073572 0.08627601 0.023692291 -0.05661785 0.04045269 -0.04763283 -0.04237859 0.090258636
-0.0013571065 0.023797179 0.04233671 0.07517091 0.03685294 0.092773765 0.06421856 -0.017233059
0.001716413 0.0012328945 0.07254236 0.026701054 -0.061078336 -0.006767145 0.058428016 0.05959338
0.0983286 0.0436451 -0.08081565 0.018780097 0.008194654 0.09008559 0.09585215 -0.018139945
-0.034316886 2.5676694e-05 -0.009035648 -0.034154397 -0.049240593 0.0416918 -0.0737199 0.036995046
-0.015181416 -0.06298782 -0.036438525 -0.052924123 -0.029682852 -0.04833468 0.005050493 0.021854015
-0.06073264 0.0344183 -0.007001703 0.030326536 -0.028740875 0.045286916 -0.064611554 -0.008051356
-0.025926074 0.038269047 0.010699729 0.048542056 -0.0409439 -0.008883343 -0.029682245 0.02807468
-0.029379874 -0.025302308 0.031079775 0.012527921 0.0020481697 0.011438256 -0.028591294 -0.0067624184
-0.031032423 -0.01953971 0.034981955 0.04727209 0.03469694 -0.014985373 -0.012961565 -0.008758682
-0.040015236 0.032977752 -0.016091181 0.01570632 -0.032861087 0.0120362 0.012080894 -0.024519082
-0.0071635824 -0.039891195 0.031839926 0.002941821 -0.02697814 -0.03043702 -0.005675991 0.007406226

fc1.bias f4 [138]
00000000: 1266 10bc 6277 7abc be43 033c 66ed 31bd
00000010: e827 81bd 05d7 48bd 38b1 3ebd 3e7e 51bc
00000020: effe a7bc 9da8 ad3b 5ff4 933b 470a 083d
00000030: df21 ca3b 120d 88ba bea8 0b3c dcf4 753d
00000040: d55a 203d b48e 03bd 5926 26bd 155d a0bc
00000050: 55f4 b8bb d46e 113d 1791 33bc 8b94 2fbd
00000060: 383c 2e3d 2759 803b 8bc1 debd 797a 4ebd
00000070: cad5 59bd 3f9f cabc f751 0fbd 7978 b9bd
00000080: 7163 0cbd e2cb 013d 2964 dd3c ccb7 353d
00000090: 5d8e 12bd 6692 b4bc f161 04bd b6df e3bc
000000a0: bb59 063d 0019 c3bd 0063 273c beae ae3c
000000b0: 1c69 2e3d cb00 23bd e373 d73b c217 843c
000000c0: f9f1 93bc 4706 85bd 9be0 b23c 0c44 27bd
000000d0: 7df4 e73c 4166 093d b164 803c 133c 2b3d
000000e0: 6700 0c3d f864 44bd 154e cdbc fc18 45bc
000000f0: c072 dabb 3673 be3c 52c1 c6bc 227f 6c3c
00000100: 1c10 123d 6a4f 4abc e859 bdbc c44b e2bc
00000110: 9750 24bd 67f1 14bd 55c1 febc df2e 2e3c
00000120: bc14 c23c 4887 c0bc 17db 57bd 017f 003d
00000130: 8a92 e3bc 02a8 2dbd ad43 bebc a3c9 f7bc
00000140: 6870 d03c 5adb 6dbd e9ab 9ebc 8212 b83b
00000150: 52ef 113d 3703 5bbd 0ecc d2bb 072f b9bb
00000160: a397 9fbc 37d7 cb3c 0163 f2bc f716 3c3d
00000170: 73f1 c23c 54b2 b93c 114a afbc 1daa 373c
00000180: 18ef 0dbe 6816 6bbd 9a62 a4bc d8ed 3dbd
00000190: 77c3 5ebc 8f6f c7b9 aaf5 013d accd 1cbc
000001a0: d1d9 093d cfca bdbc 99ba 13bd c910 2cbd
000001b0: 42c8 d73c 2e82 1fba a60a c7bc 61bb d23c
000001c0: 2ddb 2c3d 9f04 7ebc 3c78 263d 5283 3cbd
000001d0: 3a8f e03c c2e4 afba fa22 49ba 9ecf a13c
000001e0: 902b 6abc 1dd6 48bd 2b63 dcbc 2de1 3d3a
000001f0: 90ca cfbd 2e3d a7bd 323f 113c 7777 373d
00000200: 4c15 cbbd 35bd 00bd 4d8e 993c 30e3 c03c
00000210: 8136 c33c 532b 3b3d 45e5 acbd b944 9a3c
00000220: 61e8 4abb e0de 4ebd
-0.008813398 -0.015287252 0.008011756 -0.04343929 -0.0630644 -0.049033184 -0.046555728 -0.012786446
-0.020507304 0.0052996413 0.0045152153 0.033212926 0.0061685885 -0.0010379872 0.008524118 0.06004797
0.039149124 -0.032118514 -0.040563915 -0.019575635 -0.005644361 0.035506085 -0.010959885 -0.04286627
0.042537898 0.003916878 -0.10876759 -0.050409768 -0.0531824 -0.024734138 -0.034990277 -0.090561815
-0.034274522 0.03168858 0.0270253 0.044364735 -0.0357803 -0.022042464 -0.032319967 -0.027816635
0.032800417 -0.09526253 0.0102164745 0.021323558 0.04258071 -0.039795678 0.006575094 0.01612461
-0.018059717 -0.06495338 0.021835616 -0.04083638 0.028314823 0.033544783 0.015673013 0.041805338
0.03418007 -0.047947854 -0.025061646 -0.0120298825 -0.0066665113 0.023248296 -0.024262104 0.014434608
0.035659894 -0.012348035 -0.02311416 -0.027624018 -0.04011592 -0.03636303 -0.031098047 0.010631292
0.023691528 -0.023502007 -0.052699175 0.03137112 -0.027779836 -0.042396553 -0.02322563 -0.030247515
0.025444224 -0.058070518 -0.019369083 0.0056174407 0.035628624 -0.053469863 -0.0064330166 -0.005651358
-0.019481486 0.024882896 -0.029588224 0.04592034 0.023796773 0.022668041 -0.021397622 0.011209992
-0.13860738 -0.057394415 -0.020066548 -0.046369404 -0.013596407 -0.00038039355 0.031728424 -0.00957052
0.03365499 -0.023167996 -0.036066625 -0.042008195 0.026340608 -0.0006084767 -0.02429707 0.025724115
0.04220121 -0.015504031 0.04064201 -0.046023674 0.027412046 -0.0013419616 -0.00076727534 0.01975232
-0.014292613 -0.04903232 -0.026902756 0.00072433316 -0.101460576 -0.08165966 0.008865165 0.044791665
-0.099161714 -0.031430442 0.018744612 0.023545831 0.0238297 0.045695614 -0.08442167 0.018831598
-0.0030961263 -0.05050552

fc2.weight f4 [69, 138]
00000000: c235 d33d 21c0 2a3c 2553 573d 03a1 ebbc
00000010: b78e 27bd 28f3 9fbc 3540 8bbd 0148 1fbd
00000020: 2421 a83d 02ac 6bbd 240c 813b d64b fbbc
00000030: 1299 603d a577 8bbb 1484 9b3d dd2d 423d
00000040: 7706 a53d 704b d83c 447b f73c 9488 b2bd
00000050: df94 fe3c bff3 08be 16e9 073d ab80 c53c
00000060: 2125 86bd d6d2 f93b 440e 2e3d a6e3 a0bb
00000070: de16 753c b9e6 0bbd d963 3dbd 701c 793d
00000080: 95bb 1f3d b270 52bd 1125 e4bc a9e2 d53d
00000090: 2ca6 4ebd 1f07 30bd 8892 8e3d b690 1f3d
000000a0: 70fa 8c3d 3949 6a3d f638 083d a3dc bbbc
000000b0: be95 b5bb 8c96 5f3d 5483 983d 08f7 4b3d
000000c0: 2bd5 c2bd f527 90bd 2ac0 6abd a380 6d3c
000000d0: 7352 b6bd e1f3 8d3d be62 11bd 3074 8f3c
000000e0: 4fca 323d 7c94 8d3d a507 3fbc 0025 e2bd
000000f0: 224c d2bd 47b7 61bd 5cda 633d d7ee 263c
00000100: b3c3 e2bd 8bda 0cbd fbcf 52bd faf4 dc3c
00000110: 3015 5abd 87f0 553d 9cd4 6b3d ae20 b43d
00000120: 66f7 2f3d a8e8 c9bd f2fe ab3c 8fca 0c3d
00000130: 807c 803c 9abe a83d b97f 53bd 60e9 bfbd
00000140: 8ae9 75bb 5b74 cc3d 633b 23bc 51f0 833c
00000150: d9bb a7bb e791 de3d f7b5 453d 2c9c acbd
00000160: c497 43bd 203e 15bd 011a 29bd f74c cf3d
00000170: a8de 5dbd 0aea 93bd 3d3e 44bc 7545 dc3c
00000180: f351 a33d 8557 743d 5b79 933d 3b35 b13d
00000190: 93ed 24bd cbf2 9dbc 74a4 4cbc 89a3 a03d
000001a0: bdea a9bd 470c 3f3b de92 05bd 4979 0ebc
000001b0: b834 793d 57bc 2f3d 82d1 dc3c 6282 5fbd
000001c0: 967d 303d 0762 7abd a28e 10be 0bb9 a73d
000001d0: 8413 a43d a07c 6abd 35c0 bebb 58ae 21bd
000001e0: a54d fe3b 74c1 27bc 3bc9 35bd bff4 113d
000001f0: 3074 513d f461 3c3d d21a f6bc fa19 0dbb
00000200: 1ea7 9b3c 7745 c8bd 4033 43bc f5a3 d7bd
00000210: 8101 0e3d c512 9cbd f460 2b3d 3fa2 a2bd
00000220: e8f5 d9bc fbcd 763d 8885 87bd 1bd1 953c
00000230: a93c ac3d d38f ccbc 82fa 23be 756c c5bd
00000240: 5a53 4cbe 23ca 04be 830a c73d c861 513e
00000250: a602 ce3b 3699 a5bb c1e3 a1bc 3cff a2be
00000260: 8788 b2bd 2e24 8cbc cd9e 0f3e 8582 2ebc
00000270: c1f0 2f3d 980e d8bd cf7a 293d 6c07 063e
00000280: b3d5 bc3d 497b b73e 644c 343d c835 0a3b
00000290: 152e 09be ae19 46bc fe8a 183d 7a21 f1bc
000002a0: 2100 62bc 46dc 34bd df5d 963d dea5 093e
000002b0: b11c 393e 803c 1fbd 395e 913d 6de8 ae3d
000002c0: 836d 35bd 773e c7bc 4e05 07be e793 62be
000002d0: 3cf9 81be 229c 823e 5a24 183d 2708 44be
000002e0: 05ef b1bd e22c fa3d d739 743d a1ca a53d
000002f0: 6cff 00bc 32b3 283d 4b7e de3d a480 493e
00000300: 2e90 803d 57ce ae3d 42ae f23c a4cf a43d
00000310: d250 a6bd d41f 003d 9245 b9bd 0d14 b3be
00000320: 34af c4bd 730c 333d 681a 9abc 8ef4 20bd
00000330: 6168 623c 52ab 05bd 9c33 dbbc d170 10bc
00000340: e32d 57be efbf 63be 2279 d7bd 2907 3d3e
00000350: da09 19bd ab9b 9f3d b4a1 99be 31b1 f2bd
00000360: 2be0 b4bd 76a7 f3bc 9d08 1a3d 7878 56bc
00000370: 6f82 3cbb 5a19 a2bd 76f4 56be 39d6 333d
00000380: 0e5d 123d fd26 91bd 9b0b 493d f674 a73b
00000390: dcc6 1a3d 6d5e b2bd 0f5b afbc ad2e a33d
000003a0: 7e06 023d 33e7 cabc 2529 e0bd d6a5 1ebd
000003b0: aa55 f73d 2f47 173e 195a 0dbe 801a 89be
000003c0: e814 f9bb f17b 94bd 80cd a5bd aa3e 41bc
000003d0: 7b13 24bd 5cf2 c7bd df2c 20bd 9b17 113e
000003e0: 80ca 3dbe 3d01 3a3e 07a5 3f3d 04f8 973e
000003f0: 429f cf3c 4088 56bd 5d33 4cbb 376a c5be
0.10312988 0.010421784 0.052569527 -0.0287633 -0.040907588 -0.019525126 -0.06799356 -0.038887028
0.08209446 -0.057537086 0.003938215 -0.03067581 0.05483348 -0.004256206 0.07593551 0.04740702
0.08057874 0.026403159 0.030210145 -0.087174565 0.031076847 -0.13374232 0.033181272 0.024109205
-0.065500505 0.0076240106 0.042494074 -0.0049099503 0.014959065 -0.03415558 -0.0462378 0.060818136
0.03899725 -0.051377006 -0.027849706 0.104436226 -0.050451443 -0.04297554 0.06961542 0.038956366
0.06883705 0.057198737 0.033257447 -0.022932356 -0.0055415323 0.054586932 0.07446924 0.049796134
-0.09513315 -0.07038871 -0.05731217 0.014496001 -0.08902445 0.06931282 -0.03549456 0.017511457
0.043649968 0.06913087 -0.011659537 -0.110422134 -0.102684274 -0.055106428 0.055628166 0.01018878
-0.11072483 -0.034388106 -0.051467877 0.026972283 -0.053242862 0.052231338 0.057575807 0.08795296
0.042960547 -0.09858829 0.02099559 0.034372862 0.015684366 0.08239479 -0.051635478 -0.093706846
-0.0037523233 0.099831305 -0.009962889 0.016105803 -0.0051188287 0.108676724 0.04826924 -0.08428225
-0.047752157 -0.0364362 -0.041284565 0.10122102 -0.05416742 -0.07222374 -0.011977729 0.026888588
0.07974615 0.059653778 0.07200881 0.08652731 -0.04026563 -0.019280812 -0.012490381 0.07843692
-0.08296726 0.0029151605 -0.032610767 -0.008695909 0.060841292 0.042904224 0.02695537 -0.054567702
0.043088518 -0.061128642 -0.1411691 0.08189591 0.08011535 -0.057247758 -0.0058212527 -0.039472908
0.007760721 -0.010238994 -0.04438136 0.0356338 0.051136196 0.045991853 -0.030042086 -0.0021530376
0.019000586 -0.09778874 -0.011914074 -0.10529319 0.034669403 -0.076207675 0.04184051 -0.07941102
-0.026606515 0.060255032 -0.06617266 0.018288186 0.084100075 -0.024970924 -0.1601353 -0.09639827
-0.19953671 -0.12967734 0.09718802 0.20447457 0.006286937 -0.0050536646 -0.019761922 -0.31835353
-0.08717447 -0.017107096 0.14025421 -0.0106512355 0.04295421 -0.105496585 0.041376885 0.13088769
0.092204474 0.35836247 0.044018164 0.0021089185 -0.13396485 -0.012091083 0.03724193 -0.029434908
-0.013793976 -0.04415538 0.07342123 0.1344218 0.18077351 -0.038876057 0.0709805 0.085404254
-0.04429389 -0.024321778 -0.13185617 -0.22126733 -0.25385463 0.25509745 0.037144043 -0.19143735
-0.086881675 0.12215592 0.059625473 0.08095289 -0.007873397 0.04118652 0.10863932 0.19677979
0.062775 0.0853545 0.029624108 0.08047417 -0.08120884 0.031280354 -0.090464726 -0.34976235
-0.0960373 0.043713044 -0.01881142 -0.039295726 0.013818831 -0.032634087 -0.026758008 -0.00881596
-0.21013598 -0.22241186 -0.10521151 0.18459763 -0.03736291 0.07793363 -0.30006182 -0.11850203
-0.08831819 -0.029742938 0.03760587 -0.013090245 -0.0028764268 -0.07914992 -0.20991692 0.04390547
0.035733275 -0.070875145 0.049083333 0.0051103784 0.037787303 -0.087094165 -0.021405725 0.07967887
0.031744473 -0.024768448 -0.10945348 -0.038732372 0.12076886 0.14773248 -0.13803901 -0.2677803
-0.007601369 -0.072502024 -0.08095837 -0.011794725 -0.04005764 -0.09763023 -0.039105292 0.14169161
-0.18534279 0.18164535 0.04678824 0.29681408 0.025344495 -0.052376032 -0.0031158545 -0.38557598

fc2.bias f4 [69]
00000000: f15f 5b3d 9d99 0abd 357d c53d c138 21bd
00000010: 64e7 383d 2efc e2bd c520 87bd 3ad1 c4bc
00000020: fabf 6bbd bb33 a0bd 8180 4ebd 699d 063d
00000030: 5e34 32bb 1291 a2bd d386 27bc 5076 773d
00000040: 3f07 ecbd 8817 f2bd 9a8e bcbd db58 89bd
00000050: 5327 3d3d b26b fe3c 48fd 423c e0a4 55bc
00000060: 61f6 7c3d 30cf 443d 4040 893c c43f 66bd
00000070: 2fec 193c 913d 5b3d 3926 39bd 3f9e 363d
00000080: 8504 55bd 086c 1cbd 7bc2 593c 2290 333d
00000090: 0c09 51bd 9740 03bc e163 aa3d a88a 14bd
000000a0: 5f97 03bd 1f58 f63b b281 aebc af74 713c
000000b0: c686 89bd 0636 e8bd 8585 a43d 3dc3 0e3d
000000c0: 5de7 5c3d 3842 9bbb de16 733d b405 a2bc
000000d0: 0fb8 74bd a962 a53d 893f 9a3c 30ff b3bd
000000e0: 807d 1c3d 49b4 c33b d644 0c3d f49b 673d
000000f0: 6275 983d 16e3 653c 2259 e4bd 4778 f4bc
00000100: 3aec 5e3d d489 983d 0861 ab3d d7c3 e8bc
00000110: 02d3 3ebd
0.053558294 -0.033837903 0.09643022 -0.039360765 0.045142546 -0.11083256 -0.06598047 -0.024025548
-0.05755613 -0.07822367 -0.05041552 0.03286496 -0.0027191858 -0.07937826 -0.010225016 0.060415566
-0.115248196 -0.118208945 -0.092068866 -0.06706401 0.04618008 0.031057213 0.011901207 -0.013039798
0.061758403 0.048049152 0.01675427 -0.056213155 0.009394689 0.05352551 -0.045202468 0.04458451
-0.052006263 -0.038188964 0.013290997 0.043838628 -0.05103402 -0.008011005 0.08319832 -0.036265045
-0.03212678 0.007517829 -0.021302078 0.014737292 -0.06715159 -0.11338429 0.08033279 0.034854162
0.053931583 -0.0047381185 0.05934798 -0.01977811 -0.059745844 0.080754586 0.018829124 -0.087889075
0.038205624 0.0059724194 0.034245335 0.056545213 0.07444264 0.014031192 -0.11149813 -0.029842509
0.054424502 0.07448164 0.083681166 -0.028413696 -0.04658795

fc3.weight f4 [200, 69]
00000000: 3b11 97bd 607d b1bd 52fb 1f3c f1c9 893d
00000010: dfad 28bd 5b13 213e 65ba 8e3c 0940 8a3d
00000020: 4d4b b53d 8459 1f3d 1c0e 153e 1dcf f2bd
00000030: 0d0a cb3d ce73 59bd 4be5 01bc 2e4c 36bd
00000040: 69ce 6c3d 5324 0d3e ee22 693e 99c3 16be
00000050: 9039 fa3a 60a9 c6bc faf9 85bc d5c9 563d
00000060: 8172 e33b b82b a33b cbb2 293d 34dc ec3d
00000070: f159 2ebd 063f e5bc 180b 38bd d19d 113e
00000080: 4543 3bbd febb 5abd 0c2c eabc eb62 dcbd
00000090: 4cd3 7bbd 58dd 063d 105d 7d3e 9ddd 75bd
000000a0: 516c 81bd 0950 4a3e 33db 1d3e 0d5a f1bc
000000b0: 7fac d53c 7d1a 593d df15 bbbc 1673 66bd
000000c0: 508a d63d 3dda 693d 092a 06bc 1ce3 303d
000000d0: 9d0e df3c 2843 0abb 8923 23bd 805e 903a
000000e0: 0828 2cbd a5d4 39bd 28d1 483d 3b12 263d
000000f0: c639 ba3a daf2 0d3d 1c79 0ebd 865f b2bc
00000100: 9186 b7bd 3379 a6bd 9b8d 33bd 217b 92bc
00000110: 84d2 e03d 5039 babd 275f 09bd df6f f2bc
00000120: 0549 cf3d 2e3e b0bc 5c31 133e 4abf 21bd
00000130: 7ad5 953b fcf8 febd 3228 5e3e faa2 643e
00000140: 8c55 023c 2af4 f53d ac89 cebd 45b8 463b
00000150: 9678 453e c0b6 283e d654 393e b25e ef3d
00000160: d415 02bd 89e7 623e 97e8 0ebd 82cc 30bd
00000170: 1db4 a03c acd7 973c ff33 70bc ef0c 173e
00000180: dc4f cd3d eb5f e0bd ce20 293d 26a2 aabc
00000190: 291f 613e 41d8 a43d bd98 6c3e 7e4d 7dbd
000001a0: d8d1 40bb f78d e4bc 0dbd a03d fde6 383e
000001b0: 2e0d e93d 3d16 8ebd 0a83 803c 77ee 9f3e
000001c0: d752 153e fc4e 073e 3a58 f83c a91a 84bd
000001d0: 7bb7 07bd 8df6 a43c cf78 4a3e 7e72 57bd
000001e0: 6692 c53b eaca 773e 3ad3 f2bc 134e 913b
000001f0: dd5e b0bc 2449 46bd 29b7 c2bd 94a4 25bd
00000200: 9add 8e3d 6d4d 1bbc dffb c5bc ef97 023e
00000210: 2b49 413b 2e12 cd3b a21b 523d 5b60 e93a
00000220: d630 fa3d ff2e 59bd 2e79 93bd 23a9 563e
00000230: d5a8 8fbd fb66 383e c9e7 a3bd 2dd7 ecbb
00000240: 650c 113d 5a3c 54bd e7a3 07be d197 923d
00000250: d996 b9bc 1a77 c4bc 73ec d4bd 02b2 b7bd
00000260: c25a 5a3d b035 933e c89c 753d fee7 8e3d
00000270: 53e7 9a3d afb0 cfbd 6832 453e 68aa 81bc
00000280: 60d8 843d fd0e 433d 68ef 98bd 36c2 d6bc
00000290: 70cf 1e3e c22e e33c 9524 843d 6a8a a5bd
000002a0: da33 eb3a eb9c cf3d 2f8e 47bc 391f 083e
000002b0: 82d8 e4bd 4670 5d3c 0bff ca3d b916 9d3d
000002c0: 44f5 58bd 2a52 393e ad27 ccbd 9943 953d
000002d0: 02d1 183e e812 6b3e b9cb a13d 7607 c03d
000002e0: c5b8 df3c 72cc 823d 7c15 153e 6538 ca3d
000002f0: cc11 ecbd 69b8 673d b912 213e 2236 54bd
00000300: 02f6 103d 93e0 80be 77a1 943d b555 56bd
00000310: ccf1 b4bd 455e 6fbd c22a 1bbc 6ab7 533c
00000320: c692 b7bd ede4 c83d 6b9c cbbd fffc 8d3d
00000330: 1fbb 033d 8115 953e 179f 0c3d 87c2 bfbd
00000340: f18d 2f3e da68 7e3e edd6 263c 5f18 bcbd
00000350: 499c ea3a b148 0b3d 80ff 713e abb2 16be
00000360: 574b ab3c 8be3 6ebe 701a 5ebd 586e 98bd
00000370: b08d 233c def3 143d 4ace 4fbd 0644 d73c
00000380: 8eaa c43d 1707 1ebd d66d 163e 960e db3d
00000390: 0ff6 dbbb e677 b0bd 1692 e13d 12b2 8a3c
000003a0: ec55 fcbb 8aa3 363d 5fa7 d13d a305 3f3d
000003b0: eb32 073c cd57 143d d443 603e 49d7 2fbd
000003c0: ed06 3a3e 779d 08be 0214 163b aa70 cc3d
000003d0: 8769 863d 183f b8bd a284 3f3d f130 0c3d
000003e0: c55d 853d 2f19 243e 2fa9 693d c50b 0b3e
000003f0: 928d 2bbc 4369 6338 a69f bc3d 82ad 91bd
-0.07376333 -0.086664915 0.009764509 0.067279704 -0.04118144 0.1573004 0.017422864 0.06750495
0.08852253 0.038903728 0.14556164 -0.1185591 0.099140264 -0.053088956 -0.007928203 -0.044506244
0.057814036 0.13783388 0.22767231 -0.14723052 0.0019090641 -0.024250686 -0.01635455 0.052438576
0.00694114 0.004979577 0.041430276 0.11565438 -0.042566244 -0.027984153 -0.044932455 0.14220358
-0.04571845 -0.05340194 -0.028585456 -0.107610546 -0.061480805 0.032925934 0.24742532 -0.0600258
-0.06319488 0.19757093 0.15415649 -0.029461885 0.02608323 0.053003777 -0.022837577 -0.0562621
0.104756 0.057092894 -0.008188733 0.04318534 0.027228648 -0.0021097157 -0.03982881 0.0011014491
-0.042030364 -0.04536881 0.049027592 0.04054473 0.0014207892 0.03465543 -0.034783468 -0.021774065
-0.089612134 -0.08128586 -0.043836217 -0.017880978 0.10977653 -0.09092963 -0.03353801 -0.02959436
0.10121349 -0.021514025 0.14374298 -0.039489068 0.0045725675 -0.12449834 0.21695021 0.22327796
0.007954966 0.12009461 -0.100848526 0.0030322236 0.19284281 0.16475964 0.18098769 0.116879836
-0.0317591 0.22158636 -0.034889784 -0.043163784 0.019617135 0.018535458 -0.014660834 0.14751028
0.100249976 -0.10955795 0.04129105 -0.020829272 0.21984543 0.0804906 0.2310514 -0.06184148
-0.0029421952 -0.027899725 0.078485586 0.18056865 0.11379467 -0.06937835 0.015687484 0.31236622
0.14582382 0.13213724 0.030315507 -0.064503975 -0.033133965 0.020137096 0.19772647 -0.052599423
0.006029415 0.241985 -0.029641736 0.004434356 -0.02152961 -0.048409596 -0.09507591 -0.040440157
0.06975861 -0.009478909 -0.024167953 0.1275327 0.0029493074 0.0062582707 0.051295884 0.0017805205
0.12216346 -0.053023335 -0.072008476 0.20962958 -0.07014624 0.18008034 -0.08003194 -0.0072277994
0.03541221 -0.05181537 -0.13246118 0.07157863 -0.022654938 -0.023982573 -0.103966616 -0.08969499
0.05330921 0.28751898 0.05996397 0.06977843 0.07563653 -0.101411216 0.1925751 -0.015828326
0.06486583 0.047621716 -0.07467538 -0.026215654 0.15508819 0.027732257 0.0645229 -0.08083041
0.001794453 0.101373516 -0.012179895 0.1329316 -0.11174108 0.013515538 0.09911927 0.0767035
-0.05296828 0.1809775 -0.09968505 0.07288284 0.1492348 0.22956431 0.07900185 0.09376423
0.027309785 0.06386651 0.14558977 0.09874038 -0.11526832 0.05657235 0.15729798 -0.051809438
0.03539086 -0.25171337 0.072573595 -0.05232783 -0.088351816 -0.05843951 -0.0094706435 0.012922147
-0.08963542 0.09809289 -0.09941944 0.06933021 0.032160874 0.2911797 0.034331407 -0.09363275
0.1714399 0.24844685 0.010183078 -0.09184336 0.001789936 0.03400487 0.23632622 -0.14716594
0.020909948 -0.23328988 -0.05422443 -0.074429214 0.009982511 0.036365382 -0.050733842 0.026277553
0.09602843 -0.03858098 0.14690337 0.106961414 -0.006712682 -0.08616619 0.11014192 0.016930614
-0.0077006724 0.044589557 0.10237002 0.046636235 0.008251886 0.036216546 0.21900874 -0.04292992
0.18166704 -0.13341318 0.002290011 0.099824265 0.065630965 -0.08996409 0.046757348 0.03422636
0.06512026 0.16025232 0.05704611 0.13578708 -0.010470765 5.421905e-05 0.09210138 -0.07113172

fc3.bias f4 [200]
00000000: d34d 13bc f636 28bd 8fdf 6ebd 3b65 64bb
00000010: a891 e4bd a438 19bc dbf6 26bd 5cfa d23b
00000020: 5e80 22bc 4657 d7bd ceb5 c53c f37c 143d
00000030: ee19 4b3c 96ec c53c eea6 063d 95e9 65bd
00000040: 5d79 19bc 648d b2bd 18f7 04bc d774 7cbc
00000050: 06f4 febb ece8 31bd 63b9 5abd 9e33 c33c
00000060: 310c 3e3c 2ca5 683c e006 9dbc 6428 273d
00000070: 13a7 84bc 9f08 bebd e600 7abd 21b0 69ba
00000080: 9455 2bbc 1f7f 5dbc bf0a 4bbd aa1e 06bc
00000090: f5f3 adbc b684 19bd 095b 03bd 935e edbc
000000a0: 0fed d9bd ba83 b3bc 4507 84bd 5af8 13bd
000000b0: 0b43 883c e118 42bd 5a08 e5bb 54cc 1bbd
000000c0: c40e aebc ecb7 87bc 2b30 a43c 70bb 423b
000000d0: 5901 2ebd 8487 f9bb 8eeb 0c3c 18a4 8a3c
000000e0: fa78 83bc 56ee 693c b4eb 523d 4faf 8fbd
000000f0: 5d22 f83b 5e73 dbbd 66c5 debd db81 aebd
00000100: 5b7b a83c 0ade 2b3d bce4 35bd 71c9 5e3d
00000110: c14c 583c e630 6f3d 8f25 2fbd e118 89bd
00000120: fd88 253c e857 e9bd add0 bbbb b7ee f2bc
00000130: 8c8a 22bd eb31 d93c b0fc 1dbd 7d1e 2cbd
00000140: 7183 b63c 3fac b53c 8eff c0bd 0fae cabd
00000150: a34f 2bbd 493b bf3c 8554 9ebc 5526 a83b
00000160: 5874 8bbd 1464 35bd a28b 50bd cb0b 2cbd
00000170: b67e 223d e9de 683d eec3 cfbd e595 70bc
00000180: 9767 24bd 7465 c8bc dff5 abbd 5196 12bd
00000190: 1b8b 07bd 05e4 703c 1b60 7fbc b128 a8bc
000001a0: 491b 173d 5cf2 b0bd 5a84 413a a42d a2bd
000001b0: 236c 0dbd 4562 bdba 72da 0d3c fdb9 4dbd
000001c0: 1a6e d3bd 642d 84bd 36f3 f13b 100f 70bd
000001d0: 53cd 9bbd bfb2 9b3b 06e2 873c 16a5 adbd
000001e0: bbcb 31bd b334 c2bd a503 b8bc aea0 7e3c
000001f0: 60eb 8b3d ed35 623d 99a8 0abc dc3e cb3c
00000200: 517d aebc 849f 96bd a570 25bd 013c 80bc
00000210: b621 f43b b6a3 82bc 6f5d cd3c d40d 29bd
00000220: f362 83bd 63d5 a8bd 74c0 373d 133b b7bd
00000230: 9e06 c6bd cf80 103d aad9 18bc 711a a6bb
00000240: d13c 19bb cc51 fbbc 2307 47bd ba03 91bc
00000250: 359e 9c3b 3a2c 903a e2a9 993d 027b 6b3c
00000260: 5553 883d 8a05 1ebc 009e 803d 7b11 0f3d
00000270: a2bb 85bd 5069 8bbd 3112 80bd 69ed b13c
00000280: adc1 963c 3a2b f03c acde 393c f364 553c
00000290: 22d7 52bd 3f1a 42bb cbca 92bd 50f4 2a3c
000002a0: 2d76 f7bc 4d74 dfbd 2184 97bc 55e5 41bd
000002b0: accf d2bd 72a8 ea3c ae09 49bd 3f15 e83b
000002c0: 2098 b13b 2703 65bd f221 acbd 883a febb
000002d0: 6a9b 4bbb 9aea 903c bdb8 913c 5b81 adbc
000002e0: bb90 ab3b fc5c 22bd 03dc 1cbd 570a fa3c
000002f0: 0980 35bb b754 1fbd 7b51 7fbd ac9a 56bc
00000300: 224d 85bd 5edf 8b3d 0200 1c3c 2250 47bd
00000310: 2d1c cd3a c00f 17bd cfb3 eebd 88ec 22bd
-0.008990723 -0.04106804 -0.05831867 -0.0034850377 -0.11160594 -0.009351883 -0.040762763 0.0064385366
-0.0099183 -0.10514693 0.024134543 0.036251973 0.012396319 0.024160665 0.03287404 -0.056130964
-0.009367314 -0.08718374 -0.008115552 -0.015408716 -0.0077805547 -0.043435022 -0.053399455 0.023828324
0.011599586 0.014199536 -0.019168317 0.040810004 -0.016192948 -0.09278988 -0.061036013 -0.000891449
-0.010457415 -0.013519078 -0.049570795 -0.008186022 -0.021234492 -0.03748008 -0.03206924 -0.02897576
-0.106409185 -0.021913398 -0.06446699 -0.03612552 0.016633531 -0.047387008 -0.006989521 -0.03803666
-0.021247275 -0.016567193 0.0200425 0.0029713772 -0.042481754 -0.0076150317 0.0086010825 0.01692395
-0.016048897 0.014278015 0.051494315 -0.07015859 0.007572456 -0.10715364 -0.108774945 -0.08520862
0.020566633 0.0419598 -0.04440759 0.05439133 0.013201893 0.058396243 -0.042760428 -0.066941984
0.010103461 -0.1139372 -0.005731663 -0.029654844 -0.03968291 0.02651306 -0.03857106 -0.042021263
0.022279473 0.02217686 -0.09423743 -0.0989648 -0.041823994 0.023343699 -0.019327411 0.0051315227
-0.068093 -0.044284895 -0.050914414 -0.042003434 0.039671622 0.05685321 -0.101447925 -0.014684175
-0.040137853 -0.02446244 -0.083965056 -0.035787884 -0.033091646 0.014702802 -0.015586878 -0.020527216
0.036891256 -0.086399764 0.00073820876 -0.079188615 -0.034526955 -0.0014448842 0.008658038 -0.0502262
-0.103237346 -0.0645397 0.0073837293 -0.058608115 -0.07607522 0.004751533 0.016587269 -0.08478753
-0.043407183 -0.09482708 -0.022462675 0.015541239 0.068320036 0.05522721 -0.008463048 0.024810247
-0.02129999 -0.07354644 -0.04039063 -0.015653612 0.0074503077 -0.015947204 0.025068967 -0.041272953
-0.064153574 -0.08243825 0.044861272 -0.089468144 -0.09669231 0.03527909 -0.009329239 -0.00506907
-0.0023382197 -0.030678652 -0.04859079 -0.017701972 0.004779602 0.0010999509 0.07503106 0.014372589
0.06656519 -0.009644875 0.06280136 0.03492878 -0.06529929 -0.06807196 -0.0625347 0.021719651
0.018402899 0.029317487 0.011344593 0.013024556 -0.051474698 -0.0029617695 -0.07167586 0.010434225
-0.030207718 -0.109108545 -0.018495621 -0.04733785 -0.102935165 0.028644774 -0.049081497 0.007082611
0.005419746 -0.05591121 -0.08404912 -0.0077584423 -0.0031067976 0.017689992 0.017788285 -0.021179846
0.005235759 -0.039639458 -0.038295757 0.030522509 -0.0027694723 -0.03889915 -0.062333565 -0.0130984
-0.065088525 0.06829713 0.009521486 -0.048660405 0.0015648656 -0.036880255 -0.116553895 -0.039776355
