CaseModels/04 200-Bus/_baseModel_vpu.pth (torch, 328145 bytes, 7 tensors)

bias f4 [200]
0.14594778 0.15272766 0.14224751 0.14311086 0.14821716 0.14421825 0.14739457 0.16580726
0.15586837 0.15846 0.15807699 0.15352878 0.15302256 0.1475158 0.14247587 0.15221156
0.1455041 0.15397923 0.14718285 0.1514132 0.14270417 0.15841259 0.14637326 0.14744176
0.14674246 0.14687163 0.14902608 0.16147663 0.14383306 0.1476903 0.14674707 0.13634081
0.15082982 0.13485889 0.12712161 0.1356188 0.14629662 0.1322037 0.14439642 0.14201769
0.14951974 0.1532469 0.14492676 0.14752918 0.14511144 0.15632847 0.1514788 0.14718713
0.15979022 0.1533512 0.1747913 0.15778117 0.16234238 0.15117805 0.15347466 0.15351069
0.14177884 0.13050684 0.13822755 0.15724663 0.15492041 0.121947505 0.14484264 0.15618823
0.15206149 0.15390933 0.16557133 0.15814003 0.16027014 0.16698526 0.16633207 0.15568697
0.16011229 0.14198619 0.15353246 0.14909238 0.15981838 0.1514698 0.15375645 0.14030842
0.15140587 0.152954 0.1438951 0.14833638 0.1607807 0.14271773 0.14861973 0.15404202
0.14279155 0.16367738 0.16502286 0.12920482 0.15114829 0.15852378 0.14151132 0.14748155
0.14189486 0.1449902 0.1533308 0.13887525 0.15760802 0.1543676 0.14315093 0.15827481
0.16333267 0.16114599 0.1281194 0.14754675 0.1501058 0.16019401 0.13498202 0.15175718
0.15294243 0.15802117 0.15535161 0.15131095 0.14602253 0.14839715 0.15225123 0.14770667
0.151396 0.15208548 0.16080673 0.14876682 0.16181377 0.16387014 0.16461913 0.1455781
0.12863055 0.14473298 0.1331101 0.14188252 0.16500437 0.14006579 0.16551502 0.16752297
0.15367757 0.14785361 0.14034969 0.14013964 0.14538266 0.15529524 0.1312466 0.1423315
0.13807447 0.1389772 0.16146559 0.13877708 0.14897132 0.16321428 0.15486544 0.15719506
0.1465191 0.16003951 0.1588429 0.16373336 0.16042417 0.1474403 0.15266623 0.14935121
0.15432173 0.15293886 0.13166775 0.15429585 0.15185863 0.13746555 0.14787962 0.15102771
0.14958222 0.15415318 0.15530385 0.13528477 0.13336982 0.14293952 0.14579637 0.15459448
0.15451434 0.14432605 0.1345976 0.13453913 0.15347512 0.15779668 0.16433607 0.1518283
0.15288118 0.15126291 0.15368904 0.14942117 0.16349447 0.14817287 0.13041069 0.15217811
0.15833183 0.15522186 0.1537113 0.16626722 0.14957352 0.16718818 0.13570154 0.13682027
00000000: 5673 153e a464 1c3e 55a9 113e a78b 123e
00000010: 3dc6 173e f3ad 133e 9aee 163e 61c9 293e
00000020: f59b 1f3e 5743 223e efde 213e a636 1d3e
00000030: f2b1 1c3e 620e 173e 32e5 113e 59dd 1b3e
00000040: 07ff 143e bbac 1d3e 1ab7 163e 100c 1b3e
00000050: 0b21 123e e936 223e dfe2 153e f9fa 163e
00000060: a843 163e 8465 163e 4b9a 183e 215a 253e
00000070: f948 133e 203c 173e dd44 163e ed9c 0b3e
00000080: 2273 1a3e 7318 0a3e 2b2c 023e a8df 0a3e
00000090: c8ce 153e 6860 073e a8dc 133e 166d 113e
000000a0: b41b 193e c1ec 1c3e ae67 143e e411 173e
000000b0: 1898 143e 9214 203e 421d 1b3e 39b8 163e
000000c0: 0ca0 233e 1908 1d3e 7efc 323e 6391 213e
000000d0: 153d 263e 6bce 1a3e 7628 1d3e e831 1d3e
000000e0: 792e 113e 96a3 053e 868b 0d3e 4305 213e
000000f0: 75a3 1e3e 9dbf f93d a151 143e cfef 1f3e
00000100: 02b6 1b3e 689a 1d3e 888b 293e 76ef 213e
00000110: db1d 243e 2ffe 2a3e f452 2a3e 686c 1f3e
00000120: 7af4 233e d464 113e 9d37 1d3e acab 183e
00000130: 6ea7 233e e61a 1b3e 5572 1d3e 03ad 0f3e
00000140: 240a 1b3e f99f 1c3e 3d59 133e 7ee5 173e
00000150: b2a3 243e 9924 123e c52f 183e 31bd 1d3e
00000160: f337 123e 0b9b 273e c1fb 283e 454e 043e
00000170: 9ec6 1a3e 0f54 223e 58e8 103e 6705 173e
00000180: e34c 113e 5078 143e c002 1d3e 5035 0e3e
00000190: ff63 213e 8a12 1e3e 2896 123e cb12 223e
000001a0: ae40 273e 7403 253e bb31 033e 7f16 173e
000001b0: 56b5 193e e609 243e ba38 0a3e 3c66 1b3e
000001c0: f19c 1c3e 4dd0 213e 7e14 1f3e 42f1 1a3e
000001d0: ee86 153e 6cf5 173e bfe7 1b3e 6b40 173e
000001e0: 8e07 1b3e 4cbc 1b3e 85aa 243e 5456 183e
000001f0: 82b2 253e 93cd 273e eb91 283e 6d12 153e
00000200: bab7 033e e234 143e 044e 083e a749 113e
00000210: e8f6 283e 686d 0f3e c57c 293e 248b 2b3e
00000220: a75d 1d3e f066 173e d4b7 0f3e c480 0f3e
00000230: 31df 143e b705 1f3e 8265 063e 59bf 113e
00000240: 6563 0d3e 0a50 0e3e 3c57 253e 941b 0e3e
00000250: f08b 183e a521 273e 0c95 1e3e bef7 203e
00000260: 1a09 163e 66e1 233e b7a7 223e b8a9 273e
00000270: 3c46 243e 97fa 163e 8954 1c3e 86ef 183e
00000280: 8406 1e3e 019c 1c3e e9d3 063e bbff 1d3e
00000290: d480 1b3e c5c3 0c3e c16d 173e 02a7 1a3e
000002a0: 152c 193e 55da 1d3e f907 1f3e 1788 0a3e
000002b0: 1992 083e bd5e 123e a54b 153e 044e 1e3e
000002c0: 0239 1e3e 35ca 133e f4d3 093e a0c4 093e
000002d0: 9528 1d3e 7495 213e b747 283e e178 1b3e
000002e0: e28c 1c3e aae4 1a3e a960 1d3e dd01 193e
000002f0: 186b 273e a1ba 173e 618a 053e 94d4 1b3e
00000300: bd21 223e 7bf2 1e3e 7f66 1d3e f441 2a3e
00000310: cd29 193e 6133 2b3e 58f5 0a3e 9d1a 0c3e

fc1.weight f4 [138, 416]
0.19211873 0.028842857 -0.03947985 -0.008609213 -0.008255164 -0.03125666 -0.0050166957 -0.09966765
0.012740855 -0.03215913 -0.14728095 -0.15471497 0.00651647 -0.007999428 -0.022991713 -0.066928
-0.014689075 0.0017341946 -0.055669326 0.060970787 -0.0063845343 0.004149976 -0.19497898 -0.13344823
0.082813814 -0.1941983 -0.05661541 0.2036686 -0.032264825 -0.009083129 -0.014445972 0.18140136
-0.059021063 -0.051439848 0.084593624 -0.16244163 0.030739661 -0.10622674 -0.058071252 0.06400462
-0.024540313 0.17508341 0.014451632 0.03222792 -0.053960595 -0.07978219 -0.11744988 0.11732863
-0.057077214 0.010284533 -0.048269205 -0.025426814 -0.05256309 0.05309131 -0.08866849 -0.11901846
-0.04098933 -0.08913716 -0.057439074 0.05555892 -0.20465459 0.032895453 -0.047942113 0.010552248
0.06511164 0.042118624 -0.033284046 -0.01528088 0.014881705 0.0036575603 0.018926227 0.04415286
0.032880567 0.040246546 0.07595812 0.11924607 -0.011640461 0.077089384 0.007722358 0.07612348
0.119367525 -0.17229004 -0.00088254974 -0.014967432 -0.034407787 0.008664427 0.075209565 -0.13248362
-0.07629037 -0.013380485 -0.059378766 -0.0447431 0.03145654 -0.08573215 -0.09195418 -0.17400381
0.09669931 -0.024549374 0.009867304 -0.06368281 -0.072208785 -0.0679442 -0.008025794 0.022443816
-0.058771975 0.046584424 -0.028784141 0.049885523 0.11312654 -0.008979738 0.033063103 -0.016392117
0.034407597 -0.041782103 0.0036835752 -0.0665677 -0.026584761 -0.049583983 -0.06526635 -0.04347002
-0.04126564 -0.001207173 0.036187362 -0.028603936 0.0112960655 0.012248944 -0.039475404 -0.027299346
-0.04828247 0.0019644438 -0.09095706 -0.05680187 -0.0024232746 -0.07820726 -0.017093878 0.08136811
-0.07687316 -0.06431299 0.003219538 0.05298237 -0.039254148 -0.011984987 0.029154224 -0.07799402
0.020080296 -0.04510551 -0.040152814 0.022788294 -0.019021433 0.07507627 -0.04562643 -0.007581956
-0.010533193 -0.03882269 -0.040206205 0.07728538 -0.11745915 -0.037657373 -0.019729767 -0.0121889
-0.05986949 0.008528335 -0.021468008 -0.079157084 -0.010500273 -0.016802661 -0.030704943 0.06057379
-0.083733566 0.053664915 0.0064427424 -0.044759456 0.022716705 0.035249185 -0.066190824 -0.01847855
0.0328865 -0.03360949 0.01864961 -0.004738785 -0.027802281 -0.011745401 -0.0139276525 0.06357973
-0.055237953 -0.02236366 -0.028922781 0.029067276 0.06780402 -0.13097158 0.0026894815 -0.021240951
-0.055148147 0.050308358 0.049137518 -0.053310797 -0.026742753 -0.00464255 -0.03354232 -0.025678396
0.013122045 -0.04487795 -0.043823976 -0.1490645 0.08045023 -0.052462067 0.023940433 0.008183005
-0.009062509 -0.10221247 -0.03410384 0.012215584 -0.047409277 0.0288449 -0.022678362 -0.0026260968
0.027324967 0.001047981 0.011358598 0.018993609 0.030468278 0.010426437 -0.04796552 0.033745058
0.042140882 -0.037908513 -0.043302648 -0.008326173 0.026050426 0.009928472 -0.0025004572 0.039073262
0.008571142 -0.03213085 -0.010294755 0.019498575 -0.04601186 0.035175476 -0.02213048 -0.019905321
-0.014059132 -0.026553791 -0.023952102 -0.02768894 0.016593833 0.03893328 0.033165235 -0.046796154
0.025206935 0.0024529807 -0.025742013 -0.0038023796 0.020089488 0.011002632 -0.044501033 -0.018771254
00000000: c6ba 443e db47 ec3c a0b5 21bd a80d 0dbc
00000010: ab40 07bc fc06 00bd 1863 a4bb 8e1e ccbd
00000020: 05bf 503c 4bb9 03bd d1d0 16be 9a6d 1ebe
00000030: 1d88 d53b 0810 03bc 1e59 bcbc 8c11 89bd
00000040: 72aa 70bc ea4d e33a 8505 64bd 81bc 793d
00000050: 5b35 d1bb 86fc 873b 92a8 47be a7a6 08be
00000060: 4a9a a93d ebdb 46be 8fe5 67bd 808e 503e
00000070: 1f28 04bd 68d1 14bc ccae 6cbc 47c1 393e
00000080: 12c0 71bd 97b2 52bd 6c3f ad3d 1957 26be
00000090: bed1 fb3c 688d d9bd 1fdc 6dbd db14 833d
000000a0: c408 c9bc 1149 333e 8ac6 6c3c 6c01 043d
000000b0: c905 5dbd d864 a3bd 9089 f0bd fe49 f03d
000000c0: ccc9 69bd 7580 283c eeb5 45bd e54b d0bc
000000d0: 654c 57bd 4676 593d d397 b5bd f3bf f3bd
000000e0: 6de4 27bd 8b8d b6bd 3c45 6bbd c091 633d
000000f0: f990 51be 62bd 063d f35e 44bd 56e3 2c3c
00000100: 4059 853d 9484 2c3d da54 08bd a85c 7abc
00000110: 65d2 733c aeb3 6f3b 2d0b 9b3c a1d9 343d
00000120: c6ad 063d 90d9 243d ee8f 9b3d 4937 f43d
00000130: a2b7 3ebc 0ae1 9d3d d60b fd3b a1e6 9b3d
00000140: f676 f43d cd6c 30be e95a 67ba f639 75bc
00000150: 2eef 0cbd 3ef5 0d3c 7907 9a3d c9a9 07be
00000160: 203e 9cbd d239 5bbc 2637 73bd 8a44 37bd
00000170: 93d8 003d 5694 afbd 7952 bcbd 0e2e 32be
00000180: 4a0a c63d c51b c9bc 79aa 213c 226c 82bd
00000190: 33e2 93bd 5426 8bbd 9f7e 03bc 18dc b73c
000001a0: e2ba 70bd 4fcf 3e3d b8cc ebbc c354 4c3d
000001b0: e3ae e73d c01f 13bc 2d6d 073d c348 86bc
000001c0: fbee 0c3d b623 2bbd 2368 713b a554 88bd
000001d0: 49c8 d9bc 9318 4bbd 5daa 85bd 9f0d 32bd
000001e0: 2906 29bd 013a 9eba 3339 143d cd52 eabc
000001f0: 2213 393c cbaf 483c f6b0 21bd e1a2 dfbc
00000200: d7c3 45bd e6bd 003b b247 babd 14a9 68bd
00000210: cdcf 1ebb 212b a0bd 7608 8cbc 53a4 a63d
00000220: ad6f 9dbd 87b6 83bd e2fe 523b 0b04 593d
00000230: f5c8 20bd ae5c 44bc d7d4 ee3c 54bb 9fbd
00000240: 6f7f a43c 8ec0 38bd 4777 24bd 84ae ba3c
00000250: d6d2 9bbc 96c1 993d c8e2 3abd 0f72 f8bb
00000260: 6a93 2cbc 8a04 1fbd 43af 24bd cc47 9e3d
00000270: 6c8e f0bd 9e3e 1abd 52a0 a1bc f4b3 47bc
00000280: b639 75bd 6eba 0b3c addd afbc 1c1d a2bd
00000290: 5609 2cbc bca5 89bc ef88 fbbc 391c 783d
000002a0: 817c abbd becf 5b3d a41d d33b b155 37bd
000002b0: 6218 ba3c 7361 103d 0e8f 87bd 5460 97bc
000002c0: ffb3 063d 1baa 09bd 11c7 983c cf47 9bbb
000002d0: 9cc1 e3bc c86f 40bc cf30 64bc 1736 823d
000002e0: 3141 62bd ff33 b7bc 78ef ecbc 7f1e ee3c
000002f0: d6dc 8a3d 6a1d 06be 0342 303b 8101 aebc
00000300: 06e3 61bd 2310 4e3d 6c44 493d 6c5c 5abd
00000310: 9e13 dbbc 8820 98bb ac63 09bd 805b d2bc
00000320: d9fd 563c f1d1 37bd c580 33bd 5da4 18be
00000330: 17c3 a43d 77e2 56bd ba1e c43c 0312 063c
00000340: eb7a 14bc c554 d1bd 78b0 0bbd df23 483c
00000350: 3b30 42bd 244c ec3c f9c7 b9bc 981a 2cbb
00000360: 9cd8 df3c 685c 893a 6a19 3a3c 7c98 9b3c
00000370: 9c98 f93c a5d3 2a3c 7e77 44bd 4238 0a3d
00000380: eb9b 2c3d f545 1bbd 1e5e 31bd 806a 08bc
00000390: b467 d53c 08ab 223c b6de 23bb 490b 203d
000003a0: fa6d 0c3c a39b 03bd 55ab 28bc 7abb 9f3c
000003b0: ef76 3cbd 2914 103d fb4a b5bc 7c10 a3bc
000003c0: 4658 66bc 5687 d9bc 3337 c4bc ead3 e2bc
000003d0: caef 873c 8178 1f3d 45d8 073d 53ad 3fbd
000003e0: c67e ce3c 30c2 203b eae0 d2bc 5831 79bb
000003f0: b692 a43c 6244 343c b746 36bd 2cc6 99bc

fc1.bias f4 [138]
-0.009931786 -0.15600772 0.09978773 0.006388613 0.1346477 0.020962186 -0.012063589 -0.06877528
0.08483922 -0.115316436 -0.07677615 -0.11012644 0.16546635 -0.078820944 -0.09493067 0.088339366
0.05744315 -0.045946654 -0.11052081 -0.06667088 0.1841172 0.13736734 0.018306695 0.086961895
0.009097551 -0.107157856 -0.039339438 0.12920074 -0.1021749 -0.08227048 -0.11138794 0.14863186
0.020791167 -0.053935815 -0.079062276 0.10889956 0.0947412 -0.13651763 -0.026468385 0.16364084
-0.103521645 -3.81371e-05 0.015655762 -0.039444562 -0.098970205 -0.040762316 -0.094130665 0.14975446
0.17138058 -0.017222932 -0.16528544 0.061239578 -0.12128653 -0.03365291 0.120843925 -0.087305285
0.12852226 -0.02552966 -0.049903397 -0.062398713 -0.0750502 0.031424027 -0.053514566 0.010585215
-0.13225262 0.13371728 -0.13357389 0.010337764 0.13939224 -0.08302009 -0.006807653 0.049191892
-0.015917724 -0.037201893 -0.04138982 0.14853589 -0.0137681 -0.14586753 -0.015344208 0.12549396
-0.1313996 -0.053317204 -0.00084644894 -0.07021159 -0.07037746 0.039954025 0.03386068 -0.051663578
0.018991888 0.033529796 0.09039308 -0.06142831 -0.11306154 0.11183435 0.058953036 -0.019333594
-0.036826078 0.030903162 0.09431171 -0.03783713 0.19923002 0.087894335 0.034465194 -0.044769257
0.002620454 -0.035095654 0.17453498 -0.04531692 -0.077452734 0.07470307 -0.028812567 0.07379132
-0.09197798 -0.01067276 0.023733903 0.14685921 0.1228853 0.1206488 -0.072327875 0.13667905
0.10231834 0.10306948 -0.0003329214 -0.003570718 0.07105731 0.24614125 -0.07511969 -0.0019938713
0.14591017 -0.12271023 0.17206965 0.043040775 -0.15875801 -0.1282021 0.011525654 -0.12775089
0.15089957 0.06534639
00000000: eeb8 22bc 7dc0 1fbe 825d cc3d 9257 d13b
00000010: 16e1 093e e4b8 ab3c 5ca6 45bc 0eda 8cbd
00000020: 2fc0 ad3d 062b ecbd d03c 9dbd f989 e1bd
00000030: 0370 293e e06c a1bd 036b c2bd 45eb b43d
00000040: 8249 6b3d 8f32 3cbd bc58 e2bd be8a 88bd
00000050: 3889 3c3e 06aa 0c3e ecf7 953c 1419 b23d
00000060: e50d 153c 9475 dbbd 6422 21bd 334d 043e
00000070: 1341 d1bd 6d7d a8bd 5c1f e4bd f332 183e
00000080: 3d52 aa3c cdeb 5cbd 67eb a1bd bc06 df3d
00000090: ad07 c23d 47cb 0bbe 3ad4 d8bc 7791 273e
000000a0: 2803 d4bd 66f5 1fb8 8340 803c 9f90 21bd
000000b0: e4b0 cabd 63f6 26bd 94c7 c0bd 3c59 193e
000000c0: 647e 2f3e 1b17 8dbc 9640 29be 5ad6 7a3d
000000d0: 1265 f8bd a2d7 09bd 057d f73d 1dcd b2bd
000000e0: 579b 033e 9423 d1bc 8167 4cbd cb95 7fbd
000000f0: ebb3 99bd 7bb6 003d 1732 5bbd 9c6d 2d3c
00000100: 3b6d 07be 2fed 083e 98c7 08be ba5f 293c
00000110: d7bc 0e3e 7006 aabd bb12 dfbb 707d 493d
00000120: e365 82bc 0361 18bd 5f88 29bd cb19 183e
00000130: 9993 61bc 4c5e 15be 4666 7bbc 7d81 003e
00000140: 9e8d 06be 2463 5abd 3ae4 5dba 18cb 8fbd
00000150: 0f22 90bd d5a6 233d 7fb1 0a3d 309d 53bd
00000160: e094 9b3c 8a56 093d 0220 b93d 409c 7bbd
00000170: cf8c e7bd 6809 e53d bd78 713d 7c61 9ebc
00000180: f1d6 16bd a128 fd3c 7f26 c13d 1bfb 1abd
00000190: f402 4c3e f201 b43d 602b 0d3d f85f 37bd
000001a0: ecbb 2b3b 76c0 0fbd 4cb9 323e 3c9e 39bd
000001b0: 8a9f 9ebd ecfd 983d 5508 ecbc e71f 973d
000001c0: f45e bcbd cddc 2ebc 9a6d c23c 4362 163e
000001d0: 4aab fb3d b816 f73d a320 94bd 98f5 0b3e
000001e0: 478c d13d 1716 d33d f48b aeb9 b502 6abb
000001f0: 7f86 913d 740c 7c3e 5ad8 99bd 9cab 02bb
00000200: 7a69 153e 804f fbbd 0733 303e 864b 303d
00000210: 7691 22be 6947 03be 19d6 3c3c 21d1 02be
00000220: 6b85 1a3e 54d4 853d

fc2.weight f4 [69, 138]
0.024306964 0.020737976 -0.14505474 -0.042019833 0.010555797 -0.2023362 -0.0025782466 -0.039587297
-0.0011352318 -0.016607627 0.008480005 0.028257534 -0.10740554 0.0108760055 0.077704 -0.00200481
-0.08976466 -0.15114546 0.12454678 0.05270908 0.04562637 0.06557604 0.04485534 0.06044945
-0.14799473 -0.0067566447 -0.02070514 -0.0676393 0.0057333163 -0.059378292 -0.073109485 -0.02611423
-0.19830735 -0.018177478 0.016253103 -0.08948699 -0.07781126 0.09682666 -0.04100688 -0.07526645
0.017524641 -0.08704592 -0.12204246 -0.007408434 -0.05298207 -0.043049123 0.0480379 -0.04550004
-0.084083855 0.04531098 -0.021822682 0.04294835 0.03627335 0.03831665 0.014593938 0.07205438
-0.12955049 -0.023254668 0.063075244 -0.013612601 0.03512043 -0.09041736 0.094215736 0.015984993
-0.003368674 -0.021761702 0.07316234 -0.046214394 0.014029604 0.052347016 0.07850918 0.024437595
-0.125383 -0.07549111 -0.0383828 -0.0033900945 0.063538104 -0.027400177 0.03524848 -0.04763465
0.09354416 0.0033275208 -0.009746344 -0.029882241 -0.04550303 -0.029650921 -0.030880809 -0.041030265
-0.046031404 0.064786635 -0.047026873 0.11698793 -0.0568956 -0.06572697 -0.15187806 -0.033705264
0.000108858534 -0.055813663 -0.049758844 -0.04768331 -0.04483562 0.0068026907 -0.10472633 -0.01301912
0.17666064 -0.101261266 -0.0979957 -0.092002444 -0.029048612 0.12958667 0.046235096 0.09734791
0.10608713 0.0067435545 -0.058713514 -0.12912364 -0.09929745 0.027809266 0.05788146 -0.09920376
0.028346285 -0.09808001 -0.047653146 0.068916894 0.06495486 -0.0150915 -0.05400934 0.014759803
-0.06007905 -0.12986822 -0.14619783 -0.033261977 0.07176848 0.060210485 -0.036713183 -0.014189791
0.008281773 -0.0129583115 0.01619767 0.044250753 0.028960127 0.06601725 0.07427112 0.0053301807
0.022323973 0.082308784 -0.091070734 -0.034572046 -0.07083008 0.033531435 0.057095 0.10580416
-0.10069379 0.06555672 0.028639778 0.06957801 0.04441202 -0.041156042 0.090633556 -0.020331712
-0.07390993 0.021812063 0.053552177 0.01214777 0.042609733 0.08523961 -0.09164686 0.053265806
0.036303118 0.0700411 -0.033484872 0.017999662 0.0035806561 0.027667157 -0.006660285 -0.019718925
0.030657042 0.02969353 -0.013642356 -0.012906076 -0.02334276 -0.015911717 0.010644966 0.08721629
-0.067608654 -0.0272233 -1.3056593e-05 0.053880166 -0.12350235 -0.074947774 0.02976671 0.0696439
0.04733444 0.043871354 0.088629335 -0.032160565 0.08597235 0.047557086 0.03316634 -0.05822381
0.023855327 -0.059584938 -0.02084078 0.046789657 -0.09843591 0.008239248 -0.024464684 0.008015648
-0.04750765 0.020870242 0.030633204 -0.019285295 0.022334564 0.022978883 0.040902365 -0.038743526
0.030967861 0.08087111 -0.014559513 -0.009998041 0.014124534 -0.036907416 0.011313318 0.052667484
-0.032789674 -0.06986359 0.03835117 0.05512351 0.020151978 0.04592945 -0.08406931 -0.022246657
-0.030633412 -0.0039017315 -0.024623906 -0.011901456 -0.036118187 0.005418828 0.06429394 -0.0028827148
-0.02048347 -0.017825933 0.019016694 0.011266015 0.089941934 0.027369821 -0.09486868 -0.024808804
-0.10704366 0.04223253 0.0524091 0.08950548 0.0023990627 0.07165898 0.03493065 -0.052199084
00000000: 661f c73c b0e2 a93c 3b89 14be fd1c 2cbd
00000010: 39f2 2c3c 3931 4fbe cdf7 28bb 4a26 22bd
00000020: 0fcc 94ba b80c 88bc b8ef 0a3c 587c e73c
00000030: 70f7 dbbd 4631 323c 4623 9f3d 2163 03bb
00000040: 89d6 b7bd e0c5 1abe 6212 ff3d 7ae5 573d
00000050: b7e2 3a3d bb4c 863d 3cba 373d d899 773d
00000060: ee8b 17be d866 ddbb d39d a9bc 7986 8abd
00000070: 8bde bb3b a736 73bd 6dba 95bd 82ed d5bc
00000080: 1511 4bbe efe8 94bc 3a25 853c f444 b7bd
00000090: 835b 9fbd 0e4d c63d d5f6 27bd 4c25 9abd
000000a0: d68f 8f3c 2245 b2bd 66f1 f9bd 73c2 f2bb
000000b0: ba03 59bd 4754 30bd 64c3 443d 405e 3abd
000000c0: 2834 acbd 0298 393d 7bc5 b2bc 9cea 2f3d
000000d0: 5d93 143d ebf1 1c3d 6a1b 6f3c 3f91 933d
000000e0: e2a8 04be 9380 bebc 982d 813d 6307 5fbc
000000f0: 71da 0f3d bd2c b9bd 2ef4 c03d f6f2 823c
00000100: f9c4 5cbb 9945 b2bc 23d6 953d 4e4b 3dbd
00000110: 6ddc 653c d369 563d 6cc9 a03d 5a31 c83c
00000120: 6764 00be 159b 9abd 4837 1dbd 592c 5ebb
00000130: 4420 823d 5676 e0bc b660 103d 8d1c 43bd
00000140: 1594 bf3d 8912 5a3b 21af 1fbc 9acb f4bc
00000150: 6361 3abd 7de6 f2bc c0f9 fcbc 5a0f 28bd
00000160: 6d8b 3cbd dbae 843d 409f 40bd 5e97 ef3d
00000170: 5c0b 69bd dd9b 86bd ec85 1bbe 880e 0abd
00000180: fb4a e438 de9c 64bd eecf 4bbd 934f 43bd
00000190: 8ea5 37bd 1be9 de3b c27a d6bd 264e 55bc
000001a0: 87e6 343e 1162 cfbd f8b1 c8bd c76b bcbd
000001b0: 5bf7 edbc 5eb2 043e 0361 3d3d 575e c73d
000001c0: 3644 d93d 09f9 dc3b 957d 70bd fd38 04be
000001d0: 765c cbbd 42d0 e33c 1c15 6d3d 572b cbbd
000001e0: 7836 e83c 2cde c8bd f22f 43bd 4d24 8d3d
000001f0: 0e07 853d 5742 77bc e638 5dbd 1ad3 713c
00000200: 7315 76bd 2dfc 04be e2b4 15be b63d 08bd
00000210: 5afb 923d 459f 763d 9060 16bd 4c7c 68bc
00000220: 46b0 073c 194f 54bc fab0 843c 4740 353d
00000230: ca3d ed3c 0d34 873d 751b 983d cca8 ae3b
00000240: c4e0 b63c 8291 a83d 4b83 babd 6b9b 0dbd
00000250: 5c0f 91bd 4258 093d 72dc 693d daaf d83d
00000260: 8c38 cebd 9a42 863d f89d ea3c ea7e 8e3d
00000270: 61e9 353d 3d93 28bd 169e b93d b18e a6bc
00000280: 175e 97bd 36af b23c 8759 5b3d 7107 473c
00000290: 8b87 2e3d 1b92 ae3d 59b1 bbbd 3f2d 5a3d
000002a0: 94b2 143d b571 8f3d 6f27 09bd 0774 933c
000002b0: 71a9 6a3b 3ca6 e23c 853e dabb 9589 a1bc
000002c0: 7a24 fb3c d93f f33c 3084 5fbc 0274 53bc
000002d0: 5139 bfbc 4a59 82bc 3968 2e3c 749e b23d
000002e0: 6876 8abd 6603 dfbc a40d 5bb7 73b1 5c3d
000002f0: cdee fcbd 387e 99bd 51d9 f33c 76a1 8e3d
00000300: c2e1 413d 73b2 333d 4c83 b53d ccba 03bd
00000310: 4512 b03d 38cb 423d 6ed9 073d 177c 6ebd
00000320: 3f6c c33c 560f 74bd 49ba aabc 83a6 3f3d
00000330: c498 c9bd e9fd 063c 296a c8bc 1154 033c
00000340: 6297 42bd 12f8 aa3c 7cf2 fa3c 32fc 9dbc
00000350: faf6 b63c 363e bc3c 3d89 273d 88b1 1ebd
00000360: 50b0 fd3c c19f a53d 068b 6ebc d3ce 23bc
00000370: 976a 673c 3b2c 17bd 7f5b 393c dcb9 573d
00000380: 774e 06bd a414 8fbd 1e16 1d3d 31c9 613d
00000390: c315 a53c 8520 3c3d 882c acbd 9f3e b6bc
000003a0: ecf2 fabc 31b4 7fbb 13b8 c9bc 53fe 42bc
000003b0: aaf0 13bd 6d90 b13b 8bac 833d eeeb 3cbb
000003c0: f3cc a7bc b107 92bc e6c8 9b3c 1795 383c
000003d0: 7a33 b83d ad36 e03c 834a c2bd d53b cbbc
000003e0: b539 dbbd 04fc 2c3d edaa 563d a64e b73d
000003f0: 9839 1d3b f1c1 923d 7113 0f3d b5ce 55bd

fc2.bias f4 [69]
-0.14592913 0.21788043 0.07447365 0.13733375 0.19925871 -0.124126494 -0.03088764 0.19088037
-0.2343201 -0.156072 -0.08492347 -0.15423901 -0.21471639 0.17612812 -0.11931336 0.03213503
0.15883744 -0.16288047 0.21433017 0.027924975 0.21180326 0.023501104 -0.17862926 -0.21229497
-0.23567797 -0.03067006 0.17382021 -0.07563162 0.15159023 0.067909844 0.22353879 -0.23536739
0.11863597 0.17105101 0.20335409 -0.09258424 0.0708139 -0.033483773 0.1594689 0.18071194
0.080498494 0.16755657 -0.26106298 0.06316872 -0.08617649 -0.05966661 -0.16440517 -0.13683668
-0.21222419 -0.08957365 0.17081472 0.18239789 0.20702426 0.030287478 -0.23590657 0.13682303
-0.074484445 0.11387179 0.15073577 0.19892727 -0.06335105 0.058749296 -0.029689683 0.22938758
0.15143707 -0.02999151 0.20717128 -0.19700538 -0.119939074
00000000: 726e 15be 0c1c 5f3e a485 983d 38a1 0c3e
00000010: 7a0a 4c3e 0836 febd 1308 fdbc 2576 433e
00000020: 9cf1 6fbe 57d1 1fbe 5bec adbd d5f0 1dbe
00000030: 9dde 5bbe ee5a 343e 905a f4bd 05a0 033d
00000040: 48a6 223e 23ca 26be 5e79 5b3e ebc2 e43c
00000050: f4e2 583e 6385 c03c 97ea 36be da63 59be
00000060: 9155 71be c73f fbbc edfd 313e c0e4 9abd
00000070: 783a 1b3e 5114 8b3d 5ae7 643e 2604 71be
00000080: 6af7 f23d ff27 2f3e 0e3c 503e ce9c bdbd
00000090: e106 913d 4826 09bd d14b 233e 8d0c 393e
000000a0: 65dc a43d f393 2b3e 0caa 85be 9a5e 813d
000000b0: 4d7d b0bd fa64 74bd d459 28be ea1e 0cbe
000000c0: 4c51 59be 6472 b7bd 0eea 2e3e 83c6 3a3e
000000d0: 2bfe 533e 721d f83c 7e91 71be 561b 0c3e
000000e0: 4d8b 98bd 9d35 e93d 7a5a 1a3e 97b3 4b3e
000000f0: 32be 81bd 1aa3 703d c737 f3bc 94e4 6a3e
00000100: 5212 1b3e c1b0 f5bc b524 543e c7bb 49be
00000110: 9ea2 f5bd

fc3.weight f4 [200, 69]
-0.11993814 0.035080384 0.014451145 0.06597519 -0.025638318 0.05906193 -0.046906486 0.04897719
-0.0021344104 -0.10377219 0.16619115 -0.077418104 -0.051984288 0.07695838 0.11040504 0.022021683
-0.032135382 -0.07360472 0.09214204 0.016998328 -0.018056534 0.120682165 0.07612288 0.041229885
0.02237973 -0.11011847 0.15817355 -0.0073948666 0.04112764 -0.099018745 0.086699516 0.060049593
0.03829296 -0.054855444 0.034970615 0.07815059 -0.06410776 0.03708533 0.07262003 0.009576891
-0.050389588 0.066638194 -0.119217016 0.04347948 0.06867329 -0.07865613 -0.03623074 -0.05680266
0.12485021 -0.077841364 -0.002036838 0.016930318 -0.008010187 -0.015322656 -0.21721977 0.11470918
-0.19168025 -0.014433852 0.054602787 -0.013611557 0.1589603 -0.05042289 -0.058544327 -0.04241848
0.07953523 0.1318908 -0.003977211 -0.13350625 0.044116322 0.052947607 -0.023155684 0.0993096
-0.026723169 0.018209543 -0.082079805 -0.0063573667 0.13415398 -0.107242174 -0.24342448 0.055536143
0.09024648 -0.043032814 0.12252938 -0.121047616 -0.09411038 -0.04927492 0.008883623 0.08362503
0.030209526 -0.035469513 -0.036488988 -0.13737817 -0.13634801 -0.05449772 -0.0386737 -0.016920138
-0.17736003 0.106733195 -0.053984337 0.104933865 0.00017415616 0.0007079316 0.066661626 -0.012963509
-0.15041882 0.017668927 0.15079547 0.034690216 0.07215028 -0.055252343 0.044002287 -0.20645389
-0.044123296 0.024353275 -0.0979242 -0.10050322 -0.034406967 0.11586155 -0.20979007 0.023470266
-0.00874832 0.08066396 0.0268472 -0.029654661 0.14713226 0.08450665 0.04285693 0.005240486
0.030602392 -0.034606606 0.08099714 -0.13081034 0.0020883363 0.002408149 -0.15376686 0.05543296
-0.085097045 -0.11371943 0.05805059 0.03154305 -0.013409053 0.11630774 0.17526066 0.0888815
-0.0916943 0.033294436 -0.0011022099 -0.074700266 0.027804203 -0.22074786 -0.05505098 0.060309492
0.0074801277 0.030607514 0.04198461 0.19644514 -0.07681223 0.0727932 0.11248831 -0.011273628
-0.04674104 -0.20448455 0.069355056 -0.061769787 0.09493378 0.2806249 -0.0074017006 -0.062503956
-0.005099878 -0.13931282 0.04276939 0.07334715 0.10061748 0.24715738 -0.03282672 -0.16477895
-0.088189416 0.042539977 -0.0098483125 0.0995345 -0.05083712 0.006923106 -0.026326805 -0.31113148
0.13243517 -0.16699569 0.051103603 0.14934357 -0.001053918 0.0011353258 0.12426909 -0.053724654
-0.28020576 0.052384425 -0.14472659 0.04997392 -0.019164983 -0.010743314 -0.20286097 0.03990811
0.118562326 -0.02157685 0.07711018 0.015535196 -0.08277123 -0.0077196043 -0.1581032 0.00072285044
0.017925056 -0.014859213 0.16957562 0.07108846 -0.014558556 -0.05956875 0.02164275 0.02929106
-8.3255494e-05 0.050129134 0.1633174 0.09823308 -0.05072719 -0.112408996 -0.017983746 0.09244989
-0.1705618 0.018558675 0.10359384 0.059073757 0.039338425 -0.039276313 -0.058491252 -0.036121942
-0.07926386 0.009960636 0.17401712 -0.023648202 -0.06125872 0.03325662 -0.14660345 -0.024561943
0.10361417 0.1306212 0.24177128 0.0063670753 -0.13280287 -0.110773996 -0.026936878 0.019719867
-0.042964745 -0.11211242 0.08302513 0.023283891 -0.19912776 -0.019786283 -0.12827896 0.067492686
00000000: 21a2 f5bd 73b0 0f3d 7fc4 6c3c 001e 873d
00000010: 7307 d2bc ecea 713d 0421 40bd 4e9c 483d
00000020: 77e1 0bbb 8486 d4bd 032e 2a3e 628d 9ebd
00000030: 7aed 54bd 5b9c 9d3d 0a1c e23d d166 b43c
00000040: 64a0 03bd 12be 96bd f7b4 bc3d 1440 8b3c
00000050: 4ceb 93bc 3628 f73d 50e6 9b3d abe0 283d
00000060: b255 b73c cb85 e1bd 3ff8 213e a350 f2bb
00000070: 7575 283d 57ca cabd 848f b13d 90f6 753d
00000080: 14d9 1c3d 1ab0 60bd 593d 0f3d 6b0d a03d
00000090: ee4a 83bd c9e6 173d cfb9 943d 64e8 1c3c
000000a0: 5065 4ebd 9b79 883d 0d28 f4bd 8a17 323d
000000b0: 95a4 8c3d 7716 a1bd af66 14bd e8a9 68bd
000000c0: 78b1 ff3d 4b6b 9fbd 797c 05bb 73b1 8a3c
000000d0: 293d 03bc e10b 7bbc dc6e 5ebe a6ec ea3d
000000e0: d447 44be f77b 6cbc 2ca7 5f3d 0203 5fbc
000000f0: 7dc6 223e 3b88 4ebd 2dcc 6fbd 00bf 2dbd
00000100: 5ee3 a23d 620e 073e 4453 82bb ddb5 08be
00000110: 51b3 343d 97df 583d fdb0 bdbc d562 cb3d
00000120: 8cea dabc 2e2c 953c 7519 a8bd 7551 d0bb
00000130: a95f 093e c9a1 dbbd 4444 79be de79 633d
00000140: 26d3 b83d 2d43 30bd aff0 fa3d d0e7 f7bd
00000150: f1bc c0bd 80d4 49bd 9e8c 113c 9a43 ab3d
00000160: f879 f73c 7b48 11bd 7a75 15bd ddac 0cbe
00000170: d09e 0bbe 0039 5fbd 5068 1ebd 1a9c 8abc
00000180: de9d 35be ef96 da3d ae1e 5dbd 91e7 d63d
00000190: b09d 3639 7c94 393a e485 883d e664 54bc
000001a0: 6407 1abe 6dbe 903c 216a 1a3e 5417 0e3d
000001b0: 87c3 933d 4850 62bd be3b 343d a668 53be
000001c0: a1ba 34bd 8580 c73c 7c8c c8bd a2d4 cdbd
000001d0: 52ee 0cbd d248 ed3d 35d3 56be b744 c03c
000001e0: 1d55 0fbc 2533 a53d a9ee db3c 55ee f2bc
000001f0: d7a9 163e d311 ad3d c08a 2f3d 62b8 ab3b
00000200: deb1 fa3c a8bf 0dbd d4e1 a53d 25f3 05be
00000210: 78dc 083b 09d2 1d3b 0f75 1dbe ac0d 633d
00000220: 5c47 aebd bce5 e8bd 75c6 6d3d 4933 013d
00000230: a5b1 5bbc c132 ee3d 8877 333e 8107 b63d
00000240: 39ca bbbd bf5f 083d 0778 90ba 74fc 98bd
00000250: a4c5 e33c ba0b 62be 237d 61bd 1607 773d
00000260: dc1b f53b 9cbc fa3c 0ef8 2b3d ea28 493e
00000270: bb4f 9dbd 9a14 953d 4560 e63d 06b5 38bc
00000280: 8873 3fbd 6664 51be 060a 8e3d 5102 7dbd
00000290: a46c c23d 11ae 8f3e f789 f2bb 1302 80bd
000002a0: e11c a7bb 05a8 0ebe f52e 2f3d 0837 963d
000002b0: 8a10 ce3d d316 7d3e 5075 06bd d0bb 28be
000002c0: a79c b4bd 663e 2e3d d15a 21bc bed8 cb3d
000002d0: 953a 50bd 39db e23b 50ab d7bc a04c 9fbe
000002e0: 169d 073e eb00 2bbe 0352 513d 85ed 183e
000002f0: 9f23 8aba 36cf 943a cb80 fe3d 620e 5cbd
00000300: 2177 8fbe 0d91 563d 3533 14be 74b1 4c3d
00000310: e2ff 9cbc ba04 30bc c9ba 4fbe b076 233d
00000320: ced0 f23d efc1 b0bc f1eb 9d3d 5687 7e3c
00000330: f683 a9bd bcf4 fcbb cee5 21be ac7d 3d3a
00000340: 91d7 923c 0e74 73bc 3ba5 2d3e d496 913d
00000350: 0287 6ebc 5dfe 73bd 234c b13c cef3 ef3c
00000360: 7499 aeb8 3554 4d3d ad3c 273e 6d2e c93d
00000370: 50c7 4fbd b036 e6bd a652 93bc 5e56 bd3d
00000380: c1a7 2ebe 5d08 983c 0229 d43d 53f7 713d
00000390: 5421 213d 33e0 20bd 8694 6fbd 9af4 13bd
000003a0: 1755 a2bd ef31 233c 8b31 323e e0b9 c1bc
000003b0: 6cea 7abd 1838 083d 371f 16be 2136 c9bc
000003c0: aa33 d43d 90c1 053e e492 773e e6a2 d03b
000003d0: 7afd 07be 7add e2bd baaa dcbc 8f8b a13c
000003e0: cdfb 2fbd 329b e5bd 1409 aa3d dcbd be3c
000003f0: 26e8 4bbe d816 a2bc 8f5b 03be 9b39 8a3d

fc3.bias f4 [200]
0.12333245 0.17941096 0.13786443 0.255481 0.081579946 0.15492909 0.22164989 0.04860461
0.08836131 0.040456664 0.054019433 0.10991362 0.25748757 0.13205132 0.16624951 0.104256764
0.11786005 0.068426795 0.17976171 0.11469415 0.16872354 0.0747999 0.24405153 0.20222847
0.20113885 0.15409347 0.2538292 0.142675 0.21583854 0.046723858 0.1955702 0.1874168
0.11512473 0.12126054 0.20718406 0.2132203 0.15013269 0.20616423 0.13225177 0.08341999
0.20234047 0.12370435 0.12608062 0.07089302 0.24531299 0.11803094 0.23353016 0.2561312
0.25967193 0.23897181 0.05936868 0.17822944 0.102598555 0.20973204 0.18785062 0.081011884
0.24891904 0.1737516 0.23130244 0.050958127 0.07440676 0.22311202 0.24068545 0.09648291
0.19462696 0.2704689 0.14737147 0.23516008 0.078103624 0.084725 0.173141 0.25312647
0.26317564 0.046990007 0.037663866 0.24023426 0.09873544 0.2658493 0.09064719 0.19550996
0.17165083 0.25165397 0.2562087 0.1230027 0.05995693 0.20921846 0.22655332 0.25538132
0.18342857 0.15478031 0.16586326 0.23993297 0.06702672 0.077107385 0.20811278 0.073996946
0.21681999 0.26344043 0.09976357 0.21677384 0.19718216 0.047399107 0.23738196 0.084487
0.089026764 0.12710243 0.17963701 0.13823865 0.16098371 0.16387826 0.2467098 0.15251651
0.19536997 0.20154025 0.18199268 0.08497586 0.24383187 0.25069845 0.12663011 0.10819039
0.1895619 0.21554682 0.11793033 0.19805521 0.14228857 0.16525166 0.052834183 0.26182806
0.16376811 0.13640226 0.14763297 0.07566733 0.105331816 0.19586597 0.15365945 0.05318725
0.10981479 0.14713427 0.14773753 0.23655239 0.19326355 0.25635153 0.21888971 0.15701327
0.13002934 0.21223934 0.18185887 0.20993093 0.20921946 0.11528127 0.134753 0.24114755
0.21050298 0.10894652 0.09981545 0.09457768 0.10325086 0.25313005 0.034828737 0.09643381
0.27411363 0.06622589 0.2021373 0.12117053 0.08642526 0.11205796 0.24867551 0.12277478
0.15668078 0.26439613 0.06447987 0.19053777 0.21845491 0.19797565 0.16439272 0.060720365
0.09544545 0.08602845 0.16559535 0.1263282 0.19513686 0.22245684 0.16379169 0.07590052
0.05568252 0.17020857 0.15399836 0.25822333 0.18877122 0.11417522 0.23093079 0.106129475
0.08179545 0.19054918 0.13050626 0.05709009 0.25943547 0.056261644 0.051588543 0.22026126
00000000: b995 fc3d 82b7 373e 552c 0d3e 68ce 823e
00000010: 6313 a73d bba5 1e3e 30f8 623e a115 473d
00000020: c6f6 b43d e3b5 253d 7b43 5d3d 641a e13d
00000030: 69d5 833e 7638 073e 503d 2a3e 9284 d53d
00000040: 9c60 f13d 5923 8c3d 7413 383e c4e4 ea3d
00000050: ddc5 2c3e b130 993d a5e8 793e fb14 4f3e
00000060: 58f7 4d3e aeca 1d3e e7f5 813e 6519 123e
00000070: c704 5d3e 8461 3f3d 8e43 483e 31ea 3f3e
00000080: 84c6 eb3d 7257 f83d 0f28 543e 6c56 5a3e
00000090: 62bc 193e b71c 533e 026d 073e 1ad8 aa3d
000000a0: 5732 4f3e b558 fd3d 471b 013e 5c30 913d
000000b0: 5433 7b3e 35ba f13d 8822 6f3e a123 833e
000000c0: b8f3 843e 07b5 743e 932c 733d c781 363e
000000d0: 311f d23d ffc3 563e ea5b 403e 8fe9 a53d
000000e0: a2e4 7e3e f0eb 313e 8cda 6c3e 78b9 503d
000000f0: 9262 983d 7a77 643e 3f76 763e d598 c53d
00000100: 4a4c 473e e67a 8a3e 8ce8 163e cecd 703e
00000110: cbf4 9f3d 4d84 ad3d e04b 313e cb99 813e
00000120: f5be 863e 9878 403d 6d45 1a3d f8ff 753e
00000130: ce35 ca3d 661d 883e 3ca5 b93d c333 483e
00000140: 3cc5 2f3e cad8 803e c92d 833e d7e8 fb3d
00000150: 6695 753d 5d3d 563e 98fd 673e 57c1 823e
00000160: b3d4 3b3e bb7e 1e3e 0fd8 293e fdb0 753e
00000170: 4e45 893d 7aea 9d3d 841b 553e b68b 973d
00000180: 0f06 5e3e aae1 863e d850 cc3d f6f9 5d3e
00000190: 1fea 493e 9125 423d 4214 733e 8507 ad3d
000001a0: aa53 b63d 2427 023e c4f2 373e 6f8e 0d3e
000001b0: ead8 243e b4cf 273e 7ea1 7c3e 4a2d 1c3e
000001c0: 110f 483e 9160 4e3e 4a5c 3a3e d307 ae3d
000001d0: 10af 793e 8c5b 803e 53ab 013e ec92 dd3d
000001e0: 841c 423e 4eb8 5c3e 7585 f13d fcce 4a3e
000001f0: 18b4 113e bb37 293e a868 583d 540e 863e
00000200: d4b2 273e 09ad 0b3e 192d 173e 79f7 9a3d
00000210: 35b8 d73d 1791 483e e758 1d3e e0da 593d
00000220: 94e6 e03d 5eaa 163e 8248 173e ca3a 723e
00000230: e1e6 453e 8240 833e a024 603e 16c8 203e
00000240: 6926 053e 4555 593e 3639 3a3e 22f8 563e
00000250: a03d 563e 9618 ec3d b1fc 093e 62ef 763e
00000260: 188e 573e 5a1f df3d 0b6c cc3d f1b1 c13d
00000270: 3075 d33d 439a 813e 94a8 0e3d 177f c53d
00000280: 9f58 8c3e 70a1 873d 15fd 4e3e 4128 f83d
00000290: baff b03d a57e e53d cba4 7e3e 5871 fb3d
000002a0: ed70 203e ee5e 873e 060e 843d 551c 433e
000002b0: a5b2 5f3e 21ba 4a3e 9156 283e ebb5 783d
000002c0: e778 c33d af2f b03d d491 293e 2e5c 013e
000002d0: f5d1 473e bacb 633e 02b9 273e bb71 9b3d
000002e0: 5b13 643d 284b 2e3e bfb1 1d3e d935 843e
000002f0: 3e4d 413e b3d4 e93d 1f79 6c3e 695a d93d
00000300: 5f84 a73d 531f 433e 6fa3 053e 4cd7 693d
00000310: bad4 843e 9c72 663d 824e 533d 2b8c 613e
