CaseModels/04 200-Bus/_genModel_MAG.pth (torch, 328134 bytes, 7 tensors)

bias f4 [200]
0	0xba81ddd8	-0.0009908034
1	0x3d73f442	0.059559114
2	0xbbc71490	-0.0060754493
3	0x3d36ddb8	0.04464504
4	0x3d19bd3a	0.037533976
5	0xbc5d4832	-0.013505982
6	0x3b726cf8	0.003699122
7	0x3bb5e77e	0.0055512777
8	0x3c8c5d15	0.017134229
9	0x3d00ebaa	0.031474747
10	0x3d91a1ed	0.07110963
11	0x3d53cc1e	0.051708333
12	0xbd88b7d7	-0.0667569
13	0xbcc06aa6	-0.023488354
14	0xbd65da3e	-0.056116335
15	0x3d1e3552	0.03862507
16	0x3ccee485	0.025255451
17	0xbc834164	-0.016022392
18	0xbc1c9e2d	-0.009559196
19	0x3b76c4db	0.0037653956
20	0x3c6b80d9	0.014373981
21	0xbc7b018f	-0.015320196
22	0xbd22ef2d	-0.039778877
23	0x3d1e3475	0.038624246
24	0xbc3ebb25	-0.011641298
25	0x3b3cf9d2	0.0028835428
26	0xbc936fd6	-0.017997663
27	0x3bfe5e70	0.0077627227
28	0x3ba47da0	0.0050198585
29	0xbcb6b246	-0.022301804
30	0xbd1c9df0	-0.03823656
31	0xbcae2581	-0.021258118
32	0xbc16950a	-0.009190807
33	0x3c00c4f4	0.007859457
34	0xbc76b132	-0.015056895
35	0xbb87c9c9	-0.0041439277
36	0xbcdd7965	-0.027035424
37	0x3c8fe080	0.017563105
38	0xbd64121f	-0.055681344
39	0xbd5f8054	-0.054565743
40	0xbbaf84ab	-0.0053563914
41	0x3d1708c7	0.036873605
42	0x3daf1b30	0.085501075
43	0xbd184f45	-0.037184972
44	0xbc8ea53b	-0.017412772
45	0x3c6a6716	0.014306804
46	0x3d52af5a	0.05143676
47	0x3c6c94ec	0.014439803
48	0xbc635a31	-0.013876484
49	0x3d0133c8	0.031543523
50	0xbd7fda05	-0.06246378
51	0x3d425da4	0.047452584
52	0xbc7598d7	-0.014990053
53	0xbc3fe0fc	-0.011711355
54	0x3d220d17	0.039563265
55	0xbd2e6b8a	-0.042583026
56	0xbd189f1e	-0.03726112
57	0x3a9bacb7	0.0011877035
58	0xbceefd5d	-0.029173547
59	0x3d64ec41	0.05588937
60	0x3d20f916	0.039300047
61	0xbcbb8e4c	-0.022895
62	0xbce729b4	-0.028218128
63	0x3dd10f75	0.10208026
64	0xbd041f32	-0.032256313
65	0x3d53186b	0.05153696
66	0xbc81e3ee	-0.015855756
67	0x3d2dea62	0.042459853
68	0x3dda7e12	0.10668577
69	0x3dbf8a0c	0.09352502
70	0x3dea7739	0.11448521
71	0x3dbca5c6	0.09211306
72	0x3da46551	0.08027137
73	0xbb555983	-0.0032554574
74	0x3d2f7736	0.042838298
75	0xbda72b72	-0.081625834
76	0xbd936568	-0.07197076
77	0xbc832f68	-0.016013816
78	0x3ce524d0	0.027971655
79	0x3cbb6f4f	0.022880225
80	0xbb91f082	-0.0044537196
81	0xbd0197a4	-0.031638756
82	0xbd8f065b	-0.06983634
83	0xbcc7eb54	-0.024404205
84	0xbc012f70	-0.007884845
85	0x3a4ebf6c	0.00078868004
86	0x3b3bc367	0.0028650404
87	0xbcb5fcf6	-0.022215348
88	0x3c404d2c	0.011737149
89	0xbcc4b547	-0.024012221
90	0xbbaed6f5	-0.0053356835
91	0x3c1ab7b5	0.009443213
92	0xbb3a0668	-0.0028385166
93	0x3d8c7602	0.06858446
94	0xbd15bf67	-0.03655949
95	0xbd94e2eb	-0.07269844
96	0x3be6ed04	0.0070472974
97	0x3d05c195	0.032655317
98	0x3bc589a3	0.0060283705
99	0xbc6a2907	-0.014292008
100	0xbd48697a	-0.048928715
101	0x3d4a022c	0.049318478
102	0x3d1493e8	0.036273867
103	0x3de91082	0.11380102
104	0x3d9a4fca	0.0753475
105	0xbc4ed960	-0.012625068
106	0x3daed18f	0.08536064
107	0x3cbb9bd3	0.022901451
108	0xbc7e37d0	-0.015516236
109	0x3c9d12bd	0.019173974
110	0xbc89be62	-0.016814414
111	0x3bb667ce	0.0055665737
112	0xbc59ad21	-0.013285906
113	0xbcbf9278	-0.023385271
114	0x3ddbe633	0.107372664
115	0xbb89cdb5	-0.0042054304
116	0xbb074130	-0.002063822
117	0xbb9bc645	-0.00475386
118	0x3c488561	0.012238831
119	0xbaa932e4	-0.0012908843
120	0x3cb4f2cd	0.022088433
121	0x3db5dce3	0.088800214
122	0xbcd6bbce	-0.0262126
123	0x3d9ba4e1	0.075998075
124	0x3e82c93b	0.25544152
125	0x3e834cd9	0.25644568
126	0x3e8ae479	0.27127436
127	0x3c8c00dc	0.017090254
128	0x3d1c22b4	0.038119033
129	0x3cc33420	0.023828566
130	0xbd275f9e	-0.040862672
131	0xbcaea484	-0.021318682
132	0x3da0cc10	0.07851422
133	0xbc1d0b2f	-0.009585186
134	0x3e9bedad	0.3045477
135	0x3e976191	0.29566625
136	0xbc3a014e	-0.01135285
137	0xbc890ff9	-0.01673125
138	0xbd3f34af	-0.046681102
139	0x3cc328d5	0.023823181
140	0x3d12321a	0.03569231
141	0x3ca34b8c	0.019933484
142	0x3d0c6d4f	0.034283932
143	0xbb6c2557	-0.0036032998
144	0xbc676292	-0.014122622
145	0x3ceab224	0.028649397
146	0x3c5e9fe4	0.013587926
147	0xbabd45bb	-0.0014440337
148	0x3d06ad97	0.032880392
149	0x3d837cfb	0.064203225
150	0x3d35085f	0.044197436
151	0x3e1e0388	0.15431035
152	0x3e24d87c	0.16098207
153	0x3e29a24e	0.1656582
154	0x3e31d1ed	0.17365237
155	0xbcdf4706	-0.027255546
156	0x3b317132	0.0027075526
157	0x3cbee20a	0.023301143
158	0x3cc389b7	0.023869378
159	0x3b8de8bf	0.004330724
160	0x3dced7c1	0.100997455
161	0x3d9a14b8	0.07523483
162	0x3d1ff447	0.03905132
163	0xbd07d6d0	-0.033163846
164	0x3ca6f770	0.02038166
165	0xbd5555f9	-0.052083943
166	0x3c8c8f55	0.01715819
167	0xbb417836	-0.0029521114
168	0x3ca2524f	0.019814638
169	0xbd5c9ab3	-0.05385847
170	0xbd0d6f76	-0.034530126
171	0x3c94bff9	0.018157946
172	0x3ccf2308	0.025285259
173	0x3ccb8ed4	0.02484838
174	0x3a34ca4e	0.0006896601
175	0x3d863e5f	0.06554865
176	0x397d280b	0.00024142877
177	0xbde6f93d	-0.11278007
178	0xbc089460	-0.008336157
179	0x3c083863	0.008314225
180	0xbcaa275f	-0.020770727
181	0x3d42bf00	0.047545433
182	0x3dcbeb19	0.09956951
183	0xbd17efd2	-0.037093945
184	0x3d19c19b	0.037538152
185	0xbd6c9e62	-0.057768233
186	0x3d820544	0.063486606
187	0x3d149eff	0.036284443
188	0x3def7d87	0.11693864
189	0x3ba7f2f5	0.0051253983
190	0x3d01ab4b	0.0316575
191	0xbd961446	-0.073280856
192	0x3d49a6ca	0.049231328
193	0x3dca8839	0.09889264
194	0x3c0b137f	0.008488535
195	0xbc831443	-0.016000872
196	0x3db9666e	0.0905274
197	0x3b2d87fd	0.002647876
198	0x3d2077c1	0.039176706
199	0x3dbab80b	0.09117135

fc1.weight f4 [138, 416]
0	0x3cab9276	0.020943861
1	0x3c901d53	0.017592108
2	0x3ccc4ac3	0.024937993
3	0x3cbf8a81	0.023381473
4	0x3d24b5d0	0.040212452
5	0x3ce2a71a	0.02766757
6	0x3cd15a50	0.02555576
7	0x3d157a00	0.0364933
8	0x3d0da632	0.034582324
9	0x3ac27d79	0.0014838419
10	0x3d58daee	0.052943163
11	0x3d268a81	0.04065943
12	0x3abcd824	0.0014407677
13	0x3cd2e1ff	0.025742529
14	0x3c87553d	0.016520137
15	0xb9cd0e50	-0.0003911131
16	0x3d291cba	0.04128716
17	0x3d43e0dc	0.047821864
18	0x3cae12b8	0.02124916
19	0x3c64eb65	0.013972138
20	0xbba5fd62	-0.005065606
21	0x3d450e62	0.04810942
22	0x3d50a104	0.050934806
23	0x3d733718	0.059378713
24	0x3c5ef177	0.013607374
25	0x3d45dd13	0.048306536
26	0x3c64e30f	0.013970151
27	0x3d43ee8b	0.047834914
28	0xbc58e9a0	-0.013239294
29	0x3c085434	0.008320857
30	0x3cc55fc3	0.024093514
31	0x3cda9231	0.026681038
32	0x3d7705b3	0.06030817
33	0x3ccaa220	0.02473551
34	0x3d28dad1	0.041224305
35	0x3cf56f9c	0.029960446
36	0x3d0de1f6	0.03463932
37	0x3bb98f17	0.0056628096
38	0x3cba176a	0.022716243
39	0x3d1825f3	0.037145566
40	0x3d5d2b2e	0.053996257
41	0x3d81a46e	0.063301906
42	0xbc94165d	-0.01807707
43	0x3d6ce0bd	0.057831515
44	0x3c740ccb	0.014895628
45	0x3ce667bb	0.028125634
46	0x3cfdc593	0.030978
47	0x3d049dec	0.03237717
48	0x3caba38d	0.02095201
49	0x3bccd975	0.006251509
50	0x3ca1587d	0.019695515
51	0xbc19d143	-0.009388271
52	0x3d773ab1	0.060358707
53	0x3c4a22b8	0.012337379
54	0x3c54e956	0.012995085
55	0x3caec041	0.021331908
56	0x3caa51af	0.020790903
57	0x3c32d7c7	0.010915703
58	0x3c719f77	0.014747492
59	0x3d35da92	0.044397898
60	0x3cc28c0c	0.02374842
61	0x3d18b62b	0.037283104
62	0x3d4cbba0	0.04998362
63	0x3ca38ff5	0.019966105
64	0x3cc0cbd0	0.023534685
65	0x3d391b79	0.045192216
66	0x3b6f0006	0.003646852
67	0x3c4a91ac	0.012363832
68	0x3c64e38d	0.013970268
69	0x3c9d91cd	0.019234562
70	0x3d11b74c	0.035575196
71	0x3cf455ac	0.029826008
72	0x3d1bb217	0.038011637
73	0x3c642dd5	0.013926943
74	0xbbc41622	-0.0059840837
75	0x3cb53d85	0.022124061
76	0xbbbba2b7	-0.005726184
77	0x3d4aff66	0.049559973
78	0x3d605d09	0.054776225
79	0x3c3d0bb4	0.011538435
80	0x3d5d871a	0.05408392
81	0x3c691018	0.014225028
82	0x3cf362b2	0.029710148
83	0x3c46b1a6	0.012127316
84	0x3c3516c2	0.011052789
85	0x3c5afede	0.013366429
86	0x3ccae100	0.024765491
87	0x3d5ef5f6	0.054433785
88	0x3c110a26	0.008852517
89	0x3cd9ea16	0.026600879
90	0x3d2f9d1a	0.042874433
91	0x3b6395d8	0.0034726765
92	0x3cc3394f	0.023831038
93	0x3c4cd693	0.01250233
94	0x3ce58e7e	0.028022047
95	0x3cd0e39d	0.02549916
96	0x3d1f7ce3	0.03893746
97	0x3cdd273f	0.026996253
98	0x3c7a4e94	0.015277524
99	0x3d5730f7	0.05253693
100	0x3b56745e	0.003272317
101	0x3d782966	0.060586356
102	0x3bf9ef60	0.0076274127
103	0x3c8dad01	0.017294409
104	0x3a129f41	0.00055931887
105	0xbc046eee	-0.008083088
106	0x3d61b50c	0.0551043
107	0x3ca50566	0.020144176
108	0x3d5944e1	0.053044204
109	0xbcbea884	-0.023273714
110	0x3d0f0eb4	0.03492613
111	0x3d14c34f	0.036319073
112	0x3c26e943	0.01018745
113	0x3c8c70f4	0.017143704
114	0x3d5bcea8	0.05366388
115	0x3d3d0b62	0.046153434
116	0x3c00eafd	0.007868526
117	0x3bf2aa46	0.007405552
118	0x3ca823a1	0.020524802
119	0xbccba8bb	-0.02486073
120	0x3b83bd69	0.004020382
121	0xbbfed8d5	-0.0077773132
122	0xbbf8eb48	-0.007596407
123	0x3c970c0c	0.018438362
124	0x3cb142b2	0.021638248
125	0x3c799c87	0.015235073
126	0x3d177875	0.03698011
127	0x3ca12b51	0.019673975
128	0x3b71e58b	0.00369105
129	0x3d356ac5	0.044291276
130	0x3d6906ff	0.056891438
131	0x3d7543c6	0.059879087
132	0xbc63b7aa	-0.013898769
133	0x3c8af9bf	0.016964791
134	0x3cd46225	0.025925705
135	0x3c92f56b	0.01793929
136	0x3d998dfb	0.07497784
137	0x3d44ec89	0.04807714
138	0x3ccea138	0.02522336
139	0x3d3465c2	0.044042356
140	0x3ce8cefe	0.028419014
141	0x3cbb9eb8	0.022902831
142	0xbca79fd4	-0.020461954
143	0x3d16dfa2	0.036834367
144	0x3d081a53	0.03322823
145	0x3d8da2e9	0.06915838
146	0x3d46aefe	0.04850673
147	0x3d642b7c	0.055705532
148	0x3afd59dd	0.001932915
149	0x3a97166f	0.0011527071
150	0xbca14c43	-0.019689685
151	0x3d32781a	0.04357157
152	0x3d05d03d	0.032669295
153	0x3d53ed1b	0.051739793
154	0x3dd5a0b6	0.10431044
155	0x3dcb62e2	0.0993097
156	0x3d01cfd3	0.031692337
157	0x3bcf5afa	0.006327984
158	0xbc74b768	-0.014936306
159	0x3da1def3	0.07903852
160	0xbc3ea69a	-0.011636401
161	0xbc5210ad	-0.012821359
162	0x3d50ac2d	0.05094545
163	0x3d7f4d7a	0.062329747
164	0x3c00bfc9	0.007858225
165	0x3c8ec3a0	0.017427266
166	0x3c8fab7d	0.017537827
167	0x3d235640	0.039877176
168	0x3d9054f3	0.07047453
169	0x39185344	0.00014526868
170	0x3b7e1424	0.003876933
171	0x3da382a9	0.07983906
172	0x3b2d43a1	0.0026438015
173	0x3d4f3c77	0.050594773
174	0x3d8babce	0.068198785
175	0x3d37a5ca	0.044835843
176	0xbc0c440a	-0.008561144
177	0x3d996859	0.07490606
178	0x3d22c31c	0.039736852
179	0x3b916955	0.0044376054
180	0x3d55504d	0.052078534
181	0x3cda6bd1	0.026662739
182	0x3d2dc74f	0.042426404
183	0x3d583a84	0.05279018
184	0xbcc76286	-0.024338972
185	0xbb0f3efe	-0.0021857615
186	0x3c57d3ae	0.013173027
187	0x3d3fdfa0	0.046844125
188	0xbca1a6fd	-0.019732947
189	0x3d8b571c	0.06803724
190	0x3b905bd9	0.0044054803
191	0xbcb20d9c	-0.021735005
192	0x3d98044d	0.07422695
193	0xbc3f11a2	-0.011661919
194	0x3d32276f	0.043494638
195	0x3d5d9638	0.054098338
196	0x3ced3492	0.028955732
197	0x3d21442e	0.03937166
198	0x3d65fa23	0.056146752
199	0x3d4acca9	0.049511585
200	0x3d204c64	0.03913535
201	0x3cdb2f9e	0.026756104
202	0xbcae503f	-0.021278499
203	0x3d006649	0.031347547
204	0x3c9b6bcd	0.018972302
205	0xbc1b2cc6	-0.009471124
206	0x3c36c894	0.01115622
207	0x3cf9aec4	0.030478843
208	0x3d2bc602	0.04193688
209	0x3d68149a	0.056660272
210	0x3d218aab	0.039438885
211	0x3d73c1d2	0.059511013
212	0x3d279d6b	0.04092161
213	0x3d0409d4	0.032235935
214	0x3d01124c	0.03151159
215	0x3c535826	0.012899434
216	0xbc07fb20	-0.008299619
217	0x3b56c510	0.0032771267
218	0xbd268593	-0.04065473
219	0x3c7737d4	0.015088994
220	0x3d2440fd	0.04010104
221	0xbbaef530	-0.005339287
222	0x3d29a943	0.041421186
223	0x3b53c820	0.0032315329
224	0x3cd9db7e	0.02659392
225	0xbd03f1ac	-0.032212898
226	0xbc8cdc92	-0.01719502
227	0xbceb3dc6	-0.02871598
228	0xbd39ebe9	-0.045390997
229	0xbce3a244	-0.027787335
230	0x3c098508	0.0083935335
231	0xbcb4914c	-0.02204194
232	0xbd156de8	-0.036481768
233	0x3c909caa	0.017652828
234	0xbcf168b1	-0.029468866
235	0x3d2e68f5	0.042580564
236	0x3c5bfa88	0.0134264305
237	0xbcca749b	-0.024713805
238	0x3c1cae74	0.009563077
239	0xbd46f56d	-0.0485739
240	0xbd328620	-0.043584943
241	0x3b190210	0.0023347177
242	0xbccc9a8a	-0.024976034
243	0x3cc17cda	0.023619104
244	0x3c958bd6	0.018255156
245	0x3cecc55a	0.028902698
246	0x3b520e40	0.003205195
247	0x3c193088	0.00934995
248	0x3ba635b0	0.005072318
249	0x3c8772aa	0.016534168
250	0x3c968372	0.018373225
251	0x3b617f90	0.0034408309
252	0xbd2407d4	-0.040046528
253	0xbca401a5	-0.020020315
254	0xbd47a4ed	-0.04874127
255	0xbc6f9e48	-0.01462514

fc1.bias f4 [138]
0	0xbbb12930	-0.0054065213
1	0xbd803f7b	-0.06262108
2	0xbde0449d	-0.10950587
3	0xbd0e587e	-0.03475236
4	0x3c56a10c	0.01309992
5	0xbd9f15c1	-0.07767821
6	0xbe52d9c7	-0.20590888
7	0xbd110aa5	-0.035410542
8	0x3c48d760	0.012258381
9	0xbd45616d	-0.048188616
10	0xbd04cf51	-0.032424275
11	0x3d0bf4b1	0.034168903
12	0xbe247f45	-0.16064174
13	0xbd9ffe35	-0.07812158
14	0x3cf38687	0.029727234
15	0xbdb6ef9a	-0.08932419
16	0xbd235aa7	-0.039881375
17	0x3bc0bb7e	0.005881726
18	0x3cd8260b	0.026385328
19	0xbd629e54	-0.055326775
20	0xbdc8f972	-0.09813203
21	0xbd0a5e76	-0.03378149
22	0xbd489ddd	-0.048978675
23	0x3d2da271	0.042391244
24	0x3c3e5e3e	0.011619149
25	0x3d1d247b	0.03836487
26	0xbcc7c87b	-0.024387589
27	0xbc172b0e	-0.009226574
28	0xbd3aa01d	-0.045562852
29	0xbd47c489	-0.048771415
30	0xbd23226a	-0.03982774
31	0xbde6115c	-0.1123378
32	0x3ca52131	0.020157428
33	0xbd9bcce4	-0.07607439
34	0xbb9fb14f	-0.0048734318
35	0xbd7bdbf2	-0.061489053
36	0xbe56319a	-0.20917359
37	0x3b25c096	0.0025291792
38	0xbbb2b885	-0.0054541253
39	0xbd1b55f7	-0.03792378
40	0x3cea956f	0.028635709
41	0xbb9385d7	-0.004502039
42	0xbccbd2e2	-0.02488083
43	0xbd7521c8	-0.05984667
44	0xbd06c6fb	-0.032904606
45	0x3c4de236	0.01256614
46	0xbcd14972	-0.025547717
47	0xbcf0f782	-0.029414896
48	0xbcb62295	-0.022233287
49	0x3c96af1c	0.018394046
50	0xbd317a8d	-0.043329764
51	0xbd7bb0a9	-0.061447773
52	0xbe10afc1	-0.14129545
53	0x3cd57775	0.026057938
54	0xbd96f7d9	-0.07371492
55	0xbcbb5d78	-0.022871718
56	0xbe1b6907	-0.15176784
57	0x3c7db28e	0.015484465
58	0x3c95f77a	0.018306483
59	0xbceecbd1	-0.029149922
60	0xbc672b1a	-0.014109397
61	0xbd8a1566	-0.06742363
62	0x3c1fede5	0.009761308
63	0x3d08dc75	0.03341337
64	0xbdd08120	-0.10180879
65	0x3c3eeba8	0.0116528645
66	0xbb92fd92	-0.0044857943
67	0xbd08ee77	-0.033430543
68	0xb99e1866	-0.00030154287
69	0xbb60a530	-0.0034278147
70	0xbd14f000	-0.036361694
71	0xbc458fda	-0.012058223
72	0xbd77d340	-0.060504198
73	0xbd2c3c0a	-0.042049445
74	0xbd223226	-0.039598607
75	0xbd9b8cbf	-0.075952046
76	0xbe2b681e	-0.16738936
77	0x3c2d8622	0.010591062
78	0x3cac4a66	0.02103157
79	0x3c21c46c	0.009873491
80	0xbd05a24e	-0.03262549
81	0x3baa259f	0.005192473
82	0xbd6703e7	-0.056400206
83	0x3c13cc22	0.009020837
84	0x3cce2188	0.025162473
85	0xbb9f34d6	-0.0048585935
86	0xbc3acd21	-0.011401446
87	0x3c5d6de7	0.013514972
88	0x3cbe73c6	0.023248564
89	0xbd2f5b3b	-0.042811614
90	0xbadcc02d	-0.0016841941
91	0xbcc7cced	-0.024389708
92	0xbdfcf22a	-0.12350877
93	0xbd0ecffa	-0.03486631
94	0xbb656ae5	-0.003500634
95	0xbc8c370f	-0.017116098
96	0x3c90e48c	0.017687105
97	0xbd0562e6	-0.03256502
98	0xbbcfb355	-0.0063385167
99	0xbdf36b67	-0.1188572
100	0x3d2306b9	0.039801333
101	0x3ca2b8c4	0.019863494
102	0x3c8f81f2	0.017518017
103	0x3d0c445f	0.03424489
104	0xbd235853	-0.039879154
105	0xbd330f9e	-0.043716066
106	0x3c69c834	0.014268924
107	0xbd5accbc	-0.053417906
108	0xbd64a05b	-0.05581699
109	0xbd859196	-0.06521909
110	0xbc617df8	-0.013762943
111	0x3cc90bfd	0.02454185
112	0xbd76da91	-0.060267035
113	0x3a907d44	0.001102366
114	0x3c029278	0.007969491
115	0xbca25a0d	-0.01981833
116	0xbe0a4d32	-0.1350601
117	0x3c021b9b	0.007941152
118	0xbc672461	-0.0141077945
119	0x3b158d02	0.0022819643
120	0xbd8516cf	-0.06498491
121	0xbca9e047	-0.020736827
122	0x3ce33033	0.027732944
123	0x3c4bf77b	0.012449141
124	0xbc49500a	-0.012287149
125	0x3c41b799	0.011823558
126	0xbc477294	-0.012173314
127	0xbc02f648	-0.007993288
128	0xbd14af95	-0.03630026
129	0xbe115340	-0.14191914
130	0xbd6caf64	-0.057784453
131	0xbd8613b0	-0.06546724
132	0xbd99f2f0	-0.0751704
133	0x3b71465c	0.003681562
134	0xbb86a84c	-0.004109418
135	0xbdce7100	-0.10080147
136	0xbc35ff89	-0.011108288
137	0xbde92129	-0.11383278

fc2.weight f4 [69, 138]
0	0xbc98f03f	-0.018669246
1	0x3d04f88c	0.032463595
2	0x3af59cf8	0.0018738797
3	0xbd78e30d	-0.060763407
4	0xbc9ce8a0	-0.019153893
5	0x3d59e96a	0.053201117
6	0x3c06cb59	0.008227193
7	0x3d29f669	0.04149476
8	0xbd40668e	-0.046972804
9	0xbd8d3917	-0.06895655
10	0xbb8447c1	-0.004036874
11	0xbb007f20	-0.0019607022
12	0x3c0f308c	0.008739602
13	0xbbc1f744	-0.005919369
14	0xbd0e60e7	-0.034760382
15	0xbc804a79	-0.015660511
16	0x3c841f98	0.016128346
17	0x3bb1f641	0.005430967
18	0x3cb3f9d1	0.021969708
19	0xbbbd67c2	-0.005780191
20	0xbc49c833	-0.012315798
21	0x3c005edf	0.007835119
22	0xbcb3275c	-0.021869354
23	0xbc8a144b	-0.01685538
24	0xbcf6852e	-0.030092802
25	0x3acf065b	0.0015794741
26	0x3d7ab917	0.06121167
27	0xbd32a690	-0.043615878
28	0x3d7fa539	0.062413428
29	0x3c4dc5ab	0.012559335
30	0xbd42a60e	-0.047521643
31	0x3c0b2cc6	0.008494562
32	0xbd785527	-0.060628083
33	0x3a022a7c	0.0004965437
34	0x3ced1531	0.028940769
35	0xbdb28cb0	-0.0871824
36	0x3c202714	0.009774942
37	0xbd361974	-0.044457868
38	0x3ce9190c	0.028454326
39	0x3b36441f	0.00278116
40	0x3d3e3abd	0.046442736
41	0x3d93a31a	0.072088435
42	0xbd1b706e	-0.03794902
43	0xbcf1e275	-0.029526928
44	0x3d97bc31	0.074089415
45	0xbcbf4871	-0.023349972
46	0x3c3a3421	0.011364968
47	0xbd824307	-0.06360441
48	0x3d791af8	0.060816735
49	0x3db6e864	0.08931044
50	0xbd44426e	-0.047914915
51	0x3cb150af	0.021644918
52	0x3bd6f7e0	0.0065603107
53	0x3c22b026	0.009929692
54	0x3cc9927e	0.024605986
55	0xbd974454	-0.073860794
56	0x3c3ea0b4	0.011634994
57	0x3d07da70	0.033167303
58	0xbce99145	-0.028511653
59	0x3c8ae8a1	0.01695663
60	0xbb96d129	-0.0046025706
61	0xbdab609f	-0.083680384
62	0xbd6f64da	-0.05844579
63	0xbd557cc9	-0.052120958
64	0xbde83528	-0.11338264
65	0xbd629fc9	-0.055328164
66	0x3c031791	0.008001224
67	0xbc82675c	-0.015918426
68	0xbd706fbe	-0.058700316
69	0xbd452883	-0.048134338
70	0x3bb82100	0.0056191683
71	0xbd68c0f2	-0.056824632
72	0x3cfab622	0.030604426
73	0x3d9e0e54	0.077175766
74	0x3cb94d4b	0.022619864
75	0xbd198c48	-0.0374873
76	0x3c673c77	0.014113537
77	0x3d9eec1c	0.07759878
78	0xbc82f9b4	-0.015988208
79	0x3dd40001	0.10351563
80	0x3cb35bfa	0.021894444
81	0xbd7ad90d	-0.061242152
82	0xbd945511	-0.07242788
83	0xbc9530d1	-0.018211754
84	0x3dddf4af	0.10837685
85	0xbd969a6e	-0.07353674
86	0x3dc23b0e	0.0948392
87	0xbd894ea8	-0.067044556
88	0x3d968474	0.07349482
89	0xbd5fcbbb	-0.054637652
90	0xbd7f9a79	-0.062403176
91	0xbced4c58	-0.028967068
92	0x3c0c7df9	0.008574956
93	0x3d23c78f	0.039985236
94	0xbd8d7f87	-0.069090895
95	0xbd1135f6	-0.03545185
96	0x3d7de75b	0.061988216
97	0x3d0ed992	0.03487546
98	0x3d94fcc6	0.07274775
99	0x3d0ce89d	0.034401525
100	0x3d89268a	0.06696804
101	0xbd107b45	-0.03527381
102	0x3d66b950	0.05632907
103	0x3d20b5d2	0.039235897
104	0x3baeea43	0.0053379848
105	0x3c0678ea	0.008207539
106	0xbd34ab45	-0.044108648
107	0x3d591947	0.053002622
108	0x3d3045b6	0.04303523
109	0xbbbbc122	-0.0057298103
110	0xbd70ac16	-0.058757864
111	0xbb978a8b	-0.00462467
112	0x3b1a6e35	0.0023564224
113	0x3caf0cad	0.021368349
114	0x3d073c3a	0.03301642
115	0xbd390baf	-0.045177158
116	0x3b59eeb6	0.0033253855
117	0x3d22a13a	0.03970454
118	0xbc8d62a4	-0.01725895
119	0x3c77bd2e	0.015120788
120	0x3d4e79b7	0.050409045
121	0x3cb3fed5	0.0219721
122	0x3c58dcc2	0.0132362265
123	0x3d63ec20	0.05564511
124	0xbd1677e4	-0.03673543
125	0x3def6142	0.11688472
126	0xba18e7ae	-0.0005832863
127	0xbc971730	-0.018443674
128	0x3daebcb6	0.085320875
129	0xbd39e559	-0.04538474
130	0xbba69fd0	-0.005084969
131	0xbc7735a3	-0.015088472
132	0x3c31d343	0.010853591
133	0xbd029087	-0.031876113
134	0xbbb19ce0	-0.0054203123
135	0xbb70ce0d	-0.003674391
136	0x3c856d72	0.01628754
137	0x3cae3482	0.021265272
138	0x3c9c4bf2	0.019079182
139	0x3d183e2c	0.037168667
140	0xbc504f17	-0.012714169
141	0x3d87a05e	0.066223845
142	0xbd43f40e	-0.04784017
143	0x3c0b6b24	0.008509431
144	0x3db9dbb9	0.09075112
145	0xbd629b7f	-0.055324074
146	0x3d9b44fe	0.075815186
147	0xbaf7dbb8	-0.0018910086
148	0xbd45f286	-0.04832699
149	0x3d79d4d0	0.06099397
150	0x3daec708	0.08534056
151	0xbcade48d	-0.021227146
152	0x3d0cc13e	0.034363978
153	0x3aa1b625	0.0012337608
154	0xbd6072c9	-0.054796968
155	0x3c1c996a	0.009558061
156	0xbc682e8a	-0.014171252
157	0x3c2cad75	0.010539402
158	0xbd8cb779	-0.06870932
159	0x3b317b7f	0.0027081666
160	0x3d41873c	0.04724811
161	0xbd01db61	-0.031703357
162	0xbb19c1e6	-0.002346152
163	0xbd57ae4e	-0.052656464
164	0xba950acf	-0.0011371019
165	0xbc779177	-0.015110365
166	0xbd121a31	-0.03566951
167	0x3d899ea5	0.06719712
168	0x3b79c726	0.0038113086
169	0x3cefd403	0.0292759
170	0xbca7dc2c	-0.020490728
171	0xbd8d26de	-0.06892179
172	0x3c1b4c14	0.009478588
173	0xbd0414be	-0.032246344
174	0x3e16e0c6	0.14734182
175	0x3d21d737	0.039511885
176	0x3d9952e1	0.07486511
177	0x3d20c27b	0.03924797
178	0xbd740c23	-0.059581887
179	0x3cdce08e	0.026962545
180	0x3c750b84	0.014956359
181	0x3cf24d72	0.029577944
182	0x3ceb8774	0.028751113
183	0xbbab5445	-0.0052285516
184	0x3d96be6d	0.073605396
185	0x3c9a56d8	0.018840238
186	0x3d3b2a8c	0.045694873
187	0x3b20a1e7	0.0024510564
188	0xbd80666d	-0.06269536
189	0x3c48277c	0.012216445
190	0x3d86f3f2	0.065894976
191	0xbd80db6f	-0.06291854
192	0x3e9e62f3	0.30934867
193	0x3c9ce7f3	0.01915357
194	0x3dada265	0.0847824
195	0xbd8c559f	-0.068522684
196	0xbd65af32	-0.056075282
197	0xbbbc0104	-0.0057374258
198	0x3a8ed050	0.0010895822
199	0x3d48e253	0.049043965
200	0x3d173cb5	0.03692313
201	0xbd74fd7b	-0.05981205
202	0xbc325ba0	-0.010886103
203	0xbd238ce0	-0.03992927
204	0x3c912030	0.017715544
205	0xbd1a56c5	-0.037680406
206	0xbd82c684	-0.0638552
207	0xbd79f89e	-0.061028115
208	0x3d86d711	0.065839894
209	0x3b51eca0	0.0032031909
210	0xbcd0d685	-0.025492916
211	0xbba16256	-0.0049250526
212	0xbd553426	-0.052051686
213	0x3c896f5c	0.016776733
214	0x3e1b9b0a	0.15195861
215	0xbca59583	-0.020212894
216	0xbd50b606	-0.05095484
217	0x3d83a0e5	0.064271726
218	0x3bcaa764	0.0061845053
219	0x3d534d03	0.051587116
220	0xbd5157c4	-0.05110909
221	0xbd69a685	-0.05704357
222	0x3c7ae663	0.015313718
223	0xbcd2b26c	-0.025719844
224	0xbd232cf9	-0.03983781
225	0xbd0382e8	-0.032107264
226	0x3ce62f30	0.028098673
227	0xbd82eef7	-0.06393235
228	0xba89db38	-0.0010517603
229	0x3da5d416	0.08097093
230	0x3d9466ce	0.07246171
231	0x3d43d405	0.04780962
232	0xbd882c8b	-0.06649121
233	0xbcdd47df	-0.02701181
234	0x3d252bab	0.04032485
235	0xbd55f624	-0.05223669
236	0x3c72bd8f	0.014815702
237	0x3d2fa560	0.042882323
238	0x3d13ba71	0.036066476
239	0xbccabb35	-0.02474747
240	0x3d8fa438	0.07013744
241	0xbd6e6707	-0.058203723
242	0x3d1abbcf	0.037776764
243	0x3c7daf89	0.015483745
244	0xbd65fb8a	-0.05614809
245	0x3d4361cf	0.0477007
246	0x3d74f8f5	0.059807736
247	0x3d9743e8	0.07385999
248	0x3d340504	0.043950096
249	0xbd675b86	-0.056483768
250	0x3db9353a	0.09043355
251	0xbd889edf	-0.06670927
252	0xbda08388	-0.078375876
253	0xbca653f4	-0.020303704
254	0x3d4266ef	0.047461446
255	0x3d9143ec	0.07093033

fc2.bias f4 [69]
0	0x3e0e093f	0.13870715
1	0xbd028122	-0.031861432
2	0xbd756a63	-0.05991591
3	0xbcfda4f7	-0.03096245
4	0xbdfa1216	-0.12210481
5	0x3d4df74d	0.050284673
6	0xbd944186	-0.0723906
7	0x3d0f6ef7	0.035017934
8	0x3d97b381	0.074072845
9	0xbda59ef8	-0.080869615
10	0xb9978ca2	-0.00028905744
11	0x3d9a8b7c	0.07546136
12	0x3e164bac	0.14677304
13	0x3d67a1fc	0.056550965
14	0x3d549e0f	0.05190855
15	0x3d5de3dc	0.05417238
16	0xbb471432	-0.0030377028
17	0xba02c3ee	-0.0004988302
18	0xbd173b53	-0.03692181
19	0xbd706bb7	-0.058696475
20	0xbd78ae3a	-0.06071303
21	0xbbfdd032	-0.007745766
22	0xbc4d2a9a	-0.012522364
23	0xbdbb76ec	-0.09153542
24	0xbc65086e	-0.013979061
25	0xbda8218f	-0.08209526
26	0x3e0710cf	0.13190006
27	0xbd0b2749	-0.033973012
28	0xbd2db8af	-0.042412456
29	0x3d995eee	0.074888095
30	0x3d93fe94	0.07226291
31	0xbd05ca9b	-0.032663923
32	0xbd0663f7	-0.032810178
33	0x3e478a20	0.19486284
34	0xbd301b7d	-0.042994965
35	0xbc74b8d8	-0.014936648
36	0xbd62d5dd	-0.055379737
37	0xbd959b97	-0.07305067
38	0xbc72ce9d	-0.014819768
39	0x3da70a14	0.08156219
40	0xbd78f312	-0.060778685
41	0x3c977750	0.01848951
42	0xbd82f6e1	-0.06394745
43	0xbdc0e774	-0.09419146
44	0xbe1101f9	-0.14160909
45	0xbde273f4	-0.110572726
46	0xbdae64a4	-0.085152894
47	0x3bfa08e9	0.0076304567
48	0xbddda54c	-0.108225435
49	0xbd393102	-0.045212753
50	0xbd957f92	-0.07299723
51	0xbdc1c680	-0.09461689
52	0x3d80bbcb	0.06285819
53	0xbd0a8365	-0.033816714
54	0x3d45517b	0.04817341
55	0xbdab1239	-0.08353085
56	0x3d00a953	0.03141148
57	0x3d94b2fa	0.072606996
58	0xbd3c5d99	-0.0459877
59	0xbd8362a4	-0.064152986
60	0x3c815f7c	0.0157926
61	0x3d71714a	0.05894593
62	0xb918cf08	-0.00014572975
63	0x3d8e43ed	0.069465496
64	0xbd2aeb1c	-0.041728124
65	0xbc36e4d5	-0.011162956
66	0x3d928e4d	0.07156048
67	0x3d887e6c	0.06664738
68	0x3c07653c	0.008263882

fc3.weight f4 [200, 69]
0	0xbdc75ff7	-0.09735101
1	0xbdd40540	-0.10352564
2	0x3cad0f9b	0.021125605
3	0xbc73a72c	-0.0148714
4	0x3c9bc52d	0.01901492
5	0xbc80ba81	-0.015713932
6	0xbda745f5	-0.0816764
7	0xbbb44a5c	-0.0055020284
8	0x3d72771d	0.059195627
9	0xbd38ac0d	-0.045085955
10	0xbd8ecf1e	-0.06973098
11	0xbdc080bc	-0.09399554
12	0xbda198aa	-0.078904465
13	0xbdafebd3	-0.08589902
14	0x3c8e7ff6	0.017395
15	0x3d9009e4	0.070331365
16	0xbddf81f2	-0.10913457
17	0x3d84bdac	0.064814895
18	0xbd2b36b5	-0.04180022
19	0x3ca679b8	0.020321712
20	0x3dc8b60c	0.09800348
21	0x3c5ae64c	0.013360571
22	0x3d8c0baa	0.06838162
23	0x3cd2ba33	0.025723552
24	0x3c75a6eb	0.01499341
25	0x3dbd73ee	0.092506275
26	0x3dac113c	0.08401725
27	0x3ca84122	0.02053887
28	0x3d988bee	0.074485645
29	0x3d4c81f3	0.049928617
30	0xbd59435a	-0.053042747
31	0x3c9a3757	0.018825216
32	0xbde7f988	-0.11326891
33	0x3d3b3057	0.045700397
34	0xbd516fb9	-0.051131938
35	0x3ddc4a91	0.1075641
36	0x3db1ded0	0.08685076
37	0x3ced7647	0.028987063
38	0xbda0ec0f	-0.078575246
39	0x3dc51938	0.09623951
40	0x3dcb5a0b	0.09929284
41	0xbc8268c4	-0.015919097
42	0x3c807708	0.015681759
43	0x3d284792	0.04108388
44	0xbbc4e79d	-0.006009056
45	0xbdcffb20	-0.1015532
46	0xbdcbc9f7	-0.09950631
47	0x3d8d7d01	0.06908608
48	0xbd9c2efb	-0.07626148
49	0xbd70a18d	-0.058747817
50	0x3d57afb6	0.052657805
51	0xbd03369c	-0.0320345
52	0xbd2510c9	-0.04029921
53	0xbd118331	-0.035525504
54	0x3d652764	0.05594577
55	0x3c70e3c0	0.014702737
56	0x3d0bf8a0	0.034172654
57	0x3d2e272c	0.042517826
58	0x3da09b6f	0.078421466
59	0x3cafdb39	0.021466838
60	0xbd94be3d	-0.072628476
61	0xbdd132e5	-0.102147855
62	0x3db6096c	0.08888516
63	0x3ddf15ff	0.10892867
64	0x3da9fb08	0.082998335
65	0x3d64e094	0.055878237
66	0xbd8cef30	-0.06881559
67	0x3ba25907	0.0049544605
68	0xbdd334ae	-0.10312782
69	0x3c839a0e	0.01606467
70	0x3db71ae2	0.08940674
71	0x3da6b052	0.08139099
72	0x3c790017	0.015197775
73	0x3ce16568	0.027514175
74	0xbda9b623	-0.08286693
75	0x3dcbbc2a	0.09947999
76	0xbca7c074	-0.020477511
77	0xbd16ec7d	-0.036846627
78	0x3d80fb38	0.06297916
79	0xbdca5447	-0.09879356
80	0xbdbc50c7	-0.091950946
81	0xbde39efa	-0.11114307
82	0x3c825ab5	0.015912393
83	0xbd853f8d	-0.06506262
84	0xbdbf9997	-0.09355467
85	0x3dcf09c5	0.10109285
86	0xbd9bf296	-0.07614629
87	0xbd8d99f3	-0.06914129
88	0xbda01c1f	-0.07817864
89	0x3c9ec437	0.019380672
90	0xbd89e7d6	-0.06733672
91	0x3dbbeef0	0.09176433
92	0x3e0347cf	0.12820362
93	0x3d98123b	0.07425352
94	0x3d880dee	0.06643282
95	0x3d382201	0.044954304
96	0x3cdca95e	0.02693623
97	0x3dd6f947	0.10496765
98	0x3de14336	0.109991476
99	0xba3148a1	-0.0006762837
100	0xbdc32445	-0.09528402
101	0xbde8b71c	-0.1136305
102	0xbd21d5f2	-0.039510675
103	0x3daefec7	0.08544689
104	0xbca25097	-0.019813819
105	0xbd28a7b0	-0.041175544
106	0x3cf187f4	0.029483773
107	0xbb153556	-0.0022767386
108	0x3dbf0b8c	0.09328374
109	0x3c456b3b	0.0120494915
110	0xbc78fc68	-0.015196897
111	0xbe07cc51	-0.13261534
112	0xbde74c7d	-0.11293886
113	0xbda51874	-0.08061305
114	0xbdebc7a5	-0.115126885
115	0xbdd86d2a	-0.105676964
116	0x3dace994	0.08442989
117	0x3c1fab2a	0.009745399
118	0xbc571dbe	-0.01312965
119	0xbdcc021e	-0.09961341
120	0x3cbad1f3	0.02280519
121	0x3dc6f6fa	0.09715076
122	0x3d65ce17	0.056104746
123	0xbccdf899	-0.025142955
124	0xbc0441e8	-0.008072354
125	0x3cd5506d	0.026039327
126	0x3da63fda	0.081176475
127	0x3d1d96ba	0.038473822
128	0x3d808546	0.0627542
129	0x3cbb7ddb	0.022887161
130	0x3c8062d5	0.015672127
131	0x3d3f2829	0.04666916
132	0x3d967871	0.07347191
133	0x3d22cf69	0.039748583
134	0xbdf49990	-0.11943352
135	0xbda30468	-0.07959825
136	0xbdd069ee	-0.101764545
137	0xbe0086c4	-0.12551409
138	0xbdcc1078	-0.09964079
139	0xbdea4ce3	-0.11440446
140	0xbc531299	-0.012882852
141	0x3da7cec8	0.08193737
142	0x3c3939dc	0.011305299
143	0xbcaae5fd	-0.02086162
144	0xbde73c9c	-0.11290857
145	0x3de7a83a	0.113113835
146	0x3dd51e41	0.10406161
147	0x3d9ef25d	0.07761071
148	0x3d613bc5	0.05498864
149	0x3d9feb16	0.07808511
150	0x3d1d0c29	0.038341675
151	0xbd1d8a30	-0.038461864
152	0x3d0801ca	0.03320483
153	0x3d0e512c	0.03474538
154	0x3bb25afb	0.0054429746
155	0xbd7ee50a	-0.062230147
156	0x3da84c32	0.08217658
157	0xbdf56b4c	-0.11983356
158	0x3d7886e2	0.06067551
159	0x3d1207c8	0.035651952
160	0x3d83398a	0.06407459
161	0xbbab534f	-0.005228437
162	0x3df75fc2	0.12078811
163	0x3dc81adc	0.09770748
164	0x3d9a0a79	0.07521529
165	0x3c394468	0.011307813
166	0x3dbf997b	0.09355446
167	0xbca0e21d	-0.01963907
168	0xbda00ac6	-0.07814555
169	0xbc3516a1	-0.011052758
170	0xbb486aa4	-0.003058114
171	0xbd1f6ae2	-0.03892029
172	0xbd013776	-0.031547032
173	0xbdd596db	-0.10429164
174	0x3d84e1c0	0.06488371
175	0xb9de411d	-0.00042391653
176	0xbd0da4b6	-0.03458091
177	0xbd9d7233	-0.076877974
178	0xbddfdd1e	-0.10930847
179	0xbdab636e	-0.08368574
180	0xbdf5e9e0	-0.12007499
181	0xbc9b181b	-0.018932393
182	0xbc8fb2c6	-0.0175413
183	0xbd21e449	-0.03952435
184	0x3de2ff64	0.11083868
185	0xbca4cf95	-0.020118514
186	0xbd5c65c6	-0.053807996
187	0xbd42d640	-0.047567606
188	0xbdcddc18	-0.10051745
189	0x3d2e3b7a	0.04253719
190	0xbd2abc3b	-0.041683417
191	0xbcc366b4	-0.023852684
192	0xbb7efab9	-0.0038906767
193	0xbd270d48	-0.04078415
194	0x3d9fd38b	0.078040205
195	0xbcbad731	-0.02280769
196	0xbda631b4	-0.08114949
197	0x3d47f8d1	0.048821274
198	0x3d8b97c8	0.06816059
199	0xbdaf6b4c	-0.08565387
200	0x3df6ca71	0.120503314
201	0xbd53c168	-0.05169812
202	0x3d3765ac	0.044774696
203	0x3ddb7509	0.10715682
204	0xbdbfc440	-0.093636036
205	0xbcecfbdb	-0.028928688
206	0xbdf54368	-0.11975747
207	0xbd997534	-0.07493058
208	0x3ba24f91	0.0049533327
209	0xbd4611ce	-0.048356824
210	0x3d1b34d7	0.03789219
211	0x3caa2e33	0.020773983
212	0x3dc7f82c	0.09764132
213	0x3d897150	0.06711066
214	0x3cacc398	0.02108936
215	0xbdb333b0	-0.08750093
216	0xbc6a1787	-0.014287836
217	0x3d77c73c	0.06049274
218	0xbc89b126	-0.016808104
219	0xbd6d1de1	-0.057889823
220	0xbdcd515b	-0.10025283
221	0xbbb5f56b	-0.0055529377
222	0xb9d0ab2c	-0.00039800385
223	0xbd87b306	-0.06625943
224	0xbbf8b13c	-0.0075894874
225	0xbd873a39	-0.06602902
226	0x3d8e0eee	0.06936441
227	0xbc8b70b1	-0.017021509
228	0xbc09c00f	-0.008407607
229	0x3d862ef6	0.06551926
230	0xbd804b17	-0.06264322
231	0x3d0db041	0.034591917
232	0xbdde4547	-0.10853057
233	0xbd96fb1d	-0.07372115
234	0xbdd4aeb0	-0.103848815
235	0x3dded48d	0.108803846
236	0x3d47b5f7	0.04875752
237	0x3ddbf7da	0.10740633
238	0xbda3f903	-0.080064796
239	0x3c512759	0.012765729
240	0x3da5c933	0.08095016
241	0xbdc2b414	-0.095070034
242	0x3dedb268	0.11606294
243	0x3d88e940	0.06685114
244	0x3d8b9294	0.06815067
245	0x3dbf96ca	0.093549326
246	0xbd54b7ec	-0.051933214
247	0xbd0dfb63	-0.03466357
248	0x3c6a72c0	0.014309585
249	0x3da0a504	0.07843974
250	0xbca86289	-0.020554798
251	0xbbc06e3e	-0.005872517
252	0xbcdcc597	-0.026949687
253	0x3ba5b590	0.0050570443
254	0x3ce5f17a	0.028069247
255	0x3bda11e1	0.0066549634

fc3.bias f4 [200]
0	0x3cc97773	0.02459309
1	0xbd0c1702	-0.03420163
2	0xbd0c259c	-0.034215555
3	0x3cbd270c	0.023089908
4	0xbb726dee	-0.0036991793
5	0xbc7443a2	-0.014908703
6	0x3d87d428	0.066322625
7	0xbd88f592	-0.06687464
8	0xbc713ecf	-0.014724447
9	0xbc2e11f2	-0.010624396
10	0xbd4026c1	-0.04691196
11	0x3da178f0	0.07884395
12	0xbd922d23	-0.071375154
13	0x3c9d2e50	0.019187123
14	0x3cab3d84	0.020903356
15	0xbc71db09	-0.014761695
16	0x3d4400b0	0.04785222
17	0xbdac293c	-0.08406302
18	0x3dc80902	0.09767343
19	0xbcb083b7	-0.021547182
20	0xbd9a9cb8	-0.07549423
21	0x3dbf5c56	0.093437836
22	0x3c1435ab	0.009045999
23	0xbc2afc42	-0.0104361195
24	0x3dd73581	0.10508252
25	0xbda1db23	-0.07903125
26	0xbe0709e7	-0.13187371
27	0xbdb7b6d7	-0.08970421
28	0xbc7d994b	-0.015478442
29	0xbda15799	-0.07878036
30	0xbda1f9fc	-0.07909009
31	0x3d2aaf0a	0.041670837
32	0xbc075f9a	-0.008262539
33	0xbdcc687b	-0.099808656
34	0x3d2e5c04	0.04256822
35	0x3de9116d	0.11380277
36	0x3b631eb9	0.0034655763
37	0x3d3f7161	0.046738986
38	0xbd6cd563	-0.05782069
39	0x3c643d02	0.013930561
40	0x3bfd3a9e	0.007727935
41	0x3d2d52a5	0.042315144
42	0xbce4c2b5	-0.027924875
43	0x3c4f3a59	0.0126481885
44	0x3c751ec7	0.014960951
45	0x3cca4281	0.024689915
46	0xbd803b13	-0.062612675
47	0xbd87b067	-0.06625443
48	0x3dce9aaa	0.100880936
49	0x3d04029f	0.032229062
50	0x3d0e3c60	0.034725547
51	0x3b83f2f8	0.004026767
52	0x3dc6e646	0.0971189
53	0x3aca456f	0.001543207
54	0x3c141913	0.009039181
55	0x3cc18506	0.023623
56	0x3cf4dd0c	0.02989056
57	0xbd2ea8b4	-0.042641357
58	0x3d278dd7	0.040906753
59	0xbc3ea663	-0.011636349
60	0xba9bc8ea	-0.0011885439
61	0x3d92b290	0.07162964
62	0x3ba7532a	0.0051063495
63	0x3c935fe9	0.01799007
64	0x3c8e42f5	0.017365912
65	0xbd32fac1	-0.04369617
66	0x3c3cb539	0.011517816
67	0x3e09d65a	0.13460675
68	0x3ce9d37c	0.028543226
69	0xbc0055a0	-0.007832915
70	0x3c96a9a1	0.018391432
71	0xbbe40841	-0.0069589918
72	0xbd1d7d4c	-0.03844957
73	0xbcc3cf8d	-0.023902679
74	0xbcecafa1	-0.02889234
75	0xbdc1f740	-0.09470987
76	0xbcba0d65	-0.022711465
77	0x3d7d461e	0.061834447
78	0xbd92d048	-0.07168633
79	0x3e000d05	0.12504967
80	0x3d1e65c7	0.03867128
81	0xbd7e5bfc	-0.062099442
82	0x3d480d01	0.048840526
83	0xbdd253c8	-0.10269886
84	0x3dccd263	0.100010656
85	0xbd35b34c	-0.044360444
86	0xbdd3529d	-0.103184916
87	0x3be5422e	0.0069964146
88	0xbd93cca4	-0.072167665
89	0xbc15965c	-0.009130087
90	0xbba36f09	-0.0049876017
91	0xbd02613d	-0.031831015
92	0x3d2caf7c	0.042159542
93	0xbc357d75	-0.011077275
94	0xbcb1d7a4	-0.02170927
95	0xbd47a0ce	-0.04873734
96	0xbc80d248	-0.01572527
97	0xbd48037d	-0.04883145
98	0x3d495741	0.049155477
99	0xbd01f3c0	-0.0317266
100	0xbd5547f4	-0.052070573
101	0x3d43a1ce	0.04776173
102	0xbc8839fa	-0.016629208
103	0x3cab16f5	0.02088497
104	0x3dec3554	0.11533609
105	0xbd87ce8a	-0.06631191
106	0x3cba0501	0.022707464
107	0x3d9ed66f	0.07755744
108	0xbb9824ca	-0.0046430575
109	0xbd8c9331	-0.06864012
110	0x3c05fc6f	0.008177861
111	0xbde25910	-0.110521436
112	0xbd80d802	-0.062912
113	0xbbe9fdce	-0.0071408516
114	0x3e1ae6f0	0.15127158
115	0xbdd7ebb9	-0.105430074
116	0xbdc84e6f	-0.09780585
117	0x3dce2c95	0.10067097
118	0xbd8b704e	-0.0680853
119	0xbd710a79	-0.058847878
120	0x3df7e167	0.12103539
121	0xbc8c01d8	-0.017090723
122	0xbdacc878	-0.08436674
123	0x3db68f93	0.08914103
124	0x3eae7492	0.3407331
125	0x3eb8b045	0.36071983
126	0x3e74d584	0.23909575
127	0x3d638cc5	0.05555417
128	0xbbf421f8	-0.0074503385
129	0xbdc4abfa	-0.096031144
130	0x3d9b3a99	0.07579536
131	0xbe0ff9e3	-0.14060168
132	0x3ccedd47	0.025251998
133	0x3dd424df	0.10358595
134	0x3e51c6b9	0.20485963
135	0x3ecd616f	0.40113398
136	0x3d0c7786	0.034293674
137	0x3d1322bb	0.035921793
138	0x3cb52483	0.022112137
139	0x3df60072	0.12011804
140	0x3d2d39fe	0.042291634
141	0x3d44c935	0.04804345
142	0xbd1b3061	-0.037887935
143	0xbd86230a	-0.06549652
144	0x3cbe47e2	0.023227636
145	0xbd8d18b8	-0.0688948
146	0x3d4bf6e7	0.04979601
147	0xbc9242d2	-0.017854128
148	0x3df258e4	0.11833361
149	0xbd12622b	-0.03573815
150	0xbd6ae02d	-0.057342697
151	0x3e139a4e	0.14414331
152	0x3d9a5915	0.07536522
153	0x3e5dda44	0.21665293
154	0x3e115bd9	0.14195193
155	0xbdf0a762	-0.11750676
156	0xbd72ab9d	-0.059245694
157	0xbda18638	-0.07886928
158	0xbd4079ba	-0.046991087
159	0x3db37c6c	0.08763966
160	0x3e0057de	0.12533519
161	0x3dbeed10	0.0932256
162	0x3d179347	0.03700569
163	0x3da2ca21	0.07948709
164	0xbd9ebb0b	-0.07750519
165	0x3c84a447	0.016191615
166	0xbcde8109	-0.027161138
167	0xbdd935d9	-0.10605974
168	0xbcea0315	-0.028565923
169	0x3ceae27a	0.028672446
170	0x3cd7aa76	0.0263264
171	0xbd183c80	-0.037167072
172	0x3d0d70d6	0.034531437
173	0xbd3bb19f	-0.04582369
174	0xbd570c8c	-0.0525022
175	0x3d0d5383	0.03450347
176	0xbd975529	-0.0738929
177	0xbda30221	-0.079593904
178	0x3cdc95a2	0.02692682
179	0xbc7c6f7f	-0.015407442
180	0x3d792582	0.060826786
181	0xbba68162	-0.0050813416
182	0x3df4b23f	0.1194806
183	0x3cb4035e	0.021974262
184	0x3d2090e9	0.039200697
185	0x3d049cd8	0.03237614
186	0x3d2a1ca3	0.041531216
187	0x3c8ba6ec	0.017047368
188	0x3abb41e6	0.0014286607
189	0x3c43d7b4	0.011953283
190	0xbbcc0844	-0.0062265713
191	0x3cde7897	0.027157111
192	0xbd86c91b	-0.065813266
193	0x3ddf32e5	0.10898379
194	0xbcd03b04	-0.025418766
195	0x3ccc7d77	0.02496217
196	0xbbda1bec	-0.0066561606
197	0x3c4e675e	0.012597887
198	0xbd6a56cb	-0.05721168
199	0xbb3623db	-0.0027792368
