CaseModels/04 200-Bus/_genModel_Mvar.pth (torch, 675921 bytes, 7 tensors)

bias f4 [200]
00000000: 78b6 e13c f046 2b3c 8885 84bc 5338 753b
00000010: fe92 d4bc c462 bebc 3a1c 43bc 0397 a2bc
00000020: 56dd eb3c d33f 983c 682a 263d 121e 3cbc
00000030: 27d0 ffbc e2c6 2dbc 6153 dfbc fecc 4abb
00000040: c63e 903c 97a2 13bd 2f20 03bc d416 d5bc
00000050: fb3f 7f3c 4322 e9bc 1784 a4bb e33e 83bc
00000060: 6de4 e93c 7a88 31bd 119d b83c 303f af3c
00000070: 5c7f 0a3d e752 1bbc e8b4 9d3c 170a 073d
00000080: ebcb d43c 5278 23bd db44 c03c ea5d 093d
00000090: 8e7a 26bc 636f 143c 390f 5f3c bc58 c53c
000000a0: 6db9 d03c bea9 ce3c 6b42 11bd 5d97 30bd
000000b0: efe4 b2bc 8d17 ba3c 18a0 d83c df77 ab3b
000000c0: 1d5a 45bc 3c19 75bb e877 d03c feb3 d93b
000000d0: 1d65 d9bb 90b7 8e3c a67e 15bd 0137 22bd
000000e0: a888 30bd 47e9 8bbc 73c1 1bbd 85c0 b73b
000000f0: ac2e 163d 20c7 2ebd 1cba 9b3b a91d 793c
00000100: 197e 563d ce7f 2d3d 3908 44bc ec84 30bb
00000110: bed9 833d 3d1b 2dbc fec3 9abb 6b62 0c3d
00000120: c942 78bc 791a 9f3c 6642 053d 7d6b f03c
00000130: 6f3f bc3c f7d6 9b3c 7e89 c0bb 06a5 4f3d
00000140: 346f afbc 3b14 183d abfd a03c d407 3ebc
00000150: 17d3 30bd 05cc 813c a8de b53c 1841 6dbc
00000160: 4028 b5bc 0571 3dbc 77ed cb3c c639 df3b
00000170: 4b12 ee3c 8994 1b3c 332e 1a3b 92ac 83bb
00000180: 0e44 e1bc 39c7 8dbc 5284 013d eb6b ea3c
00000190: e47d 75bc 22f2 cfbc e01e 0cbd 16bf 343d
000001a0: 6583 643d 8b5b 313c e1aa c73c 0045 253b
000001b0: c9a9 373c 5afc 343c 2820 9abc 091f 0e3c
000001c0: 8be3 42bc 2331 44bc 751f a23d 9f91 cb3c
000001d0: 1f39 a0bc 334b 4abc 6ef0 283d c1de d23c
000001e0: 949e 91bc c877 babc 9953 cdbc be21 0ebd
000001f0: cd25 d33d 150f 073e 58c9 2f3e fc77 fabc
00000200: 0cd4 97bc cb37 0e3d 239a 083d 0488 93bc
00000210: cfa7 9abc a47e 223c 3897 173e adc9 2f3e
00000220: ca5b cbbc edad 053d 0e88 413c 787f 5fbc
00000230: a8c7 02bd bbd5 f53c ce70 db3c 4624 a43c
00000240: b691 85bc 8b14 e5bc 68df 8f3d 0748 b33c
00000250: 371f 85bc 9534 a2bb f3b0 8bbc bdb2 f13c
00000260: 7eff ed3c daec 793d a7f0 9b3d 319c 03bd
00000270: 070c eebb 10a0 323d 1b89 d4bc 4298 07bd
00000280: 7217 1e3d 8cfa f93c e447 a8bc 614f 0f3d
00000290: a144 3b3d 4e7f 20bd 8924 2c3c b3f4 093d
000002a0: 2b20 88bc 71be 3b3d 666a 04bd ec63 06bc
000002b0: d03f d7bb 2cb4 063d f26b f33c 24b0 e0bc
000002c0: b6b4 1f3b e2b6 3a3d aebb 783c cd90 bab8
000002d0: 8762 02bd b65a 0fbc 8d11 313d ae94 28bd
000002e0: b72d e43c faa4 7cbc 1e22 4bbc af41 ed3c
000002f0: 7c59 c63d 4e20 f73c 359d dd3c 46d1 1fbd
00000300: e3e3 78ba a622 6d3c 3415 1dbd c391 2bbd
00000310: 3b4a 843d b56b dab9 50bc a63c 5af4 c5bc
0.027552828 0.010453925 -0.016176954 0.0037417605 -0.025948998 -0.023240454 -0.011908585 -0.019847399
0.028792065 0.018585121 0.040567786 -0.011481779 -0.031227184 -0.010606499 -0.027261438 -0.0030944939
0.017608058 -0.03604373 -0.008003279 -0.026011862 0.015579219 -0.02845872 -0.005020629 -0.016021198
0.028551305 -0.043343045 0.022535833 0.021392435 0.033812866 -0.009480215 0.019251302 0.032968607
0.025976142 -0.03990967 0.023470333 0.03353683 -0.010161055 0.00905976 0.013614469 0.024090163
0.025479043 0.025227424 -0.03546373 -0.0431131 -0.02183768 0.022716308 0.026443526 0.0052327956
-0.01204541 -0.0037399074 0.0254478 0.006643771 -0.006634368 0.017421514 -0.036497734 -0.039603237
-0.043099076 -0.017079009 -0.038026284 0.005607667 0.036665604 -0.04267037 0.0047524106 0.015204825
0.05236635 0.042358212 -0.011964851 -0.0026934696 0.064380154 -0.010565576 -0.004723071 0.034273546
-0.015152642 0.019421803 0.032534026 0.02934813 0.022979466 0.019023402 -0.0058757653 0.050694488
-0.02141533 0.03712867 0.019652208 -0.011598546 -0.04317006 0.015844354 0.022200897 -0.014480852
-0.02211392 -0.0115625905 0.024893505 0.006812307 0.029061457 0.009495863 0.0023526072 -0.0040183747
-0.027498271 -0.01730691 0.03162033 0.028615912 -0.014983628 -0.025384013 -0.034209132 0.044127546
0.05578937 0.010825048 0.024373474 0.002521813 0.0112099135 0.011046493 -0.018814161 0.008674392
-0.011895071 -0.011974606 0.07916156 0.024849711 -0.019558487 -0.01234703 0.041244917 0.025740983
-0.017775811 -0.022762194 -0.025064277 -0.034700148 0.10309944 0.13189347 0.1716665 -0.030574791
-0.018533729 0.034721177 0.03335012 -0.018009193 -0.018878845 0.009917889 0.14803779 0.17166777
-0.024824042 0.03263657 0.011812223 -0.013641231 -0.03192869 0.030009141 0.026787188 0.020036828
-0.016304832 -0.027963897 0.07025033 0.021884931 -0.016250236 -0.004950116 -0.01705215 0.029504174
0.029052492 0.061016895 0.0761426 -0.032131378 -0.0072646174 0.04360968 -0.025944283 -0.03310419
0.038596578 0.030514978 -0.020542093 0.03498781 0.045719747 -0.039183907 0.010506758 0.03368063
-0.016616901 0.045835916 -0.032328032 -0.008202534 -0.0065688863 0.03288667 0.029714558 -0.02742774
0.0024369187 0.045584567 0.015181465 -8.8961424e-05 -0.031832244 -0.0087496545 0.04322963 -0.041157417
0.02785383 -0.015420193 -0.012398271 0.028961984 0.096850365 0.030166771 0.027052501 -0.039017938
-0.0009494407 0.014473593 -0.0383503 -0.041887056 0.06459471 -0.00041660448 0.020353466 -0.024164367

fc1.weight f4 [205, 616]
00000000: 30ff 2b3c 1012 9dbc 04b2 d0be 0f0b 86bc
00000010: 35b7 1fbd 4206 ffbc 8fb1 1ebc 56ad e03c
00000020: d75e dfbc 32de 88ba e585 8ebd 32e1 8e3d
00000030: 30d8 333c ec10 68bd c2df afbd 9842 6abd
00000040: a9c7 d33c c4f9 2abd f361 48bd 747e 6e3d
00000050: 6496 fbbd 1207 223c fdf3 1dbe 83ce 71bd
00000060: c5fe 4c3d 0cda 4abc f5ea c939 0809 88bd
00000070: a640 79be 5dbe 8abd 8830 003d e1f1 003c
00000080: 3922 03bd 9a66 50bd a16f b13c ddc7 a53d
00000090: 14b2 b6bc a164 89be 3239 81bc 15c6 143d
000000a0: 58f7 83bd fc57 bfbd 79d5 eabb 8310 10be
000000b0: 7af9 453d 0999 7a3d 343f 32bd 9e10 8d3c
000000c0: 3f3f 8a3c de4e 7abd 67dc 70bd 66db bfbd
000000d0: a3b2 a0bd d699 a3bd e07a 553d 1d2d 613d
000000e0: 5040 593c 6afa 2ebe 6e35 bb3c 28a2 0bbe
000000f0: 6437 50bd 315e 13bb 8995 ae3d fe8f 45bd
00000100: 9bd3 dd3b a23d b4bc a287 17bd a441 08bd
00000110: efd4 b1bc a3bb 48be 97e5 d43a 2afd 5c3c
00000120: 349b 91bd 961b b43d b353 8dbb 5704 8abd
00000130: 19d9 0739 1ed3 ab3c b116 99bb 7817 3fbe
00000140: 8026 a13d a2cc 5e3c 7563 533d 7ff1 8dbd
00000150: 7cf1 8ebc 03f6 c7bd ef67 ad3c a50f d03c
00000160: d322 53be 72cc 123b e8d9 593d ad8f 4d3a
00000170: 106c 9d3d 6b42 2abd fdc4 05bb 02c2 0ebe
00000180: ce6c ad3c 39fb 3a3d a06c 7b3c 9588 bbbd
00000190: 4726 12bd 405d 8fbe 3d75 033d 6b45 edbc
000001a0: e1ba d53c 0d2e 84bd b2f8 73be fc77 27bd
000001b0: f1ab 6b3c 4bc2 0dbc e969 4cbe 1ef4 27bd
000001c0: 5f47 ab3c 9277 b03c 6b49 283c 3f53 12bd
000001d0: 393f 2fbd 39c9 41bc 6d9a 9a3b fef5 853b
000001e0: 68cc e13c 3c6f bbbc 6acf 75bd ff7b 35bd
000001f0: 0abe 863d e31d 52bc 0101 22bc 86e2 883c
00000200: a6d1 3dbd d284 db3c f704 94bd 54c1 0fbd
00000210: 124b 8cba 7bfe 183d 64a5 64bc 9dc4 40bd
00000220: 3852 2cbe 8c47 f8bb af7f 1c3c bc31 49bd
00000230: 00f7 2fbd 02da ffbc 29e1 b7bc 4bcb fd3c
00000240: e17c 62bb 3a2e 44be 83cb 67bd 4781 263d
00000250: 2158 d2bc 983b bebd a8c7 383c 3a19 7fbd
00000260: 5d41 16bd dcb8 503d 086a 0fbd 8263 8cbc
00000270: b61f 883d 6a2f 51bd a690 38bc 1bcd f7bc
00000280: 8c78 0ebd 5143 a0bd e42a c2bb 06fc 3d3b
00000290: 25c4 f3bc 5cab c1bc 489c 42bc 6ecf 73bd
000002a0: 410a 723c c81f f1bc 959f 083c 5379 02bd
000002b0: cc03 1c3c 5d21 73bc 0f0d 70bd 5107 0ebd
000002c0: 67ac d43c 2b83 9abd f1cd 41bc 43b9 bbbb
000002d0: d62b 40bd 0627 363d 3c85 94bc 2160 19bd
000002e0: e4a2 a33b 9597 07bb d55e 7e3c 335e 03be
000002f0: f392 563d 44e8 013c 7624 34bc 322e b0bc
00000300: cb03 f4bc e147 d9bb ae97 b5bb aead 883c
00000310: 8805 02be 758c 1f3d a4b5 10bd d531 17bc
00000320: 530d 513d 9fea fcbc 4ec1 f0bb 6959 08be
00000330: 5dbe c13b fea3 443d 365a 943b 2fa6 7dbd
00000340: c66b c7bc 6bf0 04be a73d 0bbc f90f 653c
00000350: bebf 733d 3a17 17bd e8a6 01be 9478 42bc
00000360: ad50 74bc 3390 00bd 972d 02bd ae4c 0e3c
00000370: cc19 aabc 1824 f03c b908 1cbd fbe7 043d
00000380: 55ee a73c d44c 11bd 44a6 14bc 1f89 2b3c
00000390: dbea d2bc 8d35 0ebc 8491 a0ba 6d3e 8abc
000003a0: 9469 70bc 156f 13bd e401 d63c 8f4f 7dbc
000003b0: 996a c93b 900a 07bd cf2a cc3b 55d1 1bbd
000003c0: b53c c13b e4b7 203d d51a 0abd ab3c 313c
000003d0: 1685 0abc 8a12 0ebd bfdc 25ba ceeb 073d
000003e0: 709d b53c fe8c 62bc 282b 0ebb 15d7 18bd
000003f0: 605f 0f3d 7bf2 d63c 90b6 a03c 5140 2d3c
0.010497853 -0.019173652 -0.40760815 -0.016362695 -0.03899308 -0.031130914 -0.009685888 0.027426403
-0.027266903 -0.0010442196 -0.06959132 0.06976546 0.010976836 -0.056656763 -0.085876 -0.057192415
0.025852041 -0.0417421 -0.048921537 0.058226064 -0.12284544 0.009889381 -0.15425105 -0.059034836
0.050047655 -0.012381088 0.00038512764 -0.066423476 -0.24341068 -0.0677459 0.031296283 0.007870168
-0.03201506 -0.0508791 0.021659674 0.080947615 -0.022301711 -0.26834586 -0.015774343 0.03632172
-0.064436615 -0.093429536 -0.007166561 -0.14068799 0.048333623 0.061181102 -0.043517306 0.017219838
0.016875861 -0.06111037 -0.058803942 -0.09368019 -0.07846572 -0.07988326 0.052119136 0.054974664
0.013259962 -0.17087713 0.022852626 -0.13636076 -0.050834075 -0.0022486562 0.08524615 -0.048233025
0.00676961 -0.022002045 -0.036994584 -0.033265725 -0.02170798 -0.19602828 0.001624274 0.013488093
-0.07109681 0.08794324 -0.0043129562 -0.06739109 0.00012955478 0.020974692 -0.0046718945 -0.18661296
0.078686714 0.013598593 0.05160852 -0.06930827 -0.017449133 -0.0976372 0.021167723 0.025398085
-0.20618753 0.002239969 0.053186327 0.0007841539 0.07686627 -0.041567247 -0.0020411604 -0.13941196
0.021170046 0.04564974 0.015345722 -0.0915691 -0.035681035 -0.28000832 0.03209423 -0.028963765
0.026090087 -0.06454096 -0.23825338 -0.04088591 0.014384256 -0.00865228 -0.19962277 -0.041004293
0.020908056 0.02154139 0.01027141 -0.03572392 -0.042784903 -0.01182776 0.004718116 0.0040881624
0.027563289 -0.02288019 -0.06001226 -0.044307705 0.06579216 -0.012824508 -0.009887935 0.016709577
-0.046342514 0.026796732 -0.072275095 -0.03509648 -0.0010703525 0.037352066 -0.013955448 -0.047062505
-0.16828239 -0.0075768884 0.0095519265 -0.049119696 -0.042960167 -0.031231884 -0.022446232 0.030980727
-0.0034559297 -0.19158259 -0.05659057 0.040650632 -0.025676789 -0.0928871 0.0112780705 -0.062279917
-0.03668343 0.050957546 -0.03501323 -0.017137293 0.066466734 -0.05107061 -0.011264956 -0.03024917
-0.03478293 -0.078253396 -0.005925523 0.002898933 -0.029756615 -0.02364128 -0.011878081 -0.059523992
0.0147729525 -0.0294341 0.008338829 -0.031853985 0.00952239 -0.014839497 -0.058606204 -0.034674946
0.025961114 -0.075445496 -0.011828885 -0.005728872 -0.046916805 0.04447081 -0.018129937 -0.03744519
0.0049937833 -0.0020689715 0.015525539 -0.12828903 0.052386235 0.007928912 -0.010995021 -0.021506403
-0.029786965 -0.006630883 -0.0055417633 0.01668438 -0.12697423 0.03895231 -0.035329476 -0.0092281895
0.051038098 -0.030873595 -0.0073472625 -0.13315357 0.0059125856 0.048007958 0.0045273555 -0.061926063
-0.024343383 -0.12982337 -0.008498586 0.013980859 0.05950903 -0.036887385 -0.12661326 -0.011869568
-0.014911813 -0.03138752 -0.03178176 0.008685274 -0.020764254 0.029314086 -0.038094256 0.032447796
0.020499388 -0.03547366 -0.009072844 0.010469704 -0.025746753 -0.00867976 -0.0012250398 -0.01687547
-0.014673609 -0.035994608 0.026123948 -0.015460863 0.0061467406 -0.032969058 0.006230689 -0.03804143
0.0058971294 0.03923787 -0.033716995 0.010817687 -0.008454582 -0.03468565 -0.0006327144 0.033183865
0.022169799 -0.0138275605 -0.0021693204 -0.037314493 0.035003066 0.02623867 0.019618303 0.010574416

fc1.bias f4 [205]
00000000: 31d8 cc3c edce bdbd 7264 973c 2a81 26bd
00000010: ae95 c6bd 61c5 a73c 623d 213d b467 493c
00000020: 5945 99bc f181 343b 6ee5 24bc 94a6 17be
00000030: 8bb5 36bb 4370 633c abf3 d1bd 9ef8 893c
00000040: e39c a6bd ded2 07be 8515 86bd dd85 1f3d
00000050: 9dd4 2bbd 2000 e4bd bd32 1cbc b8db 59bd
00000060: 4698 c7bc d4f8 eebc 7464 9e3c 2690 043d
00000070: c406 39bd 5a8e cebd 0444 923c 6b22 cbbd
00000080: 609b 44bd 4a38 413d c74a 55bd 350b 613d
00000090: 5adb 39bd 6130 18be d211 e9bd 7178 34bd
000000a0: 2126 c4bd 44c1 8dbc 4591 a9bd c6d6 923d
000000b0: 7797 873a 9715 9c3a 68e2 483d b3c5 c8bc
000000c0: 2369 173d 2cbe cebc 7879 063b ccdf 93bb
000000d0: 065c 6bbd 7b8d dabc 958a 023d a309 0bbc
000000e0: 914e 65ba 3663 74bd e50c 723c de90 ad3c
000000f0: 845e f63c 6a61 66bc 051e 8c3c 6046 063d
00000100: 77dc 9e3c f0a1 dbbd ff61 3e3d 7be5 3f3c
00000110: 3e8c 61bd c006 2cbd c6bb 50bd c5d8 0fbd
00000120: 16c4 e83b b969 9aba 600f 023d 1c28 81bc
00000130: 816c 4ebc 75b9 9bbb 0d9a bfbd 2bea 0f3c
00000140: fa71 70bc 395c 20bd a5f6 b23b a045 a6bc
00000150: 8b77 b8bd ce27 16bc 27f1 b73c bc9e 103d
00000160: 4dee 84bd f030 d73a 750d 87ba e0b8 bbbc
00000170: d215 40bb a949 a1bd c2a4 01bd 461a 11bd
00000180: 39e6 5f3d 7455 20bc a01c 4ebc 746e b8bc
00000190: 0a57 d53c 0fae b6bb 868d 2dbd d48a 10be
000001a0: 1436 04be d9c5 99bc df72 14be 0a7d 12be
000001b0: 38a8 1e3b 8be8 d4bd 44fa 64bd 75e0 3e3d
000001c0: 80dd d8bb 9d5d e33c 6056 89bd 52fb a73c
000001d0: ee7b 25bd cb91 14be 8905 cebd 318d 883c
000001e0: d654 83bd 4e5e 07bd 59ad e0bc 6c4c a2bd
000001f0: 28e4 30bc 65d3 44bd 2566 ebbd fed4 c33c
00000200: d529 0ebd 1b14 233d ad37 66bd bcce 203d
00000210: 92ec 00be cbac 0a3d 1dea 3d3c 0215 3a3d
00000220: dc25 253d c0e0 56bd a749 353c 5f03 1e3d
00000230: d35c f53c 1c8c 0c3d ba72 9d3c f4b0 a33c
00000240: 2a78 3e3b 00fe ffbd 30d3 b13a dab2 d43c
00000250: 9b64 b0bd ad22 f43b 7720 cb3b df91 37bd
00000260: 8d9e 72bd 3d90 a3bb 1d54 b4b8 9308 b8bd
00000270: a9f5 103d 4073 4d3d afb8 9b3d a310 783c
00000280: 07fd 5bbd 3506 8fbd 4d38 fbbc 83d7 01bd
00000290: a306 ed3b ad59 39bd eef7 ef39 9333 433d
000002a0: c44a 0e3d d62d 913c beb6 a4bd 7699 bfbb
000002b0: 9c89 0cbc 395a ebbd fd53 993d 0098 deba
000002c0: 1726 b1bd beb7 90bc c2bd fcbc 7753 bbbd
000002d0: 724f c7bd 5651 013b b686 883a 39b7 8e3d
000002e0: a93b a3bd be53 0d3d 42c3 9a3a 2fea 91bc
000002f0: df74 f03c abf8 783d f67a 9d3c 0094 cebb
00000300: b087 13be 956a 0ebc 6b88 bebc b5d4 98bd
00000310: f961 c1bd f4e8 5b3c d1ac cbbd c973 db3c
00000320: 74b9 b0bd 57b1 adbd ea49 6cbd 8819 e0bd
00000330: 1ffe abbb
0.025005432 -0.092679836 0.018480513 -0.040650524 -0.09696518 0.02047986 0.03936518 0.012292791
-0.018709825 0.0027543271 -0.010064466 -0.14809638 -0.0027879204 0.013881746 -0.10251554 0.016842183
-0.081353925 -0.13264033 -0.06547073 0.03894602 -0.04195081 -0.11132836 -0.009533581 -0.053188056
-0.024364602 -0.029171385 0.01933501 0.032364033 -0.045172468 -0.10085745 0.017854698 -0.09918674
-0.04799974 0.047172822 -0.052073266 0.05494233 -0.045375206 -0.14862205 -0.11380352 -0.044060174
-0.09577585 -0.01730407 -0.08279661 0.07169871 0.0010344823 0.001190829 0.049044043 -0.024508333
0.0369655 -0.025237165 0.0020519178 -0.0045127627 -0.057460807 -0.026678791 0.031870443 -0.008486184
-0.0008747364 -0.059664927 0.014773582 0.021187242 0.030074365 -0.014061311 0.017104158 0.03278196
0.019392235 -0.107242465 0.046480175 0.011712427 -0.055065386 -0.041998625 -0.050960325 -0.035118837
0.0071034534 -0.0011780775 0.031752944 -0.015766196 -0.012599112 -0.004752333 -0.09355555 0.008783857
-0.014675612 -0.03915045 0.005461531 -0.020296872 -0.09007176 -0.009164764 0.022453858 0.03530763
-0.06490765 0.0016417783 -0.0010303693 -0.022915304 -0.002930988 -0.07875378 -0.031651266 -0.035425447
0.054662917 -0.009785999 -0.012580067 -0.022513606 0.02604248 -0.0055749486 -0.042371295 -0.14115459
-0.12911254 -0.018771099 -0.14496945 -0.14305511 0.0024209153 -0.103959166 -0.055902734 0.046600778
-0.0066182017 0.0277546 -0.06705928 0.020505581 -0.04040139 -0.1450874 -0.100596495 0.016668888
-0.064126655 -0.03304892 -0.027426409 -0.079247326 -0.010796584 -0.048053164 -0.11494092 0.023905274
-0.034707863 0.039814096 -0.05620544 0.039259657 -0.12590244 0.033856194 0.0115914615 0.04543019
0.04031931 -0.052460432 0.011064923 0.038577434 0.029951489 0.034313306 0.019219745 0.019981839
0.0029063323 -0.124996185 0.0013566967 0.02596419 -0.08612939 0.0074504227 0.0061989385 -0.044816848
-0.059233237 -0.00499156 -8.598736e-05 -0.089860104 0.03539053 0.05015874 0.07603585 0.015140685
-0.053708103 -0.06983606 -0.030666495 -0.03169967 0.007233457 -0.045251537 0.00045770354 0.047656607
0.03473927 0.017722052 -0.08042668 -0.0058471514 -0.0085777305 -0.11491818 0.074867226 -0.0016982555
-0.08649843 -0.01766574 -0.030852202 -0.09146779 -0.0973195 0.0019732318 0.0010416124 0.06968541
-0.07970364 0.03450369 0.0011807459 -0.017811863 0.029352603 0.060784023 0.019223671 -0.006304264
-0.1440723 -0.008692403 -0.023258409 -0.07462446 -0.09442515 0.01342224 -0.099450715 0.02678861
-0.086291224 -0.084810905 -0.057687677 -0.1094237 -0.0052487995

fc2.weight f4 [102, 205]
00000000: ae6e 86bd d275 1abd a763 7b3d 0704 f53c
00000010: 8a6b 2abd 4ef5 b73d 245f 483c 0fe3 05bd
00000020: ac12 8fbd 4733 15bd 618f 8a3c cc49 b53d
00000030: 4fc6 f53c 152d a03d b8ef b2bb ab11 8ebd
00000040: fab6 213d 8170 933c a342 f73d a7ca 193d
00000050: c16b 56bd c667 d83c 28a1 063d 009c 823c
00000060: 7a65 c53c 174a 113d c1bd 403d cf10 02bd
00000070: 74b8 66bc f087 1ebd 40ae f5bb f20f 2f3d
00000080: 482b 0ebd d276 d3bd 3835 b3bc 2d77 003e
00000090: 6dbd a73d eac5 dc3d 2aa0 c13d 2a8d 733d
000000a0: fb59 543c a7f2 84bd 5266 843d d6bd 53bd
000000b0: bc21 2c3e 54f1 8fbd fd38 573d 00ff 823d
000000c0: 870c a93c 15e0 e13d 81ad 713c 311e 1c3d
000000d0: ee0c cc3c aae5 0f3d 0069 da3d d0e6 fcbc
000000e0: 9a06 e13d 9fae 473b d5bd b0bc b84d 753d
000000f0: 3449 633b b333 07bd 6d4d 543d f295 223d
00000100: f7f5 c6bb 6a12 613e 68d5 03bd 3b40 8abc
00000110: 165e 64bd a0fa c63d c138 39bd 4c90 ac3d
00000120: 26d3 e1bc 1e2f 913d 97a6 a13d bd6e 8039
00000130: 2292 17bd b11a bb3c 840a 90bc b401 5a3d
00000140: 18f7 203c c174 babd 367b 553d ecd9 18bc
00000150: fe7d 433d 0b75 56bc 61d4 7a3b f975 313d
00000160: 68ab a53c e110 dc3d 26ed fabb 7ea0 253c
00000170: 2ce9 8dbc 2d29 ce3c 9f18 203d dcbc 2fbd
00000180: 6118 a23d 3fee e1bc 59f3 003c 86e1 96bd
00000190: ff84 98bd c925 fe3c e7f6 f13c cbc3 1d3e
000001a0: 3a40 ffbb 3f02 10bd 8e0d 2d3e 3e13 a93d
000001b0: 576f 273d d158 083d e214 78bb 2862 2d3c
000001c0: 33c7 c6bc 6693 f73d 60ef 9fbc 0dd5 fb3c
000001d0: 1cb9 e3ba 4c05 513d f0d8 38bc eb36 57bd
000001e0: fa12 363d 03a9 89bc 2302 c8bc c6b0 313d
000001f0: 01b2 41bc f9eb d7bd a52b 513e aad8 82bd
00000200: b18c d73c b2b0 2d3d 75a4 f93c 299d 4ebc
00000210: b80e 1f3e 9005 ecbd 4af1 b4bc db63 85bd
00000220: 496d 3bbd e47d 64bc c151 e8bd 8d7f 403c
00000230: ea1e e7bc 0d74 a8bd 22c1 d93a 741f a83d
00000240: d06a b23b 53b1 413d c994 bf3d 0634 303d
00000250: 8f92 973d 0272 4f3d 0a67 ac3c 92a4 fc3b
00000260: 3396 3f3e 5b19 80bd 388b 323d d915 fb3c
00000270: feee 2d3d b767 193d effc 54bb f2ce 19be
00000280: e8cf 573d 952f 06bd 50cc 853c 5782 cbbd
00000290: a402 853b bf67 86bc 98da 393d f686 bb3d
000002a0: ce92 a73c 0c69 04be a206 db3d 8d8b 0bbd
000002b0: 5efb 053c 87dc 063e 3008 4c3d 5821 3b3d
000002c0: 3262 70b9 db83 0dbc 0b92 1d3d a1cb 0d3d
000002d0: 91fc 583d e2eb 6abd 5058 9e3c 9351 2abd
000002e0: a209 f43d 4f10 063c be5b 803c 3e81 9cbd
000002f0: 47a8 88bd 208e 7cbc f72b 0f3c d7fb a73d
00000300: 9a18 393e 82ca 1b3d 7645 1dbc 8cd7 b3ba
00000310: dc19 733d 08e5 563d b6b8 28bd 6b6b 053c
00000320: f35b 773d 900a 763d 1324 803d 05c9 95bc
00000330: a58e 8c3a 001c ca39 0bd7 76bb ec8f d3bc
00000340: b6c8 3c3c fcbe 88bc 67d5 08bd ca36 a73b
00000350: fa8a 5a3c f213 d53c 5ea4 2a3c c8c0 ce3c
00000360: 4faf 17bd cd39 80ba 6178 383d cf66 90bc
00000370: e374 26bd a3e3 19be 4b35 f93c 9722 bdbc
00000380: a21f c9bc d723 7b3d 8016 dcbb 2103 9abc
00000390: bae9 5dbb aa37 a1bd a304 1f3c 8329 3e3d
000003a0: 6300 b13d 2c66 963c 99dd c3bc 039d 8cbc
000003b0: 6644 81bd ef63 883c aa68 143d e8e9 14bc
000003c0: 348c ecbb 5b38 74bc 7f09 3fbe 369d df3b
000003d0: 02d0 adbd 6d3d aabd 3235 6fbc 67fe f3bc
000003e0: b572 1d3d 7789 143b 60a2 5bbd 8c04 ab3b
000003f0: 0e67 3cbd ba07 9ebd 9a33 c4bd a2f5 59bd
-0.06564079 -0.03771002 0.061374333 0.029909147 -0.041606463 0.08982335 0.012229715 -0.032687243
-0.06985983 -0.036425855 0.016914072 0.08851966 0.030001787 0.07821099 -0.0054607056 -0.06936964
0.03948114 0.017997982 0.12073257 0.03754678 -0.052348856 0.02641667 0.032868534 0.015943527
0.02409624 0.03547105 0.047055963 -0.03175431 -0.014082063 -0.03870386 -0.007497579 0.042739816
-0.034709245 -0.103253976 -0.021875963 0.12545462 0.08190427 0.107799366 0.09454377 0.059460796
0.012960906 -0.06491595 0.064648286 -0.051694714 0.16809744 -0.070284516 0.052544583 0.06396294
0.020635856 0.110290684 0.014750839 0.03811473 0.02490851 0.035131134 0.106645584 -0.030871779
0.10987587 0.0030469073 -0.021574894 0.05988857 0.0034681084 -0.03300829 0.05183165 0.03969378
-0.0060718018 0.2197968 -0.032185942 -0.01687633 -0.05575379 0.09715772 -0.04522014 0.0842596
-0.027566504 0.07089065 0.078931026 0.0002449657 -0.037004597 0.022839876 -0.01758314 0.05322428
0.009824537 -0.091043 0.052119456 -0.0093293 0.047727577 -0.013089429 0.003827356 0.043325398
0.020223334 0.10745407 -0.007657665 0.010109065 -0.0173231 0.025166119 0.03908598 -0.04290472
0.07914806 -0.027579425 0.007870519 -0.07367234 -0.07447242 0.031023877 0.029536678 0.1540672
-0.007789639 -0.035158392 0.16899702 0.08255623 0.040877666 0.033287827 -0.0037854244 0.010582484
-0.024264907 0.12088661 -0.019523323 0.030741239 -0.0017373892 0.051030442 -0.011282191 -0.05254261
0.04445169 -0.016804224 -0.024415081 0.043381475 -0.011822225 -0.10543055 0.20426805 -0.06388982
0.026312204 0.042404838 0.030473927 -0.012610712 0.15532959 -0.115244985 -0.022087712 -0.065131865
-0.04575852 -0.01394603 -0.11343718 0.0117491605 -0.028212983 -0.0822526 0.0016613344 0.08209124
0.005444862 0.04728825 0.093545504 0.043018363 0.07401001 0.050645836 0.021045227 0.007710048
0.1870964 -0.06254836 0.0435898 0.030650066 0.04246425 0.037452426 -0.0032499393 -0.1502035
0.05268851 -0.03276022 0.016332775 -0.0993697 0.0040591527 -0.016406892 0.045374483 0.09156601
0.020455744 -0.12930697 0.106946245 -0.034068633 0.008177606 0.13170062 0.049812496 0.045686096
-0.00022924764 -0.008637394 0.038469356 0.034618024 0.05297524 -0.05735386 0.01932922 -0.0415817
0.119159 0.008182599 0.015668746 -0.076418385 -0.06672721 -0.015414745 0.008738509 0.082023315
0.18075791 0.038034923 -0.00959908 -0.0013720854 0.059350833 0.052464515 -0.04119178 0.008143286
0.060390424 0.060068667 0.062568806 -0.01828433 0.0010723664 0.00038549304 -0.0037664797 -0.025825463
0.011522463 -0.016692631 -0.03340664 0.005102967 0.013338799 0.026010487 0.010415165 0.02523841
-0.03703242 -0.0009782851 0.045036677 -0.017627148 -0.040638816 -0.15028243 0.03042092 -0.023087783
-0.024551217 0.061313476 -0.0067165494 -0.01880032 -0.0033861236 -0.07871945 0.009705695 0.046426307
0.08642652 0.018359266 -0.023909377 -0.017164713 -0.06311874 0.016649215 0.036232628 -0.009088971
-0.007218862 -0.014906014 -0.18655966 0.006824161 -0.0848694 -0.08312497 -0.014600085 -0.029784394
0.03843947 0.0022664943 -0.05362165 0.005219048 -0.045996718 -0.077163175 -0.09580155 -0.05321277

fc2.bias f4 [102]
00000000: 694d b8bc 2b74 18bd 5b22 26bd d853 9eba
00000010: dcdc b7bb 88f1 8a3c fa7c e43c c1b9 503d
00000020: 39d7 95bd cebb 6d3d 172d d8bb 3b30 3c3c
00000030: a0fb c73c e5e8 f73c 18d5 4d3d 37fa d23c
00000040: 4ecb 87bc af24 aebc 2853 30bc e767 83bd
00000050: 91ab 8abc a8bc 6e3d 571d 0e3e 9d85 3e3c
00000060: 79ad 383c cd19 df3c 68d2 76bd 0095 23bc
00000070: 1cf9 e5bb ddf2 83bc d27c 35bd 81ad b63c
00000080: 5382 9bbc a666 fc3c 94c2 12bd 2d18 3e3d
00000090: 8a85 a0bd 6b53 0d3c d3b6 0bbd 8c34 aabd
000000a0: aac0 45ba e244 5ebc 3e7d 203d 59a9 a7bd
000000b0: be07 753d 763a 20bd c956 333d bf18 82bd
000000c0: 9e8d 693d 2212 f23c ea51 6f3d 9816 75bc
000000d0: c4fe 943c 7056 e13b 8aaf 38bd ae88 44bd
000000e0: 1f2e a3bc 7e46 cd3c 7400 033d 2684 f8bd
000000f0: a0af 4f3c 2ccf 46bd 6d66 9d3c ed12 283d
00000100: fc74 d23c 8f87 67bd ca56 f438 7fad 3d3c
00000110: d41f 7bbd 894e 853c 1c78 b9bd 34c1 eebc
00000120: f916 78bd 9cbf c53c ca1b c3bd bd49 2cb9
00000130: e00f cb3c 708a 8b3d f8f6 73bc 56bf 2e3d
00000140: 56fc 88bd 849f b63b f484 bdbc d5fd 4f3d
00000150: 87fd abbc 376b 503d a364 edbc 060b 043b
00000160: 64fe 95bd edd2 de3c 8734 44bd 9fc4 803c
00000170: 955e 603d 4976 813c 5dff 1cbd 2903 40bd
00000180: 70de 66bd ad33 a53d b0b4 1c3d c60a 92bd
00000190: 0d14 f2bc 3f40 9b3b
-0.02249785 -0.03722016 -0.040560108 -0.0012079431 -0.0056110453 0.016960874 0.027891625 0.0509584
-0.07316441 0.058040433 -0.006597172 0.011486108 0.024411976 0.03026242 0.05025205 0.025754077
-0.016576435 -0.021257726 -0.0107620135 -0.06416302 -0.016927512 0.058285385 0.1387838 0.011628536
0.011271828 0.027233982 -0.060259253 -0.009984255 -0.0070182215 -0.016107017 -0.04430849 0.02229953
-0.018983042 0.030810665 -0.035830095 0.046409775 -0.078379706 0.008625845 -0.0341099 -0.08310804
-0.0007543663 -0.013566228 0.03918194 -0.081865974 0.059821837 -0.039118253 0.043783937 -0.06352376
0.057019822 0.029549662 0.05842773 -0.014959 0.018187888 0.006876759 -0.045089282 -0.04798191
-0.019919453 0.025058027 0.031982854 -0.1213458 0.01267615 -0.04853742 0.01921388 0.041033674
0.025690548 -0.056525763 0.000116509924 0.011577009 -0.06130965 0.0162728 -0.09056112 -0.02914486
-0.060568783 0.024139218 -0.09526785 -0.00016430668 0.024787843 0.06813514 -0.014890425 0.04266294
-0.06688754 0.005573215 -0.023134686 0.050779182 -0.020994915 0.050883498 -0.028978651 0.0020148172
-0.07323912 0.027200187 -0.047901656 0.015718756 0.0547777 0.015803473 -0.03832947 -0.046878014
-0.056364477 0.08066497 0.038258255 -0.07130961 -0.029550577 0.0047378833

fc3.weight f4 [200, 102]
00000000: 51d4 b0bb 070c 523d abe0 02bc 562a 3cbd
00000010: c148 b3bc 2be1 7abd 5571 c63b 150d 093e
00000020: aafe 26bc bc9d dcbc 8f05 2abd eef8 833d
00000030: 97da 363d a27d 9ebc bbfb 033c e932 ad3d
00000040: 2932 8e3d 1e99 8a3b fc06 9ebd 8171 39bc
00000050: fd8b 223d a468 ae3d c9fc 05bc b85c c93d
00000060: 5411 113d c14f cf3b c184 a23c ebf6 24bb
00000070: 3c52 4e3d 2eaf d23d 5cd7 413d 50e8 79bc
00000080: 2372 873d 379e 35bc 884d babd 2de5 52bd
00000090: 8c12 0f3d cfad 773c 8e16 cb3d deb6 173c
000000a0: 912c aebd 2113 133d 2208 843d 673a b4bd
000000b0: 5496 a9bd fabb c9bc c532 b3bc ea36 b6bc
000000c0: f37d 5a3d 0080 58bd 18f6 f23c 6627 4a3d
000000d0: 8577 56bd aaee 0f3c 28ac 903e b40a 63bc
000000e0: c329 aabd 502a 813b 2952 d73d c58b 06be
000000f0: 5c5e ad3d 42ba 9b3d 197a a3bd e143 7d3d
00000100: e9e8 7a3b 7558 9f3c 1d0b 923d 3b9e 733d
00000110: 9cc3 99bd 2df2 2b3d 6a9c ddbd bf02 0bbb
00000120: 973d 62bc 7860 503d 55fe 9b3d 8e6b 2abb
00000130: 512c 5bbd f437 3e3d f758 2e3b ad9e 8d3b
00000140: ac88 503c 6c9b 8236 4396 6dbd 51eb 97bd
00000150: d7c3 85bd 5e47 e23d fe30 86bd 7619 f13c
00000160: e038 2bbd dcc7 df3c ede2 c13d f673 9dbc
00000170: e493 c8bb ed42 cabd 551f dd3d 2690 b1bd
00000180: 5bca 60bb 41f7 82bc f71b f03d 6778 103e
00000190: 2325 21bd 3dfb 29bb dcc7 333d 91b2 90bd
000001a0: 424a 1a3d 7fd1 4c3c 83a1 f83b 0ad9 27bd
000001b0: 481e a4bc 7c18 0dbc 81c7 6b3d fbb7 23bd
000001c0: 35bb ae3d 0a82 a2bd 7e7b 9c3c e5d5 3d3c
000001d0: 9061 b73c cb91 8a3c 1df2 e6bc 7500 8ebc
000001e0: 19c1 5a3b c861 043d adc1 7c3d 3538 ab3c
000001f0: 2865 c53c 3843 173e 5cfa 8b3d c62a 0abc
00000200: d6d1 da3b 21f5 703c 4054 393e 40fb 8b3d
00000210: 737e e93c b37d 19bd 0ce0 1d3d 0a42 0dbd
00000220: f892 533c 0638 0c3c f855 a6bb 6340 423d
00000230: b87f b83c a555 dabc 3335 b33a 0b58 813d
00000240: 435c 723d ac5f f5bd 1eff 2b3d 4190 973c
00000250: 9a6d b33c 2cee 80bb 5d26 bfbc 129d f7bc
00000260: 40f8 bdbc 4c40 793c 1d56 8c3d cf65 d23c
00000270: 4052 3f3d 7c4f 863b 7508 c4bd 26fe c83c
00000280: 2198 f43d 6360 b23d e0a1 b8bc 5558 7ebc
00000290: 5f35 673b 5a98 3ebc a082 1b3d c254 03be
000002a0: 1e23 08bd aa9a c9bd 270b 20bc cc33 4ebc
000002b0: 6532 a7bc 0198 61bc 2a94 4d3c 8198 4bbd
000002c0: 1dd2 86bd e004 443d 8a0f 14bd d1a8 5bbd
000002d0: b8bd fa3b 2691 a43b cd5c b53d 538e a93c
000002e0: 0b20 923c 5a0a 363d 517b c53d b83d e13d
000002f0: be4d 9c3c 0d73 68bd 1ed2 88bd 8bc9 9c3d
00000300: 7f27 79bd 8656 5bbd c4c1 f13c 0d8a d83c
00000310: d012 a63d 7fcb e7bc 227c 01bc c24d b9bc
00000320: 29cc a2bd 88e5 7b3d 70fb 16bd 0b02 883b
00000330: d7e9 45bd f6f0 1a3d 2a65 07bd 7742 24bd
00000340: 452c 5c3c ceea 0a3c 5227 5d3d 9539 8bbd
00000350: 6f54 b43d f7ce 51bc 3a8a b23d c102 a8bb
00000360: 442e e6bc 6433 0cbe 5b58 433c 2747 89bd
00000370: 4718 a6bd ec5d 0cbd ccbb 243c 4c1b 483d
00000380: 3399 6b3c 0ee4 b03d 5a54 90bd 4a76 6cbd
00000390: c05a 173d 2a4f 9b3b cc2e e53a 289b 253b
000003a0: c1ca c0bd 3d6d 073d 1c80 47bd 39a4 18bd
000003b0: c276 18bd c554 243c b39d cfbd dc94 943b
000003c0: 14a7 913c 0116 7b3c 5980 cd3c efb1 cbbb
000003d0: 7439 a53b 0a14 193c 1a7b cc3c 7ba3 cb3d
000003e0: 940f 63bd d066 b739 9237 57bc a219 24bd
000003f0: 7145 a6bd 3c15 4d3d 490b 363d 8bff b5bc
-0.005396404 0.051281 -0.007988135 -0.045938812 -0.021885278 -0.061249893 0.0060559907 0.13383897
-0.010192553 -0.026930682 -0.041509207 0.06443964 0.044642057 -0.019347016 0.008055623 0.08456976
0.06943161 0.004229679 -0.07716176 -0.011318565 0.039684284 0.08516052 -0.008177944 0.09832138
0.035416916 0.006326646 0.019838693 -0.0025171589 0.050371394 0.10287319 0.047324523 -0.0152531415
0.06613567 -0.011085085 -0.09096819 -0.05148809 0.034929797 0.015117123 0.09916411 0.0092599075
-0.08504594 0.035906915 0.06446864 -0.08800202 -0.08280626 -0.024625767 -0.021874795 -0.022242982
0.05334277 -0.052856445 0.029658362 0.04935398 -0.052360076 0.008784929 0.28256345 -0.013857532
-0.08308747 0.0039418116 0.10513718 -0.13139255 0.08465263 0.07603885 -0.07982273 0.061832312
0.0038285798 0.01945136 0.07131026 0.059477072 -0.07508013 0.041979004 -0.10820849 -0.0021211354
-0.0138086295 0.05087325 0.07616869 -0.002600405 -0.05350906 0.04644008 0.002660332 0.004321894
0.012727898 3.8923954e-06 -0.05800463 -0.0741793 -0.06531494 0.110487685 -0.06552313 0.029431086
-0.041802287 0.02731698 0.09467111 -0.019220334 -0.0061211456 -0.09876046 0.10796992 -0.08670072
-0.00343003 -0.01598704 0.11724084 0.1410843 -0.039342057 -0.0025937103 0.043891773 -0.07065309
0.037668474 0.01250112 0.007587613 -0.04097847 -0.02003397 -0.008611795 0.05756331 -0.03997038
0.08531801 -0.07934959 0.019101854 0.011586641 0.022385389 0.016915223 -0.02819162 -0.017334202
0.0033379255 0.032319814 0.06170814 0.020900825 0.024096087 0.14771736 0.06834862 -0.00843305
0.0066778464 0.014706881 0.18098545 0.068350315 0.028502678 -0.03747339 0.038543746 -0.034486808
0.012913458 0.008558279 -0.0050761662 0.047424685 0.022521839 -0.026652167 0.0013672471 0.06315621
0.05917002 -0.119811386 0.041991346 0.018501403 0.021902848 -0.0039346423 -0.023333723 -0.030226264
-0.023189664 0.0152130835 0.06852362 0.025683312 0.0467093 0.0040988307 -0.095719256 0.02453525
0.11943079 0.087097906 -0.022538126 -0.01552399 0.0035279614 -0.011633003 0.03796637 -0.12825301
-0.033236615 -0.09843953 -0.009768284 -0.0125855915 -0.020409772 -0.013769151 0.012547532 -0.049705986
-0.06583045 0.04785621 -0.03614763 -0.053627793 0.007652011 0.005022186 0.08855591 0.020697748
0.017837545 0.044443466 0.09642661 0.109981 0.01908004 -0.056750346 -0.06680702 0.07655629
-0.060828682 -0.053549312 0.02951134 0.026433015 0.08109057 -0.028295277 -0.007903131 -0.022620086
-0.07949097 0.061498195 -0.036860883 0.004150634 -0.04831871 0.037827455 -0.033055462 -0.04010245
0.013438289 0.008478833 0.053992577 -0.06798092 0.08805167 -0.012805692 0.08717771 -0.0051272814
-0.028098233 -0.13691479 0.011922921 -0.06703024 -0.08110099 -0.03426926 0.01005454 0.048854157
0.014379787 0.08637248 -0.07047339 -0.057729997 0.03695178 0.0047396617 0.001748526 0.0025269482
-0.09413672 0.033063162 -0.04870616 -0.03726599 -0.03722263 0.010029976 -0.101375006 0.004534347
0.017779864 0.01532507 0.025085615 -0.0062162797 0.0050422493 0.009343157 0.024961043 0.09943291
-0.05543478 0.0003498108 -0.013135808 -0.040063508 -0.08118714 0.05006908 0.044444356 -0.022216579

fc3.bias f4 [200]
00000000: 8d6e 43bd ce76 cabc d04d 053d 9f57 ac3b
00000010: 49f8 2c3d 66b0 0b3d ceeb 0a3c ab1b 1f3d
00000020: 368c f5bc b595 cbbc 902e 6bbd 3eee 993c
00000030: 2b54 103d fefd c73c 3406 0f3d 8ad3 9f3c
00000040: 4380 0ebc 5fd7 123d 3970 903b 8183 143d
00000050: 378a a2bc 43fc 4b3d e042 67bc ef93 053d
00000060: b72d 49bd 0cb6 483d bdce 72bc 523d ebbc
00000070: 943c 54bd 13d6 da3c 6c27 47bd f7f7 23bd
00000080: 21fe 82bd bc56 573d 4f5d e3bc 9201 59bd
00000090: ae59 beb7 077a 72bc e248 bbbc 2c7f babc
000000a0: 817e 2dbd eca7 1abd e1c1 fe3c 8af6 cd3c
000000b0: b7d5 e93c d256 1ebd d8cd 13bd 166e 0abb
000000c0: 209c 373d a7bd ef3c 66ec 66bb 37a6 323d
000000d0: ff5f 803d e26b dbbc 661f 423d 37e2 5e3d
000000e0: 78bf 4a3d 459f 443c f2fe e73c e9de 343b
000000f0: 04c1 41bd 9e1a 503d 1698 a43b 3ab1 8ebc
00000100: 5c62 49bb ee2d 2ebd edd4 1d3d 98f2 ab3c
00000110: 4098 c1bc 8cf8 d93c b612 353d 6f42 da3b
00000120: e790 893d deeb 3ebc 9fe7 c6bc 5ce6 09bc
00000130: 8c92 11ba 3d7c 0fbc d7a6 f2ba d8a0 3ebd
00000140: 3a8d f33c 5d0b 5cbd f9cd cfbc e3a5 973c
00000150: bfe1 5f3d 93c6 d8bc 6ba4 61bc 3e04 5d3c
00000160: 8e4e 0b3d cfb0 263c 33df 62bd 4ef4 29bc
00000170: 0940 5bbd e47d 90bd 3725 fdbb 68f2 b83c
00000180: ccbf 473d 197d 863c f2dd 0abd 4fff 4fbd
00000190: ce6a 9a3b daeb df3c 9606 173d d43c 313d
000001a0: f0d0 c33d dd82 36bc 47d1 ecbc 3ef3 503b
000001b0: 3c9d fabc 6b8d e83b d4ac c13c dd99 8bbc
000001c0: c52d 693c 4e0d 023c b929 073e a605 01bd
000001d0: f2d7 083d c3ae 423c 4a54 32bd c5f0 ccbc
000001e0: 06ba 8c3c 9613 3a3d a667 233d b42d 3c3d
000001f0: 453e 853c 1f7f 893d 5a26 113e 9b6b 1e3d
00000200: 77e4 1d3d df3c 4abd 2385 2abd 461f 1f3d
00000210: a3bc 7a3c 3854 4ebc 4a1e 293e dda2 413e
00000220: 68ad 2b3d 87e5 23bd 4782 21bb e775 ce3c
00000230: 4e4a 353d cc70 0ebd 9d55 11bd 35e0 31bd
00000240: 2ae7 a83c 939c c43c 2cd7 0b3e b6c4 06bd
00000250: 5185 243b c5c9 ac3a 3854 473d 170a 123d
00000260: 4a79 b73c da18 3bbc 5ee9 08bc 4959 013d
00000270: b403 373c a08f 56bd d667 353d 6a7c 163d
00000280: 850b f43d 1ba5 32bd 710c 1f3d 5528 51bd
00000290: e7ed 17bd 6e6a 303d ecb0 993d 832d 44bd
000002a0: a8d6 823c ed68 d5bb f714 f53c d0e6 8a3b
000002b0: 889a 0fb7 933d e8bc 6fb8 10bd 8004 f23c
000002c0: b6c6 3b3b d8f0 51bd 8cd5 25bc 4c1e 773b
000002d0: 09af 5a3d 1627 873d 752c 693d 62f6 693d
000002e0: eb51 8cbc 7e50 833c 8428 fd3b 2ecc 41bc
000002f0: 0780 a63c ca79 f4bc 79e3 3bbd e2c8 6a3d
00000300: 0e72 62b9 c273 f6bc 7058 093d ffb1 253d
00000310: 4227 ae3c 1c94 bbbc 3a10 fbbc 173d 563d
-0.04771285 -0.024714854 0.03254491 0.0052594687 0.04222897 0.034103774 0.008479072 0.038844746
-0.029974084 -0.02485166 -0.057417452 0.01879036 0.03523652 0.024413105 0.034918025 0.01951005
-0.008697572 0.035849925 0.0044079092 0.036258224 -0.019841297 0.049801122 -0.014115065 0.032611784
-0.049115863 0.04900174 -0.014819798 -0.028715763 -0.051815584 0.026713407 -0.04862158 -0.0400314
-0.063961275 0.05257295 -0.027754454 -0.052980013 -2.2691525e-05 -0.014799601 -0.022861902 -0.022765718
-0.04235697 -0.0377578 0.031098308 0.025141973 0.02854429 -0.038657017 -0.03608498 -0.0021122745
0.044826627 0.029265238 -0.003523612 0.043615546 0.0626831 -0.026784841 0.047393225 0.054414954
0.049499005 0.012000863 0.02831981 0.0027598685 -0.047303215 0.050806634 0.005023013 -0.017418493
-0.0030728793 -0.04252427 0.03853314 0.020989701 -0.023632169 0.026607774 0.044207297 0.0066607515
0.06717091 -0.011652915 -0.024280367 -0.008416738 -0.0005553148 -0.008757648 -0.0018512857 -0.04654011
0.029730428 -0.053721774 -0.02536677 0.018511718 0.054658648 -0.026461875 -0.01377211 0.013489781
0.034010462 0.01017399 -0.05538864 -0.010373188 -0.053527866 -0.07055262 -0.0077253836 0.022576526
0.048766896 0.016417073 -0.03390307 -0.05078059 0.004712439 0.027334142 0.036871515 0.0432709
0.09561336 -0.011139599 -0.028908385 0.0031883265 -0.030592553 0.0070969365 0.023641981 -0.017041141
0.014232104 0.007937742 0.1319951 -0.031499527 0.033409066 0.011882487 -0.043537416 -0.025017152
0.017178547 0.045428835 0.03989377 0.045942023 0.016265044 0.067136995 0.14174786 0.03867684
0.03854796 -0.049374457 -0.041630875 0.038848184 0.015303764 -0.0125933215 0.1651546 0.18909784
0.04191342 -0.040013816 -0.0024644302 0.025202705 0.044260316 -0.03477554 -0.035482038 -0.04342671
0.02061804 0.024000442 0.136563 -0.032902442 0.0025103877 0.0013182691 0.0486643 0.035654154
0.022396702 -0.011419499 -0.00835642 0.03157929 0.0111703165 -0.052383065 0.04428848 0.036739744
0.1191626 -0.043614488 0.038830224 -0.051063854 -0.037092116 0.04307025 0.07504448 -0.047894966
0.015971497 -0.0065127523 0.029917223 0.004238941 -8.559444e-06 -0.028349673 -0.03533214 0.029543161
0.0028652376 -0.051255077 -0.010121714 0.0037707267 0.053389583 0.06599252 0.056927163 0.057119735
-0.017128905 0.016029593 0.007725777 -0.011828465 0.02032472 -0.02984323 -0.04587123 0.057320483
-0.00021595528 -0.030084495 0.033531606 0.040452953 0.021258954 -0.022897772 -0.030647386 0.052304354
