CaseModels/01 14-Bus/_baseModel_vang.pth (torch, 5340 bytes, 7 tensors)

bias f4 [14]
00000000: 0e23 2a3e 5883 343e 488b b03d 2078 43be
00000010: 6744 19be 308d f93b 4bb0 a2bd 8024 8b3c
00000020: 0c4f c13c 47fd f1bd a610 733d 2d9b 823d
00000030: 01f8 d53d 64b2 023e
0.16614935 0.17628229 0.08620316 -0.19088793 -0.149675 0.007615708 -0.079437815 0.016985178
0.023597263 -0.11815887 0.05934205 0.06377254 0.104476936 0.12763363

fc1.weight f4 [12, 36]
00000000: 13a4 83bd 7796 2bbe 920d 0cbe c089 32bd
00000010: e21f b8bd e5d5 253e 3897 cd3d ce74 0b3d
00000020: c1fb d93b d906 d53d ba1d 373e a203 6ebe
00000030: e76d b5be 811b 0b3e ed87 a4be a8d1 003e
00000040: de26 8f3d 96f0 8c3e 94d0 743e bf25 a03d
00000050: 0817 8cbd 415f 183e 06dc 263e f496 13bf
00000060: b0e1 69bc 6a2a c33d e0be ffbd 06d6 dabd
00000070: 2ab8 c63d 0078 ac3b c135 283e 4ba8 21be
00000080: 704b 083d 8353 fabd 3092 443d 9c11 4cbd
00000090: 8ee0 acbb 3814 16be 6bf5 263e 7041 b53d
000000a0: 9b74 24be 76ff 2abd ca7b 3abe 8e66 1bbe
000000b0: 3467 9cbe 8500 00be 933f 773e 9e21 23bd
000000c0: cc3f af3c 1d82 18be 29a5 de3d 2222 12be
000000d0: 3e68 b93d a43e 963d 92ba 75be a43c 56be
000000e0: ab30 83be 04ed 8e3e dd5a 4c3e 9356 0bbd
000000f0: 36f3 88bd 1885 80bd 9ca5 3b3d 8ca5 073d
00000100: 26fe cd3d 50e8 593c a238 9d3d 7404 6f3d
00000110: c007 4fbb 4684 35bd c8e2 fcbc 7b00 263e
00000120: 2054 b7bf 4b18 19be 9050 e13e 5f73 bebc
00000130: 50bf fabe 1ccc 4a3d 44a9 02bf 7118 07bf
00000140: 7940 77bf fb1d 34bf 5590 7abe cefe a7bf
00000150: 37f2 7ebd 7297 f0bd 1873 cebc b2f1 00bf
00000160: 3117 9c3d 8e1c bebe 1e0f 09bf 0e1a 3dbf
00000170: f0b1 3ebf adb3 30be f8f0 51be d9a4 7d3d
00000180: b899 c03c fa1e cf3d 4d60 1e3e dfc0 13be
00000190: b2db d33d 9206 0ebe a25b e73d 4e50 fd3d
000001a0: 7fb9 143e 4588 073e 8a22 bc3d a69c 95bd
000001b0: 3a68 b9bd 3eb3 14bd 21dc 943c bd0f 9fbb
000001c0: b5c9 34bd 1c01 5ebe 0e96 8bbe 0d20 bcbd
000001d0: 8ab5 6b3d 3890 943d 618e d73e 9f46 6fbe
000001e0: c302 53be 9886 623e 865b 813d e21b a53c
000001f0: 5eaf e7bd 0832 08be 41fa cdbe be3c b73d
00000200: 0338 283e e4ea 703e 7581 903e 8809 53be
00000210: 70ba 25bc ea66 b23d 2f38 05be 6c50 67bd
00000220: b212 953d b2f4 0dbe b445 6d3d 40fe febc
00000230: 46fd 68bd 34ed 083d 76b8 d93d ee5b 9ebd
00000240: 7e8c 763f d39e 92bd 717a 17bf cfac 1d3e
00000250: 046a 1dbe 1854 e3bd 1428 803e 2b69 133f
00000260: 84d7 9ebe 140b 4fbe 2c3e 033e df4b 7c3f
00000270: 9040 af3a 2149 db3e 701c 89bc c9d6 093d
00000280: 94ba 88be 49ed 773e 3ebd a13e 195c d8bd
00000290: d599 32be 1107 d63c 5b8b afbe bb91 e9be
000002a0: 60b9 9d3c 4787 1bbe 0044 2dbd 5f78 0dbe
000002b0: 4836 9fbc 17c7 09be de44 cdbd 119a 273e
000002c0: a3be 193e 1454 09bd 5000 74bd 9351 11be
000002d0: 3718 ae3c a794 4c3e 03b6 db3d 9137 4e3d
000002e0: 1154 883a 715a eebd 37de 64be 6a4e 41be
000002f0: a07b dcbd 7941 4ebe 700e 94be cdbb 623e
00000300: b6ff 5fbc 38eb b5bd 4480 a73d 9dca debd
00000310: ecd3 65be da9b 0dbe 7e93 19bd 93d5 2fbd
00000320: d454 423d eefe 49be 6e67 0abe 37ef fd3e
00000330: d853 cabc 2506 153e c8fb ccbc 9bca f0bd
00000340: 60d7 bd3c 9bdf f7bd a095 d53b ad0a 233e
00000350: 60fa eabc a391 283e 2630 d4bd 02ba f63d
00000360: 1aa8 37be c273 5fbe 6884 4abd 9889 84bd
00000370: ce33 5f3e 86be 8f3e 43e0 aa3e 7b1c 803e
00000380: c9fd fa3e c66c 953e f96b c83e c361 b5bd
00000390: c74b 963c 8d44 3c3b 35b9 f13d bc40 923e
000003a0: d276 203e 771b 063e 1d11 bf3e 3836 553e
000003b0: 8f1c 0e3f a8ed c33e cf0e 143e 789d 08bd
000003c0: 963b b93d a6c7 64bd a5e3 143e 76a3 acbd
000003d0: 9cc1 21be 5ac7 b13d 180a a9bc 0829 c23c
000003e0: 7469 413d b071 243d dfb0 17be 8313 c7bd
000003f0: bf75 c83c 41e5 613d 4d0c e5bc 244f 96bd
-0.06427779 -0.16756617 -0.13677052 -0.0435884 -0.08990456 0.16194876 0.10038608 0.03404694
0.006652326 0.10401697 0.17882434 -0.23243573 -0.3543541 0.1358471 -0.32134953 0.12579978
0.06989835 0.27527303 0.23907691 0.078196995 -0.0684033 0.14880086 0.1629487 -0.5765221
-0.0142749995 0.09529574 -0.124875784 -0.10685353 0.09703095 0.0052633286 0.16426755 -0.15786855
0.033275068 -0.1222296 0.047990978 -0.04982148 -0.0052757924 -0.1465615 0.16304557 0.08850372
-0.16060106 -0.041747533 -0.18211284 -0.1517584 -0.30547488 -0.12500198 0.24145345 -0.03982698
0.021392725 -0.14893384 0.108713455 -0.14270833 0.09053086 0.073361665 -0.23996952 -0.2092157
-0.25623068 0.27915204 0.19956537 -0.03401811 -0.06687014 -0.062753856 0.045812234 0.033116862
0.100582406 0.0133000165 0.076768175 0.058353856 -0.0031590313 -0.0443156 -0.030869856 0.16211121
-1.4322548 -0.14950673 0.44006777 -0.023248373 -0.48974085 0.04951106 -0.5103953 -0.5277167
-0.9658275 -0.70358247 -0.24469121 -1.3124635 -0.062242713 -0.11747636 -0.025201365 -0.503688
0.07621611 -0.3713116 -0.5353869 -0.7386788 -0.7449026 -0.17256041 -0.20502079 0.06192479
0.023510799 0.1011333 0.15466423 -0.14429043 0.10344638 -0.13869694 0.112967744 0.123688325
0.14523886 0.13235576 0.09186275 -0.07305269 -0.09053083 -0.03630375 0.018171372 -0.004854171
-0.044137675 -0.2168011 -0.2726292 -0.09185801 0.057546176 0.0725407 0.42100814 -0.23366784
-0.20606522 0.22121656 0.06316285 0.020154897 -0.113127455 -0.13300335 -0.4022999 0.089471325
0.16427617 0.23527104 0.28223768 -0.20609105 -0.010115251 0.087110355 -0.13009714 -0.05647318
0.072789565 -0.13862875 0.057927802 -0.031127095 -0.056882165 0.03342934 0.10630886 -0.07732378
0.96308124 -0.071591996 -0.59171206 0.15397952 -0.15372473 -0.11100024 0.25030577 0.5758235
-0.310238 -0.2021907 0.12816685 0.9855327 0.0013370682 0.4282923 -0.016737193 0.0336521
-0.26704848 0.24211611 0.31589693 -0.10564441 -0.17441495 0.026126416 -0.34286007 -0.45618996
0.019253433 -0.15188323 -0.042301178 -0.13815449 -0.019435063 -0.13454853 -0.10022901 0.16367365
0.15014128 -0.03352745 -0.05957061 -0.14191274 0.02125178 0.19978581 0.10728075 0.05034596
0.001040103 -0.11638344 -0.22350393 -0.18877569 -0.10765767 -0.20142163 -0.28917265 0.22141953
-0.013671806 -0.08882755 0.081787616 -0.10878489 -0.22444123 -0.13828984 -0.037494175 -0.04292829
0.04744418 -0.19726154 -0.13516018 0.4959657 -0.024698183 0.14553125 -0.025022402 -0.11757394
0.023173988 -0.12103196 0.006518081 0.15922041 -0.028683841 0.16461806 -0.10360746 0.12047197
-0.1793522 -0.21821502 -0.04944268 -0.064715564 0.21797106 0.28075045 0.33374223 0.2502173
0.49021748 0.2918455 0.39144877 -0.08856537 0.01834668 0.0028727383 0.118029036 0.28565013
0.15670326 0.13096415 0.37317744 0.20821464 0.55512327 0.38267255 0.14458774 -0.0333533
0.09044568 -0.055854462 0.14539964 -0.08429615 -0.15796512 0.086806014 -0.020634696 0.023701206
0.04721971 0.040147483 -0.14813565 -0.097205184 0.024470208 0.055150274 -0.027959967 -0.073393136

fc1.bias f4 [12]
00000000: 5ebc b7be a5d7 df3d d2ee 49be 88ab 023c
00000010: 3933 edbe 2bcd fc3e 484a cfbd da01 5bbe
00000020: d45d 2abe 9955 babd ed67 a5bd f466 dd3e
-0.358859 0.10929803 -0.19720009 0.007975467 -0.46328142 0.4937528 -0.1012159 -0.21387425
-0.16637355 -0.09098358 -0.08076463 0.4324261

fc2.weight f4 [6, 12]
00000000: eb45 5c3e 15e6 1c3e 9349 81bd e8db 54be
00000010: ee60 8f3e fb6a b03d 14b2 593f 9374 3b3e
00000020: 5399 60be 820c 963e 2459 77be eaab 30be
00000030: a0b3 af3e 7941 593e 5eb6 e53d 2fdd c33d
00000040: 53b5 bfbe b9d3 4cbe 09ac 45bd 4687 913e
00000050: f9ab 943e b604 673e ff81 f73b 184b d1bd
00000060: c8e9 68be b692 f43d 412f 82bf e27a 4bbd
00000070: 0d4b 803f 7236 fe3c 9217 94be 0a43 cebd
00000080: 3c01 ec3d fb79 afbf 7e9d dbbe 2868 e03d
00000090: 23a5 0240 24a8 acbf 3b06 ddbd a5fe b7bf
000000a0: 7fce 423f 4715 ddbf b04e ffbe 00a3 74be
000000b0: d27e aa3f 8d43 3a40 545a af3f a8fa abbe
000000c0: 3001 083e bae9 7a3e 6f82 12bc 7a19 353d
000000d0: 429b 7cbe c29a 70ba 48a9 8a3e 3f52 25be
000000e0: 0a8d b03e 77eb 083e 427c 93be d7f8 09be
000000f0: 4ff7 9a3d 66bb 07be 758a 84be f38c 843e
00000100: 2cce f93a e415 0a3e e76c ef3e 84f0 833e
00000110: e002 483d ac9a febe 4fd2 e0be c36e d8bd
0.21511047 0.15322144 -0.06312861 -0.20787013 0.2800364 0.08614155 0.8503735 0.18306188
-0.21933489 0.29306418 -0.24155098 -0.1725308 0.3431673 0.21216382 0.112164244 0.09563672
-0.37443027 -0.20002641 -0.04825977 0.28423518 0.29037455 0.22560391 0.0075533385 -0.10219401
-0.2274543 0.119420454 -1.0170671 -0.049677737 1.0022904 0.03103182 -0.28924233 -0.100713804
0.11523673 -1.37091 -0.42893595 0.10957366 2.0413291 -1.3488812 -0.10792204 -1.4374586
0.7609634 -1.7272118 -0.4986472 -0.23890305 1.3319952 2.910373 1.3699441 -0.33589673
0.13281703 0.24503222 -0.008942231 0.04421375 -0.24668601 -0.0009178334 0.27082276 -0.16144656
0.34482604 0.13371073 -0.2880574 -0.13473831 0.075667016 -0.1325508 -0.25886884 0.25888786
0.0019058636 0.13484913 0.46762773 0.25769436 0.048830867 -0.4972738 -0.43910453 -0.10568001

fc2.bias f4 [6]
00000000: 69d8 95bd e646 be3d 9c43 c63e 786f 733e
00000010: eb82 bcbc b62e 0fbe
-0.073166676 0.092908666 0.38723457 0.2377299 -0.023011645 -0.13982663

fc3.weight f4 [14, 6]
00000000: 68ee 80b8 cc31 66b7 c6b9 0ab9 f7ee fd38
00000010: 807e 9934 e073 9f35 3330 df3c d6ce 22be
00000020: 97d3 97be 164b b93e 6806 a1bb 0e6e fbbd
00000030: 4556 e43e 820f 02bf 9248 9f3c 413f 36bf
00000040: 10ae a73e 8089 f8be a015 0e3e 6ea1 91be
00000050: e0f8 d3b7 99ea 0840 c3ac 9bbe 1a84 b53d
00000060: 649f b83d 4d67 44be cfad 95bd 3291 ad3f
00000070: afb3 6fbe f8df 83bb 6c12 473b 5dd2 253d
00000080: 06c7 5cbe 240d 9dbe 5a7f b4be 2f76 b4be
00000090: eab6 babd d4e1 b0be 3b08 f1bd b1fe 0f3e
000000a0: 1d7c c1bd 9e02 8cb9 e9b6 babd d3e1 b0be
000000b0: 4108 f1bd a2fe 0f3e 257c c1bd 8602 8cb9
000000c0: f6a9 67be 3f19 c7be 3d99 3cbe 6eee 84bf
000000d0: 80b7 113d 966f 36bd d793 45be c12d a1be
000000e0: 0cf7 59be 50a8 99bf b8d9 2abd fdb1 cfbd
000000f0: 08af b8bd 4f5a 04be 34b8 60be d721 47bf
00000100: bd7f 54be 6374 6ebe 1fda 283c ff92 ea3d
00000110: 5f88 6abe 82e7 9dbe 4626 c9be e702 e0be
00000120: 5053 1fbc ac16 e03d 410b 65be bcaa 73bd
00000130: e3e0 aebe 08eb e6be bf3d 9abe f7e3 8ebd
00000140: b7fb 88be ba69 0e40 ae4d 753e 822d 00bf
-6.147922e-05 -1.37206625e-05 -0.00013229912 0.00012108491 2.8590512e-07 1.1880147e-06 0.027244663 -0.15899214
-0.29653618 0.361901 -0.0049140938 -0.12276851 0.44597068 -0.50804913 0.019443784 -0.7119027
0.32749987 -0.48542404 0.13875437 -0.28443474 -2.5269052e-05 2.1393187 -0.30405244 0.08863087
0.09014776 -0.19180031 -0.07308542 1.3559935 -0.23408388 -0.004024502 0.003037597 0.04048382
-0.21560296 -0.30674088 -0.35253412 -0.35246417 -0.09116919 -0.34547293 -0.11769148 0.14062001
-0.09447501 -0.0002670483 -0.091169186 -0.3454729 -0.117691524 0.14061978 -0.09447507 -0.0002670476
-0.22623429 -0.3888645 -0.18417831 -1.0385263 0.03557539 -0.04454001 -0.19294678 -0.3148022
-0.21285647 -1.200449 -0.04171154 -0.101413704 -0.090177596 -0.12925075 -0.21945268 -0.7778601
-0.20751853 -0.23286586 0.01030591 0.114538185 -0.22903584 -0.3084069 -0.39287013 -0.43752214
-0.009724453 0.10941824 -0.22367574 -0.059488997 -0.3415595 -0.4510119 -0.30125234 -0.069770746
-0.26754543 2.225203 0.23955414 -0.5006944

fc3.bias f4 [14]
00000000: 342b 2abe 6c78 9abd 86d2 6fbe d659 0d3e
00000010: f31c 033e 2f19 3bbd 54d2 9e3c cdc4 9dbd
00000020: b818 afbd 3374 803d aeaf dbbd fda5 dcbd
00000030: deff 17be 1135 f4bd
-0.16618043 -0.075425 -0.23420152 0.13803801 0.12804012 -0.045678314 0.019387402 -0.077035524
-0.085496366 0.06272163 -0.107268676 -0.10773847 -0.148437 -0.11924184
