CaseModels/01 14-Bus/_baseModel_vpu.pth (torch, 5265 bytes, 7 tensors)

bias f4 [14]
0.3274315 0.24982056 0.3590534 0.18472782 0.29775223 0.26231638 0.25439852 0.3432052
0.20234622 0.14993237 0.20576525 0.1226039 0.34467885 0.22642908
00000000: 1aa5 a73e f6d0 7f3e d9d5 b73e 4a29 3d3e
00000010: fb72 983e 554e 863e 8640 823e 98b8 af3e
00000020: d933 4f3e df87 193e 20b4 523e c117 fb3d
00000030: bf79 b03e 06dd 673e

fc1.weight f4 [12, 36]
0.12725109 0.054644015 0.07943384 0.051545646 0.22285922 -0.038569767 0.3184529 0.67274237
-0.1772108 -0.03772079 -0.48927224 -0.038699888 -0.13079962 0.1839636 0.35195616 0.21043697
0.02248691 0.3836414 0.4620716 -0.31158492 -0.07922908 -0.2411742 0.116153784 -0.10611732
0.0730383 -0.03633468 0.10426237 -0.3520383 0.060773358 0.6043919 0.11483945 0.080485865
-0.025901541 -0.051639736 -0.08285068 0.16482349 0.112924464 -0.08333119 -0.08859816 -0.2073971
0.025787098 0.05109125 -0.10488725 -0.07065177 0.32541713 0.026081419 0.12806755 -0.15782824
-0.024784148 -0.0002558579 -0.11378908 -0.107487604 0.014857558 0.13749377 0.077576816 0.3011767
0.122835405 -0.15641767 -0.06163307 -0.039256956 0.09559152 -0.017066851 0.13615157 -0.12364228
-0.15175813 0.10967764 0.12670769 -0.07931481 -0.1061753 -0.01237683 0.14783682 0.1452838
0.06212942 0.16400595 -0.01834949 -0.0013469137 0.016723035 0.011071147 -0.14598091 0.014238945
-0.06538896 0.021581123 0.09263428 -0.08239117 -0.12981112 -0.26899496 0.022671891 0.08627484
0.09392219 -0.03924142 0.101236664 -0.31383377 -0.27663842 0.081313185 -0.08803666 0.018571928
-0.0672808 0.13017927 0.07271606 -0.088266164 0.13060518 0.08614645 -0.057728253 -0.13613734
0.14030986 -0.114859104 -0.090869926 -0.10947337 -0.050219588 -0.032764062 -0.046623796 -0.0012856537
0.07888965 0.0047216895 0.10508069 -0.121599555 0.11625169 0.109536976 -0.14430483 0.06716201
0.13024345 -0.025151914 -0.029089626 -0.24355334 -0.031785592 0.13310061 -0.078901745 -0.15921651
0.00075295137 0.051468402 0.0013469968 0.005461174 -0.11141758 0.02355665 -0.14527236 0.0660699
-0.1623553 -0.027067203 0.032518968 0.15978421 0.017472744 0.16058068 0.16004546 0.08962168
0.09563746 0.15603718 0.025608575 0.049269445 0.043957185 0.1097661 -0.12301299 -0.08823582
0.20565544 0.026741354 -0.24057351 -0.015014622 -0.14658476 0.004125511 -0.0161088 0.12069284
-0.007236738 -0.04625643 0.072857134 0.08996969 -0.0051000696 -0.09799036 0.022549363 -0.040639203
-0.059642173 0.016710714 -0.020581067 -0.107195444 0.10680725 -0.2614653 -0.010034502 0.09270181
-0.061270475 0.10070731 -0.09816277 -0.009598568 0.047511067 -0.054781534 0.040691596 0.0979626
-0.0034315386 0.024795657 -0.15453233 0.0071165715 0.027133865 0.12944336 0.103515536 -0.05150538
0.026358614 -0.026332002 -0.15502249 -0.016560925 -0.19021596 -0.18772298 -0.041919243 -0.1422527
-0.10739758 0.30355433 -0.03904307 -0.06875592 0.1503257 -0.077083826 -0.02950102 -0.0070270826
-0.021170184 -0.24800602 -0.004104212 -0.044924796 -0.0340928 0.15573432 -0.010469794 -0.02027756
0.048696365 -0.019064214 0.054703314 0.12124185 0.021653254 0.055181887 -0.48245344 -0.6416806
0.0057894974 -0.15455401 -0.18088797 0.03779802 -0.09035093 0.060319863 -0.18897319 0.15158567
-0.046674762 -0.3391531 -0.78647995 -0.010715757 -0.45031512 -0.020635592 0.09649095 -0.080055036
0.074759565 0.16493736 -0.00586994 -0.04610444 0.11925115 0.5285053 0.057320103 -0.04316368
0.08605413 -0.11280595 -0.057427905 0.15617113 0.03660787 -0.20586258 0.06271235 -0.16422996
00000000: 1c4e 023e 67d2 5f3d 36ae a23d 8721 533d
00000010: 3535 643e 55fb 1dbd 420c a33e d838 2c3f
00000020: bf76 35be 1d81 1abd e481 fabe c683 1ebd
00000030: 56f0 05be f460 3c3e 9933 b43e ca7c 573e
00000040: 7836 b83c a56c c43e a694 ec3e 0f88 9fbe
00000050: db42 a2bd 5ff6 76be 09e2 ed3d 0a54 d9bd
00000060: 1b95 953d acd3 14bd 8287 d53d 5d3e b4be
00000070: 7ced 783d 6db9 1a3f f230 eb3d c6d5 a43d
00000080: 782f d4bc 3084 53bd 9ead a9bd 7dc7 283e
00000090: f144 e73d 8ba9 aabd f472 b5bd e85f 54be
000000a0: 773f d33c 0f45 513d 20cf d6bd e0b1 90bd
000000b0: 139d a63e b3a8 d53c 2424 033e ba9d 21be
000000c0: 2008 cbbc ab24 86b9 400a e9bd 7622 dcbd
000000d0: 1d6d 733c 2bcb 0c3e 98e0 9e3d d533 9a3e
000000e0: 2191 fb3d f42b 20be f572 7cbd e7cb 20bd
000000f0: 7dc5 c33d c8cf 8bbc 516b 0b3e 2a38 fdbd
00000100: 7c66 1bbe ac9e e03d a9bf 013e ce6f a2bd
00000110: 7072 d9bd 30c8 4abc 8962 173e 47c5 143e
00000120: 6b7b 7e3d 2df1 273e ab51 96bc ed8a b0ba
00000130: bffe 883c c263 353c 057c 15be 774a 693c
00000140: a6ea 85bd e5ca b03c 0bb7 bd3d b4bc a8bd
00000150: 35ed 04be b5b9 89be 67ba b93c ddb0 b03d
00000160: 475a c03d 9cbb 20bd 2b55 cf3d d2ae a0be
00000170: 8da3 8dbe 8787 a63d 904c b4bd 2824 983c
00000180: 84ca 89bd b74d 053e 28ec 943d e4c4 b4bd
00000190: 5dbd 053e 8d6d b03d 7674 6cbd 9667 0bbe
000001a0: 63ad 0f3e 403b ebbd 031a babd 9333 e0bd
000001b0: 0eb3 4dbd 9c33 06bd 98f8 3ebd 6183 a8ba
000001c0: e690 a13d 67b8 9a3b 8b34 d73d 3009 f9bd
000001d0: 5e15 ee3d ec54 e03d a5c4 13be 3c8c 893d
000001e0: 8a5e 053e 630b cebc 5e4d eebc 0c66 79be
000001f0: 9c31 02bd 874b 083e 3d97 a1bd a709 23be
00000200: b661 453a 88d0 523d b68d b03a a6f3 b23b
00000210: e62e e4bd e0f9 c03c 47c2 14be a84f 873d
00000220: 7840 26be 0abc ddbc 9c32 053d 799e 233e
00000230: 0023 8f3c 436f 243e f5e2 233e 928b b73d
00000240: 93dd c33d 36c8 1f3e 13c9 d13c c2ce 493d
00000250: 730c 343d 0dcd e03d 3cee fbbd fbb4 b4bd
00000260: 5797 523e af10 db3c e758 76be e4ff 75bc
00000270: 511a 16be 4b2f 873b 9af6 83bc cf2d f73d
00000280: 2922 edbb 6277 3dbd 1f36 953d 0742 b83d
00000290: 7c1e a7bb 2baf c8bd 71b9 b83c 4b75 26bd
000002a0: 5a4b 74bd e8e4 883c a099 a8bc 4989 dbbd
000002b0: c2bd da3d c8de 85be c067 24bc 72da bd3d
000002c0: c0f6 7abd a23f ce3d 9009 c9bd 5043 1dbc
000002d0: f79a 423d 9a62 60bd 3bac 263d 9ea0 c83d
000002e0: aae3 60bb 4320 cb3c b93d 1ebe 2132 e93b
000002f0: d747 de3c cd8c 043e f4ff d33d 4ef7 52bd
00000300: 05ee d73c 36b6 d7bc 37be 1ebe c7aa 87bc
00000310: f9c7 42be 743a 40be 83b3 2bbd b1aa 11be
00000320: 43f3 dbbd 796b 9b3e a0eb 1fbd e7cf 8cbd
00000330: fbee 193e 20de 9dbd 20ac f1bc 7143 e6bb
00000340: 186d adbc 4af5 7dbe a07c 86bb 1003 38bd
00000350: e4a4 0bbd d178 1f3e 8089 2bbc 201d a6bc
00000360: d775 473d 8e2c 9cbc 9510 603d a64d f83d
00000370: 2a62 b13c 6706 623d 2304 f7be 2e45 24bf
00000380: d3b5 bd3b 6843 1ebe b23a 39be 19d2 1a3d
00000390: e909 b9bd f611 773d 3082 41be 4639 1b3e
000003a0: 092e 3fbd 7aa5 adbe c056 49bf 2491 2fbc
000003b0: b48f e6be f90b a9bc 0c9d c53d e5f3 a3bd
000003c0: 8b1b 993d 57e5 283e a058 c0bb 02d8 3cbd
000003d0: f239 f43d 204c 073f 7cc8 6a3d 66cc 30bd
000003e0: 263d b03d ce06 e7bd 8639 6bbd 53eb 1f3e
000003f0: 22f2 153d a4cd 52be 556f 803d e62b 28be

fc1.bias f4 [12]
0.5335746 0.6759081 0.5480339 0.5874451 0.5656389 0.5060601 0.5575456 -0.6838649
0.54837865 0.40627652 -0.26378268 -0.6488787
00000000: 5898 083f 5008 2d3f f34b 0c3f cd62 163f
00000010: b6cd 103f 288d 013f 4fbb 0e3f c511 2fbf
00000020: 8b62 0c3f 7a03 d03e 860e 87be ea1c 26bf

fc2.weight f4 [6, 12]
0.07598332 0.10611829 0.1592382 0.43786997 0.25238565 0.19382069 0.028808169 -0.35999936
-0.06875482 0.35210666 -0.3753763 -0.3725413 -0.05613281 -0.40179724 -0.15621562 0.68140835
-0.033460446 -0.35076177 -3.0494318 -0.7199862 -2.1958134 -1.2210537 -0.9341009 -0.25883383
-3.02883 -2.6154497 0.22803769 -0.9554745 -0.4072072 0.3598505 -0.07401109 0.23756012
-1.9097279 0.40376532 -2.5427613 -0.8426886 -0.09243607 0.07988653 0.21789387 0.34690836
-0.05391184 0.25016654 -0.030614842 0.07385004 0.121280916 0.17171568 0.15568143 -0.097451515
1.0374633 -1.8496416 -0.55002916 -1.7299408 -0.6772763 -0.9993723 -0.39259234 1.1425104
-0.09475736 1.0056076 0.79760265 0.053339716 0.16460676 0.0296625 0.3041798 0.11276883
-0.3768537 -0.1329605 0.068660095 0.16642763 -0.055996943 -0.11075401 -1.1046844 -0.520279
00000000: 259d 9b3d 8c54 d93d 570f 233e 7e30 e03e
00000010: b138 813e ee78 463e 1cff eb3c d651 b8be
00000020: 54cf 8cbd 5347 b43e 5331 c0be bcbd bebe
00000030: 84eb 65bd 5eb8 cdbe fdf6 1fbe c770 2e3f
00000040: d20d 09bd 0c97 b3be e429 43c0 0451 38bf
00000050: 3588 0cc0 7d4b 9cbf 3d21 6fbf de85 84be
00000060: 5ad8 41c0 8763 27c0 b682 693e fa99 74bf
00000070: 767d d0be 533e b83e 2093 97bd f642 733e
00000080: f771 f4bf 54ba ce3e 9abc 22c0 71ba 57bf
00000090: 1f4f bdbd 8d9b a33d 921f 5f3e f99d b13e
000000a0: a9d2 5cbd d415 803e facb fabc b13e 973d
000000b0: 2162 f83d 3cd6 2f3e f46a 1f3e a994 c7bd
000000c0: 99cb 843f 0ec1 ecbf b6ce 0cbf b36e ddbf
000000d0: fb61 2dbf ddd6 7fbf dd01 c9be c83d 923f
000000e0: 2610 c2bd c0b7 803f b02f 4c3f bf7a 5a3d
000000f0: ad8e 283e c5fe f23c 74bd 9b3e 58f3 e63d
00000100: f8f2 c0be cc26 08be aa9d 8c3d 016c 2a3e
00000110: 0d5d 65bd 00d3 e2bd 4c66 8dbf 0131 05bf

fc2.bias f4 [6]
0.56248736 0.010365 -0.47228894 0.65484893 -0.75418365 -0.030494954
00000000: 2cff 0f3f f6d1 293c dbcf f1be 2ea4 273f
00000010: 2e12 41bf 8ed0 f9bc

fc3.weight f4 [14, 6]
0.25038275 0.24247473 0.75293046 0.253895 -0.14306344 0.2768191 0.10720238 0.10380685
0.32231635 0.10879767 -0.060536485 0.11826088 0.27791226 0.26900268 0.83574057 0.28176853
-0.15946698 0.30735478 0.07498502 0.21095796 -1.4471031 0.3221849 -1.7305688 -0.08870688
0.14607728 0.14543234 -1.3318145 0.3848734 -2.0168233 0.030382928 0.1487651 0.14395627
0.44745237 0.1509742 -0.08407973 0.16423808 0.18914743 0.2697846 -0.36103466 0.4350747
0.10919615 -0.14989904 0.26830852 0.25974137 0.8068416 0.27205047 -0.15370056 0.2967039
0.13697705 0.31970653 -0.5886929 0.49875537 1.0211253 -0.47011587 0.08934042 -0.9022255
0.11054098 0.2790845 -0.5058922 -0.5266465 0.2944401 -0.48295498 0.936791 0.3618146
-0.8205393 -0.023937486 0.12632872 -0.88417166 -0.5009518 0.377181 1.0315564 0.18152623
-0.07398487 -1.860029 -1.4655914 0.0030602769 0.8044389 -0.18534558 0.6262482 -0.13458213
-1.3206292 0.030335147 0.6307458 -0.18089505
00000000: 2b32 803e 4c4b 783e 0dc0 403f 87fe 813e
00000010: 397f 12be 3cbb 8d3e ec8c db3d b098 d43d
00000020: a606 a53e 50d1 de3d 1bf5 77bd c332 f23d
00000030: 844a 8e3e b8ba 893e 18f3 553f f743 903e
00000040: 504b 23be 9b5d 9d3e bf91 993d 5d05 583e
00000050: ad3a b9bf 6bf5 a43e 4783 ddbf f4ab b5bd
00000060: 4895 153e 37ec 143e e678 aabf 200e c53e
00000070: a213 01c0 9ee5 f83c e155 183e 4669 133e
00000080: 7a18 e53e fb98 1a3e fe31 acbd 072e 283e
00000090: ddaf 413e 3521 8a3e 89d9 b8be 1cc2 de3e
000000a0: 3ba2 df3d 227f 19be bc5f 893e d2fc 843e
000000b0: 2c8d 4e3f 334a 8b3e ae63 1dbe 93e9 973e
000000c0: b643 0c3e 93b0 a33e 94b4 16bf dd5c ff3e
000000d0: 3cb4 823f 07b3 f0be 1cf8 b63d 40f8 66bf
000000e0: 4f63 e23d 2ae4 8e3e 2782 01bf 4ed2 06bf
000000f0: dac0 963e e045 f7be 89d1 6f3f c33f b93e
00000100: dd0e 52bf 8c18 c4bc 515c 013e 1359 62bf
00000110: 613e 00bf de1d c13e 0a0a 843f 03e2 393e
00000120: 6185 97bd 6e15 eebf 8098 bbbf ed8e 483b
00000130: b5ef 4d3f 3bcb 3dbe cd51 203f e6cf 09be
00000140: 610a a9bf 6a81 f83c 8f78 213f 8d3c 39be

fc3.bias f4 [14]
0.12562965 0.5351161 -0.022715755 0.22968408 -0.062322073 0.44680527 0.044157363 0.0964212
0.12477982 0.44406474 0.037938807 0.29038647 0.7006566 -0.12174398
00000000: 0fa5 003e 5efd 083f 6416 babc 4e32 6b3e
00000010: 6e45 7fbd a9c3 e43e 5ade 343d 7a78 c53d
00000020: 908c ff3d 745c e33e b965 1b3d 89ad 943e
00000030: 3b5e 333f e854 f9bd
