CaseModels/01 14-Bus/_baseModel_vpu.pth (torch, 5265 bytes, 7 tensors)

bias f4 [14]
00000000: 94b0 c63e 0c6f 213f 44c8 0f3f ca6c 9e3d
00000010: 1614 473d 6bdf 043f 77d0 593d 54c7 eb3e
00000020: af02 4d3e c62f cc3e c201 313e 02a2 d93e
00000030: 7c3b 783e 8f8e 0e3f
0.38806593 0.6306007 0.56164956 0.077355936 0.04860314 0.5190341 0.053177323 0.46050513
0.20020555 0.39880198 0.17285827 0.42506415 0.24241441 0.5568628

fc1.weight f4 [12, 36]
00000000: 3a24 a13d 9b70 b9bd 2bc0 b6bd 30eb 5dbd
00000010: 806a 87ba acb5 1abe 6e1b f63d 5c0e 003d
00000020: 0084 64bc 3689 25be ea1a ef3d bce1 0d3d
00000030: 0940 003e 1009 59bd 8267 be3d a672 9a3d
00000040: 9871 e3bc e085 973c f855 90bd 3b8f c5bd
00000050: c3a6 1abe be64 b53d fe86 ffbd 98e2 88bc
00000060: 24df 153d 9828 81bc 2aec aa3d 76c0 20be
00000070: f08c 2ebc 648b 1bbe e622 5bbd f63a f13d
00000080: 5273 ae3d e0a9 9fbc 992a 233e d4fe 20bd
00000090: 6198 1dbd 0c09 073c bf64 e1bc c2e2 3abb
000000a0: ae5d 0b3e f65a c4bc f9fc 513d 6ea5 1dbd
000000b0: cf77 ed3d 2046 05be 4d0f 6d3e d589 83bd
000000c0: 3f4b 503e 9d84 63bd a95b a3bd bded dcbd
000000d0: 4767 2e3e 9074 3c3e bb4e 6cbd 2370 403d
000000e0: 5dde 99bd 46be 773e 2e68 d63c 147d 063f
000000f0: 549d 1f3d 5842 d9bd 2d74 063e e003 0ebe
00000100: 9649 abbd 18bd a83c 809f 9abc f24d d53d
00000110: 9ce3 17bd 2ac5 e23d ac25 44bd 9db7 0e3e
00000120: 5656 1f3d 71b6 3f3e e10d 133d 082e 203e
00000130: 75c8 843e e2ac 91bc 6c4c 033d 6e07 0f3e
00000140: bba3 843c 1bcd da3d eccd 343c 870a 903e
00000150: cb74 babd 1d30 5bbe 3ddf a93e adac de3d
00000160: fa8e 393e 9cea 2d3d c10a d03c 85f1 253e
00000170: b752 bfbc 7548 14bd d2cc 883d 9bf9 283f
00000180: e432 13bd f0cf 29bc c051 f43c b04c 913d
00000190: 842c 0fbd 40a4 9b3d a0d0 e63c 572e 0cbe
000001a0: ccb9 373d be4c c0bd 98b8 97bc 90cb 7cbd
000001b0: 3b7d 313d f3e6 563d d293 14bd 9e59 33be
000001c0: 8569 903d bdc8 a6bd dd19 b4bd 0966 d1bd
000001d0: d5a5 97bd 1c5f 34be 9a6b b2bd 9579 603d
000001e0: fc7f 2fbe 58ae 9dbd ac22 213c d5b5 b8bd
000001f0: 2f63 aa3d f6ba 5c3c 0fb1 193d e712 00bd
00000200: c986 923d 3b07 00be 5fd8 0cbd 88a4 18be
00000210: 80d0 e0ba 9667 d4bd e270 8e3d 086d b63c
00000220: 1c7d 653d 43df b0bd 7045 a9bd eed8 81bd
00000230: 5020 15bc 5e4e de3d fad2 d63d 7586 213e
00000240: d472 da3d 1aef db3b 1021 163e 0ada 26bd
00000250: 59e0 8e3d bbfd 1c3d e2fa 633e d494 0f3e
00000260: 9d74 423e f981 313e 5052 633e 69a7 593e
00000270: c1ea 82bd 99a6 ce3c 6ee1 0a3d eba1 5b3e
00000280: c433 6e3d 12da 7d3d 1d1d a53d de58 993c
00000290: ab1a 303e bb85 7d3e a029 d73d 7587 b13e
000002a0: 93bf 043e cb76 f2bd 76e0 d13d 66cc 8e3d
000002b0: e615 4cbd 8bc0 82bd ba56 d63d d017 0fbc
000002c0: aebd 8c3d 30cf 903d 98c5 a6bc 8661 b2bd
000002d0: 8bec fe3d 993f 6fbc 3ae9 263d b6dc 533d
000002e0: ff44 5f3e d9d2 693d 0e77 223e fdea 933d
000002f0: 0634 e83d 0f81 d33d 20eb 583e c11a cf3d
00000300: 2f3c 413d ed34 81bd 230f 2d3d 2f25 ff3d
00000310: 5d49 913e ee80 ba3e cb34 813e ca00 9d3d
00000320: e0f1 343d b2fa 733e fb4f 873e 7928 0bbf
00000330: 2808 f4bc e056 89bb b0c0 483c 1937 073e
00000340: 78f5 c5bd 88d9 e1bd c0ad 613c fe3d bd3d
00000350: e6cd 37bd b83a b8bc 1cc6 443d b3c1 c3bd
00000360: 3a6e 953d 8724 1a3e 2038 3b3d 7678 a4bd
00000370: de83 b13d 0c2c 3bbd ea81 e13d fa15 f23d
00000380: 824f f03d 4cb7 6e3d c0fe 25be a8fd a03d
00000390: 7854 80bd 1cb9 7a3d 3cf4 27be 298e 1a3e
000003a0: 6056 963d f282 bf3d d6c5 853d 4cf2 133d
000003b0: 9230 be3d 8206 12be 40e1 18be 36cd 2ebd
000003c0: cbb6 aabd 4eba f8bd 45dc 1b3e c05e 2bbc
000003d0: 48a0 80bc e857 8fbd d0ea 153d 9363 bcbd
000003e0: 6d32 0b3e cb8e abbd 6066 d4bd de79 bebd
000003f0: 6949 783d eab9 88bd 2c81 2b3d 1dcf 8bbd
0.07868238 -0.09054681 -0.08923372 -0.05417937 -0.0010331422 -0.15108365 0.120169505 0.031263694
-0.013947487 -0.16165623 0.11675055 0.034639105 0.12524427 -0.05298716 0.09297086 0.07541399
-0.027764127 0.018496454 -0.07047647 -0.0964646 -0.15102677 0.08857106 -0.124769196 -0.01670961
0.036589757 -0.015766427 0.08345826 -0.15698418 -0.010653719 -0.15189892 -0.05350008 0.11778824
0.08518089 -0.019490182 0.15934218 -0.039305523 -0.038475398 0.008241903 -0.02751386 -0.0028516506
0.13609955 -0.023969155 0.051266644 -0.038487844 0.11595117 -0.13015032 0.23150368 -0.06422774
0.20341204 -0.05554639 -0.07976467 -0.107875325 0.17031585 0.1840384 -0.05769227 0.046981942
-0.075131156 0.24193677 0.026172724 0.52534604 0.0389684 -0.10608357 0.13130255 -0.13868666
-0.08363645 0.02059798 -0.018874884 0.104152575 -0.0370823 0.11072762 -0.04788749 0.1393723
0.038900696 0.1872194 0.035901908 0.1564256 0.25934187 -0.017782632 0.032055303 0.13967678
0.016191354 0.10683652 0.011035424 0.28133032 -0.09104308 -0.21405073 0.3317813 0.10872779
0.18120947 0.04246007 0.025395753 0.16205414 -0.023354871 -0.036201913 0.066796914 0.6600587
-0.035937205 -0.010364518 0.029824138 0.07094705 -0.034954563 0.075996876 0.028175652 -0.13689552
0.044854924 -0.093896374 -0.018520638 -0.06171757 0.04333232 0.052466344 -0.036273785 -0.17514655
0.07051376 -0.081437565 -0.087939955 -0.1022454 -0.07404677 -0.17614406 -0.087119296 0.05480345
-0.17138666 -0.07699269 0.009834927 -0.09019057 0.08319699 0.013472309 0.03752237 -0.031268027
0.071546145 -0.12502758 -0.034386035 -0.14906514 -0.0017151982 -0.1037132 0.069551244 0.022268787
0.056027517 -0.08636334 -0.08265197 -0.06340204 -0.009101942 0.10854791 0.10489459 0.15773948
0.10666433 0.0067118527 0.1466105 -0.040735282 0.06976385 0.038327914 0.22263673 0.14021617
0.18989797 0.17334737 0.22199368 0.21255268 -0.06392432 0.025225924 0.033906393 0.21448486
0.058154836 0.061975546 0.080621935 0.018719133 0.17197673 0.24758045 0.10505986 0.34673658
0.12963705 -0.11839064 0.10247891 0.0697258 -0.04982557 -0.06384381 0.104657605 -0.008733705
0.06872116 0.07070768 -0.020357892 -0.08710007 0.12447461 -0.014602565 0.040749766 0.05172416
0.21803664 0.057085846 0.15865728 0.07222555 0.11338048 0.1032735 0.21183443 0.10112525
0.047176536 -0.06308923 0.042250764 0.12458264 0.28376284 0.3642649 0.2523559 0.07666166
0.044175982 0.23826101 0.26428208 -0.5435863 -0.029789045 -0.0041912645 0.0122529715 0.13204612
-0.0966596 -0.11027819 0.013774335 0.0924034 -0.044874094 -0.022488937 0.048040494 -0.095584296
0.07296415 0.15052997 0.04570782 -0.080307886 0.0866773 -0.045696303 0.11011107 0.11820598
0.11733915 0.058280274 -0.1621046 0.07860881 -0.06266111 0.06121169 -0.16401762 0.15093292
0.073406935 0.09351148 0.06531875 0.036119744 0.09286608 -0.14260295 -0.14929676 -0.042676173
-0.08335646 -0.1214491 0.15220745 -0.010459602 -0.015701428 -0.06999189 0.036600888 -0.0919868
0.13593455 -0.08376845 -0.10371089 -0.09300588 0.060616884 -0.06676085 0.041871235 -0.06826613

fc1.bias f4 [12]
00000000: b8f5 bdbd db44 fb3e 67f9 1e3f cd1d 073e
00000010: c04b f83e 0485 c9be f031 9cbd c9f1 f03e
00000020: 4925 213e ce7c 113f 3cc1 52bd 807c f4bb
-0.09275383 0.4907597 0.6209931 0.13194962 0.48495293 -0.39359295 -0.07626712 0.47059467
0.1573688 0.5683106 -0.051453814 -0.0074611306

fc2.weight f4 [6, 12]
00000000: f8c2 d23d e1bf 983e 03c4 b2bd ca0a 3cbe
00000010: e6d3 f83d 15ca 603d 99d4 88be 827a d1bd
00000020: 6c2f c0bd 5514 c93e 8833 753d 4ec8 2d3e
00000030: 6776 18be 626b 12bd fe4b 84bb 4e1b 27be
00000040: 605b 04be 3050 b53d 60e4 b7bc 5f3d ed3d
00000050: 6086 d43c 1251 8ebe ee8f 84bd 6e0d 60be
00000060: 841e b53d 4bac 0f3f e067 ea3e 681e 70be
00000070: 04a2 fc3e a167 0bbf 208c ea3d 0719 143e
00000080: 40e0 633c f1ec f63e fc7c 83be f87a 3ebe
00000090: 200e 94bc 747e 0f3e 62ab e4bd 6d21 19be
000000a0: 600e 9dbc f8a4 273d 6afa b7bd e03e 2c3c
000000b0: b0b1 8c3d c5c0 7bbe 2a55 21be d868 7d3d
000000c0: d0ca 0abe bc4a 89be 2dd3 9dbd 4dfa 873e
000000d0: ac07 dfbd aab1 d53c 39e6 43be baa0 cebd
000000e0: d1db 8fbe 59d2 e2bd cd3f 12be b4e8 883e
000000f0: 0023 143d 530e bdbc b660 0b3e 3539 34be
00000100: be8c 5abe cbeb a2bd d8e8 ecbd 6fa5 76be
00000110: b880 d1bd f4e1 35be 9acf 81be fc88 a83d
0.102910936 0.29833892 -0.087287925 -0.1836349 0.121497914 0.05488022 -0.267247 -0.10228445
-0.09384045 0.39273325 0.059863597 0.16970941 -0.14888917 -0.03574694 -0.0040373793 -0.1631901
-0.12925482 0.08853185 -0.022447765 0.11583971 0.025942981 -0.27796227 -0.06472765 -0.21880123
0.08843711 0.56122273 0.45782375 -0.23449099 0.49342358 -0.54455 0.11452508 0.14462672
0.013908446 0.48227647 -0.25681293 -0.18601596 -0.018073142 0.14013082 -0.11165501 -0.14954157
-0.019171894 0.04092881 -0.089833096 0.010513037 0.06869829 -0.24585254 -0.15755144 0.061867565
-0.1355393 -0.2681483 -0.07706294 0.26558152 -0.10890135 0.026085693 -0.19130792 -0.1008925
-0.28097394 -0.11075277 -0.1428215 0.26740038 0.03616619 -0.02307812 0.13611111 -0.17599948
-0.21342751 -0.0795513 -0.11567849 -0.24086545 -0.10229629 -0.17761976 -0.253537 0.08229253

fc2.bias f4 [6]
00000000: ab24 edbe 0763 c8bd d712 733e 886a 7cbe
00000010: 2076 533e 3b95 183e
-0.46317038 -0.09784513 0.23737656 -0.24650013 0.2065053 0.14900677

fc3.weight f4 [14, 6]
00000000: d443 13b6 f7c7 843e 2340 3cb8 8c77 a3bd
00000010: 12df b5be 3fa0 5abd d8c4 9938 3a54 b3be
00000020: 9e97 5ab7 282b 313e 239c 4dbe 5059 683e
00000030: 1682 0f38 a0e4 71be 2890 bc36 6e70 bcbe
00000040: 9b39 d1bb a7ff bfbe 22f5 b3be 8695 e3bd
00000050: 5e16 073f 5038 37bd 7545 48be cca5 893d
00000060: 8cd2 b1be 4b0b 803d 0f26 113f 687d 833d
00000070: e168 56be 23ec c0bd 0a56 a3b9 c181 863e
00000080: 61e8 edb8 569b 1cbe f04e 88be 86b3 2abe
00000090: 2820 b3be 3cc4 c4bd 918d 953e 816b 30be
000000a0: 76ff db3e 5fba 8ebc 0ed4 3db7 ce31 86be
000000b0: c0b7 1ab4 0639 babe d37b 693d 99f0 25be
000000c0: 1c1a 04bf 016c ac3e c3cc a63e 323a cf3e
000000d0: 1608 74be 678c 01bd 224a f2be 074b 2fbb
000000e0: 3371 9c3e d466 8abe 0f7f 36be 4a8d 8dbe
000000f0: 6a3d 84be f0b2 4ebc c5c2 303e 0888 503e
00000100: 58e9 f43d ee00 c23e 911e e0bd 44d3 c4bd
00000110: a8fd 033e 1c36 933d 2fbc 12bd 2401 e0bd
00000120: c0a1 3cbe 6ea6 583e d6df 0b3e fc41 b2be
00000130: 3c6d 9b3e c685 a63e 5f9b 01bf 34d0 c6be
00000140: 7265 ce3c 7807 b9be c3db 983d 6f29 fcbc
-2.1944188e-06 0.2593381 -4.4882425e-05 -0.07981786 -0.35521752 -0.05337548 7.3322735e-05 -0.35025197
-1.3029114e-05 0.17301619 -0.20079093 0.2269032 3.421501e-05 -0.2362237 5.6196186e-06 -0.36804527
-0.006385041 -0.37499735 -0.3514796 -0.11112504 0.52768505 -0.04473144 -0.19557746 0.06721076
-0.34730947 0.06252154 0.566987 0.06420404 -0.20938446 -0.094200395 -0.00031153887 0.2627087
-0.000113443246 -0.15293631 -0.26622725 -0.16670045 -0.3498547 -0.09607741 0.2920957 -0.1722851
0.4296834 -0.017422853 -1.1314651e-05 -0.26209873 -1.4409216e-07 -0.3637163 0.057002854 -0.16205062
-0.5160234 0.3367615 0.32578096 0.40474087 -0.2383121 -0.03162804 -0.47322184 -0.00267476
0.30555114 -0.27031577 -0.17821907 -0.27646858 -0.25828105 -0.012615904 0.17261799 0.20364392
0.11958569 0.37891334 -0.1094333 -0.09610608 0.12889731 0.07188055 -0.035823997 -0.109377176
-0.18421078 0.21157238 0.13659605 -0.34815967 0.30356777 0.32523936 -0.506277 -0.3883072
0.025194857 -0.3613851 0.07463791 -0.030781476

fc3.bias f4 [14]
00000000: c409 2c3f ea33 d43e 0b93 e53e 8e51 41be
00000010: 4017 7abe a705 0d3f a40c ca3e 7525 213f
00000020: 55b3 353e 0dbe 663c f38e 053f 78ea b23e
00000030: 9709 043f fcd0 df3e
0.672024 0.41445857 0.44838747 -0.18878767 -0.24422932 0.5508675 0.3946277 0.6294778
0.17744191 0.014083398 0.5217125 0.3494451 0.5157713 0.4371413
