CaseModels/01 14-Bus/_genModel_MW.pth (torch, 5254 bytes, 7 tensors)

bias f4 [14]
00000000: f5f7 043e 7890 0b3e 8713 943d e9cb ec3d
00000010: 8a30 5c3d e4b3 f03d cb6d 64bd a850 7dbd
00000020: 72c4 b53d 81dc 98bd a254 bbbd e738 19be
00000030: 0396 843d fdf9 38bd
0.12985213 0.13629329 0.07230287 0.1156233 0.053757228 0.117530614 -0.05576877 -0.061844498
0.088753596 -0.07463933 -0.09147002 -0.14963113 0.06473925 -0.045160282

fc1.weight f4 [12, 36]
00000000: 6b4d 803e 8d7a 883e b537 883e a5c4 9e3e
00000010: 3b7e 693e 5194 313e 0b83 863e 270c ac3e
00000020: aac2 be3e 906a 7a3e 5d2d 903e 787e 3f3e
00000030: bee0 353e 9bf8 a4be 7ea6 0e3e ec89 853d
00000040: 342d 8a3e 8a5d 6c3e 5f1b 483e 6cb2 7e3e
00000050: b450 af3e 118b 1c3e f510 5f3d 5b74 f93d
00000060: 5e6e 1ebe 40f5 653d 7a0c c83d 3c1b 50bd
00000070: e6a7 4fbd 0e90 03be 503e 3fbc 36d0 39bd
00000080: 37fd 263e 8cee 54bd 1623 de3d 8801 23be
00000090: b1b4 3c3e e1f3 1f3e 60e0 a73e b098 bd3e
000000a0: b9e6 423e fac5 323e 7847 9f3e 5520 7c3e
000000b0: 6d4f d33e 7d2a c33e a2fd 613e ce19 b33e
000000c0: ac7b 923e fe19 ffbd 5c05 853e a3fe 093e
000000d0: 061e ac3e 7e1d 873e a75c c73e f60e 933e
000000e0: 99e7 123e 577c 693e c1e0 aa3d 13ca f6bd
000000f0: db3b 003e db47 f2bd 9bc9 20be d084 c8bd
00000100: 6249 ca3d 403e 883c 8087 17bd b84c 84bd
00000110: 4a96 04be d0a5 01bd 3017 4c3d 7423 09be
00000120: 208a a8bd 891b 95be f46e 07be e72c d4bd
00000130: 8ae4 49bd cad8 c9bd 2775 05be d034 2fbe
00000140: 3cd9 34be 370b e7bd e086 25be 7f8c a93d
00000150: 0100 a7be e23e 683e f3a4 c23c 2679 fbbd
00000160: ea4c 8fbe a53d 79be 5a13 983a 94ab 27bc
00000170: 7d5c 53be 5b3e 88be 937e 383f 4a70 253f
00000180: b0fb 36bc 0b3c 0ebe 8821 a83d 70c5 b6bd
00000190: 2b2b c7bd 9b5f 0cbe c511 063e 4759 0dbe
000001a0: dd57 293e 0e30 c8bd e053 8a3d ecb8 50bd
000001b0: a0a7 733d 8eb5 ae3e 9e0f bc3e 946a 983e
000001c0: cf98 433e 3d92 a03e 45d8 8a3e 024d 603e
000001d0: 34c3 3f3e 02d6 bb3e 7660 3d3e 58d5 c83d
000001e0: d8a4 273e e564 47be 9bbf 763e 5852 1b3e
000001f0: b9cd 973e 92b1 713e f261 9d3d c444 f93d
00000200: 7bb5 8a3e 763b 083e b6f5 b53d 0e78 1f3e
00000210: 1e47 9fbd c9d3 153e 665a bf3d 204d aa3c
00000220: 9082 603c c63a e6bd 0022 69bb 6e52 933d
00000230: e8c2 873d b85a dbbc 00f9 b43b 59c5 153e
00000240: 145e a63e 7c4d 3d3e d240 b73e 399e a53e
00000250: 6d75 863e 8fa2 ec3d 93d8 c33c 4de3 903d
00000260: 4645 643e 6291 b43d 55d4 cc3e b158 903e
00000270: 35ab 223e 3304 bebe 20a8 f93d fd7a bb3e
00000280: e001 633d a993 bc3d 7981 8b3e c816 513e
00000290: c6b3 b33e 35d3 0c3e 98b9 243e b749 77bd
000002a0: cafa e03d c092 543c ce87 863d 2478 2b3d
000002b0: 566c 9bbd af47 0fbe 7c4f 2abd 4b58 8bbd
000002c0: 9c5d 67bd 8ca8 13bd 6006 d5bc 8c45 0f3d
000002d0: 60f6 453e 7e73 9d3e a1da bf3e 4b42 ba3e
000002e0: 77ec 543e b796 993e 9cf9 853e 1bb1 833e
000002f0: 3dee cb3e 3b29 593e fff3 cb3e 949d a03e
00000300: f1bc 893e b7c7 c2be e1d3 ba3e e778 933e
00000310: 4ed3 cf3e 2132 9f3e 9b9f 873e b59d c13e
00000320: 8b88 893e 5a87 753e 38b0 c9bd 8240 57bd
00000330: 402d 42bd 19f4 003e d684 6fbd 55cc 133e
00000340: 2a32 0bbe 541c 183d 5640 d63d 2064 923c
00000350: 5053 0f3c 231d dfbd ed7f 2a3e a511 203e
00000360: 14fe cdbd 3d31 62bc dc83 473d fd82 c6bd
00000370: 23bf eabc 1fde ef3d 37c3 03be 7ff2 53bd
00000380: 770d ea3c 3150 d6bd 158d b63c fb93 debd
00000390: 5ea4 0abe 91d3 d4bd 5f06 953c c84a fdbd
000003a0: ed93 e9bc ac25 c73d 90da 8abc e7bc 3a3d
000003b0: 535b 183e 8900 e43d e4f8 e6bd 7a96 fc3d
000003c0: 9ac1 b93d 1a93 b53d e00f 913b 4081 553c
000003d0: e7fd 003e 6608 7bbd 6a92 953d 0004 5abd
000003e0: a2c0 a43d f076 b0bd 36fa 1fbe cc6f 703d
000003f0: a52c 38bd 218a 87bc b8fe aabe 8868 86bc
0.25059065 0.26656 0.26605 0.31009403 0.2280206 0.17341734 0.26271853 0.33603022
0.37257892 0.24454713 0.2815961 0.18700588 0.17761514 -0.3222092 0.13930699 0.06520447
0.26987612 0.23082557 0.19541691 0.2487275 0.3424126 0.15287425 0.05445953 0.12180396
-0.15471789 0.05614209 0.09768005 -0.050807223 -0.05069723 -0.12847921 -0.011672571 -0.04536458
0.16307531 -0.05198531 0.10846536 -0.15918553 0.18428303 0.15620376 0.32788372 0.37030554
0.19033326 0.17458335 0.31109214 0.24621709 0.41271535 0.38118353 0.2206941 0.34980625
0.2860998 -0.124561295 0.2598065 0.13476042 0.33616656 0.26389688 0.38937876 0.28722352
0.1434616 0.22801338 0.0834365 -0.12050261 0.12522833 -0.118301116 -0.15701906 -0.09790957
0.09877278 0.016631246 -0.036994457 -0.064599454 -0.12947956 -0.03165227 0.0498268 -0.1339243
-0.0822947 -0.2912257 -0.13225919 -0.10360127 -0.049290217 -0.09855802 -0.13032971 -0.1710999
-0.17660993 -0.11281436 -0.16164732 0.08278751 -0.3261719 0.22680238 0.023760295 -0.122789666
-0.27988368 -0.24339922 0.0011602447 -0.0102337785 -0.2064075 -0.26610073 0.72068137 0.64624465
-0.011168405 -0.13890092 0.082095206 -0.08924377 -0.097250305 -0.13708346 0.13092716 -0.13803588
0.16537423 -0.09774791 0.06754279 -0.050957605 0.05948603 0.3412289 0.36730665 0.29768813
0.1910126 0.3136157 0.27118126 0.21904376 0.18726808 0.36686713 0.18493828 0.09806317
0.16371477 -0.19472082 0.24096529 0.1516813 0.2964914 0.23602894 0.07684697 0.12171319
0.27091584 0.13303933 0.08884756 0.15573141 -0.077772364 0.14631571 0.09343414 0.02078873
0.0137030035 -0.11241679 -0.0035573244 0.071934566 0.06628972 -0.026776657 0.005522847 0.14626063
0.3249365 0.18486589 0.3579164 0.32347277 0.26261464 0.11554443 0.023906982 0.07074604
0.2229205 0.08816792 0.40005746 0.28192666 0.15885623 -0.3711258 0.121902704 0.3661727
0.05542171 0.092078514 0.27247217 0.20418847 0.35098094 0.13752444 0.16086423 -0.060373034
0.10985334 0.012974441 0.065688714 0.041862622 -0.07589023 -0.13992189 -0.04157971 -0.0680395
-0.056485757 -0.03604941 -0.026004016 0.034978434 0.19332266 0.30752176 0.37471488 0.36378703
0.20793329 0.299978 0.26167 0.25721058 0.398302 0.21207134 0.39834592 0.31370223
0.26901963 -0.38042995 0.36489776 0.2880318 0.405909 0.31092933 0.26488957 0.37815633
0.26861987 0.23977414 -0.09848064 -0.052551754 -0.047406435 0.12593116 -0.05847629 0.14433415
-0.13593355 0.03713639 0.1046149 0.017870009 0.008747891 -0.10894229 0.16650362 0.15631731
-0.10058227 -0.013805685 0.048709735 -0.09692953 -0.028655594 0.11712288 -0.12867437 -0.051744934
0.028570874 -0.10464514 0.02228407 -0.10868069 -0.13539264 -0.103919156 0.018191515 -0.12367779
-0.02851292 0.09723982 -0.016949922 0.045590308 0.14878587 0.111329146 -0.11277941 0.123333886
0.0907013 0.08865948 0.0044269413 0.013031304 0.12596856 -0.061287306 0.07303317 -0.05322647
0.08044554 -0.086164355 -0.15622792 0.058700368 -0.04496445 -0.016545357 -0.3339746 -0.016407266

fc1.bias f4 [12]
00000000: 6c9a ed3c 21c5 253e 794f 3d3f 3825 bdbc
00000010: 20c7 073d b886 163e e882 69bd 92a4 ce3d
00000020: f6ec 9cbd 4ba3 cfbd 47da 34be 21fd 493b
0.029004298 0.1618848 0.7394939 -0.023089036 0.033148885 0.14699829 -0.057009608 0.10089983
-0.07662384 -0.101385675 -0.17661391 0.0030821043

fc2.weight f4 [6, 12]
00000000: 26b5 8dbe a372 fa3d 1a6f 6dbe c95d 673d
00000010: 9bf7 80be 5c98 51be 7c57 71bd d694 28be
00000020: 4449 0a3e 3a2b 663e 64ee 443e bc7f 933d
00000030: 0d29 643e 7f4f e83e 186c 19bf 0dae d93e
00000040: 29d5 b83e 6384 a93e 659c 18be a838 3bbe
00000050: ac62 9abd 88d7 0f3f d9b4 78be 44a4 e93c
00000060: 67c0 8b3e 06fd 823e 4b5d cdbe a350 ae3e
00000070: 40c4 873e 185b 803e 1aa7 f63d 55cc 0abe
00000080: e0a8 e6bc b079 ce3e 7a9e 1c3e 28e0 d4bd
00000090: 571f bd3b 9387 c13d d377 02c0 e1e3 773e
000000a0: 99e0 ca3d f161 e83d 197e 25bd 8ffd 62be
000000b0: d0e1 d7bc 0509 963e 68be 1dbe 1370 28bd
000000c0: 1f01 84be b1bf f33d 2e4d 473e 13f0 51be
000000d0: 06b5 8cbe 4434 69be 6536 6cbe 738f dc3d
000000e0: 70a5 8bbc fa9c 4a3e fcf0 fbbd 5eb1 0c3e
000000f0: 2ae3 fe3e 55a3 3d3e 53ae e8be 8c2d ea3e
00000100: f626 aa3e 2a08 bd3e c373 c8bd ca52 32be
00000110: 1813 d43d 2bae f33e cd3b 1abe 5ae8 32be
-0.27677268 0.122288965 -0.23186913 0.056485925 -0.25188908 -0.20468277 -0.058921322 -0.16463026
0.13504511 0.22477427 0.19231564 0.07202098 0.22281285 0.4537315 -0.5993056 0.42515603
0.36100128 0.33108816 -0.1490341 -0.18283331 -0.075383514 0.5618825 -0.24287738 0.02852071
0.2729523 0.25583667 -0.4011024 0.34045896 0.26516914 0.250695 0.12043591 -0.13554509
-0.028156698 0.40327215 0.15294829 -0.10394317 0.0057715583 0.09449687 -2.0385635 0.24208023
0.0990612 0.11346806 -0.04040346 -0.22167037 -0.026352793 0.29303756 -0.15404665 -0.041122507
-0.25782105 0.119017966 0.19463035 -0.20501737 -0.2748186 -0.22773844 -0.23067625 0.10769548
-0.01704666 0.19786444 -0.123018235 0.13739535 0.49782687 0.18519337 -0.454455 0.45737875
0.3323285 0.3692029 -0.09787705 -0.17414394 0.10355204 0.47593817 -0.15061875 -0.17471448

fc2.bias f4 [6]
00000000: 95d4 dcbd ea03 973e 009c 953e a1e4 bdbd
00000010: 73b6 06be 821f 2f3e
-0.10782734 0.29495174 0.2922058 -0.09272123 -0.13155536 0.17101863

fc3.weight f4 [14, 6]
00000000: 8c40 b83c 49c6 a83e f223 063f 5ee0 263f
00000010: e4d8 28bd b151 1c3f 8d41 05be 0293 9fbd
00000020: 47b5 a53e 8c1d 3639 b357 82bd b1b2 2fbe
00000030: 7717 bd39 4388 ccbd ff15 65bc 7df5 bb36
00000040: 1994 9b3e af43 ed3d e309 75be dd2a f1bd
00000050: d89b 6fbe 26b2 08b9 5275 94bc de25 9d3e
00000060: 1377 8d3e c4eb c8bd de34 b83c ecb7 0d38
00000070: bbee bebe 33f9 ae3d 6910 1ebe 0c64 ca3b
00000080: 215d 5d3e 7423 0f39 8c41 aa3e f4f9 33be
00000090: b03c 02be 55ad 4b3e 2d75 503c 2dfb ebb7
000000a0: 290c eabd b929 60be 7b38 b4bd 22ee ef3b
000000b0: 9efd a33e 2a70 3139 995c 9cbe cf59 84be
000000c0: 6a3d 573d 82b4 35be 9757 663e c8c4 1f39
000000d0: a2a9 47bd 1d5b 283c 469a 713e 489d 3ebe
000000e0: 6a19 6d3d 3785 a938 abd9 7e3e 75db 193e
000000f0: f4aa 52bd 71cd 23bd 74d9 043e 4e2a b738
00000100: 0c9b 923e ff0a 74bd 4549 f2bd bae7 2a3e
00000110: a08f 233e f936 ad38 0e5d 133e 30ce 99be
00000120: 7fab 853e cd11 37bd 39b9 b2be 81b6 3ab9
00000130: 243a c43e 47fd a33e 8c1a 053e d38a a5be
00000140: 3643 253d 53c8 9038 508d babe 7fbc 9d3e
0.022491716 0.3296378 0.523986 0.6518611 -0.041222468 0.6106215 -0.13013287 -0.077917114
0.32364866 0.0001736788 -0.063643835 -0.17158009 0.00036066372 -0.09986927 -0.013982295 5.601613e-06
0.30386427 0.11585175 -0.23929553 -0.11775754 -0.23399293 -0.00013036336 -0.018122349 0.30692953
0.2762991 -0.09810594 0.022486147 3.378831e-05 -0.37291512 0.08543625 -0.15435947 0.0061764773
0.21617557 0.0001365075 0.33253133 -0.17575818 -0.12718463 0.1989034 0.012723249 -2.8131146e-05
-0.114281006 -0.21890916 -0.08799835 0.007322089 0.32029432 0.0001692182 -0.30539396 -0.2584977
0.052548803 -0.1774464 0.2249435 0.00015236728 -0.04874576 0.010275629 0.23594007 -0.18614686
0.057885565 8.083361e-05 0.24887721 0.15025122 -0.051432565 -0.039990846 0.12973577 8.734e-05
0.28633916 -0.0595808 -0.11830381 0.16689959 0.15972757 8.259522e-05 0.14390966 -0.3004012
0.26107404 -0.04469471 -0.3490694 -0.0001780633 0.38325608 0.32029173 0.12998408 -0.32332477
0.0403473 6.9037684e-05 -0.36435938 0.30807874

fc3.bias f4 [14]
00000000: f2f9 0e3d 46dc 6f3e 0920 bfbd 800f 07be
00000010: 9a66 9bbd f84e ffbd d22d c93d 5087 503d
00000020: bc20 0bbe facb 033d 043d 9f3d 75b7 373e
00000030: 4cd6 78bd 42d9 d6bc
0.034906335 0.23423871 -0.09332282 -0.13189507 -0.07587929 -0.12466234 0.09823193 0.050910294
-0.13586706 0.03217695 0.0777531 0.17941077 -0.060751244 -0.026226643
