CaseModels/01 14-Bus/_genModel_Mvar.pth (torch, 7185 bytes, 7 tensors)

bias f4 [14]
-0.32860222 -0.046104804 0.0908722 0.13231778 -0.11544423 -0.057955213 -0.05230799 -0.21589231
0.046496306 -0.15951622 -0.07319403 -0.09671088 -0.16156888 -0.04446706
00000000: 8d3e a8be 64d8 3cbd 341b ba3d 507e 073e
00000010: 066e ecbd 7262 6dbd e740 56bd e012 5dbe
00000020: e972 3e3d 3858 23be c0e6 95bd 5b10 c6bd
00000030: 5072 25be 1823 36bd

fc1.weight f4 [16, 50]
-0.13787343 -0.30672234 -0.18057479 -0.13394809 0.11209343 0.08142369 0.1437049 0.052074257
-0.013844193 -0.018006671 0.044908747 -0.14292869 -0.18819118 0.2740066 -0.2540551 0.056203105
0.08214767 0.023385387 0.053015225 0.012835241 0.21125944 0.0597375 0.4409079 0.45735303
-0.05792275 -0.026556984 0.032832384 -0.07991953 0.09220421 -0.080137715 0.13252719 -0.114108935
-0.020670384 -0.035427377 -0.02399525 0.07219708 -0.49688855 0.5081361 0.40396005 0.076107875
0.048622042 0.3282621 -0.07034485 0.39067048 -0.12521784 -0.13499182 0.09581821 -0.08501883
-0.084320575 0.03396453 0.06835485 0.04436089 0.06227753 0.061438035 0.24790233 0.3805981
0.38979128 0.31457412 0.3035687 0.35791215 0.6162719 -0.1335827 -0.15120345 -0.035029355
0.115588516 0.1948427 0.49241415 0.459511 0.40278444 0.49599507 0.37058344 0.46995714
-0.19158646 -0.3415655 0.07296112 0.0009114891 0.0413602 0.016243264 0.074160755 0.12952735
-0.032237165 -0.056767307 0.10345347 0.07162289 0.027204067 0.007950753 0.18554217 -0.083702326
-0.07432818 0.07631658 0.037539616 -0.08216004 0.0754582 -0.07063877 0.06401698 -0.08905092
0.1407622 -0.019705638 0.066672355 -0.067540005 0.0054808008 -0.17315522 -0.07957688 -2.8332555
-0.4717532 0.34347084 0.48519513 -0.28010795 -0.76813155 -0.32989827 0.2923297 0.16382527
-0.22611995 0.1928345 -2.7916906 -0.26572064 0.38676673 0.57297575 -0.18837027 -0.7821707
-0.34352514 0.025591983 -0.24293904 -0.027138935 0.034183413 -0.114801936 -0.06367892 -0.030029312
0.019753516 -0.11529792 0.07532175 0.045806006 -0.12067006 0.124351576 -0.101065315 -0.07190013
0.15167603 -0.025298644 0.019482939 0.10414192 -0.09243568 -0.09802844 0.040659353 -0.16710007
0.06735183 -0.1034541 0.0732559 -0.024323657 -0.04600177 -0.031795397 -0.050333384 -0.28433505
-0.32437968 -0.25398773 -0.18319444 -0.18567434 -0.23020028 -0.1874952 -0.25823945 -0.16674207
-0.22208267 -0.009994243 -0.22047864 0.120549805 -0.45108753 -0.13797541 -0.2721501 -0.13724175
-0.30958596 -0.17941436 -0.31626666 -0.33353072 0.33100533 0.49185646 0.0966406 -0.026541255
0.08635956 0.05864112 -0.09662418 0.020937666 -0.08173011 -0.006904319 0.11745061 0.014735401
-0.12384594 -0.04231847 -0.38945156 0.31712094 0.42974514 -0.10810897 -0.056131847 0.5126275
0.11867796 0.32118773 -0.086153455 -0.111442074 0.037580192 0.06080319 0.05086556 0.08075732
0.09922635 0.20516391 0.2697901 0.18752676 0.238582 0.4385461 0.42809695 0.60566425
0.35438263 0.22773403 0.33815604 0.08756765 0.15670599 -0.22415757 0.15560758 0.31645665
0.2873477 0.33899835 0.67569745 0.19104011 0.38727665 0.4524326 -0.5964424 -0.6470289
-0.12023176 0.04842119 -0.012720779 0.09250343 0.12908827 0.020445526 -0.055246584 0.030150712
-0.090233475 0.015171498 -0.057869107 0.01461415 0.58649516 -0.5995995 -0.5593271 0.120998845
0.09452747 -0.6999198 0.019384906 -0.54296017 -0.13523576 -0.00063717365 -0.0358288 0.13719262
0.10215728 0.08414005 0.7554802 -0.041110095 0.15809879 0.06676568 -0.45449394 0.04091795
00000000: b12e 0dbe b60a 9dbe 99e8 38be b029 09be
00000010: 3d91 e53d 77c1 a63d 6127 133e d14b 553d
00000020: c1d2 62bc ba82 93bc 3cf2 373d e65b 12be
00000030: 30b5 40be 984a 8c3e 8313 82be 3a35 663d
00000040: 0a3d a83d b692 bf3c 7e26 593d e74a 523c
00000050: 6554 583e 4faf 743d aebe e13e 2d2a ea3e
00000060: 6840 6dbd 088e d9bc 407b 063d daac a3bd
00000070: 90d5 bc3d 3e1f a4bd 35b5 073e f2b1 e9bd
00000080: f054 a9bc 4c1c 11bd b091 c4bc 10dc 933d
00000090: 2d68 febe 3515 023f dad3 ce3e 72de 9b3d
000000a0: e827 473d f811 a83e f610 90bd f605 c83e
000000b0: 1b39 00be 4c3b 0abe 563c c43d 5a1e aebd
000000c0: 44b0 acbd 641e 0b3d a1fd 8b3d c4b3 353d
000000d0: b916 7f3d 73a6 7b3d 1cda 7d3e c1dd c23e
000000e0: b992 c73e dc0f a13e 5b6d 9b3e 4340 b73e
000000f0: ffc3 1d3f e7c9 08be 14d5 1abe f17a 0fbd
00000100: acb9 ec3d d884 473e b51d fc3e 0745 eb3e
00000110: c339 ce3e 11f3 fd3e 1dbd bd3e 399e f03e
00000120: 3e2f 44be ace1 aebe a46c 953d 00f1 6e3a
00000130: 5069 293d 9810 853c 98e1 973d d1a2 043e
00000140: 1e0b 04bd d684 68bd 6adf d33d 06af 923d
00000150: 10db de3c e043 023c c4fe 3d3e 206c abbd
00000160: 5f39 98bd de4b 9c3d 24c3 193d 8643 a8bd
00000170: d489 9a3d 0fab 90bd 561b 833d 5460 b6bd
00000180: f723 103e b86d a1bc 848b 883d 6a52 8abd
00000190: 4a98 b33b 9a4f 31be 34f9 a2bd 0f54 35c0
000001a0: a389 f1be 69db af3e 7f6b f83e 4f6a 8fbe
000001b0: 45a4 44bf 6de8 a8be 3dac 953e d0c1 273e
000001c0: fd8b 67be 6876 453e 0fab 32c0 890c 88be
000001d0: 4a06 c63e 8aae 123f 23e4 40be 573c 48bf
000001e0: 87e2 afbe 47a6 d13c 03c5 78be 7952 debc
000001f0: e803 0c3d 471d ebbd 186a 82bd 0800 f6bc
00000200: 20d2 a13c 5121 ecbd 4a42 9a3d 149f 3b3d
00000210: dd21 f7bd 0aac fe3d 55fb cebd 6040 93bd
00000220: f650 1b3e 1a3f cfbc af9a 9f3c 5c48 d53d
00000230: eb4e bdbd 22c3 c8bd 6c8a 263d 481c 2bbe
00000240: c2ef 893d bedf d3bd 3007 963d 6842 c7bc
00000250: 5a6c 3cbd e43b 02bd 612a 4ebd 5d94 91be
00000260: 1815 a6be ae0a 82be 5397 3bbe 6a21 3ebe
00000270: 9fb9 6bbe befe 3fbe f637 84be 6fbe 2abe
00000280: a469 63be e5be 23bc 27c5 61be d1e2 f63d
00000290: f2f4 e6be 6d49 0dbe 4257 8bbe 1a89 0cbe
000002a0: 0d82 9ebe 66b8 37be b4ed a1be 8ac4 aabe
000002b0: 8879 a93e 9cd4 fb3e 82eb c53d 0c6d d9bc
000002c0: 48dd b03d ac31 703d e6e2 c5bd 7885 ab3c
000002d0: 1e62 a7bd a03d e2bb f289 f03d c06c 713c
000002e0: f1a2 fdbd 2256 2dbd 3266 c7be ad5d a23e
000002f0: 8e07 dc3e 3c68 ddbd 82ea 65bd 8e3b 033f
00000300: 6e0d f33d b872 a43e 3971 b0bd be3b e4bd
00000310: b0ed 193d c40c 793d 6858 503d 1864 a53d
00000320: 2f37 cb3d 7d16 523e ee21 8a3e 0407 403e
00000330: d74e 743e 1d89 e03e 862f db3e d00c 1b3f
00000340: a471 b53e 1c33 693e ca22 ad3e ab56 b33d
00000350: 8977 203e 9089 65be 9857 1f3e 9b06 a23e
00000360: 3d1f 933e 3191 ad3e 82fa 2c3f 05a0 433e
00000370: 2049 c63e 3fa5 e73e 73b0 18bf b0a3 25bf
00000380: 123c f6bd 4c55 463d d06a 50bc 7072 bd3d
00000390: b72f 043e 607d a73c 3e4a 62bd a0fe f63c
000003a0: 54cc b8bd e091 783c 2808 6dbd 3070 6f3c
000003b0: 8c24 163f 5a7f 19bf 1030 0fbf 3ece f73d
000003c0: 9e97 c13d f22d 33bf 18cd 9e3c 70ff 0abf
000003d0: 3e7b 0abe 0008 27ba 38c1 12bd 397c 0c3e
000003e0: d637 d13d 9e51 ac3d 2667 413f 0f63 28bd
000003f0: a6e4 213e 72bc 883d 6eb3 e8be 9599 273d

fc1.bias f4 [16]
0.26486063 -0.33743992 -0.025432486 0.38647386 -0.6815424 0.21129787 -0.33893496 0.06977275
-0.12231198 -0.32627016 0.069817916 -0.40287444 -0.66273844 -0.12707603 -0.030013062 -0.44255537
00000000: d09b 873e edc4 acbe ca57 d0bc e7df c53e
00000010: 9079 2ebf 785e 583e e288 adbe 04e5 8e3d
00000020: b47e fabd e20c a7be b2fc 8e3d 8f45 cebe
00000030: 3aa9 29bf 3820 02be f4dd f5bc 9e96 e2be

fc2.weight f4 [8, 16]
0.48472676 0.058164634 1.1885078 0.03288767 0.06995134 0.06453482 -0.18337213 -0.35605484
-0.13439722 -0.064546056 0.40598425 -0.022252461 0.040353015 0.45415428 -0.0038997584 0.06644831
-0.8219785 -0.0632459 -0.31370816 1.0457106 1.8778182 -0.2801266 0.07475382 -0.3631401
0.29399365 0.026595818 -0.11950818 0.2927713 0.82360995 0.40339938 0.17750423 -0.0044629555
-0.3517191 0.306687 -0.11212395 -0.053063184 0.5099616 0.4807896 0.50863385 -0.2717211
0.33163548 0.71694994 -0.39873904 0.53589344 0.09710332 0.41441977 0.4427725 0.6342047
0.44824734 0.32457423 -0.19788757 -0.43562323 -0.52057827 -0.52815163 -0.035564348 -0.26115087
0.39020303 -0.009556205 0.1320772 0.1971971 -0.46580148 -0.10745003 0.4903435 0.52360433
0.28485933 0.07438557 -2.3558671 0.36269903 -0.7860019 -0.0595696 -0.25807405 1.222687
-0.07232804 0.526031 1.9566064 -0.03648421 -0.8963411 -0.059241075 -0.0721846 -0.08441767
-0.5756679 0.17507719 -0.039962344 -1.1384475 1.8178576 -0.15663725 0.15005234 -0.065322615
-0.04410733 0.44926086 0.024998406 0.08554258 1.2999022 0.17916007 -0.028753314 0.069918245
-0.56787807 -0.55818444 -2.0622413 -0.9886612 1.1319742 -2.1524003 -0.94319886 0.42936805
-0.17392339 1.6082193 1.2149476 -0.19952121 0.7078979 1.1558223 -1.1263236 1.9394406
0.19302133 0.27636793 -0.09438348 0.20382735 1.1394248 -0.12830703 0.7213122 0.27757493
0.16223407 0.16496496 -0.05124428 -0.0077358354 0.14536819 0.027355446 -0.11324706 0.53713477
00000000: 1b2e f83e 0a3e 6e3d 0621 983f 39b5 063d
00000010: a642 8f3d d52a 843d e7c5 3bbe d24c b6be
00000020: 6d9f 09be b930 84bd 2bdd cf3e cb4a b6bc
00000030: 3449 253d e986 e83e 1793 7fbb 0d16 883d
00000040: 2f6d 52bf 1187 81bd 5b9e a0be d8d9 853f
00000050: 595c f03f c16c 8fbe 8818 993d 80ed b9be
00000060: 5686 963e 79df d93c b4c0 f4bd 1fe6 953e
00000070: 1ad8 523f 5d8a ce3e abc3 353e fc3d 92bb
00000080: 8714 b4be 1406 9d3e 3ea1 e5bd c858 59bd
00000090: d88c 023f 0e2a f63e d435 023f 071f 8bbe
000000a0: 20cc a93e 088a 373f 8627 ccbe 5030 093f
000000b0: 1bde c63d d42e d43e 14b3 e23e 3d5b 223f
000000c0: ad80 e53e 982e a63e 0aa3 4abe 020a dfbe
000000d0: 9e44 05bf f234 07bf ecab 11bd 91b5 85be
000000e0: b1c8 c73e a191 1cbc 3f3f 073e 09ee 493e
000000f0: 887d eebe c30e dcbd 4e0e fb3e ef0a 063f
00000100: 15d9 913e 7657 983d 87c6 16c0 b0b3 b93e
00000110: 6c37 49bf 41ff 73bd 4822 84be 0281 9c3f
00000120: b920 94bd f8a9 063f 1472 fa3f 7870 15bd
00000130: 9c76 65bf c5a6 72bd 85d5 93bd 2ce3 acbd
00000140: f95e 13bf 6f47 333e 8eaf 23bd a6b8 91bf
00000150: 8faf e83f 8465 20be 52a7 193e ddc7 85bd
00000160: e3a9 34bd 8505 e63e 75c9 cc3c f330 af3d
00000170: 3263 a63f bd75 373e 128c ebbc 4c31 8f3d
00000180: 7560 11bf 2de5 0ebf c3fb 03c0 e718 7dbf
00000190: 88e4 903f edc0 09c0 7b75 71bf 21d6 db3e
000001a0: f918 32be 21da cd3f 6783 9b3f 4a4f 4cbe
000001b0: cc38 353f fcf1 933f 5f2b 90bf 973f f83f
000001c0: 62a7 453e 1980 8d3e 204c c1bd 1eb8 503e
000001d0: acd8 913f eb62 03be eba7 383f 4d1e 8e3e
000001e0: b020 263e 93ec 283e 86e5 51bd e47c fdbb
000001f0: 66db 143e 8718 e03c 13ee e7bd aa81 093f

fc2.bias f4 [8]
-0.17205258 -0.017608272 -0.04892748 0.22087528 0.19035353 -0.34121785 0.13395175 -0.15824215
00000000: 8d2e 30be 393f 90bc 2e68 48bd 212d 623e
00000010: 09ec 423e 1bb4 aebe a62a 093e 3b0a 22be

fc3.weight f4 [14, 8]
0.11121983 0.1140772 0.032693513 -0.06161595 0.56637895 0.54212344 2.601245 0.23569041
-0.15770185 0.52788043 0.6843257 -0.24762975 0.19267565 0.8145989 -0.36244136 0.2816313
-0.21224181 0.67757684 0.45645958 0.6087062 -0.12006415 0.2084108 0.33158708 -0.78444666
-0.00038979325 0.0004218936 1.0167074e-05 0.0003267519 -0.0002048085 0.0014024943 0.0007535903 0.00034719522
-2.079419e-06 -6.077983e-06 2.989674e-06 1.7816733e-06 5.1102634e-06 2.9664309e-06 3.5641283e-06 -2.499619e-06
0.045547653 0.052439366 -0.055469457 0.31728342 0.008583121 0.10998814 -0.5019241 0.7365297
6.1380763e-07 5.0246717e-06 -2.1105998e-06 1.6462468e-07 -1.9275626e-06 2.508306e-06 -3.6082874e-05 1.8865665e-06
0.6727279 0.023677457 0.05422664 0.08327918 -0.031039923 0.02437429 0.2527002 0.18217406
5.9064214e-06 -6.720973e-06 1.401394e-06 6.071278e-06 -3.8255366e-06 -7.167605e-06 -0.00033765484 -7.1953136e-06
-1.8032829e-06 1.13320766e-07 7.180813e-08 -3.2787523e-06 1.0080928e-06 -1.6366453e-06 0.00015924979 2.0151563e-06
2.1614408e-08 4.260496e-07 -2.1535297e-07 -5.440457e-07 -5.7054535e-07 -7.204375e-07 2.5310728e-05 5.2171555e-07
-3.766126e-07 -4.398832e-06 1.5661433e-06 -1.450271e-06 1.2440516e-06 -4.124488e-06 7.2376475e-05 -1.1756147e-06
9.2320915e-06 2.5918303e-05 -2.4713281e-05 4.135755e-06 -2.5222806e-05 -6.583343e-05 -0.00011355501 7.342324e-06
1.8433727e-07 1.1073339e-06 -1.3665823e-07 2.9760777e-06 8.85232e-07 5.6682957e-06 -0.0001335187 -1.147252e-06
00000000: 39c7 e33d 4fa1 e93d a2e9 053d 0261 7cbd
00000010: 36fe 103f 9ac8 0a3f cc7a 2640 d458 713e
00000020: 987c 21be 2c23 073f f82f 2f3f a792 7dbe
00000030: c44c 453e 8e89 503f ea91 b9be fa31 903e
00000040: eb55 59be ad75 2d3f 12b5 e93e 2bd4 1b3f
00000050: 31e4 f5bd a469 553e c8c5 a93e 7fd1 48bf
00000060: 2a5d ccb9 9a31 dd39 4093 2a37 e64f ab39
00000070: ddc1 56b9 e6d3 b73a 978c 453a c107 b639
00000080: 258c 0bb6 7af1 cbb6 35a2 4836 d421 ef35
00000090: d478 ab36 e512 4736 422f 6f36 21bf 27b6
000000a0: 2d90 3a3d a9ca 563d f133 63bd f972 a23e
000000b0: 38a0 0c3c 7641 e13d 197e 00bf 368d 3c3f
000000c0: 8ac4 2435 9a99 a836 d4a3 0db6 b0c3 3034
000000d0: 465b 01b6 5e54 2836 b157 17b8 ee35 fd35
000000e0: e537 2c3f 3af7 c13c c11c 5e3d 468e aa3d
000000f0: 7047 febc 97ac c73c ec61 813e d68b 3a3e
00000100: c62f c636 b884 e1b6 8817 bc35 e2b7 cb36
00000110: 1c5d 80b6 4281 f0b6 4407 b1b9 466f f1b6
00000120: 5408 f2b5 c05a f333 f034 9a33 8908 5cb6
00000130: ce4d 8735 b4aa dbb5 4afc 2639 1f3c 0736
00000140: 96aa b932 d0bb e434 c63b 67b4 890a 12b5
00000150: 9427 19b5 1764 41b5 6052 d437 050c 0c35
00000160: 3e31 cab4 ae99 93b6 4634 d235 efa6 c2b5
00000170: 4af9 a635 1565 8ab6 d3c8 9738 d0c9 9db5
00000180: 88e3 1a37 226b d937 5e4f cfb7 ddc5 8a36
00000190: 9095 d3b7 0e10 8ab8 6224 eeb8 155e f636
000001a0: 3eee 4534 b49f 9435 54bc 12b4 a0b8 4736
000001b0: aea0 6d35 4a32 be36 2701 0cb9 47fb 99b5

fc3.bias f4 [14]
-0.3057619 0.18022145 0.055596426 -0.13209483 0.11544052 -0.33296034 0.052308787 -0.16949025
-0.046519157 0.15952578 0.073195785 0.0967127 0.16159526 0.044459343
00000000: d38c 9cbe f98b 383e 14b9 633d de43 07be
00000010: 146c ec3d c779 aabe bd41 563d da8e 2dbe
00000020: df8a 3ebd ba5a 233e ace7 953d 4f11 c63d
00000030: 3a79 253e 001b 363d
