CaseModels/01 14-Bus/_updatedGenModel_MAG.pth (torch, 5459 bytes, 7 tensors)

bias f4 [14]
0	0xbeaa65df	-0.33280846
1	0x3ebbd237	0.3668382
2	0xbd6dcd38	-0.05805704
3	0x3da9814b	0.08276614
4	0xbd272d2a	-0.040814556
5	0x3e4f892b	0.20267169
6	0xbe4fdbeb	-0.20298736
7	0x3d40b65b	0.047048908
8	0x3dc032cd	0.093846895
9	0xbe45c443	-0.19313149
10	0x3dddb72d	0.10825954
11	0xbd8f5658	-0.06998891
12	0x3e41860b	0.1889879
13	0xbde86db7	-0.113490514

fc1.weight f4 [12, 36]
0	0x3e305971	0.17221619
1	0x3f2d2e6b	0.67648953
2	0x3e7ad927	0.244969
3	0x3e396e50	0.18108487
4	0x3e01168d	0.12606259
5	0x3e46ffb2	0.19433478
6	0x3d8c334a	0.0684572
7	0x3dca681e	0.0988314
8	0x3e207a2a	0.15671602
9	0x3e028721	0.1274686
10	0x3e16cec7	0.14727317
11	0xbb942d87	-0.004522029
12	0x3f1d2fbc	0.6140096
13	0xbeb1c56c	-0.34720933
14	0x3b43701d	0.0029821463
15	0x3e03b207	0.12860881
16	0x3d938cc2	0.07204582
17	0x3e38c9e5	0.18045767
18	0x3e289f6a	0.16467062
19	0x3e3ea69a	0.18618241
20	0x3eb8462a	0.3599103
21	0x3d5758f6	0.052575074
22	0xbfa1e000	-1.2646484
23	0xbf8346c3	-1.025597
24	0xbd579a7c	-0.052637562
25	0x3ddba1f2	0.10724248
26	0x3d540540	0.05176282
27	0x3e158f49	0.1460544
28	0x3de18e1e	0.11013435
29	0xbd372020	-0.04470837
30	0xbcb57480	-0.022150278
31	0x3d5f6874	0.054542974
32	0xbd4fc730	-0.05072707
33	0x3beb28e0	0.0071765035
34	0xbd9dd5de	-0.077068076
35	0x3e0742b9	0.13209046
36	0x3e115533	0.14192657
37	0x3f03a78b	0.51427525
38	0x3e9298c7	0.28632185
39	0x3e4aa4ef	0.1978948
40	0x3e703637	0.23458181
41	0x3e62c86a	0.22146764
42	0x3e88d630	0.26725912
43	0x3e34f5ad	0.17671843
44	0x3e70872f	0.23489068
45	0x3e782ae0	0.24235106
46	0x3e8e5b7b	0.2780417
47	0xbd84b1ba	-0.06479211
48	0x3ece66bf	0.40312764
49	0xbef10792	-0.47076088
50	0x3e7dc457	0.24781929
51	0x3c904726	0.017612051
52	0x3e9530e1	0.29138854
53	0x3e3fbfbc	0.18725485
54	0x3e884fd9	0.2662342
55	0x3e8f6a9f	0.28011033
56	0x3c9f14fe	0.01941919
57	0x3ebedc63	0.37277517
58	0xbf050679	-0.51963
59	0xbed2a295	-0.41139665
60	0x3e10e7dd	0.14150949
61	0x3d1315ac	0.03590934
62	0x3cc30568	0.023806289
63	0x3d75ec24	0.060039654
64	0x3d93aeca	0.07211073
65	0x3d0f626c	0.03500597
66	0xbdd035bb	-0.10166498
67	0x3e0969a3	0.13419203
68	0x3d4488bc	0.047981963
69	0x3df4b93a	0.11949392
70	0x3d666090	0.056244433
71	0x3d79ab9c	0.060954675
72	0x3cd5cc23	0.026098317
73	0xbc97b696	-0.018519681
74	0x3d3357e5	0.043784995
75	0x3cf4d3ce	0.029886153
76	0xbd6f8bfa	-0.0584831
77	0xbe38c7ac	-0.18044919
78	0xbe081007	-0.13287364
79	0xbd2be075	-0.041962106
80	0xbd67c442	-0.05658365
81	0xbc82dd9b	-0.01597481
82	0xbef50dc1	-0.47862056
83	0x3d3bc793	0.045844626
84	0x3e09599d	0.13413091
85	0x3d67869d	0.05652486
86	0xbc381db1	-0.011237548
87	0x3e09819e	0.13428351
88	0xbe6a0fe1	-0.2285762
89	0xbe7f54ce	-0.24934694
90	0xbcad2729	-0.021136837
91	0x3e586108	0.21130764
92	0xbe469588	-0.19392979
93	0xbef7d4fc	-0.48404682
94	0x3dcc9c8d	0.09990797
95	0x3c41d329	0.01183013
96	0x3de14d46	0.11001067
97	0xbc3e8c10	-0.011630073
98	0x3c55ecc0	0.013056934
99	0x3d720dec	0.05909531
100	0xbe19c0ca	-0.1501495
101	0xbdb21983	-0.08696272
102	0xbe09616a	-0.13416067
103	0x3e0118b5	0.12607081
104	0xbe1a7234	-0.15082628
105	0x3dc8221a	0.09772129
106	0x3df35fc6	0.11883502
107	0xbb45f1c0	-0.0030203909
108	0x3e420a76	0.18949303
109	0x3e9e5802	0.3092652
110	0x3edf6638	0.43632674
111	0x3e97a1f1	0.2961574
112	0x3e849733	0.25896606
113	0x3ec1a9c4	0.37824833
114	0x3eca7f46	0.39550227
115	0x3e93ceca	0.28868705
116	0x3ea9e576	0.33182877
117	0x3ea931c2	0.33045775
118	0x3f0a323a	0.5398289
119	0x3e2792bb	0.16364567
120	0x3eb0e62e	0.34550613
121	0xbf15af51	-0.58470637
122	0x3eab7ccc	0.3349365
123	0x3eabbbef	0.3354182
124	0x3e94fb5a	0.29098016
125	0x3df7fd6b	0.121088825
126	0x3ea9da34	0.33174288
127	0x3eba0a68	0.36336064
128	0x3e804b13	0.25057277
129	0x3ee907e0	0.4551382
130	0xbf1f5bdb	-0.62249535
131	0xbef6e70f	-0.4822316
132	0x3d3ce22c	0.04611413
133	0x3df4adda	0.11947222
134	0xbdae9938	-0.08525318
135	0x3dcbbe86	0.09948449
136	0xbcd52038	-0.02601634
137	0x3e018705	0.12649162
138	0xbd1a763c	-0.037710413
139	0x3db9937e	0.09061335
140	0xbcc9c0c8	-0.024628058
141	0xbd8bf5b0	-0.068339705
142	0x3d8637a6	0.06553583
143	0xbd0a2034	-0.033722118
144	0x3e8ca853	0.2747217
145	0x3f18022f	0.5937833
146	0x3f1fde34	0.6244843
147	0x3e9a6515	0.30155244
148	0x3e998d76	0.2999074
149	0x3ea94ce2	0.3306647
150	0x3e7d578d	0.24740429
151	0x3eb96dc7	0.36216566
152	0x3ec3ebc2	0.38265806
153	0x3e868e6d	0.26280537
154	0x3ed8828d	0.42287102
155	0x3e486576	0.19569954
156	0x3ee044a4	0.4380237
157	0xbf0f3889	-0.5594564
158	0x3eedd9bb	0.46455178
159	0x3ed16fb8	0.40905547
160	0x3ec285fa	0.3799284
161	0x3e685f92	0.22692707
162	0x3ecc85af	0.39945742
163	0x3f0a2d18	0.5397506
164	0x3e81e8a9	0.25372818
165	0x3edd71f5	0.43251005
166	0xbe5af47e	-0.21382329
167	0xbed7e3ea	-0.42166072
168	0x3e020bcb	0.12699811
169	0xbdaf19db	-0.085498534
170	0x3d0c4a1c	0.034250364
171	0xbe15e4ba	-0.14638034
172	0xbc62e6c0	-0.01384896
173	0xbe0f641f	-0.14003037
174	0xbcaa1500	-0.020761967
175	0x3db58ed6	0.088651344
176	0x3d949dc6	0.072566554
177	0x3d73b77c	0.059501156
178	0x3daab152	0.083346024
179	0xbc3a70f0	-0.011379465
180	0x3e7fc919	0.24979056
181	0x3ea720c7	0.32642195
182	0x3ebe7e14	0.37205565
183	0x3ef3b442	0.47598463
184	0x3e69b180	0.22821617
185	0x3ef8700b	0.48522982
186	0x3eff1286	0.4981882
187	0x3ed5a8c6	0.41730326
188	0x3ecd59ce	0.40107578
189	0x3f03cb47	0.5148205
190	0x3f0e3d8a	0.5556265
191	0x3ef6f60a	0.48234588
192	0x3f078989	0.52944237
193	0xbf075b2a	-0.5287348
194	0x3ef940e6	0.48682326
195	0x3ebebf20	0.37255192
196	0x3e67b12a	0.22626176
197	0x3eaaeb47	0.33382627
198	0x3e5c2a86	0.21500596
199	0x3f184c68	0.59491587
200	0x3edd8a16	0.43269414
201	0x3f107ad7	0.5643744
202	0xbdf10c5a	-0.11769934
203	0xbe80cd37	-0.25156567
204	0xbce39fd8	-0.02778618
205	0x3dc3441e	0.09534477
206	0x3dcd8186	0.1003447
207	0xb7f92000	-2.9698014e-05
208	0x3d913166	0.070895
209	0x3d0b2a80	0.033976078
210	0x3d9b9846	0.07597403
211	0x3deda73a	0.116041616
212	0xbdf9264e	-0.12165509
213	0x3e025aaf	0.12729906
214	0x3df0c262	0.117558256
215	0xbd9b23d8	-0.07575196
216	0xbd5a8abc	-0.053354964
217	0xbe067d09	-0.13133635
218	0xbdac31bc	-0.084079236
219	0xbc47e601	-0.012200833
220	0xbdcd9ea5	-0.10040025
221	0xbd9ae645	-0.07563452
222	0xbdb6c3bb	-0.089240514
223	0xbdc9c52b	-0.0985206
224	0x3d0b1253	0.033953022
225	0xbe119902	-0.14218524
226	0xbd09e8a0	-0.033669114
227	0xbdbf17ea	-0.09330733
228	0x3d5f13f3	0.054462384
229	0xbe026a39	-0.12735833
230	0x3caf369a	0.02138834
231	0xbd79406d	-0.060852457
232	0x3d934737	0.071913175
233	0x3d296872	0.041359372
234	0xbe3352b9	-0.17512025
235	0x3d244dcb	0.04011325
236	0x3c8a73e1	0.016900958
237	0xbc2af483	-0.010434273
238	0x3c0e7ecc	0.008697223
239	0xbe267ef5	-0.16259368
240	0xbad03c00	-0.0015887022
241	0xbdcaf6e3	-0.09910371
242	0x3df4fe3a	0.11962552
243	0x3d47fd30	0.048825443
244	0x3e077e91	0.13231875
245	0xbdb9e5eb	-0.090770565
246	0xbdadd54e	-0.0848795
247	0x3d505f6c	0.05087225
248	0xbcf4ca78	-0.0298817
249	0x3dc97132	0.098360434
250	0x3de15d86	0.11004166
251	0xbd410250	-0.047121346
252	0xbe1d0f23	-0.15337805
253	0xbceabea8	-0.028655365
254	0xbc6c2a70	-0.014414415
255	0x3e1d6011	0.15368678

fc1.bias f4 [12]
0	0xbf81001b	-1.0078157
1	0xbee73490	-0.4515729
2	0x3e8e51f6	0.27796906
3	0xbee30bfb	-0.44345078
4	0xbeb52477	-0.35379383
5	0xbe0c4401	-0.13697816
6	0x3db62f95	0.08895794
7	0x3cdf9a00	0.027295113
8	0xbf814528	-1.009923
9	0xbf40d4e9	-0.75324875
10	0xbf459205	-0.77175933
11	0xbe07277e	-0.13198659

fc2.weight f4 [6, 12]
0	0xbf079310	-0.52958775
1	0xbe69aec1	-0.2282057
2	0x3eb6f121	0.35730842
3	0xbe04ab1e	-0.12955901
4	0xbd243c1a	-0.04009638
5	0x3ea51a70	0.32246733
6	0xbe87531e	-0.264306
7	0xbdfa1e38	-0.12212795
8	0xbed4b89c	-0.41547096
9	0xbeab0500	-0.33402252
10	0xbf01c96b	-0.50697964
11	0x3e334ff2	0.17510965
12	0x3d5c6668	0.0538086
13	0xbf8ecc39	-1.1156074
14	0x3ea9423c	0.33058345
15	0xbf9f0bb5	-1.2425448
16	0xbec6c6c3	-0.38823518
17	0xbb6cf06a	-0.003615404
18	0xbe440d5e	-0.19145724
19	0xbdb224f8	-0.086984575
20	0x3e5ad438	0.21370018
21	0x3de63ee0	0.11242461
22	0xbd59ead4	-0.053202465
23	0x3d4c5ba8	0.049892098
24	0x3fc803d7	1.5626172
25	0x3f3094da	0.6897713
26	0x3be1840b	0.006882196
27	0x3f36743d	0.71271116
28	0x3f0d09af	0.550929
29	0x3f2f5921	0.68495375
30	0x3dd4a44c	0.103829
31	0xbb631280	-0.0034648478
32	0x4009cbe4	2.1530695
33	0x3f88e150	1.069376
34	0x3f9c2e3c	1.220161
35	0xbd0444eb	-0.032292288
36	0x3e207370	0.15669036
37	0x3dba284e	0.09089719
38	0x3e5379c0	0.20651913
39	0xbed99195	-0.42493883
40	0x3e10d9d6	0.14145598
41	0xbe4b8c8e	-0.19877836
42	0x3e614f44	0.22002894
43	0x3e20c246	0.1569911
44	0xbc3a5b7a	-0.011374349
45	0xbea69dbd	-0.3254222
46	0xbd2c8769	-0.042121325
47	0x3e76e518	0.2411083
48	0x3dc38844	0.09547475
49	0xbe663d94	-0.22484428
50	0xbd55788c	-0.052116916
51	0xbe578b49	-0.21049227
52	0xbdf7dd68	-0.12102777
53	0xbe547fc8	-0.2075187
54	0xbc91e1e0	-0.0178079
55	0x3bad0bc0	0.0052809417
56	0xbd381b90	-0.04494816
57	0xbdfa8edc	-0.122342795
58	0x3e613cec	0.21995896
59	0xbe0ffa2f	-0.14060281
60	0xbd0cf370	-0.034411848
61	0x3e0424e2	0.12904695
62	0xbd9d8508	-0.07691389
63	0x3e1fd382	0.15608028
64	0x3ddfa744	0.10920575
65	0xbe8e5d32	-0.27805477
66	0xbe3710c4	-0.1787749
67	0x3e622640	0.22084904
68	0xbb5a5980	-0.0033317506
69	0xbe883a6d	-0.26607075
70	0xbe200230	-0.15625834
71	0x3e0ba69a	0.13637772

fc2.bias f4 [6]
0	0x3f9f6b98	1.245471
1	0x3f1eef6c	0.6208408
2	0xbecfc82f	-0.40582415
3	0xbda05b86	-0.07829957
4	0xbc975f20	-0.018477976
5	0xbe819d90	-0.25315523

fc3.weight f4 [14, 6]
0	0x3fe9d631	1.8268491
1	0xbf495aee	-0.7865437
2	0x3f9389b4	1.1526399
3	0xbdca8a45	-0.09889654
4	0x3e167990	0.1469481
5	0xbd1db648	-0.038503915
6	0x3160fa40	3.273854e-09
7	0xb3e72a1d	-1.0764436e-07
8	0x32d7dfd1	2.5131074e-08
9	0x3dd9d078	0.106354654
10	0xbe32ec87	-0.1747304
11	0xbe5509a9	-0.20804466
12	0x2f4df19d	1.873048e-10
13	0x30db8e06	1.5974713e-09
14	0xaea2adc6	-7.3977754e-11
15	0xbe0e675b	-0.13906614
16	0xbdd4625c	-0.10370323
17	0xbe0d4476	-0.13795647
18	0xb13a0424	-2.7068916e-09
19	0x333f72ce	4.4575067e-08
20	0xb246bdb5	-1.1568251e-08
21	0xbdfee362	-0.124457136
22	0x3d4ccca0	0.049999833
23	0x3e57fba0	0.21092081
24	0x3492a5ae	2.7315167e-07
25	0x3484e623	2.4754362e-07
26	0x328f79e6	1.6702824e-08
27	0x3e959dd7	0.29221985
28	0xbe7b2d09	-0.24528898
29	0x3e3c4ac4	0.18387896
30	0xb0a162d1	-1.1742377e-09
31	0x32317728	1.0329849e-08
32	0xaf0db3ff	-1.2887823e-10
33	0x3e08111b	0.13287775
34	0x3da9ab88	0.0828467
35	0xbcd11df0	-0.02552697
36	0xb1b86020	-5.366033e-09
37	0xb22ae96d	-9.948377e-09
38	0xb088e958	-9.961623e-10
39	0xbedcfec7	-0.4316313
40	0x3e6e2b2c	0.23258656
41	0xbd168dd0	-0.036756337
42	0x369ed861	4.7339568e-06
43	0xb7e4399c	-2.7206544e-05
44	0x35829b85	9.731017e-07
45	0x3d2f636e	0.042819433
46	0x3e655bf0	0.22398353
47	0x3dc932c8	0.09824139
48	0xb0232046	-5.934492e-10
49	0x31c86262	5.831951e-09
50	0x2ecb5cbe	9.2478455e-11
51	0x3e949191	0.29017308
52	0x3e909ef2	0.28246266
53	0xbea7d62c	-0.32780588
54	0xb0f8b77d	-1.8096525e-09
55	0x32050923	7.743696e-09
56	0xaf921bc8	-2.6576985e-10
57	0xbe6608a7	-0.22464238
58	0xbe775080	-0.24151802
59	0x3ebd1a0e	0.3693394
60	0x30354c52	6.5955874e-10
61	0x3168bb80	3.3867025e-09
62	0x2f0bc44f	1.2711719e-10
63	0x3dadf9fd	0.08494947
64	0xbeb25f90	-0.34838533
65	0x3e010d94	0.12602836
66	0xaf91b4fa	-2.6503938e-10
67	0xafac3b00	-3.132854e-10
68	0xaabdc218	-3.3707824e-13
69	0x3eb668b5	0.3562676
70	0x3eaffe9e	0.34373945
71	0xbec8c7c2	-0.39214903
72	0x3977cdd4	0.00023632433
73	0x3772e7bd	1.447828e-05
74	0x37f948e5	2.9717057e-05
75	0xbe5d7a48	-0.21628678
76	0xbe7724e1	-0.24135162
77	0x3ebc7ade	0.3681249
78	0xb967bb85	-0.00022099733
79	0x3a395303	0.00070695597
80	0xb912934c	-0.00013978517
81	0xbd8b1a4a	-0.067921236
82	0xbe952040	-0.29126167
83	0xbe72e609	-0.23720564

fc3.bias f4 [14]
0	0xbeb875d1	-0.36027387
1	0x3d07d4c8	0.03316191
2	0x3d6dcd38	0.05805704
3	0xbda98151	-0.08276618
4	0x3d272ca0	0.040814042
5	0xbe4f892b	-0.20267169
6	0x3e4fdbec	0.20298737
7	0xbd40b3ed	-0.04704659
8	0xbdc032cd	-0.093846895
9	0x3e45c443	0.19313149
10	0xbdddb72d	-0.10825954
11	0x3d8f5658	0.06998891
12	0xbe42004b	-0.18945424
13	0x3de80c25	0.113304414
