CaseModels/01 14-Bus/_updatedModel_MAG.pth (torch, 5426 bytes, 7 tensors)

bias f4 [14]
0	0x3ef78440	0.48343086
1	0x3efe9f7b	0.4973105
2	0x3eb0ebb7	0.34554836
3	0xbd75a03e	-0.059967272
4	0xbd4a01fb	-0.049318295
5	0x3f3b1201	0.73074347
6	0x3e15362d	0.14571448
7	0x3ed14e43	0.4088002
8	0x3e7a07be	0.24417016
9	0x3eb5f62b	0.35539374
10	0x3ee21735	0.4415833
11	0x3ef01b7a	0.46895963
12	0x3e936309	0.28786495
13	0xbd31f3ae	-0.04344528

fc1.weight f4 [12, 36]
0	0xbdea95ee	-0.11454378
1	0x3b28a500	0.0025733113
2	0xbd3ac9e0	-0.04560268
3	0xbda34548	-0.07972199
4	0xbe05818c	-0.130377
5	0xbe27fbf2	-0.16404703
6	0xbe10d4a2	-0.14143613
7	0x3cc8beb8	0.024505004
8	0xbd60cd30	-0.054883182
9	0x3d2b7ed4	0.041869
10	0xbdc51bb0	-0.096244216
11	0xbd515966	-0.051110648
12	0x3ddbd986	0.10734849
13	0xbd986a9e	-0.074422106
14	0x3d684c84	0.056713596
15	0x3ddfc032	0.1092533
16	0xbdb807bb	-0.089858495
17	0x3d972776	0.073805735
18	0xbe1a3203	-0.1505814
19	0xbe113c82	-0.14183238
20	0x3c5b0790	0.013368502
21	0xbd51d906	-0.05123236
22	0xbe213b68	-0.15745318
23	0x3e173bbd	0.14768882
24	0xbd77b786	-0.060477756
25	0xbd979f06	-0.07403378
26	0x3dfa7282	0.12228872
27	0x3cf745b8	0.030184612
28	0xbd98c4d6	-0.074594185
29	0x3d61b8dc	0.055107936
30	0x3e202ee1	0.15642883
31	0x3e1a7e3b	0.15087216
32	0xbe29962a	-0.1656119
33	0x3dbfe026	0.09368925
34	0x3e146449	0.14491381
35	0xbdd80740	-0.10548258
36	0x3b73e2e0	0.0037214085
37	0x3b27ad8a	0.0025585615
38	0x3dde68b1	0.10859812
39	0x3da3b193	0.07992854
40	0x3da7761e	0.08176826
41	0x3d86c17f	0.06579875
42	0xbc8cab52	-0.017171536
43	0x3d17e496	0.03708323
44	0x3deccaf6	0.11562149
45	0x3caccbcf	0.021093277
46	0x3d8034f2	0.062600985
47	0x3e1b336d	0.15156336
48	0x3e04d85f	0.12973164
49	0x3e350d92	0.17680958
50	0x3d949823	0.0725558
51	0x3c85039f	0.016237078
52	0xbb6d9c1a	-0.0036256374
53	0x3e27a510	0.1637156
54	0x3d9b7b5c	0.07591888
55	0xbd8ea39d	-0.069648005
56	0x3e2d136f	0.16901945
57	0x3da252cc	0.079259485
58	0xbdd0e546	-0.101999804
59	0x3e907df4	0.28221095
60	0xbe0e62ee	-0.13904926
61	0xbde4f4f0	-0.111795306
62	0x3de18a72	0.110127345
63	0x3d16b4b0	0.03679341
64	0x3d3fac44	0.046795145
65	0xbd956a8e	-0.07295714
66	0xbe0015f8	-0.1250838
67	0xbdc5f368	-0.09665567
68	0x3d012674	0.031530812
69	0x3d9caff6	0.076507494
70	0x3d537af4	0.05163093
71	0x3c3d92b0	0.011570618
72	0x3ceb1bd6	0.028699797
73	0x3c21ef95	0.009883781
74	0xbc8459c6	-0.016156089
75	0x3d1ebe92	0.03875596
76	0x3dc77642	0.09739353
77	0xbd93784c	-0.07200679
78	0xbe5a54e1	-0.21321441
79	0xbe054240	-0.13013554
80	0x3e1ddb02	0.15415576
81	0x3e3fbfc8	0.18725502
82	0x3ebe3b45	0.37154594
83	0xbcb6f61b	-0.02233415
84	0xbdae05f0	-0.08497226
85	0xbe096629	-0.13417877
86	0x3cb77e90	0.022399217
87	0xbe1a7c7a	-0.15086547
88	0xbe780526	-0.24220714
89	0xbddc27e6	-0.107497975
90	0xbdb7ebd1	-0.08980525
91	0x3d6230f3	0.055222463
92	0x3df264f1	0.11835659
93	0x3e8cc331	0.2749267
94	0x3d28037e	0.041018955
95	0x3e8512fd	0.2599105
96	0xbca4fda0	-0.02014047
97	0xbdfafb2e	-0.1225494
98	0xbe0255c6	-0.12728032
99	0x3e094a19	0.13407172
100	0xbe28783f	-0.1645212
101	0xbe097403	-0.13423161
102	0xbcac0440	-0.02099812
103	0x3e0c01c1	0.13672544
104	0xbced1640	-0.028941274
105	0xbcffd2d8	-0.031228468
106	0x3e199473	0.14998035
107	0xbc8432c0	-0.01613748
108	0x3d0fcf17	0.035109606
109	0x3d976fa1	0.073943384
110	0x3df18e87	0.11794763
111	0x3d9b50e8	0.07583791
112	0x3d01384a	0.031547822
113	0x3e0db36c	0.13837975
114	0x3d5b0952	0.053475685
115	0x3d81d624	0.06339672
116	0x3e0f47d6	0.13992247
117	0x3e3db8ee	0.18527576
118	0x3e4ef06b	0.202089
119	0x3e4e831b	0.201672
120	0x3db0f314	0.086401135
121	0xbe8ff6a3	-0.28117856
122	0x3e8d740e	0.27627605
123	0x3e47367f	0.19454382
124	0x3e4ca1dc	0.1998362
125	0x3e82112e	0.25403732
126	0x3e496a09	0.19669355
127	0x3b399509	0.0028317592
128	0xbcd1a6f4	-0.025592305
129	0x3e2d4b63	0.16923289
130	0xbe46e150	-0.19421887
131	0x3eb7ebc2	0.35922056
132	0xbc7e8e40	-0.015536845
133	0xbe1fc167	-0.15601121
134	0x3cf81e88	0.030287996
135	0x3c8769f8	0.016530022
136	0x3db91f32	0.09039153
137	0xbb059840	-0.0020384938
138	0x3c2172b0	0.009854004
139	0x3b94ff60	0.0045470446
140	0x3d8b0682	0.06788351
141	0x3d8648f6	0.06556885
142	0x3db8595e	0.090014204
143	0xbdf08c70	-0.11745536
144	0xbd1d06d4	-0.03833659
145	0x3cf85237	0.03031264
146	0x3d77e9ea	0.060525812
147	0x3da7ee0e	0.08199702
148	0x3db4fdb7	0.08837455
149	0x3e098827	0.13430844
150	0x3d77de13	0.06051452
151	0xbd1a0c9b	-0.037609678
152	0xbdfb476c	-0.12269482
153	0x3ccf9482	0.025339369
154	0x3e2c71fb	0.16840355
155	0x3e007dcd	0.12547989
156	0xbe1a7278	-0.15082729
157	0x3e6c08e7	0.23050271
158	0xbe1b6369	-0.1517464
159	0xbbd1ac7d	-0.006398736
160	0x3ca82ad6	0.020528238
161	0xbd989e92	-0.0745212
162	0x3d207e07	0.03918269
163	0x3d931baa	0.07183011
164	0x3d15cc92	0.036572047
165	0x3eb60ecc	0.35558164
166	0xbd079857	-0.033104267
167	0x3f02a4e5	0.5103286
168	0x3ca7e680	0.020495653
169	0x3b399300	0.0028316379
170	0xbd5cdaf0	-0.053919733
171	0x3de6767a	0.11253066
172	0xbe1e142c	-0.15437382
173	0x3e1027fb	0.14077751
174	0xbdfa385e	-0.122177824
175	0x3dbd0dba	0.09231134
176	0xbd8253e3	-0.06363656
177	0x3d1a392c	0.03765218
178	0xbda317ee	-0.079635486
179	0xbe047327	-0.12934552
180	0x3d5a0e1d	0.053236116
181	0x3df1de12	0.11809935
182	0x3c621321	0.013798506
183	0x3d4e8fc9	0.050430093
184	0xbd5928a6	-0.05301728
185	0xbcd5b41f	-0.026086865
186	0x3de5fe8b	0.11230191
187	0x3cbf87e6	0.023380231
188	0x3e007a62	0.12546685
189	0x3d6fcc5b	0.058544498
190	0x3dcacbe9	0.09902174
191	0xbd76db30	-0.060267627
192	0xbc8410aa	-0.016121227
193	0x3d2c42ed	0.042056013
194	0xbc1d6bbe	-0.009608207
195	0xbdf31073	-0.11868372
196	0xbcfd7828	-0.030941084
197	0x3da51a4a	0.08061655
198	0x3e43740d	0.19087239
199	0x3de60aeb	0.11232551
200	0x3de35b53	0.11101403
201	0xbc89b3e4	-0.016809411
202	0xbcaf7ee9	-0.02142282
203	0x3f0b04b3	0.54304045
204	0x3d570bac	0.052501366
205	0xbca71fd8	-0.020400926
206	0xbda6ae8e	-0.081387624
207	0x3e1d1c67	0.15342866
208	0xbd545786	-0.05184128
209	0x3db4acae	0.088219985
210	0xbdb9c926	-0.09071569
211	0xbdbe3e76	-0.09289257
212	0xbd4a09ec	-0.04932587
213	0x3d826770	0.063673854
214	0xbdc35c66	-0.09539108
215	0x3dd25962	0.10270955
216	0xbd9c8fe4	-0.076446325
217	0xbe3a56b2	-0.18197134
218	0xbe561d96	-0.20909724
219	0xbe0839f5	-0.13303359
220	0xbde979b5	-0.11400167
221	0x3de4addd	0.11165974
222	0x3e7cc3ac	0.24684018
223	0xbcd048ee	-0.0254254
224	0xbdd13ee0	-0.102170706
225	0xbd30ed9c	-0.043195352
226	0x3e292588	0.16518223
227	0xbe2bbe92	-0.16771916
228	0xbe127bc2	-0.14305022
229	0x3c998119	0.018738316
230	0xbeaad915	-0.33368745
231	0xbb50e685	-0.0031875682
232	0x3ec7ce97	0.39024803
233	0x3e6241d8	0.2209543
234	0x3e24d1b1	0.16095616
235	0xbd9e878b	-0.077406965
236	0xbddd03db	-0.10791751
237	0x3e88e838	0.2673967
238	0x3df052f8	0.11734575
239	0xbef79947	-0.4835913
240	0xbcc9d100	-0.024635792
241	0xbe1ec6dc	-0.15505546
242	0xbc1aa710	-0.009439245
243	0x3c3977f0	0.011320099
244	0x3d9d574e	0.07682668
245	0x3d1fdc10	0.039028227
246	0xbcf28000	-0.02960205
247	0x3b036240	0.0020047575
248	0x3df59172	0.11990632
249	0x3cda5788	0.026653066
250	0x3de6bd12	0.11266531
251	0x3debe0a2	0.11517455
252	0x3dd43ef0	0.10363567
253	0x3e0b0669	0.13576664
254	0x3dcd5638	0.100262105
255	0xbcc7e9e7	-0.024403526

fc1.bias f4 [12]
0	0x3ccaa938	0.024738893
1	0x3f07ba90	0.53019047
2	0x3e119131	0.14215542
3	0x3e5103c2	0.2041159
4	0x3f038752	0.5137836
5	0x3f10b14b	0.5652053
6	0xbee02cce	-0.43784183
7	0x3f2d86f0	0.67784023
8	0xbda784a6	-0.081795976
9	0x3e64ea79	0.22355069
10	0x3dd3190c	0.10307512
11	0x3e80ddd9	0.25169256

fc2.weight f4 [6, 12]
0	0xbda2bb8e	-0.079459295
1	0xbe6e01d6	-0.23242888
2	0x3e45b48f	0.19307159
3	0xbe2aa012	-0.16662624
4	0xbd113934	-0.035454944
5	0xbe9c5118	-0.3053062
6	0xbe496e51	-0.19670989
7	0xbe3b8d44	-0.18315607
8	0x3e40e170	0.18835998
9	0xbae27cb9	-0.0017279602
10	0x3e0cdafa	0.13755408
11	0x3d5eb1d9	0.054368827
12	0xbdbdbb86	-0.09264283
13	0xbd8a1a76	-0.06743328
14	0xbe8488b9	-0.2588556
15	0x3d1310c8	0.035904676
16	0xbdfd4560	-0.12366748
17	0xbde3e24e	-0.111271486
18	0x3e2f8da4	0.17143875
19	0x3dc92ce4	0.09823015
20	0xbe8bf37a	-0.27334195
21	0x3d83242c	0.064033836
22	0xbe7399b6	-0.23789105
23	0xbdeeb42e	-0.1165546
24	0x3d8a9d3c	0.06768271
25	0x3e25dbb9	0.16197099
26	0x3e31c28c	0.1735937
27	0x3d6b16e7	0.05739489
28	0x3eafff16	0.34374303
29	0x3e905e62	0.28197008
30	0xbdb74297	-0.08948248
31	0x3e64afda	0.22332707
32	0x3d78e128	0.0607616
33	0xbd515ecf	-0.051115807
34	0x3e806ced	0.25083104
35	0xbd8848de	-0.06654523
36	0x3e4a86f4	0.19778043
37	0x3c967a0a	0.01836874
38	0xbd995af6	-0.074880525
39	0xbcf8b5e0	-0.030360162
40	0x3ebf5c13	0.37374935
41	0x3e651a21	0.22373249
42	0x3dddbcef	0.10827052
43	0x3e4630d5	0.19354565
44	0xbcb75970	-0.022381514
45	0xbd6be05f	-0.057587024
46	0xbe032ac8	-0.12809289
47	0x3e3b88ef	0.18313955
48	0x3df307c0	0.118667126
49	0x3e4ce37c	0.20008653
50	0xbeb33f11	-0.35009053
51	0xbe7f9013	-0.24957304
52	0x3d6e5ddd	0.058194984
53	0xbe8e6a7c	-0.27815616
54	0xbd1ae9b2	-0.037820525
55	0xbe8bad5d	-0.27280703
56	0xbe8d45fc	-0.27592456
57	0x3dae38da	0.08506937
58	0xbcce9466	-0.025217246
59	0xbd501bba	-0.050807692
60	0x3e8ec22a	0.2788251
61	0x3f02ed60	0.51143456
62	0x3dbc8f5c	0.09207031
63	0x3e9c0001	0.30468753
64	0x3db72fc2	0.08944656
65	0x3ea4374f	0.32073447
66	0xbe9d8618	-0.30766368
67	0x3f107538	0.5642886
68	0xbe21ada0	-0.15788889
69	0x3e7f6f69	0.24944843
70	0xbe1e27c0	-0.15444851
71	0x3cc7d17c	0.024391882

fc2.bias f4 [6]
0	0xbdcf2cbb	-0.101159535
1	0xbc79e680	-0.015252709
2	0x3e4d52ff	0.20051192
3	0x3f230da9	0.6369272
4	0x3e519f36	0.2047089
5	0x3d27e538	0.040990084

fc3.weight f4 [14, 6]
0	0x3d3a0f07	0.045424487
1	0xbe680961	-0.22659828
2	0xb223b8c4	-9.52986e-09
3	0xb2a463c6	-1.9137484e-08
4	0x3db75a17	0.0895273
5	0x32a36020	1.901941e-08
6	0xbec234b7	-0.37930843
7	0x3d5b4060	0.05352819
8	0x37e767f8	2.758576e-05
9	0x3880fd7b	6.15073e-05
10	0x3ea4bdeb	0.32176146
11	0x371daf76	9.398782e-06
12	0x3e3acfc0	0.18243313
13	0xbe690b13	-0.2275813
14	0xb739d9f0	-1.1077602e-05
15	0xb8df8357	-0.000106579326
16	0x3e0c67ca	0.13711467
17	0xb886143f	-6.393389e-05
18	0xbe498d66	-0.19682845
19	0xbd78bd00	-0.06072712
20	0x3e94bc26	0.29049796
21	0x3ed1164e	0.4083733
22	0x3ec9f294	0.39442885
23	0x3e56f303	0.20991139
24	0x3e41ffc5	0.18945225
25	0x3d771960	0.060326934
26	0x3e9117b9	0.2833841
27	0x3ef83cfd	0.4848403
28	0xbe950ef3	-0.29112968
29	0x3e53ea49	0.20694841
30	0x3df9115a	0.12161513
31	0x3e0cc68c	0.13747615
32	0xb7984cb8	-1.8155537e-05
33	0x37e56cda	2.7349615e-05
34	0xbeafb891	-0.343205
35	0x37907aa4	1.7223247e-05
36	0xbdfa4f10	-0.12222111
37	0x3e9893fa	0.29800397
38	0x3e5280ea	0.2055699
39	0x3cff486b	0.031162461
40	0xbd8f8cd3	-0.07009282
41	0x3e8cd45c	0.27505767
42	0xbe8c1b05	-0.27364364
43	0xbeb76b5b	-0.35824093
44	0x38882093	6.491053e-05
45	0xb8cb399c	-9.690525e-05
46	0x3ed95370	0.4244647
47	0xb80f5354	-3.4171462e-05
48	0x3e27b68c	0.1637823
49	0xbde95a3c	-0.11394164
50	0x3e8b757b	0.27238068
51	0xbdfedf90	-0.12444985
52	0xbe86a2de	-0.26296133
53	0x3ed909a8	0.4239018
54	0xbe1af768	-0.1513344
55	0x3e91fbfa	0.28512555
56	0x3e8c817a	0.27442533
57	0xbe0f3201	-0.13983919
58	0x3dfd31dd	0.12363026
59	0x3ec1c53e	0.37845796
60	0x3e380f8d	0.17974682
61	0xbd36d0d0	-0.044632733
62	0x3e246508	0.16054165
63	0xbd8ec4fe	-0.06971167
64	0xbeb7e216	-0.35914677
65	0x3e4fed71	0.2030542
66	0x3dc55e13	0.09637084
67	0xbe4f1948	-0.20224488
68	0xbd91ef4f	-0.071257226
69	0x3e560ab8	0.20902526
70	0x3d9b43f5	0.07581321
71	0x3df21fe2	0.118224874
72	0xbe04b28a	-0.12958732
73	0x3d376a70	0.04477924
74	0xbe28deb1	-0.164912
75	0x3e8c3244	0.273821
76	0xbe0f7597	-0.140097
77	0x3e6302b5	0.22169001
78	0xbdcbac1f	-0.09944939
79	0x3bc54980	0.006020725
80	0xbef6579e	-0.48113722
81	0x3ea8f54a	0.3299964
82	0x3ca8e0c7	0.020614995
83	0x3f2ea488	0.68219805

fc3.bias f4 [14]
0	0x3f139a09	0.57656914
1	0x3f0c2e61	0.5475827
2	0x3f2a1775	0.6644204
3	0xbd77fb78	-0.060542554
4	0xbe1f84f2	-0.15578058
5	0x3eadad52	0.33921295
6	0x3e8785b1	0.26469186
7	0x3f2e66fd	0.681259
8	0x3da4b21e	0.08041786
9	0x3d312ed6	0.043257557
10	0x3e7a3d97	0.24437557
11	0x3e50343f	0.2033243
12	0x3e75e38e	0.24012586
13	0x3e1c624c	0.15271872
