CaseModels/02 30-Bus/_baseModel_vpu.pth (torch, 12625 bytes, 7 tensors)

bias f4 [30]
0	0x3e82d76b	0.25554976
1	0x3e71d678	0.2361697
2	0x3e2d1d01	0.16905595
3	0x3e206690	0.15664124
4	0x3e79c289	0.24390616
5	0x3e52e11c	0.20593685
6	0x3e43daf9	0.191265
7	0x3e7dbd3a	0.24779215
8	0x3e66928c	0.2251684
9	0x3de34900	0.11097908
10	0x3e92cd11	0.28672078
11	0x3e120fae	0.14263794
12	0x3e94bad7	0.29048797
13	0x3e3a39ef	0.18186162
14	0x3e2ce535	0.1688431
15	0x3e252e55	0.16130956
16	0x3e6017b9	0.2188405
17	0x3ddc0552	0.10743202
18	0x3e633b87	0.22190677
19	0x3e4c8de4	0.19976002
20	0x3e6a9596	0.22908625
21	0x3e1d591e	0.15366027
22	0x3e444ee9	0.19170727
23	0x3e1737eb	0.14767425
24	0x3e386093	0.1800559
25	0x3e3373b7	0.1752461
26	0x3e18ae22	0.14910176
27	0x3e59359f	0.21211861
28	0x3de912c0	0.113805294
29	0x3dc30617	0.09522646

fc1.weight f4 [24, 72]
0	0x3d97c772	0.07411088
1	0x3e3e8034	0.18603593
2	0x3dafb186	0.08578782
3	0xbdaaaa5f	-0.08333277
4	0xbcefcf26	-0.02927358
5	0x3d4efb9a	0.050532915
6	0xbcb5d2ee	-0.022195306
7	0xbda28321	-0.07935167
8	0x3e39073c	0.18069166
9	0xbdefbccf	-0.11705934
10	0xbd907b26	-0.07054739
11	0xbd3ea733	-0.046546172
12	0xbe31320d	-0.17304249
13	0x3cf6f319	0.030145215
14	0x3da23540	0.07920313
15	0x3c3da61e	0.01157525
16	0xbde113d3	-0.10990109
17	0x3d75c1d1	0.05999929
18	0x3d89288c	0.06697187
19	0x3f0fc6b3	0.56162566
20	0x3b66ba04	0.0035206089
21	0x3e456212	0.19275692
22	0x3e230189	0.15918554
23	0x3e579d94	0.21056205
24	0x3d4b02c9	0.049563203
25	0xbe5eb546	-0.21748838
26	0xbb264a2f	-0.0025373807
27	0x3d0af70e	0.033927016
28	0x3ce9bd80	0.028532743
29	0x3e99125c	0.2989682
30	0xbd7d8bd7	-0.06190094
31	0xbde2e692	-0.11079134
32	0xbb83c61b	-0.0040214187
33	0xbe7153ae	-0.23567078
34	0xbda9897c	-0.08278176
35	0x3d04198e	0.032250933
36	0xbd657c03	-0.05602647
37	0xbddaf8ac	-0.10691962
38	0x3d3a61d8	0.045503467
39	0x3d75c1d7	0.059999313
40	0x3edd1891	0.43182805
41	0xbd782d61	-0.06059015
42	0x3e8bbb2a	0.27291232
43	0xbb7a4cd7	-0.0038192773
44	0x3da23371	0.07919968
45	0xbd731a5b	-0.059351306
46	0x3b18262c	0.0023216112
47	0x3db8e64f	0.09028303
48	0x3d813427	0.063087754
49	0xbdba003e	-0.090820774
50	0x3daa9d55	0.0833079
51	0x3d8913dd	0.06693242
52	0x3debaf3e	0.11508034
53	0xbcdc1080	-0.026863337
54	0xbd928ebf	-0.07156133
55	0x3d8721fb	0.06598278
56	0x3d81373b	0.063093625
57	0xbdac1cce	-0.084039316
58	0xbcc3f530	-0.023920625
59	0x3ced38f4	0.028957821
60	0xbdd63db7	-0.1046099
61	0xbd5e8686	-0.05432751
62	0xbcc4d06c	-0.024025165
63	0xbda27868	-0.07933122
64	0x3d7cccea	0.06171886
65	0xbc462058	-0.012092672
66	0x3c1e8a28	0.009676494
67	0xbdcb8337	-0.099371366
68	0xbddd455c	-0.10804245
69	0x3db2b2e5	0.08725528
70	0x3dcc2f63	0.09969976
71	0xbd392f36	-0.04521104
72	0x3cf85616	0.030314486
73	0xbea19202	-0.31556708
74	0xbdb68dbc	-0.089137524
75	0xbdb5d872	-0.08879174
76	0x3da9d0a2	0.08291747
77	0xbc9185e1	-0.017764034
78	0xbd76b1d0	-0.06022817
79	0xbe9f9b20	-0.31173038
80	0x3f3c5ebd	0.7358206
81	0x3db082ec	0.08618721
82	0xbe447acc	-0.19187468
83	0x3cff7e15	0.03118805
84	0xbd94466e	-0.07239996
85	0xbe40299d	-0.18765874
86	0xbcff27de	-0.03114694
87	0xbdf800e6	-0.12109546
88	0x3f596785	0.84923583
89	0x3e696a4a	0.22794452
90	0xbee11f20	-0.4396906
91	0xbf2d214d	-0.6762894
92	0xbdbf93be	-0.093543515
93	0x3cdfdfa3	0.027328318
94	0xbe847fd0	-0.25878763
95	0x3d0f6523	0.03500856
96	0xbd9ac6a1	-0.07557417
97	0xbc85bb40	-0.01632464
98	0xbe00df6c	-0.12585229
99	0xbe2f11a6	-0.17096576
100	0xbe13bc3d	-0.14427276
101	0x3f37e6a4	0.71836305
102	0x3db6470c	0.0890027
103	0xbeb1cdec	-0.34727418
104	0xbc78f3d9	-0.015194857
105	0x3dcc3419	0.09970874
106	0xbe204264	-0.15650326
107	0xbd22619e	-0.039643876
108	0xbe3ee0a4	-0.18640381
109	0x3f2207f1	0.6329337
110	0x3e12548a	0.14290062
111	0xbf26b1b1	-0.65114886
112	0xbf2bd638	-0.67123747
113	0x3d79e4ed	0.061009336
114	0xbe449b6b	-0.19199912
115	0x3db17a40	0.086658955
116	0x3d6929f2	0.056924768
117	0xbdd93d47	-0.10607391
118	0x3d02bcc7	0.031918313
119	0xbd500df0	-0.05079454
120	0x3c2b9848	0.010473318
121	0x3d4c4ae9	0.049876127
122	0xbd975941	-0.07390071
123	0xbc4b30b8	-0.012401752
124	0xbe282526	-0.16420421
125	0x3dc47b99	0.09593887
126	0x3df22151	0.11822761
127	0x3d43c692	0.047796793
128	0xbdde4551	-0.10853065
129	0xbdc4ae8e	-0.09603606
130	0x3cce34ac	0.0251716
131	0x3dcec64f	0.10096418
132	0xbdca0245	-0.09863714
133	0xbd31aa28	-0.043375164
134	0xbd983654	-0.07432237
135	0x3ddca30b	0.107732855
136	0xbd8f2c03	-0.069908164
137	0x3d806035	0.0626835
138	0x3d90863f	0.070568554
139	0xbcdd16e4	-0.026988454
140	0xbd0df57a	-0.034657933
141	0x3d665a72	0.0562386
142	0x3d1c6dfa	0.03819082
143	0x3d678e6a	0.0565323
144	0x3d945d24	0.07244328
145	0xbd88c2ec	-0.066778034
146	0xbd148ced	-0.03626721
147	0x3c3dfaab	0.011595408
148	0x3d5a41c2	0.053285368
149	0x3dd47c71	0.10375298
150	0x3dba0a4b	0.090839945
151	0x3d9fe5b3	0.078074835
152	0x3d8e1aaf	0.06938683
153	0x3d89a84a	0.06721552
154	0x3e1bd1d4	0.15216762
155	0x3e4dae53	0.2008603
156	0x3e29f0bb	0.16595738
157	0x3e9b2918	0.3030479
158	0x3e9385fe	0.28813165
159	0xbcee6d45	-0.029104838
160	0x3e241432	0.16023329
161	0x3e18d8f4	0.14926511
162	0xbf1975e5	-0.5994552
163	0x3d61bb99	0.055110548
164	0xbe34faf7	-0.1767386
165	0x3da0ee53	0.07857957
166	0xbda37e95	-0.07983128
167	0x3d3d58bf	0.046227213
168	0x3cf6f402	0.030145649
169	0xbb0530fb	-0.0020323384
170	0x3e02ee17	0.12786137
171	0x3d771ca5	0.060330052
172	0xbda0b1c9	-0.0784641
173	0xbdd76370	-0.10517013
174	0xbc1be2a5	-0.0095144855
175	0x3e796d22	0.24358037
176	0x3e8ffcb8	0.28122497
177	0x3e3d2117	0.18469654
178	0x3e8afda8	0.2714665
179	0x3e6505b2	0.22365454
180	0x3da4aa2e	0.08040272
181	0x3cc65ad5	0.024213234
182	0x3dc08b18	0.0940153
183	0xbeef9a67	-0.46797487
184	0xbced3d4d	-0.028959895
185	0xbdb867c9	-0.090041704
186	0x3d50d0a6	0.050980233
187	0xbdfa5210	-0.122226834
188	0xbd7adca9	-0.061245594
189	0xbc3e9498	-0.011632107
190	0x3d791b41	0.060817007
191	0x3c0e7168	0.00869403
192	0xbc05fae8	-0.0081774965
193	0xbe188f89	-0.14898504
194	0x3d16ad2e	0.03678625
195	0x3c90fd4c	0.017698906
196	0x3dd3fafd	0.103506066
197	0xbd796de5	-0.06089582
198	0xbc975803	-0.018474584
199	0xbd900458	-0.070320785
200	0xbd2fb804	-0.0429001
201	0x3b2662e0	0.0025388524
202	0xbd332c4c	-0.043743417
203	0xbd7708fb	-0.0603113
204	0xbcfb3118	-0.030663058
205	0x3da83811	0.08213819
206	0xbd82d978	-0.06389135
207	0xbbddf9b0	-0.00677415
208	0xbd56256a	-0.052281775
209	0x3ce42f3c	0.027854554
210	0x3d4d5d2e	0.05013769
211	0xbd829a6c	-0.0637711
212	0xbde3b931	-0.11119307
213	0xbd9ccca4	-0.076562196
214	0xbd2fbc8c	-0.04290442
215	0xbc8e0748	-0.017337456
216	0x3d91c99c	0.07118532
217	0xbe598280	-0.21241188
218	0xbdfc5148	-0.12320191
219	0x3cbc0faa	0.022956688
220	0xbd8ef19a	-0.069796756
221	0xbd34a969	-0.044106875
222	0xbc459eb7	-0.012061766
223	0xbdffb25f	-0.124851935
224	0xbd595809	-0.053062472
225	0xbe10e747	-0.14150725
226	0x3cc9a152	0.024613056
227	0x3dfc9973	0.123339556
228	0xbda2a54a	-0.07941683
229	0xbd398836	-0.045295916
230	0x3c94f6b7	0.018184049
231	0x3c9ee52e	0.01939639
232	0xbe1453bd	-0.14485069
233	0xbd94d038	-0.07266277
234	0x3ea46606	0.32109088
235	0x3f04384f	0.5164842
236	0x3f1fa2ce	0.62357795
237	0x3d57f524	0.05272402
238	0xba57998c	-0.00082244794
239	0x3cc60bd8	0.02417557
240	0x3d7a51a3	0.06111301
241	0xbe13afb8	-0.144225
242	0xbbba3c26	-0.00568344
243	0x3c8ac309	0.016938703
244	0xbdcbda76	-0.099537775
245	0x3d57ffe4	0.05273427
246	0xbe07ef05	-0.13274772
247	0xbddd9faf	-0.10821473
248	0x3c38b39c	0.011273291
249	0xbe3c0f32	-0.18365172
250	0x3d616fdc	0.055038318
251	0xbcdf88f1	-0.027286978
252	0x3c1fb745	0.009748285
253	0xbdacf5e7	-0.0844534
254	0xbda7615d	-0.081728674
255	0x3e81f6b7	0.2538354

fc1.bias f4 [24]
0	0x3e8102db	0.2519749
1	0xbeca0afc	-0.39461505
2	0x3e8a457f	0.27006146
3	0x3eeca8eb	0.46222624
4	0xbe1c79ea	-0.15280882
5	0xbdc12459	-0.09430761
6	0xbeb55a44	-0.3542043
7	0x3e926862	0.28595263
8	0x3dcd57ce	0.10026513
9	0xbeaa2500	-0.33231354
10	0x3e440d76	0.1914576
11	0x3e2cb758	0.16866815
12	0x3ec95b23	0.39327344
13	0xbee5e3f9	-0.44900492
14	0x3e1005d3	0.14064722
15	0x3e980e9e	0.29698652
16	0xbe796cb6	-0.24357876
17	0x3eab822c	0.3349775
18	0x3e1d8fb3	0.15386848
19	0xbe29c525	-0.16579111
20	0x3e8f523f	0.27992436
21	0xbe329578	-0.1743983
22	0x3e81c963	0.25348958
23	0xbe84051e	-0.25785154

fc2.weight f4 [12, 24]
0	0xba97ce00	-0.0011581779
1	0xbec2144b	-0.37906107
2	0xbd9d8947	-0.07692199
3	0x3e88f11a	0.26746446
4	0x3ca78ba6	0.020452332
5	0x3e4e81f4	0.2016676
6	0x3e0c8fa4	0.1372667
7	0x3e6526eb	0.22378127
8	0x3be51e3c	0.0069921296
9	0xbd9ad0e8	-0.07559377
10	0x3e10ea84	0.1415196
11	0x3e058de9	0.13042416
12	0xbd6ebac5	-0.058283586
13	0xbea8b1b5	-0.3294808
14	0x3d5a3e50	0.053282082
15	0x3da1d001	0.07901002
16	0x3e995a59	0.29951742
17	0x3e585846	0.21127424
18	0x3df012cc	0.11722335
19	0x3d91e867	0.07124405
20	0x3d521a36	0.051294528
21	0xbe79d330	-0.24396968
22	0x3da24f48	0.07925278
23	0xbb0bf0be	-0.002135321
24	0xbe70d6d2	-0.23519447
25	0xbea914e2	-0.33023745
26	0xc00d92d3	-2.2120864
27	0x3e126747	0.1429721
28	0x40125b21	2.286812
29	0xbf9abe97	-1.2089413
30	0xbebe8698	-0.37212062
31	0xbfa54086	-1.2910316
32	0x3e047546	0.12935361
33	0xbfce59ba	-1.6121132
34	0xbcf9f82d	-0.030513847
35	0x3f7ce57d	0.9878767
36	0x3dceffc1	0.10107375
37	0xbec051df	-0.37562463
38	0x3e0cc7b1	0.13748051
39	0x3d21b54b	0.039479535
40	0xc03e3457	-2.9719446
41	0xbf6793e0	-0.90460014
42	0x3f934c37	1.1507634
43	0x3d3762ca	0.044771947
44	0x3e4c176f	0.19930814
45	0xbf84aff3	-1.0366195
46	0x3cba6bed	0.022756541
47	0xbf90cfc8	-1.131341
48	0x3f5e42c3	0.8682062
49	0xbfd7a314	-1.6846642
50	0xbe637989	-0.2221433
51	0x3e2c2f23	0.16814856
52	0x40a1ab55	5.0521646
53	0xbec1da85	-0.3786203
54	0xbf23839b	-0.6387269
55	0xbe165d90	-0.14684129
56	0xbe987018	-0.2977302
57	0xbfa79ef0	-1.3095379
58	0xbe70ed6b	-0.23528068
59	0xbf0b39ee	-0.5438527
60	0xbe8d67a3	-0.2761813
61	0xc00e16ad	-2.220134
62	0x3eaa66e3	0.3328162
63	0x3f1fd1f0	0.62429714
64	0x40395288	2.8956623
65	0x3ef3e9d8	0.47639346
66	0xbe89c818	-0.26910472
67	0xbf81c7a0	-1.0139046
68	0xbfb7a69e	-1.4347723
69	0xc08d6301	-4.4183354
70	0xbf979ed9	-1.1845351
71	0xc0503b68	-3.2536259
72	0x3c3497cf	0.011022522
73	0x3e7e8c80	0.24858284
74	0x3e50c4b6	0.2038754
75	0xbbda6efd	-0.006666063
76	0x3dfffa51	0.12498916
77	0xbe888b34	-0.26668704
78	0x3dbb43fe	0.09143828
79	0x3bd4f64e	0.0064990884
80	0x3cb71c1c	0.02235227
81	0x3e5f6b26	0.21818218
82	0xbe186a7d	-0.14884372
83	0xbe6c8937	-0.23099218
84	0x3e94fc54	0.2909876
85	0x3edc10d8	0.429816
86	0xbb2a5fea	-0.002599711
87	0x3e68513c	0.22687238
88	0x3d573eda	0.052550174
89	0xbd2a92d5	-0.041643936
90	0x3e531c66	0.20616302
91	0xbbf99fae	-0.0076179123
92	0x3d6a3642	0.05718065
93	0x3e97bf0c	0.29637945
94	0xbc90ca5f	-0.017674623
95	0x3e9182c5	0.28420082
96	0x3d074f0f	0.03303438
97	0x3da5aebb	0.08089968
98	0x3e92c437	0.28665325
99	0xbe4db5f7	-0.20088945
100	0xbd56e3ed	-0.05246346
101	0xbe3635b7	-0.17793928
102	0xbe87ab3b	-0.26497826
103	0xbbb2be42	-0.0054548094
104	0x3c9e20ba	0.019302715
105	0xbe129151	-0.14313246
106	0x3e9bad11	0.30405477
107	0x3e869881	0.26288226
108	0x3c4473c3	0.01199049
109	0xbe61d49e	-0.22053763
110	0xbe5cee8c	-0.21575373
111	0x3d958934	0.0730156
112	0xbe77c5fe	-0.24196622
113	0x3daa9f72	0.08331193
114	0xbd6eba2c	-0.058283016
115	0xbe83c483	-0.25735864
116	0x3d274032	0.040832706
117	0xbe3ecede	-0.18633601
118	0x3d4b777b	0.049674492
119	0xbe23b54f	-0.15987132
120	0x3bf4040c	0.0074467715
121	0xbe1cbf89	-0.1530744
122	0x3cb4c06c	0.02206441
123	0xbd9bb0bd	-0.076020695
124	0x3e7dcbbb	0.24784748
125	0x3e182e18	0.14861333
126	0x3e4cb4dc	0.19990867
127	0xbe10209e	-0.14074942
128	0x3c3fa414	0.011696834
129	0x3e026267	0.1273285
130	0xbe2893e7	-0.1646267
131	0x3e408486	0.18800554
132	0x3cdc1382	0.02686477
133	0xbea4cd16	-0.32187718
134	0xbddfcc20	-0.10927606
135	0x3e3cdd91	0.18443896
136	0x3e3b5300	0.1829338
137	0x3e4fe169	0.20300831
138	0xbe127f86	-0.14306459
139	0xbdca7ffd	-0.09887693
140	0x3d7dcd88	0.061963588
141	0x3db8062a	0.08985551
142	0x3df6f800	0.12059021
143	0xbed3372c	-0.4125303
144	0x3d1939b4	0.037408546
145	0xbec9fbf7	-0.39450046
146	0x3c2a7608	0.010404117
147	0x3d0f1e9e	0.03494131
148	0x3dc685cc	0.096934885
149	0x3d0e35f3	0.03471942
150	0xbe33858a	-0.1753141
151	0xbd034793	-0.03205068
152	0x3d01f997	0.031732168
153	0xbe830b6c	-0.25594652
154	0x3d7c60de	0.061615817
155	0xbdf50446	-0.11963706
156	0x3ea91c82	0.33029562
157	0xbeaf0192	-0.34180886
158	0xbde033e7	-0.109473996
159	0x3ea539f2	0.3227077
160	0x3e1475c4	0.14498049
161	0xbd9f79de	-0.07786916
162	0xbc835643	-0.016032344
163	0x3dfd39cf	0.12364542
164	0x3da00f33	0.07815399
165	0xbbb86a95	-0.00562794
166	0x3eac707f	0.33679578
167	0xbeb17e63	-0.34666738
168	0xbccf6c42	-0.025320176
169	0xbeb4743e	-0.35244936
170	0xbded60d3	-0.115907334
171	0x3e4bbf3e	0.19897172
172	0x3cef69b0	0.0292252
173	0x3e44de3a	0.19225398
174	0xbeb5f0b1	-0.35535195
175	0x3e04c378	0.1296519
176	0xbd023f5a	-0.031798698
177	0xbeaa13c1	-0.33218196
178	0xbe23de45	-0.16002758
179	0xbd8c98db	-0.06865092
180	0x3d914724	0.07093647
181	0x3dc675d0	0.0969044
182	0x3e81faac	0.2538656
183	0xbed439b5	-0.41450277
184	0x3dd9c198	0.10632628
185	0x3e33b179	0.17548169
186	0x3e286f03	0.16448598
187	0xbd9dbe17	-0.077022724
188	0xbd8d7daa	-0.06908734
189	0x3cf3f73b	0.029780975
190	0xbe05d2b9	-0.13068666
191	0xbe2dbd9e	-0.16966864
192	0xbf73ed74	-0.952842
193	0x3ec04608	0.3755343
194	0xbeb7f711	-0.35930684
195	0xbf654de9	-0.89572006
196	0xc03ab445	-2.9172528
197	0x3f4b24a2	0.7935277
198	0x3f86f975	1.0544878
199	0xbde30729	-0.1108535
200	0xbdd15108	-0.102205336
201	0x40119b18	2.2750912
202	0x3f500c3b	0.8126866
203	0xbdb0398b	-0.086047255
204	0x3fc51c47	1.5399255
205	0x3fbb1fda	1.4619095
206	0xbf4d58cf	-0.80213636
207	0x3e751d16	0.23936877
208	0x3fac64de	1.3468282
209	0x3ef12ca3	0.47104368
210	0xbf5d023d	-0.8633154
211	0x3f01e8a4	0.50745606
212	0x3f73130c	0.9495094
213	0x3fec98c0	1.8484116
214	0xbfd92e80	-1.6967316
215	0x3fe099ee	1.7546976
216	0x3ccee160	0.025253952
217	0x3e99acd5	0.30014673
218	0xbdf1f7b9	-0.118148275
219	0x3e771a12	0.24131039
220	0xbe3984f3	-0.18117122
221	0xbebeae9a	-0.37242585
222	0xbe4befab	-0.19915645
223	0x3e362879	0.17788877
224	0xbc05ae45	-0.008159225
225	0x3d41a9e4	0.04728116
226	0xbb5fa30b	-0.003412428
227	0x3dea5f73	0.11443987
228	0x3e52c1a5	0.20581682
229	0x3f04dc5e	0.51898754
230	0x3d498d2f	0.04920691
231	0x3d8d3eb2	0.06896724
232	0xbedbe9d1	-0.42951825
233	0x3e331891	0.1748984
234	0xbe09412d	-0.13403769
235	0x3e295ffa	0.16540518
236	0xbc95050c	-0.018190883
237	0x3f014a90	0.505044
238	0x3d3560c6	0.044281743
239	0x3eba82b9	0.36427858
240	0xbb983f14	-0.0046461914
241	0x3f8a5f75	1.0810381
242	0xbffe0d12	-1.9847739
243	0xc0200fb4	-2.5009584
244	0xc020ac81	-2.5105288
245	0xbf060105	-0.52345306
246	0xbef80d55	-0.48447672
247	0x3f6a9d36	0.91646135
248	0xbcb0ebe0	-0.021596849
249	0x3eedc2d0	0.46437693
250	0xbf0e3b01	-0.5555878
251	0xbc52764a	-0.012845585
252	0xbf82a771	-1.0207349
253	0x3f9c5167	1.2212342
254	0xbf0897d7	-0.5335669
255	0xbe4eab32	-0.20182493

fc2.bias f4 [12]
0	0x3eb88217	0.3603675
1	0xbca07a41	-0.019589545
2	0xbdd4f20a	-0.10397728
3	0x3ea7ffab	0.32812247
4	0x3eae668c	0.34062612
5	0x3edd4c67	0.43222353
6	0x3eb2b0a3	0.34900388
7	0x3ee46826	0.4461071
8	0xbee84e9d	-0.45372477
9	0x3e8d9e9b	0.2766007
10	0xbeeeef3d	-0.466669
11	0x3e71905a	0.23590222

fc3.weight f4 [30, 12]
0	0x3e840bbc	0.25790203
1	0xbe298991	-0.16556384
2	0xbe83f7bf	-0.25774953
3	0xbdd7413a	-0.10510488
4	0x3e4037ea	0.1877133
5	0x3e0f7de7	0.14012872
6	0x3d73fc98	0.059567064
7	0x3e4ef404	0.20210272
8	0xbe79c56c	-0.24391717
9	0x3ddf9da4	0.109187394
10	0x3f2ba582	0.6704942
11	0x3e6ab93a	0.22922221
12	0x3e5e6ff7	0.21722399
13	0x3eb0ad5f	0.34507272
14	0xbe1dce09	-0.15410627
15	0x3d92381c	0.07139608
16	0x3e2f600d	0.17126484
17	0x3dd5da94	0.10442081
18	0xbe0b7d6e	-0.13622066
19	0x3d5b25a4	0.053502694
20	0xbedf678c	-0.43633687
21	0x3e35159a	0.17684022
22	0x3edaa700	0.42705536
23	0x3d79a199	0.060945127
24	0x3d4c955b	0.049947124
25	0xbeab3a8a	-0.334431
26	0xbffc2e7e	-1.9701688
27	0xbdc5211e	-0.09625457
28	0x3d5caf3b	0.05387805
29	0x3db25156	0.0870692
30	0x3e0c76af	0.13717149
31	0x3e007f87	0.12548648
32	0xbe53bed7	-0.20678268
33	0x3dbcf4fb	0.09226414
34	0xbfcbda3c	-1.5925975
35	0x3e097336	0.13422856
36	0x3d096650	0.03354484
37	0xbf005213	-0.50125235
38	0xbfc18a66	-1.5120361
39	0xbe08a47d	-0.13343997
40	0x3d3df190	0.04637295
41	0x3dd9cdf8	0.106349885
42	0x3e5d42ab	0.21607463
43	0x3e3c1d3e	0.1837053
44	0x3c1392e8	0.009007193
45	0x3ccc5bab	0.024946054
46	0xbfac916e	-1.3481882
47	0x3e22ae93	0.15886907
48	0x3e361441	0.17781164
49	0xbdea3eeb	-0.11437782
50	0xbe31b702	-0.17354968
51	0xbd957cdf	-0.07299208
52	0x3e051938	0.12997901
53	0x3dc5eb30	0.09663999
54	0x3d2a7003	0.04161073
55	0x3e0f665c	0.14003891
56	0xbe30e2d3	-0.17274027
57	0x3d9afb31	0.07567442
58	0x3eed6bb8	0.46371245
59	0x3e2276cb	0.15865628
60	0x3daffcd1	0.08593143
61	0xbe0fbd5e	-0.14037082
62	0xbea9775a	-0.3309887
63	0xbc4b0539	-0.012391382
64	0x3dd9529a	0.10611458
65	0x3d640113	0.055665087
66	0x3d9788f6	0.0739917
67	0x3dcd4d23	0.10024478
68	0xbe15c158	-0.14624536
69	0x3e06bf79	0.13158979
70	0xbf48e668	-0.7847657
71	0x3d918bb7	0.071067266
72	0x3ec069a8	0.3758061
73	0xbf010c0d	-0.50409013
74	0x3fd978b2	1.6989958
75	0xbda7ab3e	-0.08186959
76	0x3e889acb	0.26680598
77	0x3d9250ac	0.07144293
78	0x3cd3759f	0.025812922
79	0x3e30c129	0.17261185
80	0x3f7ab6fa	0.9793545
81	0x3e9bde01	0.30442813
82	0xbfa939dc	-1.3220782
83	0x3e152299	0.14563979
84	0x3e4ce662	0.20009759
85	0xba986414	-0.0011626505
86	0xbdecb662	-0.11558224
87	0xbd5788b5	-0.05262061
88	0x3e221c44	0.15831095
89	0x3dd1b450	0.1023947
90	0x3c326f32	0.010890769
91	0x3e0dccba	0.13847628
92	0xbeb28190	-0.34864473
93	0x3deef86f	0.11668479
94	0x3effd240	0.49965096
95	0x3e21bb90	0.15794206
96	0x3e5da12b	0.21643512
97	0xbed3d1c1	-0.41370967
98	0xbee79ae3	-0.45235357
99	0x3ce280fb	0.027649393
100	0x3e5f2466	0.21791229
101	0x3de8af75	0.11361591
102	0x3e5f8632	0.21828535
103	0x3e9a81d9	0.3017719
104	0xbe42b22b	-0.19013278
105	0x3e3c990b	0.18417756
106	0x3e9276bf	0.2860622
107	0x3e209076	0.15680107
108	0x3d8a69af	0.06758439
109	0xbf24aedc	-0.64329314
110	0xbf0e5177	-0.55593055
111	0x3e260195	0.16211541
112	0x3e02708d	0.12738247
113	0x3c0eef18	0.008723997
114	0x3eafe38a	0.34353286
115	0x3e965460	0.29361248
116	0x3e1e9f45	0.15490444
117	0x3e100bc5	0.1406699
118	0x3dc0f2c4	0.09421304
119	0x3bd6a5f7	0.0065505463
120	0x3e7ca8cd	0.24673767
121	0x3dbc20f5	0.091859736
122	0xbe04aa62	-0.12955621
123	0xbd0c5baf	-0.034267124
124	0x3e4a944c	0.19783133
125	0x3dfce9fb	0.12349316
126	0xbcb6b6c4	-0.022303946
127	0x3e17dee9	0.14831127
128	0xbef454db	-0.4772099
129	0x3e247942	0.16061881
130	0x3f16c961	0.5890103
131	0x3e2da300	0.16956711
132	0x3d43c95c	0.047799453
133	0x3fae4fd3	1.361811
134	0x3efce317	0.49392006
135	0x3e80700c	0.25085485
136	0x3e874c17	0.2642524
137	0x3e911931	0.28339532
138	0xbdebbb73	-0.115103625
139	0x3e66aed3	0.22527628
140	0xbfec543f	-1.846321
141	0x3e48b6e7	0.19601022
142	0xbf1ee664	-0.620703
143	0xbd18ff0f	-0.037352618
144	0x3e8462e0	0.25856686
145	0xbe88d297	-0.26723167
146	0xbdf888db	-0.12135478
147	0xbe2b7d12	-0.1674693
148	0x3e52ba27	0.20578824
149	0x3e0c6290	0.13709474
150	0x3e0341ac	0.1281802
151	0x3e81dad4	0.25362265
152	0xbed55146	-0.4166357
153	0x3de82e0d	0.113369085
154	0x3f3ba8e4	0.7330458
155	0x3e945df4	0.2897793
156	0x3e183168	0.14862597
157	0xbd5e1cb5	-0.054226596
158	0x3eac9d9d	0.33714
159	0x3e4d7054	0.20062381
160	0x3e6130a3	0.2199121
161	0x3f347655	0.7049306
162	0x3d3a61be	0.04550337
163	0x3f09294c	0.5357864
164	0x3ea69b98	0.32540584
165	0xbe8df4a8	-0.2772572
166	0xbeab50f8	-0.33460212
167	0x3cf90566	0.030398082
168	0x3e16cca3	0.147265
169	0x3f24849a	0.64264834
170	0x3f34a318	0.7056136
171	0x3e347ce4	0.17625767
172	0x3e0364be	0.12831399
173	0x3ee4f522	0.44718271
174	0x3d812ba6	0.063071534
175	0x3e8b5f47	0.27221128
176	0xbfa40a93	-1.2815727
177	0x3da4dbfc	0.08049771
178	0xbede0616	-0.43364018
179	0x3daa8a56	0.08327167
180	0xbe207648	-0.1567012
181	0x3fc60d79	1.5472862
182	0x3df3f9bd	0.11912868
183	0x3e0cda85	0.13755234
184	0x3e8644a1	0.26224235
185	0x3d2594fc	0.040425286
186	0x3e9bd9c8	0.3043959
187	0x3ecec20b	0.40382418
188	0xbec533c8	-0.38516068
189	0x3e2e64c4	0.17030627
190	0xbea3523b	-0.31898674
191	0xbba3fe1c	-0.0050046574
192	0xbde1449b	-0.109994136
193	0x3f9f054a	1.2423489
194	0xbeb19987	-0.34687445
195	0x3dca8074	0.09887782
196	0x3e99dbe1	0.30050567
197	0xbd0722cf	-0.03299218
198	0x3f01e23b	0.50735825
199	0x3f06b915	0.5262616
200	0x3f3c20c4	0.73487496
201	0x3e3fc397	0.18726955
202	0x3e9f1a14	0.31074584
203	0x3d53ed60	0.05174005
204	0xbdd7220f	-0.10504543
205	0xbec3bfdb	-0.38232312
206	0x3f2e3591	0.68050486
207	0xbd368c06	-0.04456713
208	0xbe21be69	-0.15795292
209	0x3eb86ad7	0.36019012
210	0x3eb0414b	0.34424815
211	0x3e4dbaf2	0.20090845
212	0xbef8fca6	-0.48630255
213	0x3e37caf5	0.17948516
214	0xbe9e98e0	-0.3097601
215	0x3e2cbe97	0.1686958
216	0x3ddb13b3	0.10697117
217	0xbe0d3b6f	-0.13792203
218	0xbeac478d	-0.3364834
219	0x3e188318	0.14893758
220	0xbde95021	-0.113922365
221	0x3ef34c39	0.4751909
222	0x3d991893	0.0747539
223	0x3dab11d0	0.08353007
224	0x3e8db533	0.27677307
225	0x3ee4d87c	0.44696414
226	0x3e905b82	0.28194815
227	0x3dd24f90	0.102690816
228	0x3da1dbb4	0.07903233
229	0xbebef951	-0.37299588
230	0xbf18f05a	-0.5974175
231	0x3e1d0946	0.15335569
232	0xbdc91f21	-0.098203905
233	0x3ebaa1ac	0.3645147
234	0x3e1987e0	0.14993238
235	0x3df4056c	0.11915097
236	0x3f222e75	0.6335214
237	0x3ea2144b	0.31656107
238	0x3e403e7c	0.18773836
239	0x3d6e0239	0.05810759
240	0x3e65ba90	0.22434449
241	0xbffb940b	-1.9654554
242	0xbf13092f	-0.5743589
243	0x3ec44184	0.38331234
244	0x3e20970b	0.15682618
245	0xbc804bd8	-0.015661165
246	0x3e91db69	0.2848771
247	0x3e884764	0.26616967
248	0xbf146491	-0.5796595
249	0x3e28c8c8	0.16482842
250	0x3ea7b4bf	0.32755086
251	0xbde84908	-0.113420546
252	0x3e09bf04	0.13451773
253	0xbf941e7b	-1.1571802
254	0xbeb2cc51	-0.34921506
255	0x3ef43228	0.47694516

fc3.bias f4 [30]
0	0x3e30f4fe	0.17280957
1	0x3ec82ddb	0.39097485
2	0x3ee2a3d0	0.44265604
3	0x3edc8ffe	0.43078607
4	0x3ea8a696	0.32939595
5	0x3ed3a6b9	0.41338137
6	0xbbe350c0	-0.0069371164
7	0x3e8dc419	0.27688673
8	0xbc91be86	-0.017791044
9	0x3e872f91	0.26403478
10	0x3e6009bc	0.21878713
11	0x3ea2848e	0.31741756
12	0x3d87fa54	0.06639543
13	0x3d254281	0.040346626
14	0x3dbe2d36	0.09285967
15	0x3e911fe2	0.28344637
16	0x3c1c60c9	0.00954456
17	0x3eca1018	0.39465404
18	0x3d7ddabd	0.061976183
19	0x3e3fbee2	0.1872516
20	0xbc695927	-0.014242447
21	0x3ec33b27	0.38131067
22	0xbd67f9e6	-0.056634806
23	0x3eccb271	0.3997989
24	0xbcf4a47f	-0.029863594
25	0xbd5a07d4	-0.05323012
26	0x3da4da45	0.08049444
27	0x3e86d228	0.26332211
28	0x3a07c5e9	0.0005179332
29	0x3e70892e	0.2348983
