CaseModels/02 30-Bus/_BaseModel_MAG.pth (torch, 12625 bytes, 7 tensors)

bias f4 [30]
0	0x3f05be16	0.52243173
1	0x3f0b0398	0.5430236
2	0x3e865b02	0.26241308
3	0x3d76a53b	0.06021617
4	0x3f105ada	0.5638863
5	0x3ea645e2	0.3247519
6	0x3ea8c3a7	0.3296177
7	0x3ed9f3f1	0.42568925
8	0x3e9c99e2	0.30586153
9	0x3e7762fa	0.2415885
10	0x3f160fe8	0.5861802
11	0x3e2d1431	0.16902234
12	0x3eecfa4f	0.4628472
13	0x3d57ae8c	0.052656695
14	0x3e141f7d	0.14465137
15	0x3e81e8f4	0.25373042
16	0x3e0f9343	0.1402102
17	0x3d6277c5	0.055290002
18	0xbda2e02b	-0.07952913
19	0x3cb54c48	0.0221311
20	0x3eaf71ba	0.34266454
21	0x3ea9b5d2	0.3314653
22	0x3e496ce6	0.19670448
23	0x3e9500b2	0.29102093
24	0x3d6e266e	0.05814212
25	0x3e44232d	0.19154043
26	0x3e9901e7	0.29884264
27	0x3eb816ba	0.3595484
28	0x3e68fa3d	0.22751708
29	0xbc6275e7	-0.013822055

fc1.weight f4 [24, 72]
0	0x3d65a8b4	0.05606909
1	0x3d85c23e	0.065311894
2	0x3cd5e872	0.026111815
3	0xbca834b6	-0.020532947
4	0x3ca8c2c8	0.020600691
5	0x3d6d4d9f	0.057935353
6	0xbcff0f46	-0.031135213
7	0x3def8fe3	0.11697366
8	0x3da9edc4	0.08297303
9	0x3d4f2145	0.050568838
10	0x3cf633c0	0.030053973
11	0x3ba5a946	0.0050555794
12	0xbc58b097	-0.013225696
13	0x3dd171a2	0.10226752
14	0x3dc421b9	0.095767446
15	0xbd2b7667	-0.041860964
16	0x3d4510a3	0.04811157
17	0xbc2ae569	-0.010430672
18	0x3ebeef9a	0.37292176
19	0x3ebfa88b	0.37433276
20	0x3ece0e70	0.4024539
21	0x3d915a26	0.070972726
22	0x3df19fbd	0.11798046
23	0x3e00634f	0.12537883
24	0xbdb2fc62	-0.087395445
25	0x3d969cd5	0.07354132
26	0x3bdd62c3	0.006756158
27	0x3cd03628	0.025416449
28	0x3e4b657b	0.1986293
29	0x3dafe041	0.08587695
30	0x3dc8d709	0.0980664
31	0x3da26500	0.079294205
32	0x3cb7b182	0.02242351
33	0x3e160845	0.14651592
34	0xbc13338e	-0.00898446
35	0x3db21ff2	0.08697499
36	0x3d125696	0.035727106
37	0x3e267ad4	0.16257793
38	0x3de91337	0.11380618
39	0x3e6a6aea	0.22892347
40	0x3eaf6a8c	0.34260976
41	0x3ea13cfe	0.31491846
42	0x3e1b6d2d	0.15178366
43	0xbecbae81	-0.39781573
44	0xbdab7028	-0.083710015
45	0xbc8e04fc	-0.017336361
46	0xbc9c6428	-0.019090727
47	0x3d9ea7c5	0.07746843
48	0xbda3af06	-0.079923674
49	0xbc9c2a58	-0.01906316
50	0x3cf9e134	0.030502893
51	0x3cbf7684	0.023371942
52	0x3dbf72bf	0.09348058
53	0x3d26afc2	0.04069496
54	0xbddd742d	-0.108131744
55	0xbc2e32c0	-0.010632217
56	0xbdbcffd2	-0.09228481
57	0x3d9c3895	0.0762798
58	0xbdeb42fb	-0.11487385
59	0x3d5d9356	0.05409559
60	0x3d30fc36	0.043209277
61	0x3d10648e	0.035252146
62	0xbd30eaac	-0.04319255
63	0x3c493c98	0.012282513
64	0xbd8af80c	-0.067855924
65	0x3de93003	0.11386111
66	0xbdc21352	-0.09476341
67	0xbd5c0e86	-0.053724788
68	0xbd024f2e	-0.031813793
69	0xbda9b928	-0.08287269
70	0x3d1752ea	0.036944307
71	0x3d754a7e	0.059885494
72	0x3d889109	0.06668288
73	0xbd169864	-0.036766425
74	0xbbb02007	-0.0053749117
75	0xbc8b841f	-0.017030774
76	0x3cb8aebf	0.022544263
77	0xbd1fb47a	-0.038990475
78	0xbdf8b054	-0.12143007
79	0xbcd17587	-0.025568737
80	0x3d7b5c20	0.061367154
81	0x3dca7187	0.09884935
82	0x3d97023d	0.07373474
83	0xbdb01e7e	-0.08599566
84	0x3d58ce20	0.05293095
85	0x3d9dde0c	0.07708368
86	0xbcd6d8ff	-0.026226519
87	0xbdd16cd5	-0.10225836
88	0xbcc3911f	-0.02387291
89	0xbbe71286	-0.0070517687
90	0xbc0b87a7	-0.008516229
91	0xbdd944c1	-0.10608817
92	0x3d4029c9	0.04691485
93	0x3d26cb2a	0.040721096
94	0xbdbea161	-0.09308124
95	0x3d0be8f2	0.0341577
96	0xbd642373	-0.05569787
97	0x3dca265d	0.098705985
98	0x3c86351e	0.01638275
99	0xbd9f0bc4	-0.07765916
100	0x3d5571c3	0.052110445
101	0xbde33e64	-0.110958844
102	0xbdf029e5	-0.11726741
103	0x3cf75099	0.0301898
104	0xbdefa31f	-0.11701035
105	0xbdf514f8	-0.1196689
106	0xbc6a6f1d	-0.014308718
107	0xbd3314da	-0.043721057
108	0xbd9b13cf	-0.075721376
109	0x3d9167a9	0.0709985
110	0xbdbb294a	-0.09138735
111	0xbd4f5412	-0.050617285
112	0x3d71287a	0.058876492
113	0x3d935eb9	0.07195801
114	0xbd465352	-0.048419304
115	0xbdf5b62d	-0.11997638
116	0x3c71a158	0.01474794
117	0x3cd8800c	0.026428245
118	0x3d9679af	0.07347428
119	0xbd7d3c5c	-0.06182514
120	0x3d18abf2	0.037273355
121	0x3d18bcc6	0.037289403
122	0xbda349b4	-0.07973042
123	0x3b8a6d00	0.0042244196
124	0x3dca98cd	0.09892426
125	0x3de3ab65	0.11116675
126	0x3ced5ffc	0.028976433
127	0xbda4f3aa	-0.08054288
128	0x3dba3457	0.09092014
129	0xbde3f8f5	-0.11131469
130	0x3d80bed1	0.06286395
131	0x3dde551d	0.10856078
132	0x3db4e681	0.08833028
133	0xbd3f83ae	-0.04675644
134	0xbd75093d	-0.059823263
135	0x3d947be5	0.072501935
136	0x3d8b21bf	0.06793546
137	0x3db50be3	0.08840158
138	0x3db2a693	0.08723178
139	0x3d673ba6	0.05645337
140	0x3dc739a5	0.09727792
141	0xbddec0fb	-0.10876652
142	0x3ddc4185	0.10754684
143	0xbbf62bd0	-0.007512547
144	0x3dce81fb	0.100833856
145	0xbd5ceffc	-0.053939804
146	0x3d34f0ba	0.044174887
147	0xbca3b4dc	-0.019983701
148	0xbdc1d138	-0.094637334
149	0xbcffcc38	-0.031225309
150	0x3df0fa6d	0.11766515
151	0xbde5e6fb	-0.11225697
152	0xbd6085bc	-0.05481504
153	0xbdf14664	-0.11781004
154	0x3c4a29a8	0.012339033
155	0x3c717618	0.014737628
156	0xbd15929a	-0.036516763
157	0x3daabc35	0.08336679
158	0x3c784c38	0.015154891
159	0x3d8f48fb	0.06996342
160	0xbd934f02	-0.07192804
161	0x3d3e819e	0.04651033
162	0xbcb87574	-0.022516944
163	0x3cd9e244	0.02659715
164	0x3d759252	0.059953995
165	0xbdc61bd0	-0.096732736
166	0x3d3c7dde	0.046018474
167	0xbd4d7028	-0.05015579
168	0x3dbcd9e9	0.092212506
169	0xbdc1c4b8	-0.09461349
170	0x3dd211e3	0.10257318
171	0xbd6c270a	-0.057654418
172	0xbd8a63ce	-0.067573175
173	0xbcf0503c	-0.029335134
174	0x3d9cea3d	0.07661865
175	0x3d095d66	0.033536337
176	0xbda7c55c	-0.0819194
177	0xbce62c5c	-0.028097324
178	0x39eed500	0.00045553595
179	0x3dbf5459	0.0934226
180	0xbd2741a0	-0.04083407
181	0x3d2e542a	0.042560734
182	0x3d6d6b06	0.057963394
183	0xbd5ab506	-0.053395294
184	0xbddbb13c	-0.10727164
185	0xbd2b27a2	-0.041785844
186	0xbdee2329	-0.116278
187	0x3d80cf1b	0.06289502
188	0xbd9e0acd	-0.07716904
189	0xbca8b164	-0.020592399
190	0xbc20d6a8	-0.009816803
191	0xbde0117b	-0.10940834
192	0x3dd7ef5b	0.105437
193	0xbdc9f7d5	-0.09861723
194	0xbbe8aed0	-0.0071009174
195	0x3d0ba4ce	0.034092717
196	0xbda1aeae	-0.07894646
197	0x3d7c48ea	0.061592974
198	0x3d8385ed	0.06422029
199	0xbd25b5fa	-0.04045675
200	0x3dbb2a4b	0.09138926
201	0x3cefa844	0.02925504
202	0x3d3184c6	0.043339513
203	0xbdd4d1a6	-0.1039155
204	0x3dbc918b	0.092074476
205	0x3dafd893	0.0858623
206	0x3d18617e	0.03720235
207	0x3d6df9b6	0.05809947
208	0x3d04329e	0.032274835
209	0xbde0c383	-0.10974791
210	0xbdc1cce3	-0.09462907
211	0x3d946e93	0.07247653
212	0x3ca77c4c	0.020445012
213	0xbd4a8100	-0.04943943
214	0x3d58800e	0.052856497
215	0x3bea3410	0.0071473196
216	0xbd8dc2df	-0.06921934
217	0xbda2e2d6	-0.07953422
218	0xbd389b6c	-0.045070097
219	0xbdce7d21	-0.1008246
220	0xbd82c56f	-0.06385314
221	0xbde22c65	-0.11043624
222	0x3d403c4e	0.04693251
223	0x3c146a98	0.009058617
224	0xbd5dd1ec	-0.054155275
225	0x3d815bdb	0.06316348
226	0xbc20b068	-0.0098076835
227	0xbbf3d450	-0.007441081
228	0x3dab9dad	0.08379684
229	0x3d7d22d6	0.0618008
230	0xbdd92871	-0.10603417
231	0xbdb1d51e	-0.08683227
232	0x3dd534ff	0.10410499
233	0x3d609462	0.05482901
234	0x3db6d373	0.089270495
235	0x3d648fbe	0.055801146
236	0x3cc74f2c	0.024329744
237	0xbdb5c31a	-0.08875103
238	0xbce7b1f0	-0.02828309
239	0xbd0e5a32	-0.034753986
240	0x3dd94efb	0.106107675
241	0x3d97ab05	0.07405666
242	0xbd76a319	-0.060214136
243	0xbc93dfe8	-0.018051103
244	0x3d88498b	0.06654652
245	0x3c9e4f94	0.019325055
246	0x3ded9d19	0.116022296
247	0x3dcaa26b	0.0989426
248	0x3d643a7e	0.055719845
249	0x3dd4453d	0.10364769
250	0x3d91f4e1	0.07126785
251	0xbdee2e43	-0.116299175
252	0xbdd023f9	-0.10163111
253	0xbcb9c9a8	-0.022679165
254	0xbdb88a8c	-0.09010801
255	0xbd05639a	-0.03256569

fc1.bias f4 [24]
0	0xbe99f588	-0.30070138
1	0x3db64d18	0.08901423
2	0xbdaa5e64	-0.08318785
3	0xbdad6786	-0.08467011
4	0xbe831474	-0.25601542
5	0x3e911da2	0.2834292
6	0x3cfe47d6	0.031040113
7	0x3eeefd72	0.46677738
8	0x3ec4aff5	0.38415495
9	0xbeb3d257	-0.35121414
10	0x3e826afe	0.25472254
11	0xbe75dee8	-0.24010813
12	0xbda7fcfc	-0.0820255
13	0xbd2dcf84	-0.04243423
14	0x3d878a4d	0.06618176
15	0xbdacc9ec	-0.08436951
16	0xbe193604	-0.14962012
17	0x3eb079ec	0.3446802
18	0x3e881416	0.26577824
19	0x3c7bb66f	0.01536332
20	0x3e8779f2	0.26460224
21	0x3e8ab1d7	0.27088806
22	0xbdb3267f	-0.08747577
23	0x3ec0432d	0.3755125

fc2.weight f4 [12, 24]
0	0xbd7a4699	-0.061102483
1	0xbd1a0aec	-0.037608072
2	0x3c2df590	0.010617629
3	0x3d8fe390	0.07025826
4	0x3e406317	0.187878
5	0x3d4bc269	0.04974595
6	0x3da2942e	0.07938419
7	0xbe108a0a	-0.14115158
8	0x3e2a238a	0.1661512
9	0x3dc04a5e	0.093891844
10	0xbd17cb67	-0.037059214
11	0x3d8679b5	0.065661825
12	0xbbc16ea0	-0.00590308
13	0xbe137aab	-0.14402263
14	0x3da561c4	0.08075288
15	0xbc8fda20	-0.017560065
16	0xbd6687ff	-0.05628204
17	0x3cf0f571	0.02941391
18	0x3d4ec9a8	0.050485283
19	0xbe395c33	-0.18101577
20	0xbd8258e5	-0.063646115
21	0x3cda9b07	0.02668525
22	0xbe1ed3ad	-0.15510435
23	0xbe4e44c6	-0.20143422
24	0xbe405a2d	-0.187844
25	0xbe1cefa7	-0.15325795
26	0xbe4053a4	-0.18781906
27	0x3e25723e	0.16156861
28	0xbe38f55f	-0.18062352
29	0xbdcef79d	-0.10105822
30	0xbe1183d1	-0.1421044
31	0xbe3d0988	-0.18460667
32	0xbd9eede0	-0.07760215
33	0xbe414b2c	-0.18876332
34	0xbdf31d5a	-0.11870833
35	0xbe0404b4	-0.12892419
36	0x3da5c510	0.08094227
37	0x3e001598	0.12508237
38	0xbd6c8460	-0.05774343
39	0xbe39f913	-0.1816142
40	0x3e1faf46	0.15594205
41	0xbe43ef53	-0.19134264
42	0xbd961622	-0.0732844
43	0x3e4a06a6	0.19729099
44	0xbd28dfd8	-0.0412291
45	0x3e08373e	0.13302323
46	0x3d2d8b6c	0.04236929
47	0x3e23e03e	0.1600351
48	0xbdfe47a0	-0.12416005
49	0x3d50fa30	0.051019847
50	0x3e05f05a	0.13079968
51	0x3e475a5c	0.19468063
52	0xbc8ec72f	-0.017428963
53	0x3e02b6e8	0.12765086
54	0xbe3f38a2	-0.18673947
55	0x3d7e92c8	0.0621517
56	0x3e2609a7	0.1621462
57	0xbc6cbdc4	-0.0144495405
58	0xbe6a5d1c	-0.22887081
59	0xbe49fecb	-0.19726102
60	0x3d883ef4	0.06652632
61	0x3d41af18	0.047286123
62	0x3d1afc2c	0.037838146
63	0xbe28524a	-0.16437641
64	0x3df27ebf	0.11840581
65	0xbd946d2c	-0.072473854
66	0x3d142025	0.036163468
67	0x3d73fa0d	0.05956464
68	0x3de811b4	0.113315016
69	0x3c987ab1	0.018613191
70	0xbc80b1c8	-0.015709773
71	0x3c6e8b4b	0.014559577
72	0x3d3f3c90	0.046688616
73	0xbc80ba90	-0.01571396
74	0xbd2466dc	-0.040137157
75	0xbda908bd	-0.0825362
76	0xbde977e8	-0.113998234
77	0xbd07ac18	-0.033123106
78	0xbde3bba6	-0.111197755
79	0x3d8a165b	0.06742545
80	0xbbf8aec3	-0.0075891926
81	0xbe29142d	-0.16511603
82	0xbe540139	-0.20703591
83	0x3e137809	0.14401259
84	0xbe38b829	-0.18039002
85	0xbd36673c	-0.044532046
86	0xbc28c230	-0.010300204
87	0x3dc1a46c	0.09455189
88	0x3e07dad0	0.13267064
89	0x3a58a266	0.00082639453
90	0xbcb04e22	-0.021521632
91	0xbd324f5a	-0.043532707
92	0x3de56902	0.11201669
93	0xbdc3ab20	-0.09554124
94	0xbb947120	-0.004530087
95	0x3e0eff4a	0.13964573
96	0xbecc42dd	-0.39894763
97	0x3d6af8e1	0.057366256
98	0x3ded7a9c	0.115956515
99	0x3e011de6	0.12609062
100	0xbe97e6e8	-0.29668355
101	0x3e61013b	0.21973126
102	0x3ba9d2df	0.0051826085
103	0x3e7bc664	0.24587399
104	0xbed516aa	-0.41618854
105	0xbf111d04	-0.566849
106	0x3ab41a15	0.0013740683
107	0xbe185a1b	-0.14878123
108	0xbe026d9e	-0.12737128
109	0x3e2ad3c8	0.1668235
110	0xbd6660c0	-0.05624461
111	0x3c95edd0	0.018301874
112	0x3eba3d13	0.3637472
113	0x3e5daec0	0.21648693
114	0x3cc90742	0.024539594
115	0x3e404551	0.18776442
116	0x3e3435be	0.17598626
117	0xbd9fb41c	-0.07798025
118	0x3da314dc	0.07962963
119	0x3e373654	0.17891818
120	0xbda29f71	-0.07940567
121	0xbe08e890	-0.13369966
122	0x3e2705ba	0.16310778
123	0xbd501cbc	-0.050808653
124	0xbe365cca	-0.17808834
125	0x3e4a30c5	0.19745167
126	0xbe2b6ae6	-0.16739997
127	0x3d9cd356	0.07657497
128	0xbdc82404	-0.097724944
129	0xbe855b05	-0.26046005
130	0x3e5abf2f	0.21361993
131	0x3cf1e09c	0.029526047
132	0x3d1e0868	0.038582236
133	0x3e4b80e8	0.19873393
134	0xbda05df2	-0.07830419
135	0x3dd80bac	0.10549101
136	0xbe591c2d	-0.21202154
137	0xbe1d7ad9	-0.15378894
138	0x3e4f79a5	0.20261247
139	0xbe3307fb	-0.17483513
140	0x3e025745	0.12728603
141	0x3de3fc92	0.11132158
142	0xbc8081f0	-0.015686959
143	0x3df3e8df	0.11909651
144	0xbe381f4d	-0.1798069
145	0xbcb7b1c1	-0.022423627
146	0x3d41c610	0.047308028
147	0x3dd872cc	0.10568771
148	0xbbc16939	-0.005902436
149	0x3d44331f	0.047900315
150	0xbdf99965	-0.12187461
151	0x3d8618f9	0.06547732
152	0xbdf296f4	-0.11845198
153	0xbdcb710b	-0.099336706
154	0x3e76413b	0.24048321
155	0xbebb3954	-0.36567175
156	0xba00ae00	-0.00049087405
157	0x3ca46fe8	0.020072892
158	0xbe216c4f	-0.15763973
159	0xbd32419c	-0.0435196
160	0xbe893783	-0.26800165
161	0x3e8df4f4	0.27725947
162	0x3e080bcc	0.1328575
163	0x3c1c36fe	0.0095345955
164	0x3e826e74	0.25474894
165	0xbdb32b12	-0.087484494
166	0xbd60b164	-0.054856673
167	0x3e37ad32	0.17937163
168	0xbcee241d	-0.029069955
169	0x3d2bdb4a	0.041957177
170	0xbe4bbb28	-0.19895613
171	0x3d944564	0.07239798
172	0xbe37973d	-0.17928787
173	0xbe098c37	-0.13432394
174	0xbd2941f9	-0.041322682
175	0xbcdac06b	-0.02670308
176	0xbdbdd827	-0.092697434
177	0xbe1bbbcc	-0.15208358
178	0xbd9ed5fe	-0.077556595
179	0xbd8019f2	-0.06254949
180	0xbdbd8a33	-0.09254875
181	0xbd42e6f4	-0.047583535
182	0xbdff41db	-0.12463733
183	0x3d45c988	0.0482879
184	0xbe28d35c	-0.16486877
185	0x3dcbf03a	0.09957929
186	0xbe2950f4	-0.16534787
187	0xbc86f821	-0.016475739
188	0xbcbffc61	-0.023435773
189	0x3e127f46	0.14306363
190	0x3da00560	0.07813525
191	0xbdae2f1e	-0.08505081
192	0xbe1d1082	-0.15338328
193	0x3d61bd80	0.055112362
194	0x3e1e86e2	0.15481141
195	0x3e1dd850	0.15414548
196	0x3bedcf40	0.007257372
197	0xbe0ad337	-0.13557135
198	0xbd281a88	-0.041040927
199	0xbdf9fb3b	-0.122061215
200	0x3e2a76fa	0.16646948
201	0x3cdf7d48	0.027281418
202	0xbdba5690	-0.09098542
203	0xbd2956e4	-0.04134263
204	0xbcdff608	-0.027338997
205	0x3c6ea380	0.014565349
206	0x3c823e90	0.015898973
207	0x3e49d944	0.19711787
208	0x3e2642e0	0.16236448
209	0xbe0e1178	-0.13873851
210	0x3e3f8c70	0.18705916
211	0x3e046084	0.12927443
212	0x3de76278	0.11298078
213	0xbd99865c	-0.0749633
214	0xbe391ace	-0.18076631
215	0xbccefc08	-0.025266662
216	0xbeda1e46	-0.42601222
217	0xbd4230ad	-0.047409702
218	0x3d91b3e8	0.071143925
219	0x3d7d2da0	0.06181109
220	0xbe8bd874	-0.27313578
221	0x3e8855c6	0.2662794
222	0xbe23e2e0	-0.16004515
223	0x3d01d63e	0.031698458
224	0xbce10262	-0.027466957
225	0xbd602254	-0.054720238
226	0x3d80589b	0.062669
227	0xbe0edd9e	-0.13951728
228	0x3de1b97c	0.110217065
229	0x3ddd7ce4	0.108148366
230	0xbe40cfcf	-0.18829273
231	0x3e0b03e4	0.13575703
232	0xbe619291	-0.22028567
233	0x3e74c412	0.2390292
234	0xbdb964de	-0.09052442
235	0x3d9f8806	0.07789616
236	0x3e82cab8	0.25545287
237	0x3e70d857	0.23520027
238	0x3cecf820	0.028926909
239	0x3ea499cd	0.3214859
240	0x3cd6e0e1	0.026230277
241	0xbe030f8f	-0.12798904
242	0x3e440a22	0.1914449
243	0x3caf2600	0.021380424
244	0xbe7d6eaf	-0.24749254
245	0x3c19efa6	0.009395516
246	0x3d77635c	0.06039749
247	0x3d9055eb	0.070476376
248	0xbea67a42	-0.3251515
249	0xbe9aff15	-0.30272737
250	0x3e2954c5	0.16536243
251	0xbe70cb1f	-0.23514985
252	0xbda1d04e	-0.07901059
253	0xbc3be8f0	-0.011469111
254	0x3d462c50	0.048382103
255	0xbd4a5fe4	-0.049407855

fc2.bias f4 [12]
0	0xbe524a8f	-0.20536254
1	0xbd6dacd0	-0.058026135
2	0xbe0aa950	-0.1354115
3	0xbdb0dd9c	-0.08636019
4	0x3ee85ab5	0.45381704
5	0x3ec611f7	0.3868558
6	0x3e6a660d	0.22890492
7	0x3db9f7d2	0.09080471
8	0xbda7d159	-0.08194227
9	0x3f054dc2	0.52071774
10	0x3ec15570	0.37760496
11	0xbe4a782b	-0.19772403

fc3.weight f4 [30, 12]
0	0xbe61fa60	-0.22068167
1	0xbe24cfad	-0.16094847
2	0x3e841758	0.2579906
3	0xbe6da7d6	-0.23208556
4	0x376485d2	1.36210165e-05
5	0x3805a1e8	3.1860458e-05
6	0x37fbb2a6	3.0004721e-05
7	0xbe6b7d17	-0.22996937
8	0x3e91240a	0.28347808
9	0xb788693f	-1.6261472e-05
10	0xb6899637	-4.1004055e-06
11	0x3dc43180	0.09579754
12	0x3dae16e0	0.08500457
13	0xbdc2e63c	-0.0951657
14	0x3e8be189	0.27320507
15	0x3e445e0d	0.19176503
16	0xb800cd98	-3.0709052e-05
17	0xb7c95b6e	-2.4003642e-05
18	0x37d1c3ef	2.500598e-05
19	0xbd5bdd6d	-0.053677965
20	0xbe45f1c3	-0.19330506
21	0x37e5e729	2.740657e-05
22	0xb8baf3c2	-8.9145746e-05
23	0x3e3b6bcc	0.1830284
24	0xbe009302	-0.12556079
25	0xbe915bf5	-0.2839047
26	0xbe1715c8	-0.14754403
27	0x3e2b051d	0.1670117
28	0xbd105b83	-0.035243522
29	0xbdef9a8f	-0.116994016
30	0xbca7e40e	-0.020494487
31	0xbca2dbe3	-0.01988024
32	0x3e6578b8	0.22409332
33	0x3efb010f	0.49024245
34	0x3e5ded86	0.21672639
35	0xbe3d3f11	-0.18481089
36	0xbdff7310	-0.12473118
37	0x3c925eb0	0.017867416
38	0x3e5cf0e1	0.21576263
39	0xbe3eb80d	-0.18624897
40	0xbc92cca4	-0.017919846
41	0xbda3c34f	-0.079962365
42	0xbbf2fdb9	-0.0074155
43	0xbd825c66	-0.0636528
44	0xbe6acaf6	-0.22928986
45	0x3ed14c15	0.40878358
46	0x3e4a1cdc	0.19737571
47	0x3e171c6a	0.14756933
48	0x3e937b01	0.28804782
49	0xbe8d9811	-0.2765508
50	0x3e874248	0.26417756
51	0xbdce138f	-0.10062324
52	0x37a75f43	1.9952311e-05
53	0x38f492c4	0.00011662164
54	0xb935cb76	-0.000173373
55	0xbe43fed9	-0.19140185
56	0x3d0397d0	0.0321272
57	0x37abc1cc	2.0475032e-05
58	0xb7e2e606	-2.7048412e-05
59	0x3e4ff4dc	0.2030825
60	0xbe5d68e4	-0.21622044
61	0xbd2b4940	-0.041817904
62	0xbe0da10d	-0.13830967
63	0x3e3d18aa	0.1846644
64	0xb8889ff7	-6.514781e-05
65	0xbd5450b0	-0.051834762
66	0xbc9129d6	-0.017720144
67	0xbda507e0	-0.08058143
68	0x3d14ada0	0.036298394
69	0x3e7c683f	0.24649142
70	0x3e125122	0.14288762
71	0xbe077fcf	-0.13232349
72	0x3e2e3288	0.17011464
73	0xbe32e239	-0.1746911
74	0x3dcacd13	0.09902396
75	0xbdd209d3	-0.1025578
76	0xbd4daa92	-0.050211497
77	0xbe2e78c3	-0.17038254
78	0xbd6900e5	-0.05688562
79	0xbdc62223	-0.0967448
80	0x3c52d5c0	0.012868345
81	0x3ed753c0	0.42056084
82	0x3e34b94a	0.17648807
83	0xbd9659f0	-0.07341373
84	0xbddd5b2e	-0.10808407
85	0xbe8cf4f8	-0.27530646
86	0xbe681566	-0.22664413
87	0xbe5284d9	-0.2055849
88	0xb63fb1cd	-2.8564712e-06
89	0xb72f264c	-1.04397295e-05
90	0xb70b70fc	-8.311352e-06
91	0x3d567017	0.05235299
92	0xbe336abd	-0.17521186
93	0x367aae2c	3.7354284e-06
94	0x367cff8f	3.769968e-06
95	0xbd03c8e0	-0.03217399
96	0xbe0370d7	-0.12836014
97	0x3dce31b4	0.10068074
98	0x3d56502c	0.05232255
99	0xbdff0629	-0.12452347
100	0x3d6390a8	0.055557877
101	0x3d52eba9	0.051494274
102	0xbc040eca	-0.008060167
103	0xbdf7a3ff	-0.12091827
104	0x3e060ab2	0.13090017
105	0x3d3e4ec2	0.046461828
106	0x3e721637	0.23641287
107	0xbe683eb3	-0.22680168
108	0x3e6bd30c	0.23029727
109	0x3e37340a	0.17890945
110	0xbd9f4b1f	-0.07778
111	0x3c62f4b4	0.013852287
112	0x3dd42706	0.10359006
113	0x3de33ee5	0.110959806
114	0xbc5f698e	-0.013636006
115	0xbe72fd19	-0.23729362
116	0xbe898e0d	-0.2686619
117	0xbcbb154b	-0.022837302
118	0x3ec71809	0.38885525
119	0x3dfe5018	0.124176204
120	0x3d09f410	0.03368002
121	0xbe6a7e31	-0.228997
122	0xbe76db6f	-0.24107145
123	0x3acb6f3e	0.0015520824
124	0xb7a64a00	-1.9823201e-05
125	0xb6d25142	-6.2679474e-06
126	0x362082c3	2.3917971e-06
127	0x3de81312	0.113317624
128	0x3df6c490	0.1204921
129	0x389d530c	7.501812e-05
130	0x3831a8d2	4.2357315e-05
131	0xbc0653c0	-0.0081986785
132	0xbe2ec36d	-0.17066737
133	0xbe91fd99	-0.28513792
134	0xbd6987b3	-0.05701418
135	0xbe024659	-0.12722148
136	0x3ceebfbd	0.029144162
137	0x3d88a663	0.06672361
138	0x3dc4bf17	0.0960676
139	0xbdcb565f	-0.09928583
140	0xbda23098	-0.07919425
141	0x3e74e3e4	0.23915058
142	0x3e26215d	0.16223665
143	0x3d88236c	0.06647381
144	0xbd787099	-0.060654256
145	0x3e542782	0.20718196
146	0xbe820532	-0.2539459
147	0xbe5156af	-0.20443223
148	0x368fd142	4.286093e-06
149	0x3809f6dd	3.2893255e-05
150	0x372130cc	9.607709e-06
151	0xbd198bbd	-0.03748678
152	0x3e4c5af8	0.19956577
153	0xb797cbbf	-1.809548e-05
154	0xb71595de	-8.915986e-06
155	0x3dc68d40	0.0969491
156	0x3d928fec	0.07156357
157	0xbb8e8d80	-0.004350364
158	0xbe1f556e	-0.15559933
159	0x3d9a4db1	0.0753435
160	0x3d4de354	0.050265625
161	0x3dfd21fd	0.123599984
162	0x3e37822f	0.17920755
163	0x3d00699a	0.03135071
164	0xbe83e1f2	-0.2575832
165	0x3e9b52c7	0.30336592
166	0x3e3512b8	0.17682922
167	0x3e9143f6	0.28372163
168	0x3e8894de	0.26676077
169	0x3e91b66c	0.2845949
170	0x3e2b4e5c	0.1672911
171	0xbdb0677b	-0.08613487
172	0x3db13f5b	0.08654662
173	0x3e424730	0.18972468
174	0x3e4f17a7	0.20223866
175	0xbca85bc8	-0.020551577
176	0xbddcca04	-0.10780719
177	0x3e5da645	0.21645458
178	0x3e4557c5	0.19271763
179	0xbd9d8626	-0.076916024
180	0xbd27a702	-0.040930755
181	0xbe456c44	-0.19279581
182	0xbe160d63	-0.14653544
183	0x3e780963	0.24222331
184	0x3d7d7fbe	0.061889403
185	0x3db3991d	0.087694384
186	0x3d0093ed	0.031391073
187	0xbe530361	-0.20606758
188	0xbdaf23f4	-0.085517794
189	0x3e1593a0	0.14607096
190	0x3e9dcfb6	0.30822533
191	0x3dce2710	0.10066044
192	0x3d608550	0.054814637
193	0xb9c3f000	-0.00037372112
194	0xbe72774e	-0.23678324
195	0x3e5414d0	0.20711064
196	0x3db74d95	0.089503445
197	0x3de51e5c	0.11187431
198	0xbc403cf1	-0.01173328
199	0x3d356c3d	0.044292677
200	0x3e3a7eaa	0.18212381
201	0x3d1d660c	0.038427398
202	0x3ecdab8d	0.40169945
203	0xbd6f28f8	-0.05838868
204	0xbe87e0d6	-0.26538724
205	0x3e123552	0.14278153
206	0xbe00cce3	-0.12578158
207	0xbdc64794	-0.09681621
208	0x3df2206f	0.118225925
209	0x3ed29bf7	0.41134617
210	0x3e987475	0.2977635
211	0xbe1fd6a4	-0.15609223
212	0xbd83e4fe	-0.06440161
213	0x3e144c1c	0.14482158
214	0x3e30c944	0.17264277
215	0x3c159f40	0.009132206
216	0x3e717c3e	0.23582551
217	0x3e91ed58	0.2850139
218	0xbda02961	-0.078203924
219	0xbd685924	-0.056725636
220	0x3e089759	0.13338985
221	0x3f024c91	0.5089808
222	0x3ea5ba42	0.32368666
223	0x3e312b19	0.17301597
224	0xbe3cef2a	-0.18450609
225	0x3daa014e	0.0830103
226	0x3e308edb	0.17241995
227	0x3dac2408	0.0840531
228	0xbbb90c23	-0.0056471988
229	0x3dce4cf4	0.100732714
230	0x3e10de53	0.1414731
231	0xbe98096a	-0.29694682
232	0x3e00b1f7	0.12567888
233	0x3ed54360	0.41652966
234	0x3e7d4164	0.24731976
235	0xbd0a7cab	-0.0338103
236	0x3e2cc4d4	0.16871959
237	0x3d88cf84	0.066802055
238	0x3e65947c	0.22419924
239	0xbd885070	-0.06655967
240	0xbe3fbedb	-0.1872515
241	0x3e53b4b2	0.20674399
242	0xbe2ce647	-0.16884719
243	0x3e5e702c	0.21722478
244	0x3e1a05a4	0.15041214
245	0x3de027e6	0.1094511
246	0xbd9bed4d	-0.07613621
247	0x3e5aaec0	0.21355724
248	0x3dbbf12c	0.09176859
249	0xbe2c70c4	-0.16839892
250	0x3f08cbd9	0.53436047
251	0x3df2d4dc	0.11857006
252	0xbd2d22b3	-0.04226942
253	0x3e2f476c	0.17117089
254	0x3d22ff8a	0.039794482
255	0x3e020224	0.12696129

fc3.bias f4 [30]
0	0x3f099a8e	0.53751457
1	0x3f000f75	0.50023586
2	0xbbe392df	-0.0069449986
3	0x3e848b3a	0.2588747
4	0x3ee472ab	0.44618735
5	0x3e800e9e	0.25011152
6	0x3e1a0c09	0.15043654
7	0x3f159580	0.58431244
8	0x3eb969a0	0.36213398
9	0x3e922e6c	0.28551042
10	0x3efdcf9e	0.49572462
11	0x3e45b2e1	0.19306518
12	0x3f1bafb5	0.6081498
13	0x3cadce79	0.021216618
14	0xbda7b42a	-0.081886604
15	0x3de60ddc	0.11233112
16	0x3e94ca3c	0.29060543
17	0xbe588983	-0.21146207
18	0xbdf1c28d	-0.11804686
19	0xbd89a6d1	-0.06721271
20	0x3e8ce4fc	0.2751845
21	0x3e809c24	0.25119126
22	0xbd92ccd0	-0.07167971
23	0x3d35a1ed	0.044343878
24	0x3e8dc6d4	0.27690756
25	0xbd07f9cb	-0.033197206
26	0x3dd75ab5	0.10515348
27	0x3e87b1e4	0.26502907
28	0x3cd6dcf4	0.026228406
29	0x3e77b184	0.2418881
