CaseModels/02 30-Bus/_baseModel_vang.pth (torch, 12700 bytes, 7 tensors)

bias f4 [30]
-0.016362643 0.07941713 0.094937496 -0.14906245 -0.08836331 -0.006406504 0.08266213 -0.06989971
-0.14862992 -0.10016549 -0.08390397 -0.037151 -0.09435556 -0.05141905 0.0009162659 0.06369806
-0.1500115 0.05847799 0.029111 -0.12001838 -0.021769667 0.057286352 -0.013306089 -0.18508755
-0.02411927 -0.12243708 -0.059730574 -0.040213175 -0.010731577 -0.010447936
00000000: f30a 86bc 73a5 a23d 976e c23d d4a3 18be
00000010: d3f7 b4bd a7ed d1bb c34a a93d 9427 8fbd
00000020: 7132 18be 9023 cdbd d8d5 abbd a62b 18bd
00000030: 7d3d c1bd c89c 52bd 9031 703a 2174 823d
00000040: 9d9c 19be 9e86 6f3d 317a ee3c 32cc f5bd
00000050: 4d56 b2bc 18a5 6a3d c801 5abc 9787 3dbe
00000060: c695 c5bc 4bc0 fabd 0ca8 74bd 92b6 24bd
00000070: 7fd3 2fbc d22d 2bbc

fc1.weight f4 [24, 72]
-0.0825162 0.047794983 0.07200493 -0.09012401 -0.12227815 -0.118818045 -0.25305 0.13938051
0.038717676 0.19204006 0.115885735 0.19012448 -0.08822733 -0.3237264 -0.333679 -0.25884908
0.2545422 0.093693174 -0.17364438 0.27337918 -0.21750897 0.12975223 -0.11369009 -0.08817621
-0.15002805 -0.06629432 -0.013025975 -0.16442065 0.18935177 -0.07250342 0.15867472 0.08665491
0.19281368 -0.14754085 -0.2812313 -0.25221735 -0.31356072 0.17811882 0.026649904 -0.011891504
0.0021484555 -0.23864783 -0.098315075 0.07704251 -0.104132935 -0.09633147 0.085677944 -0.03825265
-0.046428464 -0.09630799 -0.069150105 0.051579796 -0.02793049 -0.076124586 0.030756079 -0.094152406
-0.09617896 0.085944004 -0.019949816 0.10675848 -0.108241364 0.0024329722 0.034362517 0.091188915
-0.040699087 0.055205293 -0.107282825 0.033552207 -0.019477323 -0.10370815 -0.027298868 -0.0126283765
-0.20017074 0.07153388 0.027354155 -0.08957386 0.14588314 0.1746815 0.19704193 0.12952843
0.19531633 0.12037495 0.16961183 0.21023914 0.026828013 -0.0011681515 0.062242955 0.116360694
0.13057172 0.0538054 0.13542698 0.26089856 0.5918762 -0.16639107 -0.13571121 0.0023902936
-0.10347001 0.22026531 0.15588309 0.13254155 0.13487607 0.18919085 0.08150263 0.3164134
0.29525393 0.09121585 0.06440151 0.094614744 0.21055654 0.035007857 0.191762 0.2427074
0.3458767 0.47892547 0.04912376 -0.22735423 0.0136953965 -0.050886683 -0.057021134 -0.0363959
0.041494302 -0.047271162 0.045740776 0.076206155 -0.07434647 0.08230572 -0.008829825 -0.10460585
0.0039125606 -0.050194047 -0.09035436 -0.0073557794 -0.111597255 0.0479194 0.10139411 0.10939548
-0.072578095 0.016284816 0.017269917 -0.020338282 0.038852178 0.093974136 -0.054826885 0.012405269
0.08311358 0.17495461 0.16199231 0.009528975 0.09180696 0.16747439 0.0011869156 0.024872875
0.00528369 -0.084213234 -0.035791174 -0.029089483 -0.27210563 -0.25327274 -0.28161877 -0.04562233
-0.12446196 -0.08335425 0.1968489 -0.3722541 -0.68770903 0.06377045 0.09059056 0.34419766
0.07318513 0.08714426 0.23773208 -0.12492957 0.04061334 -0.10089063 0.010598381 0.0007972442
-0.11925316 -0.25388196 -0.22399324 -0.1943085 0.006286918 -0.10096707 -0.0121321315 0.11789173
-0.527189 -0.59102196 -0.029942013 0.42087212 0.029386215 0.063150145 0.056905948 0.073762976
0.05838471 -0.10499283 0.040005304 0.009274475 0.10123313 0.09068773 -0.05698994 -0.022760324
0.11634483 -0.08272557 0.1072652 -0.02225212 -0.08908671 -0.017962255 0.08872085 -0.10072744
0.08923759 0.056620218 0.06880107 0.08584524 -0.08238565 -0.021527514 0.07944735 -0.017452024
0.009573826 0.06465917 0.100103855 -0.057822157 0.024302239 0.011697963 0.14027448 0.13146663
0.34620452 0.30160433 -0.12195861 -0.006496261 0.594654 0.5436681 0.5521354 0.22005016
0.3596507 0.23799314 0.21380408 -0.1221184 -0.029028004 0.023911245 -0.014193213 0.08009181
-0.12431145 0.04535169 0.092202246 0.21183483 0.10874634 0.5040448 0.39266783 -0.009843248
-0.0038952273 0.40412065 0.39801604 0.34031302 0.22901 0.34075233 0.14291379 0.18513188
00000000: 41fe a8bd acc4 433d 5277 933d f092 b8bd
00000010: f76c fabd e056 f3bd c58f 81be c4b9 0e3e
00000020: 6d96 1e3d 26a6 443e 8055 ed3d feaf 423e
00000030: 88b0 b4bd 77bf a5be f9d7 aabe de87 84be
00000040: 5b53 823e 35e2 bf3d d5cf 31be 5bf8 8b3e
00000050: acba 5ebe c5dd 043e 5ad6 e8bd bb95 b4bd
00000060: f4a0 19be 51c5 87bd e66a 55bc e35d 28be
00000070: 6ee5 413e ac7c 94bd a07b 223e 2178 b13d
00000080: f370 453e f314 17be 8dfd 8fbe a222 81be
00000090: 088b a0be c864 363e e650 da3c 95d4 42bc
000000a0: 1acd 0c3b 1960 74be 6a59 c9bd 77c8 9d3d
000000b0: a643 d5bd 6f49 c5bd eb77 af3d d0ae 1cbd
000000c0: c62b 3ebd 203d c5bd 929e 8dbd 5645 533d
000000d0: 7cce e4bc 35e7 9bbd 2cf4 fb3c fad2 c0bd
000000e0: 79f9 c4bd 6903 b03d cc6d a3bc 31a4 da3d
000000f0: a6ad ddbd 8072 1f3b b6bf 0c3d 41c1 ba3d
00000100: 16b4 26bd f21e 623d 19b7 dbbd 0a6e 093d
00000110: e88e 9fbc f064 d4bd e0a1 dfbc 40e7 4ebc
00000120: 8ff9 4cbe 5b80 923d d215 e03c 8072 b7bd
00000130: 6462 153e b5df 323e 5cc5 493e 1aa3 043e
00000140: 0101 483e 2487 f63d b9ae 2d3e ee48 573e
00000150: 6cc6 db3c a91c 99ba 78f2 7e3d 844e ee3d
00000160: 98b4 053e 0d63 5c3d 5fad 0a3e 7f94 853e
00000170: 3385 173f 6c62 2abe e1f7 0abe 79a6 1c3b
00000180: 16e8 d3bd 3b8d 613e d19f 1f3e f9b8 073e
00000190: f41c 0a3e 3fbb 413e daea a63d f000 a23e
000001a0: 862b 973e 60cf ba3d f0e4 833d 60c5 c13d
000001b0: 229c 573e 6664 0f3d 425d 443e 4a88 783e
000001c0: c016 b13e b835 f53e ff35 493d 8ccf 68be
000001d0: a862 603c 8e6e 50bd fe8e 69bd de13 15bd
000001e0: eef5 293d 689f 41bd ae5a 3b3d f911 9c3d
000001f0: f642 98bd e78f a83d f8aa 10bc 983b d6bd
00000200: f034 803b 4698 4dbd b50b b9bd c008 f1bb
00000210: 1a8d e4bd 2247 443d b7a7 cf3d bd0a e03d
00000220: d3a3 94bd bc67 853c a479 8d3c 789c a6bc
00000230: 7623 1f3d 8375 c03d 2892 60bd 783f 4b3c
00000240: 7437 aa3d 4d27 333e 50e1 253e 6b1f 1c3c
00000250: 4a05 bc3d 687e 2b3e 4792 9b3a 33c2 cb3c
00000260: ce22 ad3b fd77 acbd c499 12bd 114d eebc
00000270: 6e51 8bbe f7ac 81be 5630 90be 7bde 3abd
00000280: e9e5 febd a2b5 aabd c292 493e 1798 bebe
00000290: b30d 30bf 159a 823d 8b87 b93d ad3a b03e
000002a0: 16e2 953d b178 b23d 0a70 733e 13db ffbd
000002b0: 2c5a 263d bf9f cebd d5a4 2d3c 27fe 503a
000002c0: 003b f4bd d1fc 81be 7c5e 65be cff8 46be
000002d0: 7e02 ce3b d3c7 cebd d9c5 46bc 3871 f13d
000002e0: dcf5 06bf 374d 17bf f448 f5bc 8d7c d73e
000002f0: 5cbb f03c dd54 813d 3616 693d 0b11 973d
00000300: ce24 6f3d 7b06 d7bd 9adc 233d f8f3 173c
00000310: 5153 cf3d 7dba b93d 496e 69bd dc73 babc
00000320: 3346 ee3d 066c a9bd dbad db3d 144a b6bc
00000330: 1873 b6bd 9425 93bc 47b3 b53d 304a cebd
00000340: 33c2 b63d 9aea 673d 93e7 8c3d a1cf af3d
00000350: cfb9 a8bd 785a b0bc 4bb5 a23d 8cf7 8ebc
00000360: 89db 1c3c 076c 843d 4003 cd3d edd6 6cbd
00000370: 7d15 c73c d0a8 3f3c 1da4 0f3e 309f 063e
00000380: b841 b13e e26b 9a3e 70c5 f9bd 96de d4bb
00000390: 3f3b 183f d52d 0b3f bf58 0d3f d454 613e
000003a0: 2324 b83e 79b4 733e 75ef 5a3e 3619 fabd
000003b0: 23cc edbc 84e1 c33c a68a 68bc 2d07 a43d
000003c0: 0097 febd b2c2 393d 88d4 bc3d 3beb 583e
000003d0: 67b6 de3d 1409 013f c20b c93e 9345 21bc
000003e0: 1247 7fbb e7e8 ce3e c2c8 cb3e 823d ae3e
000003f0: 9981 6a3e 1777 ae3e fe57 123e 3693 3d3e

fc1.bias f4 [24]
0.14530817 -0.04504433 0.28153652 -0.1920877 0.0552758 -0.09482711 0.05583693 -0.08630934
-0.08641838 -0.21097793 -0.1291574 -0.37419385 -0.21326926 -0.15286931 -0.03124765 -0.0096247345
-0.36642885 -0.0982923 0.017741801 -0.03612615 -0.17862445 0.00055785425 -0.025948623 -0.12268278
00000000: aacb 143e 6780 38bd 8e25 903e a3b2 44be
00000010: e168 623d b734 c2bd 44b5 643d f4c2 b0bd
00000020: 1ffc b0bd 990a 58be d641 04be 5696 bfbe
00000030: 4263 5abe c689 1cbe 12fb ffbc 10b1 1dbc
00000040: 909c bbbe 794d c9bd 4157 913c 04f9 13bd
00000050: 54e9 36be f73c 123a 3592 d4bc 1c41 fbbd

fc2.weight f4 [12, 24]
0.05852552 0.27642938 -0.19037239 0.20782848 -0.107447006 -0.0916907 -0.017102186 -0.07013801
0.076165296 -0.07044913 -0.18733269 0.18453671 0.12332853 0.24264458 0.041654747 0.17463505
0.2270747 0.2988851 -0.24327832 -0.05628252 -0.103066795 0.20731188 0.2295945 0.09231237
0.31741485 0.61944646 0.78471494 -1.0235714 0.62034124 -1.0461874 0.6082722 1.153937
-1.7905223 1.6645511 -0.088117905 -0.49362808 0.18555403 -0.18516898 -0.34815824 0.6312399
0.015689733 -0.6374733 0.28346103 -0.003976368 0.20324531 0.911223 -0.53085077 -0.14479493
0.009229053 0.18036522 -0.06930994 -0.21012263 0.07923496 0.027563902 -0.17407519 -0.067599125
0.2135702 0.13340722 -0.23780705 0.04140517 -0.11535577 0.13141786 0.28535417 0.023773719
0.29829583 0.16048914 0.09469982 0.24898234 -0.00014545853 -0.019177333 0.06471195 0.1860649
-0.16871059 0.122169584 -0.0042481343 0.3078677 0.0029674538 0.08024549 0.007967401 -0.06757401
0.029726451 0.11072169 -0.021619443 0.13015227 -0.07582107 0.2028673 -0.028098788 -0.15839693
0.08295689 0.023304166 0.095977776 -0.24613193 -0.06667545 0.095079735 0.21021612 0.11431229
-0.3596152 -0.06537397 -1.3147714 0.6694862 -1.8996283 -0.38330415 0.20607817 0.6276564
0.8743945 0.91642004 -1.7990072 0.01887337 -0.49487978 -0.12017946 -0.09471368 -0.07537548
1.4497143 -0.7194727 1.0187639 0.30493483 0.6998476 0.6845286 -0.10830946 -0.80467564
-0.23594002 0.09195134 -0.31940842 0.0012480292 -0.009648855 -0.088256046 -0.04438526 0.29641208
0.094671346 0.12921001 0.26710305 0.058301162 -0.015720783 -0.05536905 -0.08703984 -0.019944012
0.108155034 0.12662259 0.08889068 -0.001174808 0.18327616 0.0030828246 0.10128419 0.03712901
-0.20718777 -0.041878983 -0.019286955 -0.1924779 0.117914155 0.1987878 -0.19168586 -0.11782038
0.12742369 0.06852401 0.045676757 0.023622151 0.18509707 0.019989984 -0.19383904 0.15955807
-0.07779092 0.032750554 0.106162 -0.15746541 0.11591647 -0.32548946 0.02280536 -0.05236183
0.6527908 0.16391583 -1.8947417 -1.3049917 -1.7640553 0.21980345 0.041683227 -1.2920855
-1.222731 -0.7106797 -0.31997344 -0.20909137 -0.66313344 0.67447025 -0.7874503 -0.078696124
0.5820054 -0.045970637 -0.42741483 0.18364403 -0.99670833 -0.016516453 0.21619818 0.4752478
-0.008703869 -0.24187058 -1.9445304 0.97402954 1.7038784 -0.77835953 0.540585 0.2150066
0.2654452 -0.3313458 -1.8918267 0.5481734 -0.29402757 -0.37462604 -0.80326605 -0.84808755
0.62929577 0.1073175 0.5311277 0.19550876 0.01257317 0.8598762 0.18058415 0.10527224
-0.11568322 -0.016592883 -0.3851082 0.11191931 -0.0077649276 0.1763409 0.052041702 -0.24081011
-0.07995704 0.24870566 0.26429364 0.103708886 0.244408 -0.040240277 0.20927517 0.18461387
0.17102374 0.25209874 0.047259632 0.08080783 -0.075403675 -0.07474657 0.13805045 0.07259694
-0.039792527 0.96436554 -0.08030924 0.081347495 -0.38402644 0.892228 0.04846778 0.8511488
-0.07714502 -0.45274448 -0.26911217 -0.0069736284 0.3570893 -0.81825185 0.14251247 -1.0130063
00000000: 75b8 6f3d 2788 8d3e fbf0 42be fdd0 543e
00000010: 2d0d dcbd 55c8 bbbd e219 8cbc 84a4 8fbd
00000020: 8dfc 9b3d a247 90bd 24d4 3fbe 31f7 3c3e
00000030: ab93 fc3d d277 783e 2b9e 2a3d 88d3 323e
00000040: 4586 683e 7807 993e f41d 79be 8088 66bd
00000050: af14 d3bd 9149 543e d21a 6b3e 450e bd3d
00000060: 3384 a23e 0b94 1e3f 14e3 483f 6304 83bf
00000070: afce 1e3f 78e9 85bf bab7 1b3f 35b4 933f
00000080: d62f e5bf 0310 d53f 2977 b4bd d2bc fcbe
00000090: e001 3e3e f09c 3dbe cc41 b2be f098 213f
000000a0: c187 803c 7331 23bf ce21 913e 314c 82bb
000000b0: 8a1f 503e e945 693f d6e5 07bf 1f45 14be
000000c0: 7435 173c a9b1 383e 5ff2 8dbd 632a 57be
000000d0: f045 a23d b1cd e13c c440 32be 6971 8abd
000000e0: 26b2 5a3e e79b 083e b183 73be 7898 293d
000000f0: a53f ecbd 6792 063e f119 923e 1ac1 c23c
00000100: 3bba 983e 4457 243e fbf1 c13d 3af5 7e3e
00000110: 3a86 18b9 c819 9dbc b387 843d cc87 3e3e
00000120: 78c2 2cbe 0c34 fa3d ef33 8bbb d6a0 9d3e
00000130: 9d79 423b bf57 a43d b489 023c 3e64 8abd
00000140: e384 f33c 0ec2 e23d 421b b1bc a346 053e
00000150: 1448 9bbd 72bc 4f3e 6e2f e6bc ce32 22be
00000160: 4de5 a93d 61e8 be3c ff8f c43d 020a 7cbe
00000170: 238d 88bd 2ab9 c23d e542 573e 901c ea3d
00000180: 7c1f b8be cae2 85bd 6e4a a8bf 7363 2b3f
00000190: 0527 f3bf 7140 c4be 2806 533e 17ae 203f
000001a0: 51d8 5f3f 819a 6a3f de45 e6bf 539c 9a3c
000001b0: e260 fdbe a620 f6bd 3ff9 c1bd 765e 9abd
000001c0: 3d90 b93f 5d2f 38bf db66 823f 6b20 9c3e
000001d0: 3629 333f 443d 2f3f 5ad1 ddbd 39ff 4dbf
000001e0: 439a 71be fc50 bc3d 8089 a3be e994 a33a
000001f0: 3b16 1ebc 96bf b4bd 52cd 35bd 53c3 973e
00000200: 0de3 c13d a14f 043e bbc1 883e 33cd 6e3d
00000210: dfc8 80bc a8ca 62bd f241 b2bd a061 a3bc
00000220: 6380 dd3d 5aa9 013e 510c b63d 04fc 99ba
00000230: bfac 3b3e 3709 4a3b 166e cf3d 9714 183d
00000240: 0829 54be 4c89 2bbd adff 9dbc ed18 45be
00000250: fa7c f13d 078f 4b3e 4c49 44be d04b f1bd
00000260: 5b7b 023e 5156 8c3d 8d17 3b3d 3e83 c13c
00000270: 168a 3d3e 09c2 a33c be7d 46be 3163 233e
00000280: d950 9fbd 7225 063d 766b d93d 9d3e 21be
00000290: 9d65 ed3d 8ea6 a6be 4ed2 ba3c 5c79 56bd
000002a0: 4c1d 273f 8dd9 273e e586 f2bf f809 a7bf
000002b0: 90cc e1bf 2814 613e 08bc 2a3d 0f63 a5bf
000002c0: 7382 9cbf 1bef 35bf 8fd3 a3be 0c1c 56be
000002d0: 1dc3 29bf 15aa 2c3f 5896 49bf 6f2b a1bd
000002e0: 4efe 143f b54b 3cbd 1ed6 dabe 2e0d 3c3e
000002f0: 4728 7fbf 834d 87bc 0e63 5d3e ae53 f33e
00000300: ac9a 0ebc ecac 77be 5fe6 f8bf 005a 793f
00000310: b018 da3f 9242 47bf c763 0a3f b12a 5c3e
00000320: 6fe8 873e 28a6 a9be 6127 f2bf 1855 0c3f
00000330: c88a 96be fcce bfbe d8a2 4dbf 441c 59bf
00000340: 8719 213f 47c9 db3d fcf7 073f 7333 483e
00000350: b2ff 4d3c d920 5c3f 0deb 383e f998 d73d
00000360: 53eb ecbd cced 87bc e72c c5be f435 e53d
00000370: ef70 febb b592 343e ae29 553d ed96 76be
00000380: 84c0 a3bd b2ac 7e3e 7f51 873e 5365 d43d
00000390: 1746 7a3e fdd2 24bd 3b4c 563e 6b0b 3d3e
000003a0: d920 2f3e 1613 813e 5193 413d 937e a53d
000003b0: 3e6d 9abd bb14 99bd 195d 0d3e b4ad 943d
000003c0: 7dfd 22bd a9e0 763f 2c79 a4bd 8499 a63d
000003d0: 1d9f c4be 0e69 643f 2786 463d e3e4 593f
000003e0: 35fe 9dbd 20ce e7be 12c9 89be 0983 e4bb
000003f0: 69d4 b63e f478 51bf caee 113e 31aa 81bf

fc2.bias f4 [12]
-0.11696779 -0.3155731 -0.040631827 0.14089708 -0.07511256 0.06519305 0.15369807 -0.056711063
-0.30434 -0.1556071 0.020907216 0.044900216
00000000: cf8c efbd cc92 a1be 8f6d 26bd 5347 103e
00000010: 9dd4 99bd ef83 853d 0763 1d3e dc49 68bd
00000020: 74d2 9bbe 7857 1fbe 9c45 ab3c 4ae9 373d

fc3.weight f4 [30, 12]
-0.0005909558 0.00038401963 0.00040094808 -7.5286525e-06 6.3387844e-05 0.0004193046 -0.00084139255 0.0018773468
0.00055278296 0.00023151383 -0.00064543326 0.00066972134 0.13497615 0.09054874 0.034173563 -0.13582239
0.3457863 0.12091737 -0.0026370052 0.40602913 0.12301266 -0.20164335 2.8149865 0.059318777
-0.009842416 -0.16579932 0.036479253 -0.05528708 0.3176837 0.037742376 -0.04317375 0.63754624
0.6493104 -0.122505985 0.5551372 0.036757138 0.059364412 -0.20197242 -0.011009828 -0.05496048
0.42100874 -0.015942618 0.056695923 0.546599 0.6793126 -0.18100926 0.6917669 -0.04885139
0.1857281 1.2287056 -0.028323418 0.259394 -0.256459 0.13957477 -0.3919834 -0.39984044
0.39224288 -0.48516044 0.17066956 0.017927274 -0.00988137 -0.1972955 0.028222308 -0.043824855
0.6638699 -0.005429194 -0.061829045 1.0398977 1.081976 -0.16622862 0.016604077 0.035499454
0.34383768 -1.8809513 -0.0147296805 -0.18662769 0.6944444 0.08297265 0.060882065 1.1113948
0.4259759 -0.46788567 -1.0602808 -0.02201636 -0.048857633 0.508154 -0.039319374 0.08300644
1.0623672 -0.18651208 0.054878004 1.1776235 1.7929327 -0.10313377 -0.6521928 -0.07910144
-0.026863866 -0.28951365 -0.06921239 -0.075164504 0.34272715 -0.1552543 -0.059044622 0.31546554
0.45068443 -0.1039098 0.29586583 -0.13424808 -0.055837154 -0.31676126 -0.116339706 -0.08988122
0.1998471 -0.23422317 -0.089923844 -0.05913187 0.09178063 -0.0553813 0.43577567 -0.21281846
-0.028039018 -0.27953148 -0.069802895 -0.07304349 0.3641418 -0.15656732 -0.05913416 0.3008243
0.4381783 -0.10310913 0.28751782 -0.13515225 -0.34986007 -0.68925864 0.11949227 0.0064526917
-0.18052357 0.17057745 -0.18558589 0.07614243 0.48234355 -0.1237533 0.34920835 -0.016436858
-0.25112626 -0.6699385 0.045223407 0.02252921 -0.15657511 0.08825508 -0.034540422 -0.25024363
0.3209419 -0.16287385 0.4014753 -0.14149092 -0.468026 -0.36471117 0.16133414 0.12952314
-0.32560048 0.1812725 -0.19718678 0.45346615 -0.027746646 -0.12378384 0.05946753 -0.027926115
-0.32466406 -0.0035308066 0.07789554 0.08923089 -0.09149649 0.062895626 -0.0531012 0.090087935
-0.27334857 -0.15179123 0.039863233 -0.13597435 -0.2528392 -0.7885361 0.044886604 -0.10815334
0.5676704 0.06029656 -0.21295206 -0.5432845 0.42151394 -0.075642884 0.42773667 -0.036118846
-0.15740162 -0.72664505 -0.032240015 -0.19287686 1.0458895 -0.08394195 -0.2487116 -0.7726291
0.28809536 -0.018844992 0.4227439 -0.06263292 -0.13038678 0.9914983 0.10234794 -0.12416527
-0.04967677 -0.07352004 0.09670317 -0.09418752 -0.41800526 -0.20225616 -0.20587154 -0.15418726
-0.124457955 1.4271097 0.18521665 -0.25629094 -0.018673789 -0.073171034 0.0070794607 0.13093048
-0.2942205 -0.17908753 -0.37362087 -0.03180487 -0.09139445 1.0036676 0.1020467 -0.21993895
0.035244092 -0.12327773 0.00460635 0.041270763 -0.21999177 -0.15501253 -0.15514897 -0.09199192
-0.072542585 -0.39901033 -0.18508208 -0.0045553246 -0.46780932 -0.3316233 -0.11855707 0.37892026
-0.024181822 -0.0116356015 0.5888953 -0.29273257 -0.035952806 -0.27892268 -0.21215424 0.0006195998
00000000: 5fea 1aba 3e56 c939 5736 d239 a29e fcb6
00000010: 17ef 8438 1cd6 db39 e690 5cba 4e11 f63a
00000020: a3e8 103a 85c2 7239 4b32 29ba 3d90 2f3a
00000030: 3037 0a3e 9e71 b93d 94f9 0b3d 0615 0bbe
00000040: e70a b13e 87a3 f73d 9bd1 2cbb 0de3 cf3e
00000050: 10ee fb3d 987b 4ebe bd28 3440 3ff8 723d
00000060: 1642 21bc 4cc7 29be 456b 153d b574 62bd
00000070: 70a7 a23e c097 1a3d f5d6 30bd 3b36 233f
00000080: 3539 263f 6be4 fabd 791d 0e3f a78e 163d
00000090: 1928 733d dcd1 4ebe 9162 34bc 3e1e 61bd
000000a0: 758e d73e 189a 82bc fc39 683d e9ed 0b3f
000000b0: 6ee7 2d3f 7e5a 39be a317 313f 6518 48bd
000000c0: 822f 3e3e 3a46 9d3f 8306 e8bc 4acf 843e
000000d0: 984e 83be b0ec 0e3e 0cb2 c8be e3b7 ccbe
000000e0: 0fd4 c83e f366 f8be 00c4 2e3e 38dc 923c
000000f0: 78e5 21bc d507 4abe 7832 e73c b181 33bd
00000100: 61f3 293f 61e7 b1bb 7440 7dbd 5e1b 853f
00000110: 317e 8a3f d637 2abe 4605 883c e067 113d
00000120: 7e0b b03e 03c3 f0bf c254 71bc 541b 3fbe
00000130: 1cc7 313f 91ed a93d 795f 793d 2f42 8e3f
00000140: 8319 da3e b68e efbe 48b7 87bf a75b b4bc
00000150: f11e 48bd 6116 023f 5a0d 21bd 48ff a93d
00000160: a6fb 873f 06fd 3ebe c2c7 603d 5ebc 963f
00000170: d27e e53f cc37 d3bd 1bf6 26bf f0ff a1bd
00000180: 9c11 dcbc 223b 94be 3abf 8dbd d9ef 99bd
00000190: ef79 af3e fcfa 1ebe c6d8 71bd b384 a13e
000001a0: 1cc0 e63e a9ce d4bd ba7b 973e 5478 09be
000001b0: 80b5 64bd 882e a2be 8343 eebd a513 b8bd
000001c0: b8a4 4c3e 33d8 6fbe fe29 b8bd 4234 72bd
000001d0: 7cf7 bb3d 81d7 62bd fd1d df3e 15ed 59be
000001e0: 15b2 e5bc c01e 8fbe d2f4 8ebd d397 95bd
000001f0: cb70 ba3e 2f53 20be a936 72bd a505 9a3e
00000200: e858 e03e e12a d3bd 8935 933e 5a65 0abe
00000210: dc20 b3be 4173 30bf 5db8 f43d 1a71 d33b
00000220: 2cdb 38be dbab 2e3e 3a0a 3ebe 90f0 9b3d
00000230: bcf5 f63e 5f72 fdbd 70cb b23e 97a6 86bc
00000240: 9f93 80be 1781 2bbf 2e3c 393d 2e8f b83c
00000250: 3a55 20be 14bf b43d 427a 0dbd ef1f 80be
00000260: 7f52 a43e 67c8 26be 2c8e cd3e ffe2 10be
00000270: 1ba1 efbe 6cbb babe c734 253e b7a1 043e
00000280: 1bb5 a6be 809f 393e 55eb 49be b72c e83e
00000290: ef4c e3bc 6282 fdbd 3a94 733d 4fc5 e4bc
000002a0: 5e3a a6be 1b65 67bb b287 9f3d afbe b63d
000002b0: 8362 bbbd 6ccf 803d a580 59bd 0680 b83d
000002c0: 58f4 8bbe 296f 1bbe a147 233d dc3c 0bbe
000002d0: 2474 81be 80dd 49bf 04db 373d 807f ddbd
000002e0: d952 113f 87f9 763d 1b10 5abe b114 0bbf
000002f0: add0 d73e a8ea 9abd 4d00 db3e 5bf1 13bd
00000300: e42d 21be 6905 3abf 1b0e 04bd 8381 45be
00000310: b5df 853f c2e9 abbd 41ae 7ebe 05cb 45bf
00000320: 3c81 933e d060 9abc e371 d83e b045 80bd
00000330: 1d84 05be d5d2 7d3f cc9b d13d 5c4a febd
00000340: de79 4bbd ad91 96bd 500c c63d 63e5 c0bd
00000350: c904 d6be 3d1c 4fbe fdcf 52be 44e3 1dbe
00000360: d0e3 febd 88ab b63f 6fa9 3d3e 9138 83be
00000370: c6f9 98bc b2da 95bd d2fa e73b a412 063e
00000380: 12a4 96be b962 37be 3c4b bfbe d345 02bd
00000390: 032d bbbd 2e78 803f dcfd d03d ad37 61be
000003a0: 1c5c 103d 0979 fcbd ddf0 963b 880b 293d
000003b0: 8645 61be 9bbb 1ebe 5fdf 1ebe 4266 bcbd
000003c0: 3591 94bd 154b ccbe 2886 3dbe d544 95bb
000003d0: b484 efbe 87ca a9be 0dce f2bd d601 c23e
000003e0: f518 c6bc 40a3 3ebc d8c1 163f 0be1 95be
000003f0: 4043 13bd f4ce 8ebe f63e 59be a46c 223a

fc3.bias f4 [30]
0.016425213 -0.1043322 -0.14654532 0.07818331 -0.076366015 -0.06493041 -0.19173649 -0.0049044215
0.06623491 0.01752685 0.0012274451 -0.09846484 -0.053275928 -0.12546387 -0.17568585 -0.1619998
0.090827346 -0.22135343 -0.16668466 -0.00571644 -0.061996665 -0.14940998 -0.16126429 0.08953356
-0.07789874 0.12531294 -0.07563683 -0.040727586 -0.21555196 -0.25249514
00000000: 2b8e 863c 1fac d5bd fa0f 16be 921e a03d
00000010: c965 9cbd 3cfa 84bd 9256 44be 45b5 a0bb
00000020: 2ba6 873d 7894 8f3c 39e2 a03a efa7 c9bd
00000030: dc37 5abd 9a79 00be fee6 33be 47e3 25be
00000040: b003 ba3d 79aa 62be 62af 2abe f950 bbbb
00000050: 37f0 7dbd eefe 18be 7722 25be 5f5d b73d
00000060: 6089 9fbd 0952 003e 7be7 9abd f8d1 26bd
00000070: a7b9 5cbe 0b47 81be
