CaseModels/02 30-Bus/_genModel_Mvar.pth (torch, 21393 bytes, 7 tensors)

bias f4 [30]
-0.24084866 0.19117709 0.0116702635 0.120345615 0.022052823 0.051320594 0.046373546 -0.036439244
-0.075136684 0.06400984 0.15572116 -0.015812853 -0.044226095 0.09422134 0.11952288 -0.071459495
-0.06530598 0.035744984 -0.06181075 -0.08872041 -0.033584185 -0.07877217 -0.09059723 -0.005134921
-0.121419124 -0.09727642 0.05729954 -0.0680229 -0.10432492 0.025724852
00000000: 08a1 76be edc3 433e a234 3f3c c377 f63d
00000010: 1fa8 b43c 8b35 523d 30f2 3d3d 5141 15bd
00000020: 43e1 99bd 9717 833d 5e75 1f3e f589 81bc
00000030: 6c26 35bd 1ef7 c03d 69c8 f43d 5b59 92bd
00000040: 24bf 85bd 5569 123d 452d 7dbd 0cb3 b5bd
00000050: 928f 09bd 4e53 a1bd 0a8b b9bd d742 a8bb
00000060: 97aa f8bd dc38 c7bd ecb2 6a3d 974f 8bbd
00000070: 4ea8 d5bd edbc d23c

fc1.weight f4 [34, 102]
0.037242055 -0.09832855 -0.16649817 -0.18691261 -0.16515917 -0.10334607 -0.19283238 -0.21394633
-0.20560314 -0.17059743 -0.14781202 -0.110506386 -0.2107005 -0.17205581 -0.17093316 -0.19627976
-0.21265893 -0.14378078 -0.16805819 -0.21746667 -0.2702468 0.043984972 0.04232052 -0.06901755
-0.14153112 -0.26472843 -0.1741121 -0.062747106 -0.08695685 -0.20367411 -0.21415794 -0.16361368
-0.16704068 -0.27350616 -0.18242352 -0.091766156 -0.051457092 -0.14827488 -0.105105214 -0.14206587
-0.2594272 -0.07751352 0.11068127 0.17684662 -0.0030925125 0.042632855 -0.054037694 -0.021689117
-0.049561165 -0.051585604 -0.062078767 0.05649706 0.024839036 -0.07923263 0.07160369 -0.037180565
-0.060059626 0.082403876 -0.051753767 -0.07858616 0.03853119 -0.018489182 0.030557133 0.00847432
0.023240127 -0.07852112 -0.09195821 -0.09514449 0.043659396 0.06981889 -0.024484165 -0.008140303
-0.18404013 0.19682372 -0.0631297 0.04434698 0.2290759 -0.06171674 0.015070103 0.17409118
0.057968445 -0.06864178 0.20709255 -0.019885488 0.26295778 -0.09567013 0.049350627 0.028999783
0.0476856 -0.0966304 0.015283719 0.03710667 -0.0822902 0.022652797 0.055734046 0.014133729
-0.03358873 0.014266923 0.060282506 0.02653741 0.0057522953 0.08116131 0.3173635 -0.050052643
0.12960547 -0.03922049 -0.07494595 0.15210468 0.29252478 -0.009863442 0.082166664 0.03318002
0.043043613 0.17076747 0.18698964 0.18569201 0.14185889 0.23987485 0.12743899 0.18080671
0.24164148 0.32553443 0.3195832 0.20121506 0.0910745 -0.00094396365 0.045213647 0.052055337
0.19552803 0.19661558 -0.08711501 0.058590475 0.046786785 0.13275242 0.21431781 0.13018276
0.17823002 0.07587935 0.29182994 0.0772708 0.25656852 0.31186107 0.42362395 0.30773002
-0.023426931 -0.16441855 0.08847389 0.08752061 -0.04902778 0.079770185 0.036564954 0.0622726
0.029025517 -0.068217024 -0.054592114 -0.02552665 0.08874593 -0.091104664 -0.005113654 -0.05613524
-0.03065446 0.014559694 0.041562296 -0.08889033 0.031921066 0.0319949 0.04260256 0.03366419
0.06841851 0.06155079 -0.098188594 0.07289613 0.0049354136 -0.049637213 0.108924784 -0.06991441
-0.06452882 -0.08053195 -0.048301183 0.07802492 0.0048056245 0.004925167 0.029378332 0.018124096
0.01728629 0.011057213 -0.06754902 -0.098608874 0.0015379488 0.08872578 -0.078111075 0.025469117
-0.09432917 0.0061408654 -0.029071681 -0.04427245 0.09615814 -0.09405855 0.06561274 0.069699384
-0.09817979 0.074361645 0.03838893 0.08500134 0.14162703 -0.21278812 -0.0680782 0.1747896
0.20939808 0.26455155 0.19382027 -0.088486984 -0.060280867 -0.07621026 0.073484756 0.27646106
0.1537318 0.19570984 0.19900532 0.22866216 0.061087526 0.25461268 0.24071233 0.2667008
0.39478043 0.095051005 -0.20182759 -0.090333864 0.2053718 0.16048801 0.26152232 0.32013923
-0.013055408 -0.09518185 0.007058952 -0.008503326 0.1860464 0.08151078 0.11647893 0.26795614
0.34354493 0.11310197 0.108656555 0.24860771 0.38642424 0.23396446 -0.11007493 -0.021077571
-0.052081008 -0.010778338 0.033829518 -0.055901982 -0.033074647 -0.0032918826 0.012528934 -0.037772216
00000000: 208b 183d 7b60 c9bd 7f7e 2abe 0566 3fbe
00000010: 7c1f 29be 1ba7 d3bd da75 45be bf14 5bbe
00000020: a189 52be 18b1 2ebe 095c 17be 2c51 e2bd
00000030: dfc1 57be 662f 30be 1a09 2fbe 90fd 48be
00000040: 43c3 59be 453b 13be 7217 2cbe 95af 5ebe
00000050: ca5d 8abe 9629 343d 4858 2d3d 1359 8dbd
00000060: 89ed 10be 7c8a 87be 714a 32be 8e81 80bd
00000070: 6f16 b2bd f28f 50be 384c 5bbe 588a 27be
00000080: b60c 2bbe 0009 8cbe 3bcd 3abe e5ef bbbd
00000090: acc4 52bd 5fd5 17be 6741 d7bd b779 11be
000000a0: a4d3 84be 69bf 9ebd ddac e23d 4817 353e
000000b0: c0ab 4abb ca9f 2e3d a156 5dbd 60ad b1bc
000000c0: a600 4bbd 6d4b 53bd 4e46 7ebd 7669 673d
000000d0: 3c7b cb3c b844 a2bd f5a4 923d a64a 18bd
000000e0: 1501 76bd 5dc3 a83d c2fb 53bd c8f1 a0bd
000000f0: e2d2 1d3d a076 97bc f452 fa3c e0d7 0a3c
00000100: 1462 be3c aecf a0bd 9654 bcbd 1ddb c2bd
00000110: 32d4 323d 35fd 8e3d 0493 c8bc e85e 05bc
00000120: 0475 3cbe 288c 493e 254a 81bd 2ea5 353d
00000130: df92 6a3e b1ca 7cbd 98e8 763c f544 323e
00000140: 5270 6d3d 1094 8cbd 1210 543e e4e6 a2bc
00000150: 67a2 863e b3ee c3bd e223 4a3d f490 ed3c
00000160: fa51 433d 29e6 c5bd 9068 7a3c 2afd 173d
00000170: c487 a8bd 5c92 b93c 6249 643d 2891 673c
00000180: 5694 09bd d0bf 693c caea 763d fc64 d93c
00000190: c07d bc3b e737 a63d 787d a23e 0004 4dbd
000001a0: 4cb7 043e aaa5 20bd 437d 99bd 54c1 1b3e
000001b0: cfc5 953e 469a 21bc ff46 a83d c6e7 073d
000001c0: 804e 303d abdd 2e3e 367a 3f3e 0c26 3e3e
000001d0: 7543 113e c1a1 753e 5e7f 023e 6525 393e
000001e0: dd70 773e 73ac a63e 69a0 a33e 520b 4e3e
000001f0: 4485 ba3d 5474 77ba f231 393d fa37 553d
00000200: 8038 483e 9855 493e 5b69 b2bd 91fc 6f3d
00000210: 80a3 3f3d 40f0 073e 2176 5b3e a14e 053e
00000220: ee81 363e a266 9b3d bc6a 953e 2740 9e3d
00000230: f35c 833e 41ac 9f3e 3de5 d83e ca8e 9d3e
00000240: d6e9 bfbc 565d 28be cd31 b53d 013e b33d
00000250: 5ad1 48bd 8d5e a33d 22c5 153d 8e11 7f3d
00000260: ecc6 ed3c 5eb5 8bbd fb9b 5fbd 441d d1bc
00000270: 6dc0 b53d 1595 babd 7090 a7bb 11ee 65bd
00000280: 101f fbbc c88b 6e3c 3a3d 2a3d 220c b6bd
00000290: aabf 023d 160d 033d 0680 2e3d 76e3 093d
000002a0: 011f 8c3d ae1c 7c3d 1a17 c9bd 914a 953d
000002b0: 40b9 a13b 6450 4bbd f513 df3d 492f 8fbd
000002c0: b027 84bd efed a4bd 76d7 45bd 87cb 9f3d
000002d0: 8078 9d3b 4c63 a13b d4aa f03c fc78 943c
000002e0: fa9b 8d3c 5029 353c 2457 8abd 73f3 c9bd
000002f0: 0095 c93a ddb5 b53d b3f8 9fbd 9ca4 d03c
00000300: a72f c1bd 5039 c93b bc27 eebc 0757 35bd
00000310: 8fee c43d c5a1 c0bd f95f 863d 8dbe 8e3d
00000320: 7c12 c9bd eb4a 983d b63d 1d3d 2f15 ae3d
00000330: ad06 113e 21e5 59be 956c 8bbd 0bfc 323e
00000340: 736c 563e 4d73 873e d278 463e aa38 b5bd
00000350: 12e9 76bd 2014 9cbd 2d7f 963d 4e8c 8d3e
00000360: de6b 1d3e 2968 483e 0dc8 4b3e 6a26 6a3e
00000370: ea36 7a3d 985c 823e 4b7d 763e 028d 883e
00000380: a920 ca3e 1aaa c23d e4ab 4ebe f600 b9bd
00000390: fc4c 523e f856 243e 41e6 853e 4ae9 a33e
000003a0: 5ae6 55bc b4ee c2bd c84e e73b 8951 0bbc
000003b0: f382 3e3e 20ef a63d 818c ee3d 8c31 893e
000003c0: 1fe5 af3e 01a2 e73d 5487 de3d 0593 7e3e
000003d0: 66d9 c53e 6194 6f3e f76e e1bd dfaa acbc
000003e0: e552 55bd a097 30bc d290 0a3d 7af9 64bd
000003f0: 4879 07bd a0bc 57bb 2846 4d3c 0ab7 1abd

fc1.bias f4 [34]
0.25337532 -0.09993079 -0.015401705 0.06627026 -0.2163068 -0.082920946 0.36531267 -0.08384768
-0.16638581 -0.05898236 0.12533341 0.016888471 -0.018580811 0.02573363 0.14601529 -0.09969206
0.07265297 -0.024735834 0.24203923 -0.0774214 0.086876936 -0.1744167 -0.0053849528 0.12502979
-0.050691452 0.19593354 0.054208037 -0.12280546 -0.034356374 -0.052307367 -0.094612546 0.06775799
-0.12360698 0.19376267
00000000: 69ba 813e 84a8 ccbd 6f57 7cbc b4b8 873d
00000010: 887f 5dbe 75d2 a9bd 430a bb3e 55b8 abbd
00000020: 0b61 2abe 7d97 71bd 6757 003e b159 8a3c
00000030: c936 98bc 55cf d23c 0885 153e 5a2b ccbd
00000040: 15cb 943d cea2 cabc 22d9 773e 1c8f 9ebd
00000050: 89ec b13d 4b9a 32be 4274 b0bb cf07 003e
00000060: d7a1 4fbd cda2 483e 3f09 5e3d 6e81 fbbd
00000070: 45b9 0cbd 4040 56bd 39c4 c1bd b3c4 8a3d
00000080: a825 fdbd b969 463e

fc2.weight f4 [17, 34]
-0.017586341 0.020997398 0.41409755 0.30154207 0.3396948 0.18873844 0.277526 0.1115593
0.033368155 0.1421551 -0.18136147 0.34804213 -0.105321534 -0.064740755 -0.26149505 0.31715456
-0.008037105 -0.16635536 -0.45258144 0.40384972 0.36033347 -0.12933594 0.056257464 -0.2640072
-0.17046891 -0.2847977 -0.011641034 0.10148272 -0.16471663 0.27619964 0.0031959254 -0.030075278
0.4056998 -0.12510061 -0.07683659 0.11396221 0.23724802 0.23965926 -0.03680304 0.08890673
0.404068 -0.064375535 -0.133128 0.28762603 0.17509279 0.12504755 0.07222298 0.22657733
0.2769763 -0.055755887 0.034937933 -0.12348832 0.2096139 -0.29725575 0.11754463 0.16176465
-0.04992305 0.20159364 0.14467293 0.035592563 -0.03947453 -0.10734304 -0.13973573 0.19374509
-0.104137644 -0.071800195 -0.031104507 0.056352675 -0.06604134 -0.14470416 -0.16199996 -0.16609062
-0.22394499 -0.24498178 0.5111057 -0.38255075 -0.39953992 0.06107446 0.074731976 -0.24145335
-0.028979318 -0.02921989 -0.13472167 -0.1990751 -0.045627177 0.16349176 0.21753561 -0.07195396
0.32224196 -0.34741104 0.18974325 0.17116646 -0.23199382 0.14743866 -0.014037482 -0.11821009
-0.26237923 -0.099958576 -0.15159318 -0.06090139 -0.08837259 0.018906523 0.026601711 -0.19091107
-0.011803651 0.08675853 0.15388365 0.1284728 -0.054428514 -0.16910341 0.25356832 -0.035786796
-0.13943334 0.33576134 0.013817788 -0.23336396 -0.07913243 0.16508973 0.041788653 0.12125727
0.030834043 -0.14052022 0.2697884 0.11583821 0.218362 -0.5404363 0.0036142438 -0.35977575
0.04764665 0.049245197 -0.0014976419 0.059129436 0.07615926 0.024401931 0.15307263 0.012196097
0.17013487 -0.59038085 -0.27128246 -0.1267955 -0.16787595 0.55993307 0.142722 -0.37895098
0.123121895 -0.020354886 0.05375829 0.07408973 -0.030115817 -0.15687141 0.20418113 -0.1163491
0.1483273 0.72776496 -0.3754871 -0.16141286 0.3954396 -0.09994931 -0.37802118 -0.27005836
-0.06622709 -0.12030092 -0.050931495 -0.31625655 0.3005296 -0.104160994 0.062273383 0.45596188
0.0073317816 -0.36036733 0.34986058 0.21389402 -0.011260913 0.17619954 0.2670571 0.072046906
-0.33559844 0.29700083 0.095965505 -0.035675306 -0.0093108285 0.17945991 0.09563787 0.08448465
-0.26437452 0.13980818 0.06427525 -0.24701557 -0.47066456 0.080986075 -0.11627097 0.37632632
-0.013442876 -0.04835555 0.265368 -0.008062405 -0.031340327 0.2372104 -0.044551175 0.03464266
0.0821644 -0.24999312 0.041792143 -0.24589846 0.009834268 0.006491952 0.09016299 0.08850996
0.1266571 -0.07139195 -0.037679568 -0.056532152 0.3158052 0.055733766 0.05574434 0.14733094
0.00175264 0.025777146 -0.28890675 0.099690504 0.009743342 -0.12598416 -0.16039655 0.06285013
-0.013053817 0.07674056 0.44941872 -0.3380215 0.0709795 -0.15141377 -0.064113915 0.21125005
-0.02394705 0.15000063 -0.12229185 -0.10174148 0.25656816 -0.070454486 0.15412493 0.20788215
0.26330099 0.2340368 0.21125641 0.3461856 -0.6439611 0.22488715 0.21967557 -0.20246556
-0.16677934 0.13501388 -0.028602155 0.1995587 -0.22385016 0.22773823 0.06060463 -0.32414854
00000000: 3b11 90bc bc02 ac3c 9804 d43e b963 9a3e
00000010: 7aec ad3e a644 413e e317 8e3e 3479 e43d
00000020: 0cad 083d 1b91 113e d2b6 39be 9432 b23e
00000030: d1b2 d7bd cd96 84bd aee2 85be 1562 a23e
00000040: 10ae 03bc 0f59 2abe c1b8 e7be 64c5 ce3e
00000050: a17d b83e a470 04be 3a6e 663d f42b 87be
00000060: 678f 2ebe 01d1 91be 09ba 3ebc 2cd6 cf3d
00000070: 7aab 28be 0a6a 8d3e bb72 513b 6e60 f6bc
00000080: e2b7 cf3e 601a 00be 815c 9dbd 0565 e93d
00000090: 25f1 723e 3d69 753e c9be 16bd bb14 b63d
000000a0: 00e2 ce3e 52d7 83bd b552 08be b843 933e
000000b0: 864b 333e 770c 003e a4e9 933d e303 683e
000000c0: d6cf 8d3e 4960 64bd 141b 0f3d 72e7 fcbd
000000d0: 07a5 563e e831 98be 3dbb f03d a2a5 253e
000000e0: 1d7c 4cbd 906e 4e3e 2425 143e 82c9 113d
000000f0: 0bb0 21bd abd6 dbbd e216 0fbe 1d65 463e
00000100: 1e46 d5bd fb0b 93bd e1ce febc 10d2 663d
00000110: af40 87bd 542d 14be 51e3 25be a913 2abe
00000120: d651 65be 81dc 7abe d3d7 023f b1dd c3be
00000130: 7f90 ccbe 3729 7a3d 140d 993d 8c3f 77be
00000140: 0966 edbc 8d5e efbc 7af4 09be 58da 4bbe
00000150: 90e3 3abd 626a 273e a8c1 5e3e 995c 93bd
00000160: e6fc a43e dcdf b1be 0e4c 423e 4346 2f3e
00000170: ca8f 6dbe 29fa 163e 78fd 65bc 2218 f2bd
00000180: 9256 86be 15b7 ccbd 3e3b 1bbe bc73 79bd
00000190: b0fc b4bd dae1 9a3c d5eb d93c 317e 43be
000001a0: 1a64 41bc 75ae b13d ad93 1d3e 608e 033e
000001b0: 6ff0 5ebd 7229 2dbe b5d3 813e 2d95 12bd
000001c0: 9dc7 0ebe e9e8 ab3e 0164 623c f6f6 6ebe
000001d0: 2f10 a2bd 480d 293e 942a 2b3d bb55 f83d
000001e0: ad97 fc3c 88e4 0fbe b521 8a3e 953c ed3d
000001f0: 4a9a 5f3e 095a 0abf f3dc 6c3b 8734 b8be
00000200: 2229 433d 55b5 493d 864c c4ba b531 723d
00000210: 63f9 9b3d 8fe6 c73c 12bf 1c3e 23d2 473c
00000220: d637 2e3e 3323 17bf 89e5 8abe aed6 01be
00000230: ace7 2bbe c657 0f3f b725 123e dd05 c2be
00000240: 5527 fc3d 4abf a6bc a731 5c3d 5bbc 973d
00000250: 72b5 f6bc e6a2 20be dc14 513e 7048 eebd
00000260: 1de3 173e ce4e 3a3f d83f c0be 6a49 25be
00000270: 0f77 ca3e 39b2 ccbd fe8b c1be 1745 8abe
00000280: 12a2 87bd 5460 f6bd 8b9d 50bd 61ec a1be
00000290: 04df 993e 5c52 d5bd 6012 7f3d d673 e93e
000002a0: 713f f03b 1182 b8be ed20 b33e 0907 5b3e
000002b0: b17f 38bc a76d 343e b5bb 883e 548d 933d
000002c0: 8fd3 abbe 7e10 983e 9089 c43d 4520 12bd
000002d0: 728c 18bc 57c4 373e cadd c33d 4a06 ad3d
000002e0: 195c 87be e029 0f3e bea2 833d a6f1 7cbe
000002f0: f2fa f0be 07dc a53d 791f eebd d8ad c03e
00000300: 823f 5cbc 7810 46bd 51de 873e 2d18 04bc
00000310: b75e 00bd 48e7 723e 4b7b 36bd 76e5 0d3d
00000320: cf45 a83d 32fe 7fbe 3d2e 2b3d cecc 7bbe
00000330: e91f 213c 71ba d43b 60a7 b83d b644 b53d
00000340: 66b2 013e f135 92bd e455 1abd 428e 67bd
00000350: 38b1 a13e 1749 643d 2d54 643d ecdd 163e
00000360: d7b8 e53a 982a d33c 96eb 93be 892a cc3d
00000370: 8aa2 1f3c fe01 01be fe3e 24be 92b7 803d
00000380: addf 55bc 282a 9d3d 361a e63e 2711 adbe
00000390: b35d 913d 360c 1bbe 284e 83bd ef51 583e
000003a0: 9b2c c4bc c499 193e 2674 fabd d65d d0bd
000003b0: e75c 833e 714a 90bd edd2 1d3e 0fdf 543e
000003c0: 63cf 863e 58a7 6f3e 9a53 583e 3d3f b13e
000003d0: a2da 24bf d148 663e a2f2 603e 2253 4fbe
000003e0: 34c8 2abe 1441 0a3e 114f eabc 1e59 4c3e
000003f0: fa38 65be 3634 693e 8f3c 783d ccf6 a5be

fc2.bias f4 [17]
0.049287517 -0.026618427 0.27490327 0.13674754 0.053415034 -0.04248537 0.14674838 0.11170482
0.13110755 -0.27181342 -0.05888678 -0.10632648 -0.04833445 -0.14123908 0.011949707 0.18706422
-0.030755749
00000000: b5e1 493d e30e dabc 1fc0 8c3e 8c07 0c3e
00000010: b9c9 5a3d 2405 2ebd 3545 163e 7fc5 e43d
00000020: 0f41 063e 212b 8bbe 4433 71bd b3c1 d9bd
00000030: 58fa 45bd faa0 10be b4c8 433c c38d 3f3e
00000040: 7bf3 fbbc

fc3.weight f4 [30, 17]
-0.0282519 -0.049613766 0.0030631549 0.27499646 0.44251928 0.2243228 -0.36149982 -0.08103201
0.03781274 -0.3254753 0.035599187 0.19717757 0.5594653 0.1240826 0.049120057 0.3339109
0.02368235 0.13943367 -0.2527241 -0.7801828 0.099236004 -0.32904848 0.32045114 0.16808425
0.49908668 0.11033773 -0.3768816 -0.15275528 0.18690263 -0.3361361 0.22715655 0.029359072
0.51118344 0.06040932 0.008612494 -0.010803106 -0.008084462 0.028649338 -0.20429955 0.0031345554
-0.025825178 0.0047798697 0.00048380188 0.44202656 0.063789375 0.0018667465 -0.26104546 -0.020861533
0.036692977 0.0017517476 0.011177949 -0.02369718 0.07815526 -0.020973066 0.062051926 0.24250644
0.0022254772 0.03951232 0.015546013 -0.00035142488 0.092928976 0.083399236 -0.13005282 0.121393815
0.04987939 -0.08596453 -0.0028967375 0.068713754 0.5215334 -0.23930886 0.020119851 0.26438993
0.06316184 0.023399277 0.26087752 -0.027960237 0.047114976 0.0010342748 -0.045251988 0.22184278
-0.13256654 0.19074126 -0.24114713 0.068972096 -0.50469774 0.0008108686 0.031033415 -0.026933024
0.069500715 0.06491411 0.006135219 -0.00627596 0.018866131 0.00086310174 0.341542 -0.09704286
-0.066989884 -0.0890523 -0.014463627 0.02397988 0.00042863155 0.05001533 -0.039286554 0.06340805
0.019625558 -0.017801998 0.042698286 -0.0059114243 0.06448104 -0.011119395 -0.003495219 -0.31240305
0.30193892 -0.086955056 0.045710236 0.11047557 -0.18616876 -0.005231038 0.022212721 0.1747089
0.20507368 -0.0010383993 -0.34755397 -0.036652114 -0.0058801225 0.0068761706 0.007868508 0.23986043
0.0289676 0.05213936 0.35812494 -0.13704383 0.2288808 -0.2611982 0.10598272 0.45800036
0.008445259 -0.03336089 0.01029937 -0.03200538 -0.15341721 -0.00088106975 -0.015486744 -0.007742016
-0.0005308996 0.1866276 0.17877392 0.05596999 0.14502631 -0.012411022 0.022133574 0.00089697004
-0.030676918 -0.0068240613 0.02673525 -0.008469228 0.032405123 -0.102283806 0.0010211881 0.008072382
0.006751095 -0.00024857925 0.13271052 -0.034404647 -0.049246214 0.040135458 0.014436734 -0.025667233
-0.0010362598 0.029129125 -0.11900198 0.5657336 -0.30479696 0.115839146 -0.30389962 0.022991303
-0.064624146 0.24136092 0.09202986 0.07259042 0.0006313324 -0.040964954 -0.37627152 0.14205688
-0.22268707 0.010132163 -0.17777433 -0.00065675355 -0.030805131 0.025659766 -0.0557473 -0.2549831
-0.0058893487 -0.002680478 -0.01787581 -0.0008384385 -0.044911597 0.3664465 0.05865151 -0.02721086
0.01766936 -0.030659534 -0.0002135058 -0.040939786 -0.31650627 0.012328288 -0.12141949 0.38862458
0.32045898 -0.040199425 0.122399256 0.12612908 0.13170648 0.09281521 0.18818694 0.3901489
0.04462043 -0.14395206 0.2802643 0.020749684 0.003573448 -0.0034625803 0.0052834703 0.0023820587
-0.01393872 0.12940408 -0.0012167887 0.012792276 -0.00094840117 -4.7767076e-05 -0.20312317 -0.02392534
-0.00037421938 0.19763371 0.007143845 -0.013341184 -0.00088329474 -0.0054440633 0.0039344593 -0.016910275
0.0076957503 -0.05128185 0.36283955 -0.0018848774 0.014495215 -0.00563104 0.0003734659 -0.6544926
-0.37333727 0.048772715 0.444671 -0.014951857 0.027707761 -0.00065119745 -0.037845835 -0.017847948
00000000: 8770 e7bc ce37 4bbd 36bf 483b 56cc 8c3e
00000010: e391 e23e e0b4 653e 8116 b9be 1cf4 a5bd
00000020: 88e1 1a3d b3a4 a6be 74d0 113d ebe8 493e
00000030: 1e39 0f3f 051f fe3d 1d32 493d 5ff6 aa3e
00000040: 7d01 c23c b3c7 0e3e 0e65 81be 0fba 47bf
00000050: 3f3c cb3d 0b79 a8be 2c12 a43e 471e 2c3e
00000060: 4a88 ff3e bff8 e13d a0f6 c0be e16b 1cbe
00000070: 6763 3f3e 081a acbe ba9b 683e 7082 f03c
00000080: ebdc 023f c36f 773d 6b1b 0d3c 83ff 30bc
00000090: b174 04bc 04b2 ea3c e733 51be 1d6d 4d3b
000000a0: 538f d3bc 74a0 9c3b caa6 fd39 4e51 e23e
000000b0: 01a4 823d 9ead f43a c0a7 85be cee5 aabc
000000c0: 604b 163d e59a e53a b723 373c 9720 c2bc
000000d0: dd0f a03d b5cf abbc 292a 7e3d 9c53 783e
000000e0: 50d9 113b acd7 213d b4b4 7e3c 733f b8b9
000000f0: 8c51 be3d 38cd aa3d 912c 05be 529d f83d
00000100: 554e 4c3d 2c0e b0bd 31d7 3dbb ccb9 8c3d
00000110: 3783 053f 620d 75be 63d2 a43c 1e5e 873e
00000120: ff5a 813d d7af bf3c bd91 853e de0c e5bc
00000130: a2fb 403d 8190 873a 265a 39bd c12a 633e
00000140: 86bf 07be ad51 433e 46ef 76be 3e41 8d3d
00000150: df33 01bf 7890 543a ca39 fe3c a5a2 dcbc
00000160: 6456 8e3d b0f1 843d f209 c93b 91a6 cdbb
00000170: 258d 9a3c c741 623a 98de ae3e 68be c6bd
00000180: fe31 89bd 0d61 b6bd d9f8 6cbc 7471 c43c
00000190: f4b9 e039 e0dc 4c3d f0ea 20bd 14dc 813d
000001a0: c7c5 a03c 7fd5 91bc 66e4 2e3d 9fb4 c1bb
000001b0: a30e 843d 1f2e 36bc 0b10 65bb 4bf3 9fbe
000001c0: bd97 9a3e 7e15 b2bd a83a 3b3d 0441 e23d
000001d0: 06a3 3ebe 2169 abbb 74f7 b53c e4e6 323e
000001e0: d6fe 513e e61a 88ba 98f2 b1be 8720 16bd
000001f0: 0bae c0bb 8051 e13b eaea 003c f99d 753e
00000200: 764d ed3c 1590 553d 275c b73e 3855 0cbe
00000210: ba5f 6a3e c5bb 85be 780d d93d 067f ea3e
00000220: fc5d 0a3c 6ea5 08bd b0be 283c 1318 03bd
00000230: 6719 1dbe 97f7 66ba 1dbc 7dbc bdb0 fdbb
00000240: 122c 0bba 4e1b 3f3e 8310 373e ca40 653d
00000250: c781 143e 9957 4bbc 7851 b53c a422 6b3a
00000260: 294e fbbc 609c dfbb e203 db3c 84c2 0abc
00000270: 3cbb 043d 2c7a d1bd 63d9 853a 0642 043c
00000280: 4a38 dd3b be53 82b9 44e5 073e e3eb 0cbd
00000290: 66b6 49bd 1465 243d 0d88 6c3c 1744 d2bc
000002a0: 1cd3 87ba 34a0 ee3c 4fb7 f3bd ebd3 103f
000002b0: 590e 9cbe 133d ed3d bb98 9bbe 4258 bc3c
000002c0: aa59 84bd 5127 773e 277a bc3d 49aa 943d
000002d0: 0080 253a deca 27bd a9a6 c0be 5c77 113e
000002e0: 1408 64be 5f01 263c 790a 36be fc29 2cba
000002f0: 0b5b fcbc 6e34 d23c 4857 64bd 258d 82be
00000300: 70fb c0bb f5aa 2fbb 4a70 92bc a8ca 5bba
00000310: 39f5 37bd e09e bb3e 913c 703d 4fe9 debc
00000320: 55bf 903c b429 fbbc 87e0 5fb9 7ab0 27bd
00000330: 1c0d a2be 96fc 493c c8aa f8bd cdf9 c63e
00000340: 3313 a43e 27a8 24bd 76ac fa3d fb27 013e
00000350: 10de 063e e715 be3d 14b4 403e 99c1 c73e
00000360: e9c3 363d 2b68 13be cd7e 8f3e 3efb a93c
00000370: 8230 6a3b 75ec 62bb f620 ad3b 501c 1c3b
00000380: 3b5f 64bc 8182 043e a77c 9fba b296 513c
00000390: 209e 78ba 8259 48b8 85ff 4fbe 13ff c3bc
000003a0: e032 c4b9 7e60 4a3e ea16 ea3b fb94 5abc
000003b0: e88c 67ba 1d64 b2bb a3ec 803b 6b87 8abc
000003c0: a22c fc3b eb0c 52bd 1bc6 b93e fe0d f7ba
000003d0: 577d 6d3c 9684 b8bb bfcd c339 d48c 27bf
000003e0: 1026 bfbe e6c5 473d ebab e33e a2f8 74bc
000003f0: 63fb e23c 1fb5 2aba 3c04 1bbd dc35 92bc

fc3.bias f4 [30]
-0.42886904 0.22105183 -0.041614898 -0.101922594 0.22005369 -0.09607687 0.063786514 -0.1487845
0.08320568 -0.065226845 0.07416311 0.061697707 -0.18884681 -0.08148579 -0.11679777 0.10931627
0.04628879 -0.002625408 0.037638064 0.13659374 0.028850663 0.07339327 0.12328488 0.044040333
0.092946984 0.07112008 -0.087623164 0.05002043 0.066224515 -0.036393672
00000000: b994 dbbe 695b 623e 6274 2abd cbbc d0bd
00000010: c155 613e f3c3 c4bd 81a2 823d f75a 18be
00000020: bd67 aa3d a795 85bd d4e2 973d bcb6 7c3d
00000030: 0f61 41be 06e2 a6bd ab33 efbd 35e1 df3d
00000040: 5099 3d3d 090f 2cbb 5f2a 1a3d 3bdf 0b3e
00000050: 3a58 ec3c 364f 963d c87c fc3d a363 343d
00000060: fd5a be3d 68a7 913d c673 b3bd 39e2 4c3d
00000070: b8a0 873d 8811 15bd
