CaseModels/02 30-Bus/_genModel_MW.pth (torch, 21371 bytes, 7 tensors)

bias f4 [30]
0.099413216 0.12819043 0.08773262 0.030804582 0.09201125 0.002234211 -0.018194936 -0.0879439
-0.04573691 -0.020704623 -0.011853104 -0.07662698 -0.08598941 -0.043571547 -0.006148131 0.055161808
0.0032948358 -0.052180357 0.057791073 -0.07617392 -0.05965479 -0.07560971 0.08986635 -0.0379358
-0.010165795 0.070682496 -0.056041628 0.056494955 -0.060166597 -0.09146083
00000000: 2899 cb3d 5a44 033e 29ad b33d e459 fc3c
00000010: 6570 bc3d d76b 123b 8c0d 95bc ee1b b4bd
00000020: a056 3bbd be9c a9bc 8633 42bc 9bee 9cbd
00000030: 371b b0bd 1478 32bd 4376 c9bb 59f1 613d
00000040: 2cee 573b 12bb 55bd 55b6 6c3d 1201 9cbd
00000050: 9558 74bd 43d9 9abd d90b b83d 9262 1bbd
00000060: 6f8e 26bc fcc1 903d e88b 65bd 4167 673d
00000070: 4071 76bd d14f bbbd

fc1.weight f4 [34, 102]
0.18945989 0.21314785 0.23837847 0.22035459 0.13116771 0.06497009 0.14695497 0.08029104
0.20374313 0.28090578 0.1523484 0.12615328 0.24966118 0.25819346 0.15832312 0.21891138
0.21339804 0.22603305 0.23540555 0.15438798 0.21061677 0.13125297 0.13780418 0.22226495
0.10952665 0.16275252 0.21273023 0.23987156 0.23802048 0.22842933 0.26540187 0.20979252
0.27450693 0.20507836 0.25851238 0.22319236 0.20257844 0.21045315 0.09610254 0.06959629
0.24839607 0.17094992 0.05150208 -0.028227923 -0.08164932 0.045804568 -0.071259916 -0.07564882
0.08765679 0.036397226 -0.011022113 -0.07564133 0.08757258 -0.0018122122 -0.03170163 0.06122727
-0.0024947003 -0.018376365 0.01960925 -0.04524396 0.05792979 0.08585801 -0.07069355 0.059853695
-0.0112257 -0.092231505 0.020808235 -0.08877534 0.03099323 0.06272674 0.057382412 -0.051788904
0.08441861 0.04075518 -0.06250499 0.041808464 -0.11076764 -0.09050336 0.03367304 -0.011667787
-0.01297114 -0.06419532 0.048151843 -0.033168577 0.07000504 0.0697479 -0.052056976 0.038047217
-0.02756548 0.037958704 0.07592446 -0.05268198 -0.037983935 -0.093957916 0.02716408 -0.09272344
0.069279365 0.03233353 -0.0800478 -0.075177684 -0.0871954 0.04207834 0.019550718 0.0021107276
-0.19745474 -0.0012328287 0.015592396 0.07788913 -0.116155654 -0.04247554 0.055197306 -0.052605886
-0.086476445 -0.013758452 -0.018930782 0.10276431 -0.19096337 -0.18601935 -0.041035008 -0.05372112
-0.05053386 -0.09353046 -1.3881569e-05 0.01780804 0.040191907 -0.09036832 -0.03836025 -0.0735598
-0.055752985 -0.07512434 0.0665301 0.07215921 -0.089538045 -0.08069412 0.016245808 0.01891406
-0.070612624 -0.012653623 -0.10232389 -0.015933003 0.00015127084 0.03246714 -0.081454396 -0.04370403
0.009773397 0.06794168 -0.08026664 0.08754041 -0.02033984 -0.026305713 -0.06880611 0.006698109
-0.082540736 -0.033067502 0.0149730295 -0.041824456 0.08636261 -0.039414905 -0.047324594 -0.07030607
0.007817306 0.0048729926 0.02131445 0.06434835 -0.06796788 -0.068372265 0.0025759712 -0.03526038
-0.0022814348 -0.0062734634 -0.010406762 0.036212184 0.07252405 0.04992441 0.019484352 0.045502715
-0.07296183 -0.0671011 -0.055545013 -0.0005811453 0.08167238 0.0032200492 0.022133365 0.045362495
0.046536807 0.072966345 -0.0047158427 -0.05449039 0.040382676 0.08614845 -0.0396035 0.077753626
0.025040157 -0.033686467 -0.026916213 -0.08071141 0.07060344 0.06227074 -0.07563951 0.013808042
-0.08200186 0.07768918 0.008962229 -0.017622449 0.03991791 0.098313086 0.13377786 0.2907638
0.22926626 0.043214753 0.14711972 0.057003304 0.16449556 0.14848201 0.08442249 0.15843916
0.20962508 0.19862129 0.19134212 0.15897955 0.19818328 0.2046798 0.12795971 0.19974479
0.22478914 0.12970795 0.11643608 0.11848318 0.2904309 0.08176374 0.16108963 0.20521158
0.17470823 0.10108453 0.2865354 0.11601716 0.10973094 0.22388731 0.08893359 0.28767663
0.11237956 0.18493387 0.075125486 0.23645014 0.21736547 0.26649112 -0.16210909 -0.21937601
-0.0028158873 -0.039799772 -0.0800614 0.041263886 -0.007664673 0.091502 0.016025051 0.09104235
00000000: c601 423e 6e43 5a3e 7c19 743e a2a4 613e
00000010: d450 063e 0a0f 853d 5d7b 163e a16f a43d
00000020: 0aa2 503e e2d2 8f3e 3801 1c3e 532e 013e
00000030: 2ea7 7f3e ef31 843e 751f 223e 4e2a 603e
00000040: 0485 5a3e 3575 673e 270e 713e e217 1e3e
00000050: ecab 573e 2e67 063e 8a1c 0d3e 6c99 633e
00000060: 824f e03d 99a8 263e f4d5 593e e4a0 753e
00000070: a4bb 733e 61e9 693e c1e2 873e dad3 563e
00000080: 2c8c 8c3e 1000 523e bc5b 843e 8a8c 643e
00000090: b970 4f3e 0881 573e 69d1 c43d 8088 8e3d
000000a0: 8a5b 7e3e 7f0d 2f3e d8f3 523d 3f3e e7bc
000000b0: c237 a7bd 929d 3b3d b8f0 91bd c5ed 9abd
000000c0: 6785 b33d 4215 153d 1896 34bc d7e9 9abd
000000d0: 4159 b33d c087 edba 92d9 01bd 72c9 7a3d
000000e0: 207e 23bb 088a 96bc 94a3 a03c bb51 39bd
000000f0: ca47 6d3d 53d6 af3d c8c7 90bd 2629 753d
00000100: 00ec 37bc dfe3 bcbd 0876 aa3c d8cf b5bd
00000110: 84e5 fd3c e176 803d d209 6b3d 9a20 54bd
00000120: aae3 ac3d e7ee 263d 9e02 80bd 5a3f 2b3d
00000130: 25da e2bd d359 b9bd beec 093d 3f2a 3fbc
00000140: e884 54bc d678 83bd de3a 453d c6db 07bd
00000150: cd5e 8f3d fdd7 8e3d b239 55bd 66d7 1b3d
00000160: 00d1 e1bc 967a 1b3d 497e 9b3d 0fc9 57bd
00000170: 0b95 1bbd 026d c0bd 3487 de3c c9e5 bdbd
00000180: 57e2 8d3d 2a70 043d 1af0 a3bd c2f6 99bd
00000190: 8093 b2bd 565a 2c3d d428 a03c 2254 0a3b
000001a0: 9331 4abe de96 a1ba 4077 7f3c 5684 9f3d
000001b0: 04e3 edbd d5fa 2dbd 9216 623d 4579 57bd
000001c0: 901a b1bd 216b 61bc ba14 9bbc 1876 d23d
000001d0: e78b 43be db7b 3ebe 5314 28bd ad0a 5cbd
000001e0: 98fc 4ebd e68c bfbd e3e4 68b7 2be2 913c
000001f0: 45a0 243d 0713 b9bd a31f 1dbd 85a6 96bd
00000200: 3e5d 64bd cada 99bd ef40 883d 35c8 933d
00000210: b95f b7bd f542 a5bd ee15 853c a9f1 9a3c
00000220: 5a9d 90bd 2451 4fbc 308f d1bd ee85 82bc
00000230: 759e 1e39 44fc 043d 90d1 a6bd ff02 33bd
00000240: 9920 203c 0225 8b3d d662 a4bd 6348 b33d
00000250: bc9f a6bc 147f d7bc 38ea 8cbd d07b db3b
00000260: 1e0b a9bd ca71 07bd 7051 753c 1f50 2bbd
00000270: e1de b03d 8671 21bd 6fd7 41bd a1fc 8fbd
00000280: 2814 003c a0ad 9f3b a49b ae3c 11c9 833d
00000290: be32 8bbd c206 8cbd a0d1 283b 306d 10bd
000002a0: 2084 15bb a091 cdbb 2081 2abc 3a53 143d
000002b0: 7d87 943d 8a7d 4c3d a69d 9f3c 0e61 3a3d
000002c0: 036d 95bd 4d6c 89bd 2b83 63bd 0058 18ba
000002d0: d943 a73d 7607 533b 0851 b53c 06ce 393d
000002e0: 619d 3e3d 616f 953d 5b87 9abb 5131 5fbd
000002f0: 4e68 253d 996e b03d 4837 22bd 4b3d 9f3d
00000300: 0421 cd3c d2fa 09bd 647f dcbc 064c a5bd
00000310: 8998 903d 9a0f 7f3d e3e8 9abd 203b 623c
00000320: 97f0 a7bd 811b 9f3d 50d6 123c f45c 90bc
00000330: f680 233d 5f58 c93d 10fd 083e fede 943e
00000340: c6c4 6a3e f401 313d 8da6 163e 4c7c 693d
00000350: 8671 283e ab0b 183e b3e5 ac3d e03d 223e
00000360: f5a7 563e 6163 4b3e 30ef 433e 89cb 223e
00000370: 8ff0 4a3e 9597 513e df07 033e e689 4c3e
00000380: 202f 663e 29d2 043e 0a76 ee3d 4fa7 f23d
00000390: 5cb3 943e bf73 a73d aef4 243e fc22 523e
000003a0: b7e6 323e 6805 cf3d c5b4 923e 689a ed3d
000003b0: 9dba e03d b742 653e d022 b63d 5a4a 933e
000003c0: 4127 e63d 4e5f 3d3e 64db 993d fc1f 723e
000003d0: 0e95 5e3e 8671 883e edff 25be 1ba4 60be
000003e0: c08a 38bb 1605 23bd 3bf7 a3bd 5204 293d
000003f0: f027 fbbb 6765 bb3d f846 833c 6974 ba3d

fc1.bias f4 [34]
-0.10816244 -0.05234639 -0.21184355 -0.117517054 0.096307985 -0.10249627 0.040692374 0.0041705025
-0.098187976 0.04605978 -0.020135721 0.07715264 -0.26779425 -0.11843001 0.007677254 -0.15887885
-0.005771806 -0.053242754 -0.13541035 -0.10773707 -0.068038546 0.010176561 0.0096746925 -0.29294473
0.09917787 -0.03405882 -0.035134584 -0.0980783 0.07733212 -0.08251791 -0.06841353 0.044378903
-0.05402009 -0.006053101
00000000: 4584 ddbd 2b69 56bd 84ed 58be c8ac f0bd
00000010: 1f3d c53d 90e9 d1bd 0cad 263d b6a8 883b
00000020: c716 c9bd 2ea9 3c3d abf3 a4bc 3402 9e3d
00000030: 541c 89be 6f8b f2bd 7991 fb3b 23b1 22be
00000040: 6b21 bdbb 1315 5abd 03a9 0abe 41a5 dcbd
00000050: cb57 8bbd 97bb 263c 9a82 1e3c dafc 95be
00000060: c41d cb3d 4381 0bbd 48e9 0fbd 47dd c8bd
00000070: 4d60 9e3d 26ff a8bd 651c 8cbd a7c6 353d
00000080: 2b44 5dbd 1759 c6bb

fc2.weight f4 [17, 34]
0.1581371 0.104992636 0.23206489 0.21103005 -0.26489443 0.23694484 0.1973876 0.24471653
0.22366618 -0.0068076057 -0.24756914 0.14769752 0.32237127 0.22757721 0.01218728 0.1817389
0.19119069 0.03630565 0.12580128 0.3444958 -0.2762063 0.06239884 -0.15251254 0.31489572
0.06808613 0.2485953 0.18263495 0.10967899 0.10547571 0.042641245 0.051846255 0.14657219
-0.20459583 0.017675342 0.008815791 -0.08592026 -0.14431067 -0.058541764 0.11136144 -0.04679146
0.018324787 -0.1121377 -0.209623 0.121222205 0.16407228 -0.06383284 -0.24079755 -0.14126958
0.026808517 -0.21619454 -0.12266766 -0.21316706 -0.115906686 -0.14542301 0.20727298 -0.119540505
0.13365622 -0.13113701 0.25213042 -0.20380415 -0.0399313 -0.12374579 0.010854292 -0.15238307
-0.028375788 -0.10623207 -0.080328636 -0.04444897 0.25565407 -0.12576312 0.18547937 0.16953771
-0.26783267 0.039434053 0.063555636 -0.001852054 0.0901906 -0.05440743 -0.17360583 0.118096136
0.25947985 0.13075 0.13466437 0.05473836 0.23253314 -0.024910247 0.18892384 0.23008932
-0.103977315 -0.1442012 -0.041753054 0.25176564 -0.19835569 0.18375695 0.09127996 0.20996957
-0.07775243 0.18481885 0.1387236 0.1352207 -0.074828126 -0.09133459 0.22450806 0.043803085
0.16466379 0.14389266 -0.22502775 0.031063775 0.24349682 -0.006351252 0.021732451 0.055677474
-0.24212514 0.104770176 0.22771434 0.22441104 0.16633417 0.20255148 0.029683752 0.08100693
-0.06794288 0.27676424 -0.2779436 0.00781996 -0.22529623 0.22332554 -0.13862374 0.19650751
0.24958085 0.24500257 0.090606585 -0.04393009 0.017820498 -0.0277324 -0.005790385 0.14178458
0.1647997 -0.09146843 0.15441276 0.14219563 -0.24699256 0.21980192 0.22054225 0.13000293
0.11376655 0.041000314 0.08535808 0.098593496 0.2165251 0.16379148 -0.004567113 -0.018587708
0.059590224 0.030028524 -0.027468678 0.16518459 -0.1874478 0.02735618 -0.15567754 0.2076041
0.058108225 -0.002951006 0.2566162 0.07388819 -0.11274355 0.26403782 0.18280159 -0.027243411
-0.21406741 -0.017207535 0.19504653 -0.12894168 -0.0022691435 -0.21306556 0.14634523 0.13672058
-0.098826356 0.043598577 0.009500376 0.05414377 0.028270029 -0.019543668 -0.053840727 0.1529384
-0.09549127 -0.09825518 -0.07817928 -0.0061019943 -0.031175338 -0.07998797 -0.05747078 -0.06271533
0.13022782 0.0388126 -0.08971459 0.14227371 -0.09977342 -0.03406566 0.12200138 -0.01605643
0.0082502365 -0.059108295 -0.033521883 0.04593544 -0.13525672 0.06915668 -0.055480912 0.17320575
-0.111658424 -0.03653939 -0.071730286 0.008350013 -0.07925517 0.11320346 0.08261306 0.0014415537
0.08467354 0.017343318 0.08568897 -0.009639618 0.094146974 -0.102468796 0.042665817 -0.084721655
-0.12243502 -0.09715393 -0.06818365 -0.12205681 -0.03783953 0.053202443 -0.009045436 -0.09546976
0.0021130485 0.0841825 0.029002648 -0.056294505 -0.009517612 0.028877424 0.14761648 -0.06042605
-0.043946486 -0.22185007 0.15492976 -0.014942414 -0.115464665 0.15552591 -0.09475049 -0.17090622
-0.06953843 0.0153558515 -0.08675165 -0.13068277 -0.12992129 -0.100092866 -0.083385386 -0.013964796
00000000: b1ee 213e 6106 d73d 6ba2 6d3e 4318 583e
00000010: 3ea0 87be aba1 723e fa1f 4a3e f896 7a3e
00000020: bf08 653e 5612 dfbb c482 7dbe 053e 173e
00000030: d90d a53e 000a 693e 28ad 473c c319 3a3e
00000040: 7ec7 433e 3cb5 143d 0dd2 003e c161 b03e
00000050: ea6a 8dbe ed95 7f3d 3f2c 1cbe 033a a13e
00000060: be70 8b3d c48f 7e3e a804 3b3e 619f e03d
00000070: a603 d83d 96a8 2e3d bd5c 543d 0517 163e
00000080: 9281 51be e1cb 903c 1c70 103c f6f6 afbd
00000090: 2dc6 13be 7dc9 6fbd 7711 e43d 67a8 3fbd
000000a0: dd1d 963c 73a8 e5bd 69a7 56be 5943 f83d
000000b0: 9002 283e cbba 82bd a293 76be f9a8 10be
000000c0: 899d db3c 1a62 5dbe 2f39 fbbd 7748 5abe
000000d0: 7c60 edbd c5e9 14be 5e3f 543e a7d1 f4bd
000000e0: 2ddd 083e c848 06be 3d17 813e 09b2 50be
000000f0: 018f 23bd 6f6e fdbd 33d6 313c 4f0a 1cbe
00000100: 5774 e8bc 3390 d9bd 5783 a4bd 2010 36bd
00000110: 17e5 823e 0cc8 00be 4eee 3d3e 4b9b 2d3e
00000120: 5d21 89be 9a85 213d 7529 823d 9fc0 f2ba
00000130: d9b5 b83d 53da 5ebd bac5 31be 63dc f13d
00000140: 8bda 843e 54e3 053e 75e5 093e 5535 603d
00000150: 2b1d 6e3e 9310 ccbc 4075 413e 899c 6b3e
00000160: 0ff2 d4bd 7ba9 13be 4005 2bbd 6de7 803e
00000170: c11d 4bbe c82a 3c3e fdf0 ba3d 4302 573e
00000180: ab3c 9fbd 2741 3d3e 8f0d 0e3e 4c77 0a3e
00000190: 7d3f 99bd a10d bbbd 71e5 653e dd6a 333d
000001a0: a09d 283e 9958 133e ad6d 66be 7579 fe3c
000001b0: 3b57 793e 2a1e d0bb 4108 b23c 100e 643d
000001c0: a7ef 77be bf91 d63d f32d 693e 02cc 653e
000001d0: 8153 2a3e a869 4f3e 572b f33c f6e6 a53d
000001e0: a325 8bbd 0bb4 8d3e a04e 8ebe 4a1f 003c
000001f0: 0eb4 66be 73af 643e 62f3 0dbe 4439 493e
00000200: 1f92 7f3e f4e1 7a3e f28f b93d 0af0 33bd
00000210: 4bfc 913c 0f2f e3bc 45bd bdbb fa2f 113e
00000220: 41c1 283e cd53 bbbd 611e 1e3e bb9b 113e
00000230: 9eeb 7cbe c113 613e d4d5 613e 7d1f 053e
00000240: 70fe e83d f2ef 273d 38d0 ae3d 63eb c93d
00000250: c1b8 5d3e f4b8 273e b8a7 95bb 4045 98bc
00000260: e114 743d 61fe f53c fe05 e1bc 2626 293e
00000270: 51f2 3fbe 111a e03c ef69 1fbe 2b96 543e
00000280: e402 6e3d aa65 41bb 3363 833e b152 973d
00000290: 17e6 e6bd f72f 873e 5730 3b3e 932d dfbc
000002a0: 7d34 5bbe d1f6 8cbc 47ba 473e 4a09 04be
000002b0: e9b5 14bb dc2d 5abe 86db 153e 7b00 0c3e
000002c0: 7965 cabd 6c94 323d 77a7 1b3c dcc5 5d3d
000002d0: 8c96 e73c 0b1a a0bc 1888 5cbd e29b 1c3e
000002e0: ed90 c3bd 033a c9bd 751c a0bd 3df3 c7bb
000002f0: 6c63 ffbc bcd0 a3bd 7b66 6bbd e570 80bd
00000300: 715a 053e f6f9 1e3d 48bc b7bd 33b0 113e
00000310: 0256 ccbd 6f88 0bbd dcdb f93d c688 83bc
00000320: 002c 073c 8a1b 72bd 3e4e 09bd cd26 3c3d
00000330: bd80 0abe 04a2 8d3d f43f 63bd d95c 313e
00000340: 2cad e4bd 54aa 15bd 54e7 92bd 7ece 083c
00000350: 8950 a2bd 37d7 e73d 0931 a93d 84f2 bc3a
00000360: 5269 ad3d 9313 8e3c b37d af3d 7def 1dbc
00000370: 21d0 c03d 29db d1bd 5ac2 2e3d 8c82 adbd
00000380: 36bf fabd a4f8 c6bd dfa3 8bbd ecf8 f9bd
00000390: 9ffd 1abd ceea 593d 4f33 14bc a685 c3bd
000003a0: 127b 0a3b e067 ac3d f696 ed3c 1195 66bd
000003b0: c2ef 1bbc 5990 ec3c c628 173e 4e81 77bd
000003c0: 3b01 34bd aa2c 63be e8a5 1e3e 07d1 74bc
000003d0: bd78 ecbd 2f42 1f3e 8b0c c2bd 0a02 2fbe
000003e0: 2a6a 8ebd 1c97 7b3c d9aa b1bd b4d1 05be
000003f0: 160a 05be 7dfd ccbd f5c5 aabd 9acc 64bc

fc2.bias f4 [17]
0.038394105 -0.129127 0.16477273 0.04753926 0.04942744 -0.091664284 0.08115921 0.09939709
-0.0073968554 -0.14378151 -0.06855144 0.1173991 -0.04381519 -0.014327668 0.05628989 -0.16173524
0.18632455
00000000: 2343 1d3d de39 04be 2fba 283e 87b8 423d
00000010: 6d74 4a3d 7cba bbbd cd36 a63d b490 cb3d
00000020: 5261 f2bb 763b 13be b364 8cbd f06e f03d
00000030: 8f77 33bd 98be 6abc 3a90 663d ec9d 25be
00000040: ddcb 3e3e

fc3.weight f4 [30, 17]
0.3264458 -0.22183093 0.2932565 0.22613506 0.21352887 -0.0017324237 -0.0028468643 -0.19206652
0.31761256 0.24335128 -0.0015269831 0.12010921 -0.022351068 0.28421995 -0.18131728 -0.23518142
-0.013187342 -0.11444308 0.082003914 0.10978754 0.0074202805 0.13061924 -0.081506744 -0.075653456
-0.00018549849 0.11011799 -0.23134252 0.228351 0.05250629 -0.052540913 0.0008646943 -0.17224744
0.049165867 -0.0953952 -0.20223714 -0.12914264 0.13960816 -0.18582319 0.07957334 0.07674032
-0.14378925 0.21749194 -0.13818628 0.06167355 -0.19972967 0.20365524 -0.08848086 0.1900788
-0.05201358 -0.02146689 -0.07600727 -0.10585824 0.17751008 0.014321716 0.12917353 -0.07285154
0.05704719 -0.13850254 -0.046646006 0.10891396 0.037797857 -0.09691447 -0.22801133 -0.08064504
0.024348317 0.08125649 0.062242784 0.101634204 0.23268901 -0.17499167 -0.09319606 -0.052602004
0.24222298 0.027023504 -0.054028172 0.21489307 -0.055940393 -0.12966692 -0.0017178815 0.017131267
0.07813915 -0.17884977 0.055823885 -0.123667255 0.14268158 -0.032854155 0.14099216 0.15308617
0.08274438 -0.07151229 0.11685862 0.059236158 0.018668953 0.06863818 -0.046100076 0.06445514
-0.047059808 0.04775536 -0.12480475 -0.15608561 -0.08487045 0.21784745 -0.04658328 -0.13162021
-0.024088291 0.035376165 -0.10006779 -0.08949669 0.14284106 0.16316274 -0.07174107 -0.07259949
0.033234347 0.055163827 -0.1059146 0.23629203 -0.091989756 -0.091342255 -0.15748362 -0.08808722
0.20036477 -0.19790748 -0.11729495 0.14591555 -0.11846548 -0.0149040455 -0.011314479 0.18506294
0.12486695 0.079222195 0.1153718 -0.12764648 -0.056047864 -0.14841802 -0.20024535 -0.0128763495
-0.04796381 0.029417444 -0.15416081 0.11177405 -0.08024795 0.0482744 0.054068346 0.008038739
-0.007306232 0.14942248 -0.14997491 -0.03226994 -0.047719117 0.062887214 -0.10820558 0.08209162
0.061418623 0.0464575 0.18266486 0.15615252 -0.006862661 -0.18726845 -0.21782911 -0.07416844
0.23133893 0.06662074 -0.056982186 0.21021575 -0.15631172 0.045315314 0.0054362603 -0.20498277
0.052292597 -0.08872197 -0.012168819 -0.1389504 0.036188714 0.14596929 -0.06893408 -0.061645415
0.047868337 -0.024133036 -0.1376831 -0.030710803 0.012688272 0.08251248 0.121904984 0.03408009
0.16049181 0.19127664 0.027052812 -0.12387111 0.0958588 0.082245186 0.1476157 0.06498122
0.034399804 0.06751278 -0.03976363 -0.17754583 -0.097295314 -0.117325485 0.094188474 -0.18555562
0.10743363 0.14570118 0.10450179 0.013571946 -0.044862874 0.019494493 -0.078185104 -0.10850217
0.13794667 0.11100005 0.0850274 -0.069087945 -0.04057885 0.14639047 -0.028104207 0.17551818
-0.042876653 -0.056606203 0.046683226 -0.13357201 0.07473087 -0.2588835 -0.07241664 -0.08594537
0.08281946 0.0011555474 -0.039810672 0.1040799 -0.06715842 0.11023868 0.1648275 -0.024033986
0.080785744 -0.1658223 0.036386322 0.007436037 -0.039700042 0.04376854 0.09218809 0.12599204
0.11719914 -0.075216874 -0.12896514 0.0044330438 0.09325918 0.16388999 -0.013828188 0.008387603
0.037814703 -0.034200497 0.087272614 -0.035696443 -0.15152195 -0.0028302777 0.01903238 -0.10129823
00000000: e723 a73e a627 63be b725 963e f38f 673e
00000010: 50a7 5a3e 7e12 e3ba 7592 3abb 16ad 44be
00000020: 1d9e a23e 1431 793e 0d25 c8ba d1fb f53d
00000030: 9619 b7bc 4785 913e 3dab 39be 66d3 70be
00000040: b90f 58bc 2261 eabd abf1 a73d 4ad8 e03d
00000050: d325 f33b 0dc1 053e 02ed a6bd 33f0 9abd
00000060: 5f82 42b9 8a85 e13d 0ee5 6cbe d8d4 693e
00000070: d610 573d 2435 57bd a7ac 623a a261 30be
00000080: 2662 493d 8f5e c3bd 4117 4fbe f83d 04be
00000090: 71f5 0e3e 6f48 3ebe 59f7 a23d 072a 9d3d
000000a0: 7d3d 13be 35b6 5e3e b480 0dbe 689d 7c3d
000000b0: ef85 4cbe 008b 503e 7435 b5bd 04a4 423e
000000c0: 310c 55bd 55db afbc b3a9 9bbd 34cc d8bd
000000d0: 34c5 353e a1a5 6a3c 1146 043e 3033 95bd
000000e0: 50aa 693d 9cd3 0dbe e20f 3fbd 480e df3d
000000f0: edd1 1a3d 187b c6bd cd7b 69be 3a29 a5bd
00000100: 1f76 c73c cd69 a63d 4af2 7e3d 9825 d03d
00000110: 0746 6e3e 0431 33be 93dd bebd 3375 57bd
00000120: 4d09 783e 6560 dd3c a54c 5dbd ee0c 5c3e
00000130: c121 65bd 68c7 04be 8a2a e1ba df56 8c3c
00000140: 6b07 a03d 6524 37be 96a7 643d 4245 fdbd
00000150: 1f1b 123e 1492 06bd 4060 103e 9fc2 1c3e
00000160: e375 a93d 0975 92bd 9253 ef3d 9da1 723d
00000170: a2ef 983c 2d92 8c3d 6fd3 3cbd 0e01 843d
00000180: c9c1 40bd 209b 433d a299 ffbd e8d4 1fbe
00000190: 8fd0 adbd 6713 5f3e 1cce 3ebd 73c7 06be
000001a0: cf54 c5bc 99e6 103d 57f0 ccbd 0a4a b7bd
000001b0: ed44 123e 2214 273e fbec 92bd 0baf 94bd
000001c0: bd20 083d 77f3 613d c1e9 d8bd 8af6 713e
000001d0: 2065 bcbd a611 bbbd 6343 21be 1367 b4bd
000001e0: 6c2c 4d3e 42a8 4abe 5638 f0bd e36a 153e
000001f0: 089e f2bd 1930 74bc 5d60 39bc 2481 3d3e
00000200: 3eba ff3d 3f3f a23d 0d48 ec3d c2b5 02be
00000210: 7292 65bd e5fa 17be 1e0d 4dbe 53f7 52bc
00000220: b375 44bd dafc f03c 55dc 1dbe cbe9 e43d
00000230: 0a59 a4bd 61bb 453d c576 5d3d eab4 033c
00000240: 1e69 efbb 3502 193e 0693 19be 7c2d 04bd
00000250: 1f75 43bd 03cb 803d e39a ddbd a71f a83d
00000260: 1892 7b3d 384a 3e3d 7f0c 3b3e 72e6 1f3e
00000270: 2ce0 e0bb 4dc3 3fbe 980e 5fbe a0e5 97bd
00000280: 1de4 6c3e 7470 883d 2766 69bd cc42 573e
00000290: 2e10 20be 8d9c 393d a822 b23b 01e7 51be
000002a0: c330 563d ddb3 b5bd ba5f 47bc 0349 0ebe
000002b0: 9e3a 143d f978 153e 502d 8dbd e77f 7cbd
000002c0: 9711 443d a5b2 c5bc ccfc 0cbe 3995 fbbc
000002d0: 78e2 4f3c 4efc a83d 52a9 f93d 9097 0b3d
000002e0: f757 243e 06de 433e dc9d dd3c 23b0 fdbd
000002f0: 9e51 c43d 2a70 a83d 9228 173e e014 853d
00000300: cfe6 0c3d 2444 8a3d 30df 22bd 93ce 35be
00000310: c442 c7bd 5848 f0bd e3e5 c03d 4b02 3ebe
00000320: 2a06 dc3d b132 153e 0905 d63d de5c 5e3c
00000330: 22c2 37bd eab2 9f3c 831f a0bd 6336 debd
00000340: e441 0d3e ff53 e33d d822 ae3d fb7d 8dbd
00000350: 0236 26bd 62e7 153e cb3a e6bc 0abb 333e
00000360: 6e9f 2fbd e8db 67bd e936 3f3d 1ac7 08be
00000370: 800c 993d 618c 84be 2d4f 94bd 2004 b0bd
00000380: 409d a93d bd75 973a 8410 23bd d827 d53d
00000390: 5b8a 89bd d1c4 e13d 8ac8 283e ece2 c4bc
000003a0: ff72 a53d 52cd 29be d309 153d 00aa f33b
000003b0: 839c 22bd a446 333d 1ccd bc3d 0f04 013e
000003c0: 1a06 f03d 4e0b 9abd 700f 04be 1143 913b
000003d0: abfe be3d c7d2 273e a08f 62bc 286c 093c
000003e0: 97e3 1a3d d215 0cbd fcbb b23d 6f36 12bd
000003f0: 9228 1bbe 2e7c 39bb cbe9 9b3c 7275 cfbd

fc3.bias f4 [30]
-0.14087622 0.17529881 -0.076870196 -0.029000487 -0.11530795 -0.035237875 -0.0051936195 0.13391186
0.10591379 -0.014581045 0.004074987 0.042139076 0.14429492 0.09080972 0.0028724335 -0.12623778
0.0056502894 0.019062271 -0.073286295 0.08204001 0.10037039 0.121612005 -0.018993022 0.027428396
0.008744176 -0.08746347 0.048357464 -0.12460366 0.09855858 0.077351354
00000000: db41 10be 8881 333e 1f6e 9dbd 6e92 edbc
00000010: 9326 ecbd 9755 10bd 3d2f aabb 3120 093e
00000020: 54e9 d83d 56e5 6ebc 7887 853b 069a 2c3d
00000030: 0cc2 133e 72fa b93d 703f 3c3b 7a44 01be
00000040: 1026 b93b 7b28 9c3c 2017 96bd 9804 a83d
00000050: fe8e cd3d b70f f93d 4197 9bbc 84b1 e03c
00000060: bb43 0f3c 0c20 b3bd 7a12 463d 3430 ffbd
00000070: 15d9 c93d 636a 9e3d
