CaseModels/03 37-Bus/_baseModel_vang.pth (torch, 18204 bytes, 7 tensors)

bias f4 [37]
00000000: 2bb0 efbc b8a6 b3bd 67d3 733d 39ea c1bc
00000010: 0e5b e2bc 9e4b a0bd 10fd 8a3d 5ead 6a3d
00000020: 933e e53d 20ae a7ba eb82 44bd cb9c 0fbd
00000030: c7af 1bbd 1b7e 433d 8267 9b3d ff91 133d
00000040: 3e24 95bc 07f9 08bd 3d27 ee3d 5bbc a2bb
00000050: 28bc c93d 034c b83d 486c 173d ba06 1b3d
00000060: a660 03bd 525f 5abd 5692 123e f844 e03c
00000070: b2fe 0a3e a93e 93bd c904 953d 5778 283c
00000080: 6b7b 5a3c 1021 bebd f569 5dbd ad20 b6bb
00000090: a450 943d
-0.029258808 -0.087720335 0.05952778 -0.023671256 -0.027631309 -0.07826923 0.06786549 0.057294242
0.11193576 -0.0012792982 -0.047976416 -0.03506164 -0.03800943 0.047727685 0.07588102 0.036027905
-0.018205758 -0.033440616 0.11628578 -0.0049663014 0.09850341 0.08998873 0.0369685 0.03784821
-0.032074593 -0.05331356 0.14313635 0.027376637 0.13573721 -0.07189686 0.07276303 0.0102825975
0.013335089 -0.0928365 -0.054056127 -0.0055580945 0.072419435

fc1.weight f4 [30, 91]
00000000: 54a5 7dbe 07ba c0ba a9c8 c4be b6d6 97be
00000010: 29ff 1bbd dae7 a7bd 1f8f 47be b085 273e
00000020: 7fa4 0bbf b0e2 ddbd f8a0 16bf 39f7 693e
00000030: f6a0 16bf e959 ccbd 1e46 963d fee2 203e
00000040: 4518 c9be 52cc c2bc b23f babd ea07 96be
00000050: 28a8 91bd e259 bdbe aa57 11be 770e c3be
00000060: a318 09be 2ea6 813d 5faf 26be 00a9 ad39
00000070: 9bfe ccbd 51eb aa3d d0ba c83b 8871 43bc
00000080: e22f 493d bcd6 d4bd 455e c4bd 1ce3 fcbc
00000090: 484b 423c 74df 89bd c009 bf3b 7693 183d
000000a0: ae6c 233d 8726 983d fbd3 36bd 0aa4 343d
000000b0: 29d7 4ebd 18c9 a6bc bcd1 c6bd e9ac 9f3d
000000c0: 8a65 11bd 638b 9a3d 923e 2fbd 22b4 4e3d
000000d0: bf8b b03d 7a44 92bd 8bee 74bd 747b 4dbe
000000e0: 0a0b 523d 68c4 a23c 8c24 fdbc 0d2c 853d
000000f0: cddc 9bbd 0084 8f3b 5990 a23d 43ea d0bd
00000100: 0ab2 0a3d 1ab1 673d 5a92 28bd 0492 f63c
00000110: 8b0b cb3d a542 6abd 0ff4 ba3d 509a 0e3c
00000120: bb48 833d 6463 c43c f5e9 65bd 8374 56bd
00000130: 94ac 043d c79d 843d b002 e53b 28b0 61be
00000140: b596 a3be 7469 acbe 8978 62bd fec2 7d3d
00000150: 7965 d2bd 185e 08bc e0d2 30be 639c b3be
00000160: 001d 93be 5f9d 9bbe e0be a9be 2278 0ebd
00000170: 95a2 e8bc 762c 32be 6980 6e3c 2307 613c
00000180: 17c4 cd3d d2c9 ae3d 0a66 47bd 9395 093d
00000190: a2e0 a9bc 6afa 85bd 1575 44bd c59d c13d
000001a0: 317a 273d d2e9 c9bc 5b98 833d caf0 5f3d
000001b0: 0a1c d1bc b2b3 173d 7d1a 4abc 73a8 f3bc
000001c0: 8c81 b7bd 44ab abbc 8eed 8dbd 6093 70bd
000001d0: c0c9 a13d b603 b53c c4da a3bd b9b6 34bd
000001e0: 5404 18bd b82f 4cbc 3dc9 acbd 3877 1ebc
000001f0: 06c4 183d d9b8 c2bd 1ac6 1abd 704e a33b
00000200: 76f3 6c3d cedd 2e3d 14c6 fc3c eaf0 30bd
00000210: d7a3 9d3d b082 b8bd 2c4a 85bc 72a7 62bd
00000220: ef43 cd3d 00b4 1fb9 ea7a a5bd d58c c93d
00000230: 1062 18bd 1a0e 723d bd76 9a3d 3d0c a53d
00000240: 34fc b33c 18c9 0b3c 8ea0 cd3d 1cea 54bd
00000250: 463d 0ebd 4d1a c33d f2e4 373d 746f cabd
00000260: 726d 443d ccab 8bbc 1d24 48bd 32ba 453d
00000270: e89f 4f3c 0087 cc3a 6bf8 cd3d 4aab 14bd
00000280: 2cfa a73c e27e 083d 9419 8dbd 08fc 7bbc
00000290: e2c8 c8bd 5012 c2bd add2 47bd ddd0 b63c
000002a0: 7241 6a3d 8035 ab3b 9f1e 9d3d 2416 ca3d
000002b0: 9954 9d3c e9b8 b23d 6acc 22bd 5918 9a3d
000002c0: 06b5 3ebd 8c39 88bd 0090 f43d aaf5 7fbc
000002d0: 13e5 1ebd b212 613d fcc3 a53c 3b3b 0d3f
000002e0: c22d acbe 1217 93be 991f 05bf 97f8 a1be
000002f0: 2e7e 79bf 79d5 98be 23f0 42bf 4c34 32bb
00000300: bc8d 23bd 80ed 173f 972c b5be a31c 7abd
00000310: 68d0 a73e 2473 cabd 842c b3be 74f2 39bd
00000320: 28f9 84bf f9aa 1a3f 2e0f a3be 166d efbc
00000330: 4884 5ebe d7ad 1f3d 9316 443f 1f6a 3bbe
00000340: 479f a93d 5f21 bebd a098 bcbb 1e28 06bd
00000350: e327 c23d 4a43 89bd 00b9 4eba 6746 863d
00000360: 7e3d 053d 06a0 b1bd cfea c3bd d9ba 943d
00000370: 2c31 de3c d050 263c 37d3 a83d 8ac2 1dbd
00000380: 3a0a d4bd bced f83c a166 813d 48ad 0a3c
00000390: 74b4 cc3c 6161 c73d 8824 07bc c4b1 a0bd
000003a0: b87d 36bc befe c4bd 30e8 a63b 9a0b 223d
000003b0: 5e77 50bd c79e 6abe 0ae8 583d d54d 96bd
000003c0: c860 76bd 8e61 8ebd 12d8 40bd f08f e6bc
000003d0: ee3c 523d 9c8d b2bd 204b 0bbb 0071 a4bc
000003e0: 80dd 74bb aa5d 373d c070 6d3b 3968 93bd
000003f0: 114b 873d 6ea8 093d 9c4f bebd 7c3b dfbc
-0.24770099 -0.0014703878 -0.38434342 -0.29656 -0.038085137 -0.08198519 -0.1948819 0.16359591
-0.54547876 -0.10834253 -0.5883937 0.22848214 -0.58839357 -0.099780865 0.073375925 0.1571159
-0.3927633 -0.023779068 -0.0909418 -0.29302913 -0.071121514 -0.36982638 -0.14193597 -0.38096973
-0.13388304 0.063305244 -0.16277836 0.00033123046 -0.100095 0.08345664 0.0061257854 -0.011928923
0.04911793 -0.1039252 -0.09588293 -0.030870013 0.011858769 -0.067320734 0.0058300197 0.037250005
0.039898567 0.074292235 -0.044635754 0.044101752 -0.05049816 -0.02035956 -0.097079724 0.07796652
-0.035497226 0.07546117 -0.04278428 0.050464757 0.086204045 -0.07141967 -0.059797805 -0.20066625
0.05128006 0.019869044 -0.030901216 0.06502543 -0.07610474 0.0043797493 0.079376884 -0.10200932
0.033861198 0.05656538 -0.041155197 0.030098923 0.09914311 -0.057192463 0.09128582 0.008703783
0.064103566 0.023973174 -0.056131322 -0.052357208 0.032391146 0.06475406 0.0069888458 -0.22039855
-0.31950918 -0.33674204 -0.055290733 0.061953537 -0.102732606 -0.008323215 -0.17267942 -0.3508025
-0.28733063 -0.30393502 -0.3315344 -0.034782536 -0.028397838 -0.17399773 0.014556983 0.013734612
0.10047167 0.08534588 -0.048681296 0.03358991 -0.020736996 -0.06541903 -0.04796322 0.0945392
0.040888015 -0.024647627 0.06425544 0.054672994 -0.025526065 0.037036605 -0.012335417 -0.029743409
-0.08960256 -0.02095569 -0.069300756 -0.058734298 0.07899809 0.022096496 -0.080007106 -0.04411957
-0.037113503 -0.012462549 -0.08436821 -0.009671979 0.037296318 -0.09507913 -0.03778658 0.0049837157
0.05784937 0.042692 0.03085617 -0.043198504 0.076972656 -0.09009302 -0.01627072 -0.05533547
0.10022723 -0.00015230477 -0.080800846 0.09841315 -0.037202895 0.05909548 0.07542179 0.08058975
0.021970846 0.008531831 0.10040389 -0.051981077 -0.034726404 0.09526501 0.044896074 -0.09884539
0.047955938 -0.017049693 -0.048862565 0.048273273 0.012672402 0.0015604198 0.100571476 -0.036296166
0.020505033 0.03332413 -0.06889644 -0.015379913 -0.0980394 -0.09476149 -0.0487849 0.02231639
0.05719132 0.0052248836 0.07671856 0.09867504 0.019205378 0.08726675 -0.039745726 0.07524175
-0.046559356 -0.06651601 0.11941528 -0.015622536 -0.03879268 0.05494947 0.020235054 0.55168504
-0.3362866 -0.2872854 -0.5200134 -0.31634971 -0.9745816 -0.29850367 -0.7614767 -0.0027191816
-0.03993009 0.5934677 -0.35385582 -0.061062466 0.3277619 -0.098852426 -0.349949 -0.045397237
-1.0388536 0.60417134 -0.3184752 -0.02922682 -0.21730149 0.038984146 0.76596946 -0.183022
0.08282333 -0.09283709 -0.005755499 -0.032753102 0.09480264 -0.067022875 -0.00078858435 0.06556397
0.032529347 -0.086731 -0.095662706 0.07262201 0.027123056 0.010151103 0.08243411 -0.038515605
-0.10353513 0.030386798 0.06318403 0.008464165 0.02498839 0.097353704 -0.008248456 -0.07846406
-0.011138372 -0.09618901 0.005093597 0.039561845 -0.050895087 -0.22912131 0.052955665 -0.07339064
-0.06015089 -0.06952201 -0.04708106 -0.028144807 0.05132764 -0.08718416 -0.0021254495 -0.020073414
-0.003736347 0.04476706 0.0036230534 -0.07197613 0.06606115 0.033607893 -0.09292528 -0.027250044

fc1.bias f4 [30]
00000000: 338a 91be d54c 8dbd 6140 dabd 6477 0ebe
00000010: 6e85 013d a2c8 9bbe 3ee1 303a b48f 0ebe
00000020: 0930 b93d b456 c53c 151e 8b3c d1dd fd3c
00000030: 5c22 ae3d ca99 83bd 7f67 d5bd ad93 50be
00000040: a115 d83d 62f3 313c 09f9 613e 7fe4 a03d
00000050: 98d9 f8bd 8a73 0ebe 9114 733d 948d 87be
00000060: a9ec bdbe cac0 5ebc 9ef6 33be 9c00 17be
00000070: a528 88bb 52fb abbd
-0.2842575 -0.0689942 -0.106568106 -0.13912731 0.03162139 -0.30426508 0.0006747431 -0.13922006
0.09042365 0.024089195 0.016982118 0.03098956 0.08502647 -0.06425817 -0.10420131 -0.20368834
0.105510004 0.01086125 0.22067656 0.07856082 -0.12150878 -0.13911262 0.059345786 -0.26475203
-0.3709462 -0.013595769 -0.17574546 -0.14746326 -0.004155236 -0.08397545

fc2.weight f4 [15, 30]
00000000: df02 d63f 3f50 083f 45ae 37be 594f 6240
00000010: bb44 14c0 f4f0 9d3f 9e76 1bbf d329 253f
00000020: 7ff8 96be 51a5 15bf 9ed0 febe bd43 b73f
00000030: b521 ecbe 54e9 60c0 29fc 0e40 ca4a e93f
00000040: 0a50 7d3e d4c0 53bf 21bb 4a3d 1f21 d8bf
00000050: e261 b3bf 8567 1cc0 78e7 4cbd 2bfa 8cc0
00000060: 8620 2940 74fd 39be 16d0 713f 853b 763f
00000070: 9d6f 653e 9ba8 75be 02ca 1f3e f1f7 b53d
00000080: a77d 1e3e 886a 9538 f6fe 2c3d 1b32 593e
00000090: f530 8ebb 46c9 803d ab18 b13b dc56 ed3c
000000a0: e7e5 50be 1b04 45be b28c debb d8ae 313e
000000b0: b55c 24be cb4f 49be 7c6e 503d 8955 ad3d
000000c0: 3b50 c93c 2d96 32be 15c5 3ebe 9b11 4bbd
000000d0: 5cf9 97bd 42d1 183d a034 413c 146c d83d
000000e0: 668b 0f3e fcf3 123e 0397 df3d d03a 973d
000000f0: 3694 383f 3f38 1ebf 9756 7040 da90 55be
00000100: dc7f 94bf c45c 0840 aa69 dc3d eebf 033f
00000110: e46a e8be 87d1 24be c4e7 c43f c762 39c0
00000120: 3f9e 283f 02fc fb3f 0bd4 a1bd 8c52 f93f
00000130: cc16 943d accf 523e 806e 03bf 68df ccbf
00000140: 6e06 73c0 0b78 973f 4dd6 45be 36a9 a23f
00000150: a17d bbbe 3410 3abf 722b a93f 851a 8640
00000160: a464 1f3e 1915 113f 3a09 593e 987d 1d3d
00000170: 9cd3 30be ccac 11be 77df c63d 0ba5 5f3b
00000180: 550f cdba f449 15be 0eab 8fbd 5769 9b3e
00000190: 1644 70be bced 4a3e 8270 993c 2569 0e3e
000001a0: 72af 22be 611c 463d 9c2a 763c d7de 8abd
000001b0: e990 66ba c91a 0b3e 73ab e23d 3d2b be3d
000001c0: ac04 c43c 4548 21be 84c6 8dbd 24ed babd
000001d0: e6d8 d8bc a259 23bd a120 d93c e73a e63d
000001e0: 1902 a63f 3bea 883e 4113 07be b45b 033f
000001f0: d704 223f 8838 b33f b3c9 833e d496 0840
00000200: 483a 36bf 99fe 8ebd 3c41 a33f 3d73 9cbf
00000210: a298 693f 5ae3 5a3f 4452 e23f fc42 bfbf
00000220: d952 0ebf 0b86 9cbf a5cf 3dbe 60ed 1ebf
00000230: a500 59bf 5863 1040 22e6 31bf 22e5 ebbc
00000240: 8618 643f 936f f83e 8b0b 3640 29cb 2e3e
00000250: 47fd 7ebf f450 e83f ad6d 6f3d 41d3 913d
00000260: 0b67 09bd 1d09 b1bd 489c 553d 358d 873e
00000270: 378a c33d e623 3f3e 4818 14bd 7fa2 b23d
00000280: f918 793e b57b 45be d368 f9bd af88 153e
00000290: 26ea 6c3e 3b88 b23e 0fc7 ba3c fa56 823c
000002a0: f2c0 5e3d 7d2f 2ebd 84a1 01bc 419f 563d
000002b0: 9b47 dc3d 1967 113e dd12 3d3e 4b44 97bd
000002c0: 2d08 923e 4318 563e 9a51 28be 029b 2d3e
000002d0: cdb4 a03e e73e a2bc fb67 febd 3e1b d63c
000002e0: a33f f93d 8d9d 4f3e e0a5 01be fc0f b63d
000002f0: e909 973d 7305 e73d 7aa2 49be 895f a7bd
00000300: fd13 e13c 2c2a 4fbe 03ad d33d cb7a 56be
00000310: 2c3d 86bc 31c0 0a3d d38b 03be e331 1dbe
00000320: e0ab 6dbd 301d c3bd 1d3c 293e 19a5 d3bd
00000330: ac46 903e 8924 693d d5de 31bd 292b f6bd
00000340: 26cb 9fbb 92d4 0c3e d73d 2f3c 9e33 34bd
00000350: cbba 41be 9f49 d63d bad2 243d 1388 c63d
00000360: db19 7b3d 99f8 d93d 30b6 17bd 4d79 f5bd
00000370: 54fe 35be 32e5 333e 8c36 803d 2426 19be
00000380: aa67 90bb be00 82bd 6c17 c13d 28bb 053e
00000390: 9b12 033e 6c49 17bd 586d 58bd 3f27 33bd
000003a0: a3a0 a93c 0d3d 353e a708 8c3c a7c6 af3d
000003b0: 3685 1fbe 382d 88bd 2d87 e5bc cd43 5bbe
000003c0: ff7a 513f d85d 433f 6770 edbf 9864 823f
000003d0: 3267 5f3f 37c3 c73e c4cb e63d f489 de3e
000003e0: 51ad 03bf 2819 3cbf e8d2 71bf 8af8 53bf
000003f0: 51bc babc 706f f1bf 7ba0 2f40 70b8 21c0
1.6719626 0.53247446 -0.17937572 3.536093 -2.316695 1.2339158 -0.6072787 0.64516944
-0.29486462 -0.5845538 -0.49768537 1.4317547 -0.46119466 -3.5142412 2.2341406 1.8225949
0.24737564 -0.8271611 0.049494866 -1.6885108 -1.4014246 -2.4438183 -0.050025433 -4.405538
2.64261 -0.18163091 0.9445814 0.9618457 0.22405858 -0.23990099 0.15604404 0.08885182
0.1547762 7.124717e-05 0.042235337 0.2121052 -0.004339332 0.0628839 0.005404552 0.028972082
-0.20400201 -0.19239847 -0.0067916745 0.17351854 -0.1605099 -0.19659345 0.050886616 0.0846358
0.02457439 -0.174401 -0.18629868 -0.049577337 -0.074206084 0.03730894 0.011792332 0.10567489
0.1401802 0.14350885 0.10917475 0.073842645 0.7210115 -0.61804575 3.755285 -0.20856038
-1.160152 2.130662 0.10762341 0.51464736 -0.4539405 -0.16095553 1.5383229 -2.896654
0.65866464 1.9686282 -0.07901772 1.9478316 0.07230911 0.20587033 -0.51340485 -1.6005678
-3.7972674 1.1833509 -0.1932003 1.2707889 -0.36619285 -0.72680974 1.3216383 4.1907372
0.15565735 0.5667282 0.21194926 0.038449854 -0.17268223 -0.14226073 0.09710591 0.0034125473
-0.0015644828 -0.14578992 -0.07015048 0.30353805 -0.23463473 0.19817251 0.018730406 0.13907297
-0.1588724 0.048366908 0.015024807 -0.067807846 -0.0008795397 0.13584436 0.110678576 0.09285591
0.023928009 -0.15750225 -0.069226295 -0.09127262 -0.026470613 -0.039880402 0.026504816 0.112417035
1.296939 0.26741204 -0.13190939 0.513118 0.63288635 1.4001627 0.25739822 2.1342058
-0.7118268 -0.069821544 1.2754283 -1.2222668 0.91248524 0.8550316 1.7681355 -1.4942317
-0.55595165 -1.2228407 -0.18536241 -0.62080956 -0.8476661 2.2560635 -0.6949178 -0.028795782
0.8909992 0.48522624 2.8444545 0.17069687 -0.9960522 1.8149705 0.058454204 0.071203716
-0.033545535 -0.08644316 0.052150995 0.2647492 0.09547847 0.18666038 -0.03615597 0.087224
0.24325933 -0.19285472 -0.12178197 0.14602922 0.23136196 0.3486956 0.022799997 0.015910614
0.054383226 -0.042525757 -0.0079120435 0.05239797 0.10755845 0.14199485 0.18464227 -0.07386073
0.28521863 0.20907693 -0.16437379 0.16953662 0.3138794 -0.019805385 -0.124221765 0.026136037
0.12170341 0.20274945 -0.12660933 0.088897675 0.07374937 0.11280336 -0.19690886 -0.08172519
0.027475351 -0.20230931 0.10335734 -0.2094528 -0.01638659 0.033874694 -0.12846307 -0.15351062
-0.05802524 -0.095270514 0.16526838 -0.10334224 0.28178918 0.05691961 -0.0434254 -0.12019951
-0.004876512 0.13752964 0.010695896 -0.04399454 -0.18918912 0.10463261 0.040240027 0.09693923
0.061303955 0.10643119 -0.037038982 -0.11986027 -0.177728 0.175679 0.06260404 -0.14955956
-0.004406889 -0.06347798 0.094282955 0.13059676 0.12800066 -0.036935255 -0.052838653 -0.0437386
0.02070648 0.1769907 0.01709397 0.08582812 -0.1557816 -0.0664925 -0.028018558 -0.21412583
0.818283 0.7631507 -1.8549927 1.0186949 0.8726684 0.39016125 0.11269334 0.43464625
-0.51436335 -0.73475885 -0.9446244 -0.82801116 -0.022794874 -1.8862133 2.74417 -2.5268822

fc2.bias f4 [15]
00000000: aa56 0cbe 8e1e bdbd 54b4 23bd 51ae 943d
00000010: 93ff 06bd b30b 153d d9e5 933d f214 56be
00000020: 79d0 c73d 38b7 943d 1e5c 95bd b5ca 5bbe
00000030: 8df1 e33d 4a58 78be 1823 5b3e
-0.13704935 -0.092343435 -0.039966896 0.07259811 -0.03295858 0.03638811 0.07221574 -0.20906428
0.0975656 0.07261509 -0.072929606 -0.21464045 0.111300565 -0.2425243 0.21400106

fc3.weight f4 [37, 15]
00000000: 4c64 123f d79c 78bd c9c0 32bc b11f b43c
00000010: bd84 383d ddcf 45bc a520 4ebd e037 8ebc
00000020: 87f0 f43e 13fa ba3c 57b5 33be 5f08 043d
00000030: 0016 5e3e 6cb0 563e e352 b83b 8c79 d63f
00000040: 4e05 0fbe f2a1 f93d 5181 eb3c 6ab5 16bd
00000050: 4b14 873c 30dc adbd 9fd1 4c3d 2b65 ab3e
00000060: bc6f 573d 39be 52bf da79 833e 196e b63c
00000070: 263e b43e 1172 a2bc 0302 34bf 76e4 89bd
00000080: 451d 21bf b30a bebc e073 cf3e ad6a b9bb
00000090: 4ddc 01be 91e4 373c b617 24be 5acc b43c
000000a0: c46d 7dbf 6756 753f 2768 133f 81ab 053d
000000b0: 8a61 a7bc 4c86 683f 6583 5f3e 37c7 09bf
000000c0: 6474 383e 17bd 7cbe 1699 3dbd d1cb 87be
000000d0: c8c3 3fbc e544 f4be 9070 56be a8ce 973f
000000e0: b704 a6be cb1b 08be 71ba 1a3f e5a3 ed3d
000000f0: feda ff3e 30d1 f4bc a33b 143d c480 fdba
00000100: 677b 0d3e d3fc 51bc 7b84 71bd bb93 26bd
00000110: b895 f13e a523 c43c 22f2 36be 9194 1bbc
00000120: 9833 7a3e fe0a 383e a45a 053c ea57 adbd
00000130: e3c7 32bd b817 063e 8953 22bd 9d32 be3e
00000140: d862 4a3c 4a8c 10be 3718 e8bc 4ee9 cc3d
00000150: 8e93 0f3d cbda a3be 4078 1abe 95eb 7b3e
00000160: 3e84 fa3e 864c d939 267d 1fbe a412 07bc
00000170: b73d 1b3e 64ca bebb 366b dc3e 2dc2 cc3b
00000180: ba95 2bbe de5d 10bd 891d 0e3e 1eb2 2bbc
00000190: 6e01 e4be a052 01bf 6106 753e 9e52 cf3e
000001a0: b4ab 973c d8bd e23c d7d6 c7bd c3b7 c93e
000001b0: 8a71 d7bd 0823 d7be 39ea fcbe d352 d4bd
000001c0: 12d3 2d3c c22a f8be 9589 223c f591 a73e
000001d0: 764e 8f3e 7e73 b13d c3ba 6bbe 74d8 56be
000001e0: 6e7e e93e fe6d 47bc c5ce 9d3d 7c8b 45bc
000001f0: 2f07 4b3e 8933 5bbc 404c 84bd 24c6 59bd
00000200: 94fb f43e 4ede af3c 7ed6 51be 9744 96bd
00000210: 82d7 853e f925 1c3e 19c4 2b3c f132 85be
00000220: d56e 313c 3291 1b3f 3975 cc3c f891 3c3f
00000230: a35c b53b 50ae 30be 1a8a 30bd b7f7 c63e
00000240: 6a81 5abd 71c9 80bf 3ef8 b0bf 8727 af3e
00000250: 3be4 153e 3105 e83c e48a cdbe 9d44 f5bd
00000260: a485 6b3d 5917 b2be 0b4c 27bf d5cf db3d
00000270: 2911 52be 4e4b 8abe 37f3 c73e 3f6b 463e
00000280: ec18 1c3d 4ce5 54be 4e6e 44bf 0494 cb3e
00000290: deef 0bbe 85d1 cfbd f00e dcbd 9a3a 383f
000002a0: 37be 24be ffd2 1b3f b7c9 a23c 9f55 0fbd
000002b0: 3f6b 543b b951 1bbe 69f8 5a3e f0a8 a23f
000002c0: 8fd0 e63e a2e3 e33e bf51 b43f 4ec8 b2bb
000002d0: caa6 e1be 2079 b03d 9313 afbe 91cb 263d
000002e0: 576d 673e 20d0 5abc 4313 74be 64a1 85bd
000002f0: 8de3 47bd e38c b8bd 4b3d 96bb fcaa fabe
00000300: ab56 e63d 9f82 d53e 5ebf 833d 44e8 fe3e
00000310: 3c60 1b3d e963 7b3d f37c 5bbd 0d1e 773e
00000320: 33b6 a6bc 65dc 5bbd 0a0a c5bd 147a 063f
00000330: fa62 093d 1af6 60bd adf1 923d 6de5 963e
00000340: d50c 913d ecf3 5f3c ee46 113f 2782 893e
00000350: d5e7 a33d 57cd 72be 2b81 023f a748 49bd
00000360: 1ed6 bfbc 3442 96be e7d4 3b3f 0cda 9d3d
00000370: 5c8a 023f 2a8b 033f fcfe e73e 2d5a 99be
00000380: 9527 073d 71f7 17bf 4c77 c63b 173e 05bf
00000390: 9e7f e53c d9f4 b63e 1ee1 4fbd 3b4c 67be
000003a0: 4b58 1abd 2fcf f23d 468b 55bc 798f fdbe
000003b0: 94f6 483e 7aa7 113e 167c 363c 77a3 233e
000003c0: c687 993b 2417 0dbe 4d7d cc3e 069b 8cbd
000003d0: 7e30 e03e fec5 65bd 82cd 14be 14b2 6bbb
000003e0: b828 953e 0a35 3b3e a967 d13e 8081 753e
000003f0: 72a8 a1bd 0c95 a03e e615 683e 51d6 083c
0.5718429 -0.06069645 -0.010910221 0.021987768 0.045048464 -0.012073484 -0.0503241 -0.017360628
0.47839758 0.022824323 -0.17549644 0.032234546 0.2168808 0.20965737 0.0056251152 1.6755843
-0.13966867 0.12189092 0.028748186 -0.036794104 0.016489169 -0.08489263 0.050004598 0.33475623
0.052596793 -0.82321507 0.25678903 0.022269296 0.35203665 -0.019829782 -0.7031557 -0.067330286
-0.62935287 -0.023198461 0.40518093 -0.0056584687 -0.12681694 0.011223928 -0.1602467 0.022070099
-0.98995614 0.95834965 0.575808 0.032634262 -0.020432252 0.9082992 0.21827467 -0.538196
0.1801315 -0.24681507 -0.046288572 -0.26522687 -0.011704393 -0.47708812 -0.20941377 1.1859941
-0.32425472 -0.13291852 0.60440737 0.11603526 0.49971765 -0.029884905 0.036189687 -0.0019340743
0.13816606 -0.012816626 -0.058964234 -0.04066823 0.4718454 0.023942778 -0.17865804 -0.00949587
0.24433744 0.17972943 0.008139286 -0.08464034 -0.043647658 0.13094985 -0.039630447 0.3714799
0.012352668 -0.14116016 -0.028331859 0.10005437 0.03505283 -0.32002863 -0.15084934 0.24601586
0.48929018 0.0004144648 -0.15575084 -0.00824419 0.15160261 -0.0058224667 0.43050545 0.0062487335
-0.16756335 -0.03524577 0.13878454 -0.010479478 -0.4453234 -0.505167 0.23928215 0.4049272
0.018514492 0.027678415 -0.09757774 0.39398012 -0.10519703 -0.42018914 -0.49397448 -0.1036736
0.010609405 -0.48470122 0.009920497 0.32728544 0.27989548 0.086646065 -0.23020463 -0.20981008
0.4560427 -0.01217222 0.07705454 -0.012057181 0.19826959 -0.013378986 -0.06459856 -0.053167477
0.4784819 0.021468308 -0.20491979 -0.07337301 0.26140982 0.1524886 0.010483765 -0.26015428
0.010829647 0.60768425 0.02495824 0.7366023 0.005534725 -0.17253995 -0.043100454 0.38860866
-0.053346075 -1.0061475 -1.3825758 0.34209844 0.14637844 0.028322788 -0.40145028 -0.119759776
0.057500497 -0.34783438 -0.6535041 0.10733 -0.20514359 -0.27010578 0.39052746 0.19376849
0.038109705 -0.20790595 -0.7673081 0.39761364 -0.13665721 -0.101473846 -0.107450366 0.7196442
-0.16088186 0.6086883 0.019871576 -0.034993764 0.0032412556 -0.15167893 0.21383823 1.2707806
0.45080993 0.44509608 1.4087447 -0.005456007 -0.44072562 0.08616853 -0.3419462 0.04072148
0.22600304 -0.013355285 -0.23835473 -0.065249234 -0.048800994 -0.09011247 -0.0045849434 -0.48958576
0.11246999 0.41701218 0.06432985 0.4978658 0.037933573 0.06137458 -0.053585958 0.24132557
-0.020350551 -0.05367698 -0.096210554 0.52530026 0.033541657 -0.0549222 0.07175002 0.29471913
0.07082526 0.013668995 0.56748855 0.2685711 0.08003203 -0.23711143 0.50978345 -0.049141552
-0.023417529 -0.29347384 0.7337174 0.07707605 0.5099237 0.5138422 0.45311725 -0.2995161
0.032996733 -0.5936194 0.0060567018 -0.52047867 0.028014954 0.3573368 -0.050751798 -0.22587673
-0.03768186 0.118559234 -0.013033694 -0.49523523 0.19625312 0.14224043 0.011137983 0.15980326
0.004685375 -0.13778359 0.39939347 -0.06865506 0.43786997 -0.056097023 -0.1453152 -0.0035964297
0.29132628 0.18281952 0.408994 0.23975182 -0.078934565 0.31363714 0.22664604 0.008351878

fc3.bias f4 [37]
00000000: 03e7 883d 8280 b03d c69d a7bd 9b2c d0bc
00000010: 9928 533d 4a06 493d dabd d3bd 697f 863c
00000020: 057d c2bd a1fd 0bbd bbbd 8c3c 9360 473c
00000030: df3b a9bc a9e2 18bd 0af7 cabd d3bf 29be
00000040: 424e 25be 6288 50be 495e f7bd 038e f8ba
00000050: 8020 0abe 160e 56bd 5233 17bd 8ce8 d5bd
00000060: 57e6 9f3d 94ca 1a3d c178 0bbd fa44 a23d
00000070: e8bb 54bd ad2c 2f3e bce2 63bd 218f 873c
00000080: f703 3cbd bee1 ae3d 9d1c ee3d 3bf7 81bd
00000090: b66e 52bc
0.06684687 0.08618261 -0.0818439 -0.025411895 0.05155239 0.049078263 -0.10338946 0.016418176
-0.09496502 -0.034177426 0.017180314 0.012169021 -0.020658432 -0.037325535 -0.099104 -0.16577081
-0.16143134 -0.20364526 -0.1207853 -0.0018963221 -0.1348896 -0.052259527 -0.036914177 -0.104447454
0.07807606 0.03779085 -0.034050707 0.079233125 -0.051937014 0.17106886 -0.055636153 0.016547741
-0.04590222 0.08539151 0.11626551 -0.063459836 -0.012843778
