CaseModels/03 37-Bus/_baseModel_vpu.pth (torch, 18290 bytes, 7 tensors)

bias f4 [37]
000000 99 c2 93 3e 22 7f 96 3e b8 a5 95 3e e2 d2 9d 3e
       0.28859404 0.2939387 0.29227996 0.30824953
000010 95 d0 83 3e 35 bb 85 3e 6a 65 89 3e 57 5e 93 3e
       0.25745073 0.2611939 0.26835185 0.28782913
000020 24 25 90 3e dc 8b 8e 3e f9 98 83 3e c0 05 77 3e
       0.28153336 0.2784108 0.25702646 0.24123287
000030 6e 63 86 3e 9c 13 88 3e d9 77 90 3e 73 f4 96 3e
       0.26247734 0.2657746 0.28216437 0.29483375
000040 4d 5c 9f 3e c9 a7 53 3e 6a 29 7e 3e 80 b6 80 3e
       0.31125107 0.20669474 0.24820486 0.25139236
000050 c9 3c 76 3e 7a fa 82 3e 01 6b 8f 3e 88 83 71 3e
       0.24046625 0.25581723 0.28011325 0.23585331
000060 53 fb 98 3e be 21 98 3e 09 2c 75 3e c7 38 90 3e
       0.29879245 0.29713243 0.2394258 0.28168318
000070 74 b5 6a 3e ed bc 8a 3e 60 46 83 3e 0b 4d 83 3e
       0.22920781 0.27097264 0.2563963 0.25644717
000080 90 6c 9d 3e 0b 8d 95 3e 8f ba 9c 3e 42 de a0 3e
       0.3074689 0.2920917 0.30611083 0.3141957
000090 0b 35 9b 3e
       0.30313906

fc1.weight f4 [30, 91]
000000 ba 37 9f 3d cd aa 97 3c 08 79 3c 3c 45 f1 37 3d
       0.07774301 0.018514061 0.0115034655 0.044907827
000010 ff d4 0e 3d bd 26 73 bd cb ca 19 3d ed 1d a6 3d
       0.034871098 -0.059363116 0.037546914 0.08111177
000020 03 1e 33 3d d2 c7 b5 3c 0f 8d 3b 3c a4 bf 0f 3d
       0.043729793 0.022190008 0.011447205 0.035094872
000030 c0 96 b7 3d c0 ea 89 3d e7 dd 21 3b 45 55 97 3c
       0.089643 0.06734228 0.0024698914 0.018473277
000040 9d af 86 3d 33 ad 73 bb 15 7c 00 3d dd 3d 27 bb
       0.06576464 -0.0037182092 0.031368334 -0.002551905
000050 12 98 3d 3e 75 df 6b bb ae 3c 62 3d b7 88 e2 bc
       0.18515041 -0.0035991345 0.05523365 -0.027653081
000060 f8 ba d4 3d b7 09 f1 3c 08 2f 05 bc 40 3d 77 bc
       0.10387224 0.029423578 -0.008128889 -0.015090287
000070 32 40 7b 3d 20 3b 1a bd e0 76 eb bc b3 54 86 3d
       0.06134052 -0.037654042 -0.028743207 0.06559124
000080 29 d6 8f 3d a3 60 c0 bd 99 28 a5 3d 6e 38 76 3d
       0.0702327 -0.09393432 0.08064384 0.06011241
000090 53 85 6f bd 07 47 a5 3d c6 86 26 3d 14 4b 18 bd
       -0.058476757 0.08070188 0.040655874 -0.037180975
0000a0 99 d4 9d 3d 27 33 ab bd 08 7a d2 bc bb 05 ad bd
       0.077065654 -0.08359366 -0.025692955 -0.084483586
0000b0 5e 64 6a 3d 54 7c b7 3c 14 ef 84 bc 83 5f c8 bd
       0.057224624 0.022398151 -0.016227283 -0.097838424
0000c0 1b 99 b3 bd eb c8 c1 3d 01 e0 94 3d 9a 67 13 3d
       -0.08769437 0.0946215 0.07269288 0.035987474
0000d0 77 32 ca 3d 24 5a d8 3c 45 8b bf 3d d5 47 1c be
       0.09872907 0.02641017 0.093527354 -0.15261777
0000e0 c8 27 2b bc 26 81 6b 3d 80 80 9f 3b 47 0d b6 bd
       -0.010446496 0.057496212 0.0048676133 -0.08889251
0000f0 e6 ac 5c 3d a0 5e 34 bb 83 71 83 bd 10 ef 92 bb
       0.053875826 -0.0027522221 -0.06418135 -0.004484065
000100 9f fe 85 3d 3a 98 3b 3d 60 24 1b 3b 57 8e ad 3d
       0.06542706 0.04579947 0.0023672804 0.08474415
000110 19 a9 98 3d a2 ec 26 3d aa 14 0d bd 95 27 bc 3d
       0.07454128 0.040753014 -0.034443535 0.09187237
000120 db b4 ce bd 84 18 13 bd 93 60 be 3d 20 35 4e 3b
       -0.10093089 -0.03591205 0.09295764 0.003146477
000130 67 9b fb 3b eb 14 94 3d 5a de 5b 3d bb 0f 9e 3d
       0.0076784375 0.07230552 0.053678848 0.07717844
000140 04 b1 b6 be 50 3d a5 ba 06 77 66 3d fd e9 69 bd
       -0.35681927 -0.0012606774 0.056265853 -0.057107914
000150 20 90 4f 3b 8b 90 c5 3d 50 fe 0f 3c e8 c1 b2 3c
       0.0031671599 0.0964671 0.00878866 0.021820977
000160 15 a7 76 be f5 8e c6 3c 9b a1 18 3e a2 46 92 bd
       -0.24087174 0.02423809 0.14905398 -0.071423784
000170 ce d5 a1 bc f5 5e 8d bf e6 40 3a be 8c c8 15 be
       -0.01975527 -1.1044604 -0.1818882 -0.14627284
000180 13 60 5b be a0 4b eb be fe 33 21 3d a4 b6 83 3e
       -0.21423368 -0.45956135 0.039356224 0.2572528
000190 ad 67 60 3e a3 9e a4 bd e4 d8 ed be 49 65 16 3f
       0.21914549 -0.0803807 -0.46454537 0.587483
0001a0 22 57 f7 3d 65 72 4b bd 75 dc bf be 6c 28 53 be
       0.12077166 -0.049669642 -0.37472883 -0.20620888
0001b0 71 d8 9a 3d 58 1b 1f 3e fd 45 7e be a6 ad 9c be
       0.07560814 0.15537775 -0.24831386 -0.30601233
0001c0 67 d4 a4 3e 45 fc 5c bf 38 68 21 bf cd a4 8d 3f
       0.321933 -0.8632243 -0.6304965 1.1065918
0001d0 97 2a 74 be d6 38 70 bd da 4d 78 3d a9 49 86 3d
       -0.23844372 -0.058647953 0.06062112 0.06557018
0001e0 f0 2f 06 bd 4a b5 a5 bd e7 54 99 3d 36 2b a9 bd
       -0.03276056 -0.08091219 0.07486897 -0.08260195
0001f0 5e 7e 0a 3d bc da f2 bc ed 52 83 3d 64 54 c1 3c
       0.03381192 -0.029645316 0.06412301 0.02359981
000200 c0 e5 b6 bc 07 09 bb 3d e6 2c 09 3d 64 18 c6 bd
       -0.02232635 0.09132581 0.033490084 -0.09672621
000210 5a 6a 17 bd 40 90 02 3c 5d 5e 9e bd e7 cc 9a bd
       -0.03696666 0.007968962 -0.07732842 -0.07558613
000220 6b 7c 9e 3d f8 66 46 3c cd 45 c0 3d 74 8b c8 3c
       0.077385746 0.012109511 0.093883134 0.024480559
000230 f5 18 d2 3d 60 84 37 bb 76 0c 49 3d 02 d8 57 3d
       0.102586664 -0.0028002486 0.04908415 0.052696235
000240 00 44 f8 38 54 26 a1 bd 46 fd 68 bd 13 37 92 bd
       0.000118382275 -0.07868639 -0.056882165 -0.07139411
000250 c7 92 c7 3d bf 57 a8 3d 30 ee ed bb 5d 1a d3 3d
       0.097447924 0.08219861 -0.00726106 0.10307763
000260 ff 41 bc 3d 8c 61 30 bd d5 0e ba bd 88 99 cd bd
       0.09192275 -0.043061778 -0.0908486 -0.100390494
000270 a9 1d ad 3d 30 26 93 bd 20 37 96 bc 62 e9 d0 bd
       0.08452923 -0.07185018 -0.018336833 -0.10200764
000280 b6 3b 62 3d 8e e7 02 bd 82 81 00 3d 6b 18 92 3d
       0.055232726 -0.03195911 0.03137351 0.071335636
000290 25 3f af bd 22 02 9a bd 00 22 60 b9 5b 95 49 3e
       -0.08556966 -0.07519938 -0.0002137497 0.19685881
0002a0 d8 8c 98 bd c6 9f 1b 3d ad 0a ec 3d 8e 2a ba 3e
       -0.07448739 0.03799417 0.11525474 0.36360592
0002b0 f0 90 33 3f da 5c 3d 3d 70 bd fe bc 3e 66 45 3d
       0.7014303 0.04623113 -0.03109619 0.04819321
0002c0 95 13 98 bd 7c 3d 13 3f 60 40 f8 3e ba 8c ea bd
       -0.0742561 0.5751569 0.48486614 -0.11452623
0002d0 a1 6f d1 3d cd 6c 63 be 36 9f 61 bb c4 88 c2 3c
       0.1022637 -0.22209473 -0.0034427173 0.023746856
0002e0 dd 59 f0 3d e0 79 6b 3d b3 a0 4d 3d a1 ea 2c bc
       0.1173589 0.057489276 0.050202083 -0.010553987
0002f0 5b 3b d2 3d ec a2 4d 3d b5 25 47 3b eb 88 ae 3c
       0.102652274 0.050204203 0.0030387465 0.021305522
000300 91 11 97 3d 82 82 49 bd 56 dd f1 39 32 25 86 3d
       0.073763974 -0.049196728 0.0004613201 0.06550063
000310 b5 24 06 3b 43 a4 58 3d 0b 38 c2 3d 46 21 40 bd
       0.0020468656 0.052891027 0.094833456 -0.046906732
000320 4b 3f fa 3c 05 3d 40 3d eb 26 d6 3d 22 39 04 3c
       0.030547759 0.046933193 0.10456642 0.008070262
000330 12 13 02 3e 8b dc e0 bd 27 69 d6 bc 27 97 0c 3e
       0.12702587 -0.10979565 -0.026173187 0.13729535
000340 4d 9d 4c bd ac d4 36 bd a0 1e 8c 3b ac 5f ae 3c
       -0.0499547 -0.044636413 0.0042761117 0.021285854
000350 9d 30 90 3d 97 d1 9c 3d 5c 26 0f bd 94 e4 a6 bd
       0.07040522 0.076571636 -0.03494869 -0.081490666
000360 7c 4c d2 bd 3d f0 c7 bd b5 b6 d2 bd 7c 5d 15 bd
       -0.102684945 -0.09762619 -0.10288755 -0.036466107
000370 94 4c ff 3c ac 9d 09 bd 80 ed b0 bc 3a 12 6d 3d
       0.031164445 -0.033597633 -0.021597624 0.05787871
000380 48 30 59 3c 1c 38 0d bd e4 0d fb 3c a7 7a a7 3d
       0.01325614 -0.03447734 0.030646272 0.08177691
000390 e0 04 0a 3c 89 f1 a6 3d 5b bc a9 3d 8b 4a c1 3d
       0.008424014 0.08151538 0.08287879 0.09438046
0003a0 ef cd b1 3d b4 9a f2 bc b7 21 70 bd cc 62 cc 3c
       0.08681857 -0.029614784 -0.058625903 0.024949454
0003b0 b8 4a ec bc 0e 16 ab bd 4e 12 6b 3d 80 64 d6 bc
       -0.028844222 -0.08353816 0.057390504 -0.026170969
0003c0 18 8e 9e bd 4f 9d d3 bd b0 f0 e4 bb 6b 3a 97 3d
       -0.07741946 -0.103327386 -0.0069867 0.07384189
0003d0 2a 16 80 bd 91 93 40 bd b0 e6 d1 3b 0a b8 57 3d
       -0.062542275 -0.04701573 0.006405674 0.052665748
0003e0 d8 3e 5d bd b1 59 cf 3d 0e 60 4c bd 45 68 aa 3d
       -0.05401501 0.10124529 -0.049896292 0.08320669
0003f0 97 c4 d5 3d 1b 26 92 bd f0 49 f2 bb e1 e4 48 bd
       0.10437887 -0.07136174 -0.007394068 -0.0490464

fc1.bias f4 [30]
000000 4a 32 d7 3e bd b9 35 be e2 61 98 3e ef 1c 0d be
       0.42030555 -0.17746635 0.2976218 -0.13780569
000010 4a 24 e8 39 5a 88 94 3e 74 84 79 3e 11 81 0a 3e
       0.00044277526 0.29010278 0.24366933 0.13525797
000020 4f 37 87 3e 1e 4f cf be d4 6d ea 3e 69 62 9c be
       0.26409385 -0.4049005 0.45786917 -0.3054383
000030 84 e8 75 3e 49 b3 b7 3e ad 96 7b 3e b3 5c c4 be
       0.24014479 0.3587897 0.24569197 -0.38351974
000040 fe 93 6c bd e2 95 03 be 89 ca 8d 3e a9 25 8f 3e
       -0.057758324 -0.12850145 0.27693585 0.2795842
000050 c1 3a cf bc dc 13 8e 3b 94 4a 34 be fc 70 a2 3e
       -0.02529657 0.0043358635 -0.17606574 0.31726825
000060 3b 86 d6 3e 0a d6 0d 3e 4f c8 94 be 28 26 d4 be
       0.41899285 0.1385118 -0.29059073 -0.4143536
000070 70 b7 97 be 29 c5 95 3e
       -0.2963214 0.29251984

fc2.weight f4 [15, 30]
000000 f3 87 4c be 98 25 a9 bf d6 19 c2 3e 01 82 97 bf
       -0.19973736 -1.3214598 0.37910336 -1.1836549
000010 55 4e 80 bd 96 ce 1d 3d 6c 2e 72 bf 63 a3 37 3f
       -0.06264941 0.038527094 -0.94602084 0.71733683
000020 f5 2c 98 3e 49 60 c8 be 97 df c7 bd 89 16 3b be
       0.297218 -0.3913596 -0.09759443 -0.18270315
000030 c3 13 d0 3d 80 c6 44 3e c8 71 68 bf f8 b2 1c bf
       0.10160019 0.19216347 -0.90798616 -0.61210585
000040 0e 92 e9 3f 5d c5 2b 3f fb 5e d9 be c9 9e cf bf
       1.8247697 0.6709803 -0.42455277 -1.6220332
000050 7e f9 cf bb 52 9d 20 bf 3c 98 b7 3f 4a 45 d0 bc
       -0.0063468805 -0.6274005 1.4343333 -0.025423665
000060 29 d6 0a 3f 1d 43 f9 bf d0 0c 04 40 d0 c9 8e bf
       0.5423303 -1.9473606 2.063282 -1.1155338
000070 07 87 10 bf 17 5d 86 bd b8 b2 04 3e 20 c8 86 3e
       -0.56456035 -0.06560724 0.12958801 0.26324558
000080 b0 c6 6d 3c 62 38 94 be 19 9d 89 3b 98 52 cc 3b
       0.014512703 -0.28949267 0.0041996357 0.006235432
000090 b7 6e 71 3d 61 00 d4 3d aa 78 52 3d ab d6 91 3d
       0.058943477 0.10351635 0.051384605 0.07121023
0000a0 16 10 31 3d f8 cc 78 bd 80 06 8e 3b 4c 35 15 3d
       0.04322823 -0.06074235 0.004334271 0.03642778
0000b0 25 fa 98 bd e9 65 c7 bd 08 d7 1c be d0 4e 05 be
       -0.07469586 -0.09736235 -0.15316403 -0.13018346
0000c0 79 c9 de 3b 36 df 0a bc 8a 8c 88 3b 3d 5d ec bd
       0.0067989198 -0.008476069 0.004167144 -0.11541221
0000d0 a2 a0 46 be c5 73 cb 3b eb af bb bc e4 22 5c 3d
       -0.19397214 0.006208869 -0.022911033 0.05374421
0000e0 80 e0 01 3e ed f7 03 3d f0 58 15 3e 93 34 c4 bd
       0.12683296 0.032218862 0.14584708 -0.0958034
0000f0 81 79 88 bf 96 38 6f bf 74 f7 1d bf 7d 6b 30 3e
       -1.066208 -0.9344572 -0.6170571 0.17228504
000100 94 d6 e3 bd b2 b8 40 3d ff d5 70 3e de 9e e9 be
       -0.11124912 0.04705114 0.23519133 -0.4562902
000110 f2 72 0f bf a5 87 82 bf ce 81 86 3f df bd b3 be
       -0.5603477 -1.0197645 1.0508363 -0.35105798
000120 cd 7e f9 bc 38 5f 05 3f 13 25 d4 3e a4 2c 81 be
       -0.030455971 0.5209842 0.41434535 -0.2522937
000130 4c 18 5c c0 99 b9 9e 3e 26 98 36 bf f6 72 d1 3e
       -3.438983 0.31000975 -0.7132591 0.4090802
000140 53 d0 a9 bd a3 19 87 bf 8d 52 6b 3f 7f 24 cd be
       -0.08291688 -1.0554699 0.9192284 -0.40066907
000150 bb a7 a7 be db 08 2b bf 18 97 a0 3d dd 5c 26 bf
       -0.32745156 -0.6681039 0.07841319 -0.6498545
000160 e7 1b 00 3f 69 c7 4e be 7c 8a 25 3d a7 f7 f8 3d
       0.50042576 -0.20193256 0.040415272 0.12156611
000170 49 6d 1a 3d cb db 98 3d a6 87 14 3c e9 5f 5b 3c
       0.03770188 0.07463797 0.009065544 0.013389566
000180 8c 37 93 3d 81 08 bd bb 9a a5 d5 3c 5d 73 86 3e
       0.07188329 -0.005768836 0.026079942 0.2625989
000190 fb c6 55 3e 77 02 92 bd 5e 5c 6d 3c af 25 bb 3d
       0.20876686 -0.071293764 0.014487354 0.09138047
0001a0 65 b5 10 3d e2 5d c8 3d 1a a9 95 bd 7f 38 11 be
       0.03532924 0.09783532 -0.07307644 -0.14181708
0001b0 24 50 b0 3d b3 05 9d bd a7 55 37 3c 6e 13 3a 3d
       0.086090356 -0.07667103 0.011189855 0.045428686
0001c0 2f 2e 93 be e7 c3 e1 3c a0 43 e4 3d 22 72 9a bd
       -0.28746173 0.027559234 0.11145711 -0.075413
0001d0 a0 47 2f be a0 42 82 bd 60 ef 22 be a6 56 85 3d
       -0.17117167 -0.06360364 -0.15911627 0.065106675
0001e0 45 31 8a bf a4 3b 7c bf d7 38 09 3e e7 e5 a5 bf
       -1.0796286 -0.98528504 0.13400589 -1.2960786
0001f0 27 44 4a bd d5 e2 0d be fb 2a 06 3e e0 e1 15 3e
       -0.0493814 -0.13856061 0.13102333 0.14636946
000200 63 df c9 3e 81 fc 70 40 a5 34 0b bf c8 4a 83 3f
       0.39428243 3.7654116 -0.54377204 1.0257196
000210 9f e8 72 bd 5c eb 6e bf eb d8 cf be 54 a3 11 40
       -0.059303876 -0.9332788 -0.40595183 2.2755938
000220 24 ad 21 3f 4a 4b 9b bf 0c 01 8f 3e d2 f5 bb 3e
       0.63154817 -1.2132351 0.27930486 0.36710984
000230 b2 d3 d5 bd df ca c0 3e 37 21 80 bf 10 39 dc be
       -0.10440768 0.37654778 -1.0010136 -0.43012285
000240 ae 0e b1 bf 46 c5 92 3e 69 5b e1 bf 66 17 a8 3f
       -1.3832605 0.28666133 -1.7606021 1.3132141
000250 76 b9 e4 bf 77 b9 60 be 48 33 98 3d 90 c1 40 be
       -1.7869098 -0.21945749 0.07431656 -0.18823838
000260 2b d0 f5 3c 86 a2 b9 bd 34 a5 6e 3a 7c 32 93 3b
       0.030006489 -0.09064202 0.00091035967 0.004492102
000270 f4 3d 38 3c 6e 8d 0c bd e6 1a 79 bd 7d 0f e9 bd
       0.0112452395 -0.034314565 -0.060816668 -0.11379907
000280 b3 7f 36 3e 0d 05 55 3b 0d 72 13 3b a4 eb d9 3d
       0.17822151 0.0032504231 0.00224984 0.10640648
000290 85 23 e0 bc 8e 1a 38 be b1 0e 8a 3c db a7 07 3e
       -0.027360687 -0.1797888 0.016852709 0.13247626
0002a0 df 9a 00 3e 90 5b 03 be 74 25 42 3c 12 66 0c bc
       0.12559079 -0.12827897 0.01184975 -0.008569257
0002b0 1a 81 84 bd 02 5f 0b bb f3 fc 27 be f2 8d ad bc
       -0.06469937 -0.0021266346 -0.16405086 -0.021185849
0002c0 9d 01 59 bd 92 be 16 bd 32 a5 9d 3d 4a 12 ee bd
       -0.052980054 -0.036802836 0.07697524 -0.11624582
0002d0 21 aa 10 3e c5 c6 11 be 52 a8 15 3c 62 0d 22 3e
       0.14127399 -0.14235981 0.009134369 0.15825418
0002e0 65 9b bd 3b d3 69 1a 3c f4 fe c4 3c 26 09 7d bc
       0.0057863467 0.0094246445 0.024047352 -0.015444076
0002f0 8b bb 8c 3d d1 3e 2e 3d cd 28 e7 3d 44 99 51 bd
       0.068717085 0.042540375 0.11287079 -0.051171556
000300 cc f6 24 3c b8 b1 7f 3d c1 58 41 3c 6a 6b fb 3d
       0.010068607 0.062425345 0.011800946 0.12276347
000310 54 f7 2a 3e e0 a7 2c 3e 30 f6 88 3d 38 8d 90 3d
       0.1669591 0.16860914 0.066875815 0.07058185
000320 4c 69 2a 3c 66 54 bd bc 02 1b ef 3d 91 d6 94 3c
       0.010401081 -0.023111533 0.11675073 0.01816872
000330 39 08 6b 3d be 0e dd bd e2 d9 5f 3d 31 4c 84 be
       0.05738089 -0.107938275 0.05465115 -0.2583938
000340 08 b7 41 be 13 08 b5 bc 51 38 01 3f a9 93 42 bd
       -0.18917477 -0.022098577 0.50476557 -0.0475041
000350 78 33 f8 be a5 49 57 3f 4a 37 15 3c 3f 4b dc 3d
       -0.48476768 0.8409675 0.00910742 0.107565396
000360 ed 50 e2 3d 4f e6 50 bf f1 0a 16 be a1 96 f0 3f
       0.110505916 -0.81601423 -0.14652611 1.8795968
000370 c1 d2 bf bd 88 05 ff 3e 36 98 ef 3c 7e a3 9d be
       -0.0936637 0.49808908 0.029247385 -0.30788797
000380 ef 41 a2 be cf e4 80 3f 0e 7d b1 3d 6d 7a 12 bf
       -0.31690928 1.0069827 0.086664304 -0.57218057
000390 d1 fe db bc b7 b5 21 bf 74 f1 b2 bd 7c 4c 12 c0
       -0.026854904 -0.631679 -0.0873746 -2.2859182
0003a0 5c 49 d1 bd 33 85 d0 bd f5 27 72 3f 18 05 18 3f
       -0.1021907 -0.10181656 0.9459222 0.5938277
0003b0 2d aa f0 3e 72 71 4d 3e 49 8b 03 bf 75 fd a4 3d
       0.47004834 0.20062807 -0.5138441 0.080561556
0003c0 9f 4f ca bd 62 21 3c bd 4e 00 cc bc 44 f3 8a 3d
       -0.09878468 -0.045930274 -0.024902489 0.067846805
0003d0 31 7b 58 ba bb 23 3c 3b 2a 8d 10 3d 7d 72 1f 3e
       -0.0008258103 0.002870782 0.035290875 0.15571018
0003e0 97 65 42 3d 44 1d 8e bd 7c 65 2d bc 06 26 61 3e
       0.047460165 -0.06939176 -0.010583278 0.21987161
0003f0 1a b8 22 3b 9d 9f 21 bc dd 0d ba 3c 1d 38 be bd
       0.0024828971 -0.009864715 0.022711689 -0.092880465

fc2.bias f4 [15]
000000 a5 6e 77 bd e6 bd 08 3e 56 b0 8b bb 50 5c c6 3e
       -0.060408253 0.1335369 -0.0042629642 0.38742304
000010 dd c6 06 bf e7 b9 bf 3e 9a 91 a5 3e 55 d9 b5 be
       -0.5264719 0.3744652 0.32337648 -0.35517374
000020 91 95 cc 3e ce 36 88 3e 10 e4 2f 3e de 8b 9c 3e
       0.3995786 0.26604313 0.17176843 0.3057546
000030 a1 51 8c 3e 46 7f 19 3d e4 1d 47 bd
       0.27406028 0.037474893 -0.04861249

fc3.weight f4 [37, 15]
000000 7d 58 2d 3e 69 9b 92 3c d3 48 a7 be 19 4a a4 3d
       0.16928287 0.017896371 -0.32672748 0.080219455
000010 20 72 97 3d d2 a4 5b 3e fa 94 ca bd 5f 72 05 be
       0.073948145 0.21449593 -0.09891696 -0.1303191
000020 8b 71 3d 3e 44 69 84 3d b9 fa 14 bd b5 50 e3 3d
       0.18500344 0.0646539 -0.03637192 0.11099378
000030 b0 40 2f 3e 06 55 b0 bc 4c 0e a1 bd ff 8b d4 3d
       0.1711452 -0.021524917 -0.07864055 0.10378265
000040 76 4b ce 3c 48 0f a8 bd 12 72 42 3e 7b 9f b8 3e
       0.025182467 -0.0820604 0.18988827 0.36059174
000050 8a 7b cd 3d 6b 21 03 bd e0 67 d8 be 9f a9 b7 3d
       0.10033329 -0.03201429 -0.4226675 0.089678995
000060 ce ae 6e ba b6 81 19 3d f4 7b bd 3d ae 00 7b 3d
       -0.00091050274 0.037477218 0.09252158 0.061279945
000070 2b b5 ba bc fb 28 2f 3d 93 ab 83 be 6f 99 6a bc
       -0.022791466 0.04276369 -0.25716838 -0.014318808
000080 fb 7b 8e be dd b1 b2 3e 36 cc cc 3e 42 6a be 3c
       -0.27828965 0.34901324 0.3999955 0.023244027
000090 3e f4 03 3e a8 06 8f 3e e5 83 53 3e cf 6d 02 3e
       0.1288614 0.27934766 0.20655783 0.12737201
0000a0 c4 c8 9c bb 84 f8 73 bd 4b 42 18 3e fa 09 cf bd
       -0.0047846753 -0.059563175 0.14869039 -0.10109325
0000b0 a3 3c 4a bf 59 a4 ae be 86 aa 8d be 0e d5 f6 3e
       -0.78998774 -0.34109762 -0.27669162 0.48209423
0000c0 9e 5b 38 3e 92 70 3f bf 5d 65 36 3e 52 f0 4d 3d
       0.18003699 -0.74781144 0.17812105 0.050278015
0000d0 09 11 e1 bd df 20 5e 3c c1 4d c2 3e d1 0b 54 bd
       -0.10989577 0.013557642 0.37949947 -0.05176908
0000e0 9a 2e a4 3e d9 fe c8 bd 0b b5 d6 bc cc a3 e7 3e
       0.32066804 -0.09814233 -0.026209375 0.45242155
0000f0 26 44 1a be 53 ae 32 3c 56 54 ac be 8e 1d f2 bd
       -0.15065059 0.01090582 -0.33658093 -0.11822043
000100 aa ab 2c be e4 72 5d 3e 16 63 58 3d fd 13 06 3e
       -0.1686236 0.21625859 0.05282887 0.13093562
000110 6a f5 42 3e e4 4c 1c 3e 43 ad e7 3b 03 eb ab 3d
       0.1903893 0.15263706 0.007070215 0.08394434
000120 bf 57 1e 3e d5 b2 a6 3d 5e e6 c4 bd 68 dc b6 be
       0.1546316 0.08139578 -0.096142516 -0.35715032
000130 13 4b 31 3e 74 54 99 3e f9 46 95 3d 14 13 d9 bc
       0.17313795 0.29947245 0.072889276 -0.026498355
000140 11 bc 0b 3e d0 ce 53 3e 9a 2f 03 3e 6b 18 1b 3e
       0.1364596 0.20684361 0.12811127 0.15146033
000150 71 ad 93 3c 83 64 1f 3e 41 3e 0e 3d c3 6b a4 bd
       0.01802704 0.15565686 0.03472734 -0.080283664
000160 91 a3 85 be f2 ff 8c 3d a5 62 dc 3d fc fb d4 bd
       -0.26101354 0.06884755 0.107610025 -0.10399625
000170 c2 10 31 be e6 32 5a 3e fe 9e 26 be fe 9e 94 3d
       -0.17291549 0.21308479 -0.16271588 0.07256888
000180 39 cb 18 be bf d6 e8 3e c1 da 17 bd 78 7d bd 3e
       -0.14921273 0.45476338 -0.037073854 0.37009788
000190 da de 89 bd e2 85 9f bd 5c 5e cf 3d d1 f3 a9 be
       -0.06731959 -0.07789208 0.101254195 -0.3319383
0001a0 6e d7 8f be ac 7d 48 3f 3d 0b 57 3e 77 50 12 bf
       -0.28094047 0.7831676 0.21000381 -0.5715403
0001b0 0b aa 43 bc 70 9f b1 be 13 b7 8c bc 0b 3c cd 3e
       -0.011942397 -0.34691954 -0.01717714 0.40084872
0001c0 20 2f f1 3d 7e 8d 5d bd 14 ec 35 3c ed fd 85 bd
       0.117765665 -0.054090016 0.011103649 -0.06542573
0001d0 0e 7d 96 3e a9 9a d6 bd 8b c0 09 3e 90 2e 98 bf
       0.29392284 -0.10478718 0.13452356 -1.188921
0001e0 51 5c 35 be d0 59 3c 3e ff 24 f0 3c 20 ec 7a bd
       -0.17710997 0.18393636 0.029314516 -0.061260343
0001f0 03 dd 2c be a3 29 f5 3d 5e e7 8e 3d 04 68 55 be
       -0.16881184 0.11970832 0.069777235 -0.2084046
000200 4b 9f 8f 3d 29 90 c1 3d 24 5c 60 3e bf c8 69 3d
       0.070128046 0.094513245 0.21910149 0.057076212
000210 2b 9b 57 bd 4a 60 e6 3c 10 3c 2a bd 59 9b 8e be
       -0.052638214 0.028122086 -0.041561186 -0.27852896
000220 b2 82 4e 3e 3f d3 c8 3e 90 9e 31 3c 03 77 d9 bd
       0.20167044 0.39223668 0.010841027 -0.10618403
000230 94 ed 4a 3d 0b 02 cc 3d 9f 32 4f be 92 0c 4e 3b
       0.04954298 0.09961327 -0.20234154 0.0031440598
000240 86 c7 86 3e 01 15 a4 3e 72 10 30 bd 5c 65 5e bd
       0.263241 0.32047275 -0.042984433 -0.054295883
000250 0d c4 13 bf 82 39 d2 be e5 3b 02 bf 1e c5 95 3e
       -0.57721025 -0.410595 -0.5087264 0.2925195
000260 97 69 7b 3f 12 37 63 3e 88 46 00 3e b2 1e 58 bd
       0.9820799 0.22188976 0.12526906 -0.05276365
000270 a7 3d e8 3c 03 05 5a be a3 3f 92 bd a4 b6 f6 3d
       0.02834971 -0.21290974 -0.07141044 0.12046555
000280 bc 39 8b be 2c 9e 28 be d6 60 78 3e 2f 93 1d 3e
       -0.27192485 -0.16466588 0.2425569 0.15388177
000290 14 42 fd 3e ad 7a 9c 3d 5b 97 71 3e ea 97 48 be
       0.49464476 0.07640586 0.23592894 -0.195892
0002a0 b5 75 36 3b 57 c3 15 3e d7 94 a2 3e 16 a5 6c 3e
       0.0027841155 0.14625297 0.3175418 0.2310985
0002b0 af 32 17 3f 4b 82 4a 3e de 93 04 bd 93 86 8c 3e
       0.5906171 0.19776265 -0.03236758 0.27446422
0002c0 3b 74 33 3d e9 56 5a be 8c d9 31 be 06 9c 51 3f
       0.043812018 -0.21322216 -0.17368144 0.818787
0002d0 64 2c 08 bf 99 ec c6 bd fe 7b a7 3e a3 88 2e 3e
       -0.53192735 -0.09713096 0.32711786 0.1704431
0002e0 f1 d2 a5 be 33 94 43 3e 48 4e 4c 3e be de 5d 3e
       -0.32387498 0.19099502 0.19951737 0.21667
0002f0 f4 a9 38 3e ed b0 37 3e 32 ea 8d bd 1c 5b fe 3d
       0.18033582 0.17938586 -0.06929435 0.124197215
000300 4f ea d6 3c 22 f9 46 be af 0c d5 3d f4 e9 59 be
       0.026234774 -0.19430974 0.1040281 -0.21280652
000310 33 82 65 3e f3 7a 9a be ce af 37 3e c9 f4 1f be
       0.22412948 -0.30171928 0.17938158 -0.15620722
000320 d3 80 ca 3c cb 7c 60 bc 1a 36 80 be 10 5a 1e bd
       0.024719631 -0.013701628 -0.25041276 -0.03866011
000330 bf 94 74 3d a4 bb 58 3e 1b c1 83 bd 32 61 f5 bd
       0.059712168 0.21165329 -0.06433316 -0.11981429
000340 29 2b 9b 3e d9 1c c5 bd 33 44 8e be 14 b7 84 3e
       0.30306366 -0.09624643 -0.27786407 0.25920928
000350 32 05 73 bf 54 55 40 3d 34 eb 19 bf fe d0 50 3e
       -0.949298 0.046956375 -0.60124516 0.20392224
000360 d6 64 6d bd 77 b0 64 bc 20 0c 36 3d f8 86 83 3e
       -0.057957493 -0.013958088 0.044445157 0.2568891
000370 f6 e2 54 3e a0 ec 4e bd 7b f4 2d bb ff eb 57 3f
       0.20789704 -0.050518632 -0.0026543427 0.84344476
000380 7c 68 28 be 0a 3b 0a 3f 95 9f 68 3e 94 8a fb 3e
       -0.16446108 0.53996336 0.22717126 0.49129164
000390 5d 15 90 3d 74 ac 95 bf 01 14 b7 3e d1 dd cc bc
       0.07035325 -1.1693254 0.3575745 -0.025008114
0003a0 2a 03 68 be 08 bf bf 3e 47 5c 9c bd 1c 80 02 3d
       -0.22657457 0.37450433 -0.07634788 0.031860456
0003b0 1d 17 fd 3d a8 77 e0 3b bc ec 23 be f0 f3 fb bd
       0.12357924 0.0068502016 -0.16008276 -0.12302387
0003c0 0d 00 e5 3e 2d 7c 1c be 56 d5 3c 3e d3 fb f3 3d
       0.447266 -0.15281744 0.18440756 0.11913266
0003d0 cd f7 a9 be e8 e4 bc 3d 94 6c d3 3e 7f b6 cf be
       -0.3319687 0.09223348 0.41293776 -0.4056892
0003e0 ee 6c bf 3d 2f dd 8d 3e 9f eb e6 3d d5 1f 37 be
       0.093469486 0.27707812 0.1127541 -0.17883237
0003f0 46 a2 d9 3c ec 72 98 3e 7d f8 b3 3e 80 cd 0b 3f
       0.026566636 0.29775178 0.3515052 0.54610443

fc3.bias f4 [37]
000000 07 5e 9f 3e b6 f0 b6 3e 65 e2 20 3d f1 75 a4 3d
       0.31126425 0.35730523 0.039278407 0.08030308
000010 89 fa b2 3e 6b 32 8d 3e 64 33 c2 3e 55 76 96 3e
       0.34956768 0.27577528 0.37929833 0.29387155
000020 92 2b d1 3e 80 ae 8a 3e c4 9d e8 3e 0e f1 97 3e
       0.40853554 0.27086258 0.45432866 0.29676098
000030 10 e8 a5 3d 22 06 f6 3e af b7 7e 3e e5 01 26 3e
       0.08100903 0.48051554 0.24874757 0.1621166
000040 00 92 9b 3d f4 58 d9 3e a6 f1 6e 3e ae ff d8 3e
       0.07596207 0.42450678 0.23334369 0.42382568
000050 e4 cd f8 3e 8c 4a b8 3e 57 30 f5 3e 0f 10 d5 3e
       0.48594582 0.35994375 0.47888443 0.41613814
000060 3e 12 4e 3e f6 2d 8f 3e 17 4f fd 3e 82 00 f0 3e
       0.20124146 0.27964753 0.49474403 0.46875387
000070 25 40 f8 3e c1 36 93 3e f6 bf 83 3e 70 a0 b8 3e
       0.48486438 0.2875271 0.25732392 0.36059904
000080 84 c8 b3 3e 42 2a 32 3e df cd 7c 3e 41 c2 cc 3d
       0.3511392 0.17398933 0.24687909 0.099979885
000090 41 ec a6 3e
       0.32602122
