CaseModels/03 37-Bus/_BaseModel_MAG.pth (torch, 18193 bytes, 7 tensors)

bias f4 [37]
0	0x3e10c515	0.14137681
1	0x3e150c89	0.14555563
2	0x3dd23067	0.10263138
3	0x3db282bd	0.087163426
4	0x3e27b657	0.16378151
5	0x3e048e57	0.12944923
6	0x3debf58b	0.11521443
7	0x3dd3ccf2	0.103418246
8	0x3df2ede8	0.11861783
9	0x3dc69af8	0.09697527
10	0x3cfc9b50	0.030835778
11	0x3cfff33b	0.031243911
12	0x3df04bd2	0.117332116
13	0x3e187bbf	0.14890955
14	0x3e087158	0.13324487
15	0x3e1c7f21	0.15282871
16	0x3e001143	0.12506585
17	0x3e179e5a	0.148065
18	0x3e149c66	0.14512786
19	0x3dd26f6b	0.102751575
20	0x3dceea7f	0.1010332
21	0x3e17a37c	0.14808458
22	0x3e13bc41	0.14427282
23	0x3de40497	0.11133688
24	0x3dbf95f2	0.09354772
25	0x3e1521bf	0.14563654
26	0x3e0c9ea0	0.13732386
27	0x3e054ba1	0.13017131
28	0x3e0d1372	0.13776949
29	0x3dbe90f3	0.093049906
30	0x3dd2e508	0.102975905
31	0x3dfbe9bf	0.12300443
32	0x3de0c130	0.109743476
33	0x3dde63fa	0.10858913
34	0x3df2f3d0	0.1186291
35	0x3e186246	0.14881238
36	0x3df8bded	0.121456005

fc1.weight f4 [30, 91]
0	0xbdebc6cb	-0.11512526
1	0xbc62af03	-0.013835671
2	0xbc0bacb7	-0.008525065
3	0xbdd9a272	-0.10626687
4	0xbc492715	-0.012277384
5	0xbcb14b5d	-0.021642381
6	0xbdd659dd	-0.10466359
7	0xbdbbf805	-0.09178165
8	0xbd7a4161	-0.061097506
9	0xbda08651	-0.07838119
10	0xbb99267b	-0.0046737767
11	0xbbbd9bb7	-0.005786385
12	0xbdb59d2d	-0.088678695
13	0xbc21ad01	-0.0098679075
14	0xbd9df1e4	-0.077121526
15	0xbda86375	-0.08222095
16	0x3bb56294	0.005535433
17	0xbd182741	-0.03714681
18	0x3d623ddb	0.05523477
19	0xbdd2924b	-0.102818094
20	0x3d730fd3	0.059341263
21	0xbcbb276f	-0.022845952
22	0xbd88c427	-0.06678038
23	0xbd86f7e6	-0.065902516
24	0x3c43769d	0.011930135
25	0xbe0f76fe	-0.14010236
26	0xbccbc418	-0.024873778
27	0xbd84300e	-0.06454478
28	0x3ca86f3c	0.020560853
29	0x3cfac7c4	0.030612834
30	0xbbf499a0	-0.0074646026
31	0x3dc6c20f	0.097049825
32	0x3d190c2a	0.037365116
33	0x3c3950e0	0.011310786
34	0xbdc951d1	-0.09830058
35	0x3dc3c865	0.095597066
36	0x3c9c20c0	0.019058585
37	0xbd40f1d5	-0.04710563
38	0xbd783b57	-0.060603466
39	0x3dcad3a1	0.09903646
40	0x3d82b76f	0.063826434
41	0x3d9f1df5	0.07769386
42	0x3dc7cabf	0.097554676
43	0xbd8ebafc	-0.06969258
44	0xbc0119e8	-0.007879712
45	0xbd95cb52	-0.07314171
46	0xbd8bc01d	-0.06823752
47	0x3dce4379	0.10071463
48	0x3d477b52	0.04870159
49	0xbd995e68	-0.0748871
50	0xbda295dc	-0.0793874
51	0xbc728210	-0.014801517
52	0x3bed6250	0.007244386
53	0xbd1fc4c2	-0.039006002
54	0xbcb56840	-0.022144437
55	0x3cc639a1	0.024197401
56	0x3cde4aec	0.027135335
57	0x3cbee1ec	0.023301087
58	0xbd78b238	-0.060716838
59	0x3d4b31da	0.04960809
60	0xbb090d40	-0.0020912439
61	0xbd2700f6	-0.0407724
62	0xbd75a121	-0.059968118
63	0x3d6505fe	0.055913918
64	0x3ccda3ac	0.025102459
65	0x3b3102a0	0.0027009621
66	0xbd844f65	-0.06460456
67	0x3cb0ea1c	0.021596007
68	0xbdbe21dd	-0.09283803
69	0x3dc5e34f	0.09662496
70	0x3dcb6381	0.09931088
71	0x3db86731	0.09004057
72	0x3d8268cb	0.06367644
73	0x3db20095	0.08691517
74	0x3d805f95	0.06268231
75	0xbdbd9ae9	-0.092580624
76	0x3d66bee0	0.056334376
77	0x3d42c43a	0.047550417
78	0x3dc16fad	0.094451286
79	0x3d71a42b	0.058994453
80	0xbe0eac56	-0.13932928
81	0xbdd4a8f2	-0.10383786
82	0xbd772c81	-0.060345177
83	0xbd442c75	-0.04789396
84	0x3dad6611	0.08466733
85	0xbdbe432e	-0.09290157
86	0xbcd74be6	-0.026281308
87	0x3ce2d960	0.027691543
88	0xbd30b7c5	-0.043144006
89	0xbcf4c839	-0.02988063
90	0xbd237c0e	-0.03991323
91	0xbd854d60	-0.06508899
92	0x3dacbea7	0.084348015
93	0xbdd64cfa	-0.10463901
94	0xbca6f54c	-0.020380639
95	0xbc483478	-0.012219541
96	0xbd34549e	-0.04402601
97	0x3d124d6a	0.03571836
98	0xbd5d70e9	-0.054062758
99	0xbd8b8280	-0.06812
100	0xbdc4ed0f	-0.09615528
101	0x3c8b6100	0.017014027
102	0x3cb5a3cc	0.022172831
103	0xbda4b89f	-0.08043026
104	0xbd2658fa	-0.0406122
105	0x3dab117b	0.083529435
106	0x3d3f68ba	0.046730734
107	0xbd5a3459	-0.05327258
108	0x3d9d89c1	0.0769229
109	0x3da35793	0.07975688
110	0x3d8be1c9	0.068301745
111	0x3d1e4256	0.03863748
112	0x3d02f7a2	0.031974442
113	0x3dc3b669	0.09556276
114	0x3dc0f8db	0.094224654
115	0xbd852124	-0.06500462
116	0xbd6fdfb7	-0.05856296
117	0x3d1cd91e	0.038292997
118	0xba9a4cc0	-0.0011772141
119	0x3c8ba0a8	0.01704438
120	0x3bf61e20	0.0075109154
121	0xbc969428	-0.018381193
122	0x3c989730	0.01862678
123	0xbd96926e	-0.07352148
124	0x3d85f63f	0.06541108
125	0x3d0ff9ba	0.035150267
126	0xbd9c7962	-0.076403394
127	0xbdcfaebc	-0.1014075
128	0x3da86f41	0.08224345
129	0xbc3f7910	-0.011686578
130	0x3d3ce9d6	0.04612144
131	0x3d927287	0.071507506
132	0x3d95f929	0.07322914
133	0x3d5a3692	0.0532747
134	0xbdaef63e	-0.08543061
135	0xbd44ac8f	-0.048016127
136	0xbd744d3d	-0.059643973
137	0x3d8812c3	0.066442035
138	0xbc2e31a0	-0.010631949
139	0xbdd1f131	-0.10251082
140	0xbd4dcf05	-0.050246257
141	0xbdd34125	-0.1031516
142	0xbdc5e072	-0.0966195
143	0x3d8e5627	0.06950026
144	0xbd5e8c51	-0.054333035
145	0xbd7056f1	-0.058676664
146	0x3d2e2206	0.042512916
147	0xbd6100ac	-0.05493228
148	0xbcfb425c	-0.030671291
149	0x3d3bc3f2	0.045841165
150	0xbd6cb2aa	-0.057787575
151	0xbb651d40	-0.0034960061
152	0x3dc313db	0.095252715
153	0xbd96a291	-0.07355226
154	0x3b49d960	0.0030799732
155	0xbcd1a6e8	-0.025592282
156	0xbd981f87	-0.07427888
157	0x3d8c5bff	0.06853484
158	0xba9d5c40	-0.0012005642
159	0x3ce1ea3c	0.027577512
160	0x3d2461a2	0.040132172
161	0xbdc8bc71	-0.09801567
162	0xbcad8bb4	-0.02118478
163	0x3c2c9928	0.010534562
164	0x3dbdfd77	0.0927686
165	0x3dabb875	0.08384792
166	0x3cd8521c	0.02640634
167	0xbdc5c4bb	-0.09656664
168	0xbd9d1651	-0.07670272
169	0xbd17a8a4	-0.037026063
170	0xbdb5b35a	-0.08872099
171	0x3d881f0d	0.066465475
172	0x3da32e09	0.07967765
173	0xbc119518	-0.008885644
174	0xbd03074c	-0.03198938
175	0xbd60b524	-0.05486025
176	0xbda2d570	-0.07950866
177	0x3d9ea8af	0.077470176
178	0x3d7e977e	0.062156193
179	0xbda9be9e	-0.082883105
180	0xbd98c82d	-0.074600555
181	0x3d49fa8a	0.0493112
182	0x3b6ddbed	0.0036294416
183	0xbd5061d5	-0.05087455
184	0xbdd342a4	-0.10315445
185	0xbd802440	-0.06256914
186	0xbdb4bf7f	-0.088255875
187	0xbdc1f943	-0.09471371
188	0x3d67b4df	0.056568976
189	0x3d9706bc	0.07374331
190	0x3c91f7c4	0.01781834
191	0xbdedb8ae	-0.116074905
192	0xbd9e2e54	-0.0772368
193	0x3cee13f9	0.029062258
194	0xbcef2b4a	-0.029195447
195	0xbd9f4265	-0.077763356
196	0xbda60de8	-0.08108121
197	0xbd577d50	-0.05260974
198	0xbc49a635	-0.012307693
199	0xbce2aa2c	-0.027669035
200	0x3da5f6fd	0.0810375
201	0xbd544bb9	-0.051830027
202	0xbd502bfe	-0.050823204
203	0xbc0222a7	-0.007942832
204	0xbdec10e6	-0.115266606
205	0xbc4d2538	-0.012521081
206	0xbdc80ae9	-0.09767706
207	0xbdab8beb	-0.083762966
208	0x3d24a36c	0.040194914
209	0xbda7bed2	-0.08190693
210	0xbd38f524	-0.04515566
211	0xbd4b2c15	-0.049602587
212	0x3dd58471	0.10425652
213	0x3dbc57d7	0.091964416
214	0xbd9e1b44	-0.07720044
215	0xbda2409e	-0.07922481
216	0xbdcea1a0	-0.10089421
217	0x3da4cb9b	0.08046647
218	0xbd003b3c	-0.03130649
219	0xbdc36db2	-0.09542407
220	0x3d6f99da	0.058496334
221	0xbdd54797	-0.10414045
222	0x3d79917a	0.060929753
223	0x3cab716c	0.020928107
224	0xbdd67672	-0.104718104
225	0xbc0b8dc0	-0.008517683
226	0x3da02167	0.07818871
227	0xbd13467e	-0.0359559
228	0x3dc528bd	0.09626911
229	0xbd16a9dc	-0.036783084
230	0xbd2cb54c	-0.042165086
231	0x3d936eb3	0.071988486
232	0xbdd01040	-0.101593494
233	0x3c4a3a08	0.012342937
234	0xbcc95634	-0.024577238
235	0xbd4d2e04	-0.050092712
236	0x3db0c9ef	0.08632266
237	0xbddc6018	-0.10760516
238	0xbd500115	-0.050782282
239	0xbdb348da	-0.0875413
240	0xbd58cc00	-0.052928925
241	0x3c33d258	0.010975443
242	0xbae9b580	-0.001783058
243	0xbd92220a	-0.07135399
244	0xbdb4e73d	-0.08833168
245	0x3b6a13c0	0.0035717338
246	0xbc4e8198	-0.01260414
247	0x3ccef8fc	0.02526521
248	0xbda53ac7	-0.080678515
249	0x3d8db2c9	0.06918866
250	0x3d606286	0.05478146
251	0x3d893067	0.06698685
252	0x3d546f2a	0.051863827
253	0xbd0635cc	-0.03276615
254	0xbdd4dcea	-0.103936985
255	0xbd27ea52	-0.04099495

fc1.bias f4 [30]
0	0xbdc632e8	-0.09677678
1	0xbd95ac86	-0.07308297
2	0x3d3eb07c	0.046555027
3	0x3daf5bdc	0.08562443
4	0x3e6bc1ff	0.23023222
5	0x3db1ab8a	0.086752966
6	0x3de7088b	0.11280926
7	0x3c411506	0.011784798
8	0xbdd2d60d	-0.10294733
9	0xbae02b19	-0.0017102688
10	0x3e3d1992	0.18466786
11	0x3e9b1760	0.3029127
12	0xbd04c9ae	-0.0324189
13	0x3e40adde	0.18816325
14	0x3e133e22	0.1437917
15	0x3de5bf85	0.1121817
16	0x3d602c49	0.054729734
17	0x3d296b36	0.04136201
18	0x3c7b4fa6	0.015338814
19	0xbd0f8b4c	-0.035044953
20	0x3db6bd41	0.08922816
21	0x3d5c2e05	0.053754825
22	0xbd147f30	-0.036254108
23	0x3e04ae1c	0.12957042
24	0xbd8561d0	-0.06512797
25	0x3e085906	0.1331521
26	0x3d9beba2	0.07613303
27	0xbb9d1be0	-0.0047945827
28	0x3de20c58	0.11037511
29	0xbdc482c4	-0.09595254

fc2.weight f4 [15, 30]
0	0xbd5accef	-0.053418096
1	0x3e14b128	0.14520705
2	0x3decd64a	0.1156431
3	0x3dfa5dd8	0.122249305
4	0xbd8cd2e5	-0.068761624
5	0xbdf07e89	-0.11742885
6	0xbc86c32f	-0.016450493
7	0xbd90c0b3	-0.070680045
8	0x3d5961ac	0.053071663
9	0xbb3d2e88	-0.0028866846
10	0xbdd30018	-0.10302752
11	0x3e78ce10	0.24297357
12	0x3da4acfc	0.08040807
13	0x3e056efd	0.1303062
14	0xbd86cf5b	-0.06582519
15	0x3d2cc6ed	0.042181898
16	0xbc50a417	-0.012734435
17	0xbb1454c0	-0.0022633523
18	0x3dc4e439	0.096138425
19	0xbdb6e7c3	-0.08930924
20	0xbd6580d7	-0.056031074
21	0xbdb9f9ed	-0.09080873
22	0x3c6e2c4f	0.014536931
23	0x3d1e489e	0.038643472
24	0x3e322a52	0.17398956
25	0x3e1b29a2	0.151526
26	0x3e1d1f6d	0.15344019
27	0x3dbde1dc	0.09271595
28	0x3e137bb7	0.14402662
29	0xbe3ace9d	-0.18242879
30	0xbd96d270	-0.073643565
31	0xbd3eb220	-0.046556592
32	0xbd9b6833	-0.07588234
33	0xbd21667b	-0.039404374
34	0x3df97244	0.121799976
35	0x3e273d7e	0.16332051
36	0x3d985a63	0.07439115
37	0xbdbbb8de	-0.0916612
38	0x3d816195	0.063174404
39	0x3e066d2b	0.13127582
40	0xbe3ab39c	-0.18232578
41	0x3d2451dd	0.040117133
42	0x3cd03cc0	0.025419593
43	0xbd8daadb	-0.06917354
44	0x3d376d21	0.044781808
45	0xbd6659f9	-0.05623815
46	0xbc322a85	-0.010874395
47	0x3e1c7a8e	0.15281126
48	0xbdc7a7e1	-0.09748817
49	0xbe3317ce	-0.1748955
50	0xbd321deb	-0.043485563
51	0x3cdf1600	0.02723217
52	0xbc971d84	-0.018446691
53	0xbd32dd2d	-0.04366796
54	0x3e33ab76	0.17545876
55	0x3d24ea25	0.04026236
56	0xbdf906a0	-0.12159467
57	0xbe13260f	-0.14369987
58	0x3cfa3002	0.03054047
59	0xbe1b1f15	-0.15148576
60	0xbe541f86	-0.2071515
61	0x3d577b54	0.05260785
62	0x3d674aa8	0.056467682
63	0xbc41482f	-0.011796995
64	0x3e1365d3	0.14394312
65	0xbe00b6ed	-0.1256978
66	0xbe0a0332	-0.13477781
67	0xbcc6456f	-0.02420303
68	0xbd8d6195	-0.06903378
69	0x3d6b917b	0.057511788
70	0xbdf5a1a8	-0.11993724
71	0x3e179a5b	0.14804976
72	0x3dcb5768	0.09928781
73	0x3db7a530	0.08967054
74	0xbdf65736	-0.12028353
75	0xbdf66495	-0.12030903
76	0x3d2e64f4	0.042576745
77	0x3db668dc	0.08906719
78	0x3d9dabf0	0.0769881
79	0x3e02c214	0.12769347
80	0xbe6ba094	-0.23010474
81	0x3cdc5dee	0.026900258
82	0x3caed670	0.021342486
83	0xbc772c46	-0.015086239
84	0x3d002308	0.03128341
85	0x3cd496a6	0.025950741
86	0xbe1b1080	-0.15143013
87	0x3dd5c21c	0.10437414
88	0x3decc475	0.11560909
89	0xbe2a18d7	-0.16611038
90	0x3e24467d	0.16042514
91	0xbe1097b8	-0.14120376
92	0x3e065bca	0.13120952
93	0xbcc95eff	-0.02458143
94	0x3d8c87f5	0.06861869
95	0x3de3896e	0.11110197
96	0xbdacb816	-0.08433549
97	0xbd7b6a7c	-0.06138085
98	0xbd6aa204	-0.057283416
99	0xbe068c7d	-0.1313953
100	0xbdc23234	-0.09482232
101	0xbe2ee618	-0.17079961
102	0xbc9c7600	-0.019099236
103	0xbd05ab29	-0.032633934
104	0x3d4f964c	0.050680444
105	0x3d3e92c3	0.04652668
106	0xbd5a1c9c	-0.05324994
107	0x3db27608	0.08713919
108	0x3dbc6d58	0.09200543
109	0xbd7cdd2e	-0.06173437
110	0xbe412ade	-0.18864009
111	0x3e0a0758	0.13479364
112	0xbe0cd87e	-0.1375446
113	0x3cfe6788	0.031055227
114	0x3e0aa434	0.13539201
115	0xbd62bc91	-0.055355612
116	0x3c876e27	0.016532017
117	0xbcb32a78	-0.021870837
118	0xbdafce7a	-0.08584304
119	0x3c6a9890	0.0143186
120	0x3d86887c	0.06569001
121	0xbc4ff700	-0.012693167
122	0xbdd0d68f	-0.10197174
123	0x3c913198	0.017723843
124	0xbd27ae8c	-0.040937945
125	0x3e1af3e4	0.151321
126	0xbd885cea	-0.06658347
127	0x3d463ea0	0.048399568
128	0x3bee80a0	0.007278517
129	0xbb9d51e0	-0.00480102
130	0x3d80b1be	0.06283902
131	0xbe1833d3	-0.1486352
132	0xbdcf4dda	-0.10122271
133	0xbcd374f0	-0.025812596
134	0xbe1bc0bc	-0.15210241
135	0x3d860318	0.06543559
136	0x3d3b890c	0.045784995
137	0xbca25c90	-0.019819528
138	0xbe39bb3b	-0.18137829
139	0x3cb39628	0.021922186
140	0xbde0cf6f	-0.10977065
141	0x3e120f1c	0.14263576
142	0x3c6be050	0.014396742
143	0xbd8c9ef9	-0.06866259
144	0xbd652cc0	-0.05595088
145	0x3d0211c0	0.03175521
146	0x3dc4b4cc	0.09604797
147	0x3e0454f0	0.12923026
148	0xbdd2d3cb	-0.102943026
149	0x3d1bb318	0.038012594
150	0x3d3e6a3e	0.04648804
151	0xbd12ecd0	-0.035870373
152	0x3dcce5ae	0.100047454
153	0xbd8061dd	-0.06268666
154	0x3e06e280	0.1317234
155	0x3dfe0de9	0.12404997
156	0x3e270e29	0.16313995
157	0xbe183b77	-0.14866434
158	0x3da27025	0.07931546
159	0xbe025ab0	-0.12729907
160	0x3e1e7bec	0.1547696
161	0x3e9422c6	0.2893278
162	0x3e1c235a	0.1524786
163	0xbe00bdf8	-0.12572467
164	0x3ce54876	0.027988654
165	0xbdad76c9	-0.08469922
166	0xbd86cdef	-0.065822475
167	0xbda60563	-0.08106496
168	0x3e4c2f2c	0.1993987
169	0x3e0b0d30	0.1357925
170	0x3c9d1c47	0.019178523
171	0x3de7f207	0.1132546
172	0xbdd92f8f	-0.10604774
173	0x3e35e26d	0.17762156
174	0x3df34f2c	0.11880335
175	0x3e2f5961	0.17123939
176	0xbd9e3138	-0.077242315
177	0x3e00977e	0.1255779
178	0x3dc3c350	0.09558737
179	0xbdd04ded	-0.10171113
180	0xbe3a61e3	-0.18201403
181	0xbe0a4240	-0.13501835
182	0xbe704928	-0.23465407
183	0xbd5bb3e5	-0.053638358
184	0x3e138e61	0.14409782
185	0xbd244220	-0.040102124
186	0x3df0fb80	0.1176672
187	0xbe289653	-0.16463594
188	0x3ddc0589	0.10743243
189	0xbd87ad64	-0.066248685
190	0xbc2177c0	-0.009855211
191	0x3d9ebef1	0.07751263
192	0x3e017c7c	0.12645143
193	0xbd9cedd8	-0.076625526
194	0x3ea8ee38	0.32994246
195	0xbd3ea97b	-0.046548348
196	0x3e126b08	0.14298642
197	0x3d58ff30	0.05297774
198	0xbdda9c8e	-0.10674392
199	0x3da6ff68	0.081541836
200	0xbdada63a	-0.08478971
201	0x3e65e752	0.22451523
202	0x3bbe4a20	0.005807176
203	0x3e310d7c	0.172903
204	0x3def68a0	0.116898775
205	0xbdc5d872	-0.09660424
206	0x3dadbfa8	0.08483821
207	0xbd48756c	-0.048940107
208	0xbde68f3f	-0.11257791
209	0xbbf06620	-0.007336393
210	0x3ddfde66	0.10931091
211	0x3e39a8c2	0.18130782
212	0x3dd706b0	0.104993224
213	0x3e40f731	0.18844296
214	0x3e16a642	0.1471186
215	0xbda608db	-0.08107158
216	0x3b29b4c0	0.002589509
217	0x3e0a087c	0.13479799
218	0x3db5dc36	0.088798925
219	0x3e3c5124	0.18390328
220	0x3bf33516	0.0074221
221	0x3dd844a7	0.105599694
222	0xbda072b5	-0.07834379
223	0x3d759cf8	0.05996415
224	0xbbd9b9d4	-0.006644467
225	0x3d9e1169	0.077181645
226	0xbe2db4c0	-0.16963482
227	0xbdf70b18	-0.12062663
228	0x3dce9962	0.10087849
229	0x3e04a764	0.1295448
230	0xbd66e4b2	-0.056370445
231	0xbcd12af8	-0.025533184
232	0x3d8b71f9	0.06808848
233	0x3cc59dd8	0.024123117
234	0xbdc70dad	-0.09719405
235	0x3d7fae63	0.062422168
236	0x3d8be655	0.06831042
237	0x3d1fec28	0.039043576
238	0xbd13c9ac	-0.036081
239	0x3df7a9bc	0.12092921
240	0x3d7a6494	0.061131075
241	0x3de54764	0.11195257
242	0x3dfbe4c0	0.1229949
243	0xbe008a6c	-0.12552804
244	0xbdc2cbbf	-0.09511518
245	0x3ccc5062	0.024940673
246	0x3de0b2e0	0.10971618
247	0xbd01ddcd	-0.031705666
248	0xbc476273	-0.012169468
249	0x3df97992	0.12181391
250	0xbd6bc921	-0.05756486
251	0xbe19e046	-0.1502696
252	0x3d26f508	0.040761024
253	0xbd384017	-0.044982996
254	0x3db3fc85	0.08788399
255	0xbc2c84a2	-0.010529669

fc2.bias f4 [15]
0	0x3e030e8c	0.12798518
1	0x3e02f83e	0.1279001
2	0xbd055fa7	-0.032561924
3	0xbc374dc8	-0.011187978
4	0xbc856878	-0.016285166
5	0x3e539380	0.20661736
6	0xbc019470	-0.007908925
7	0x3e65ab6f	0.22428678
8	0x3d45407f	0.04815721
9	0x3e84dad7	0.25948212
10	0x3d97b1d7	0.07406967
11	0x3d3b4a89	0.04572538
12	0x3e812024	0.25219834
13	0xbd38e4c6	-0.04514005
14	0x3d64476c	0.055732176

fc3.weight f4 [37, 15]
0	0xbd227b60	-0.03966844
1	0xbd307c6e	-0.043087415
2	0xbc2d4857	-0.010576329
3	0xbe411ae1	-0.1885791
4	0xbd548928	-0.051888615
5	0xbd0266be	-0.031836264
6	0xbd654fb9	-0.055984233
7	0x3e14e3ac	0.14539975
8	0xbe67e07f	-0.22644232
9	0x3e5dd9ec	0.21665162
10	0x3caece3a	0.02133857
11	0x3c5f1dac	0.013617914
12	0x3c882c6a	0.01662274
13	0x3cccf653	0.0250198
14	0xbe4e1880	-0.20126534
15	0x3e602d9a	0.21892396
16	0xbdeec84e	-0.11659299
17	0x3dab12a7	0.08353167
18	0x3e7e6f7a	0.24847212
19	0x3cb2a390	0.021806508
20	0x3dcfc944	0.1014581
21	0x3d80fa59	0.0629775
22	0x3d523340	0.051318407
23	0xbe404bdd	-0.1877894
24	0xbc762933	-0.015024471
25	0x3d00e209	0.031465564
26	0xbd5f6b5c	-0.054545745
27	0x3e054764	0.13015515
28	0x3dab09f4	0.08351508
29	0x3ddb90e4	0.10720995
30	0xbdcbcea3	-0.09951522
31	0x3d3e1d85	0.04641487
32	0x3db6409b	0.08899041
33	0xbcc7d804	-0.024394996
34	0xbcf682e8	-0.030091718
35	0xbcfc4c78	-0.030798182
36	0xbd6ac898	-0.057320207
37	0x3e471db3	0.19444923
38	0xbe05837f	-0.13038443
39	0x3ebf0ce8	0.37314534
40	0xbe2775d3	-0.1635354
41	0xbaae8757	-0.0013315481
42	0x3e3a0861	0.18167259
43	0x3bd7681a	0.006573689
44	0xbe473bc7	-0.19456397
45	0x3e588a67	0.21146546
46	0x3c413d2a	0.011794368
47	0xbdf5ef95	-0.12008587
48	0x3e3ec3cb	0.18629377
49	0xbd601f68	-0.05471745
50	0xbd5b5b35	-0.05355378
51	0x3d9da3b3	0.07697239
52	0x3d56f59c	0.052480325
53	0x3e4b301e	0.19842574
54	0x3e7bf0c0	0.24603558
55	0x3cca2e66	0.024680328
56	0xbcc20402	-0.023683552
57	0x3e1648db	0.1467623
58	0x3d9190fa	0.0710773
59	0xbe4f8044	-0.20263773
60	0xbc443830	-0.011976287
61	0xbbfa0935	-0.007630492
62	0x3d83cc1a	0.06435414
63	0x3dea5d6f	0.11443602
64	0xbe23086c	-0.15921181
65	0x3c62600b	0.013816844
66	0x3c785759	0.015157544
67	0x3df6154f	0.12015783
68	0x3e071e9c	0.1319527
69	0x3e723cab	0.23655955
70	0x3ea74b4e	0.3267464
71	0xbd830dd1	-0.0639912
72	0x3cef9fb5	0.029250959
73	0x3e0b2341	0.13587667
74	0xbe500040	-0.20312595
75	0x3d51ffc6	0.051269315
76	0xbb4b6848	-0.0031037498
77	0x3b78b9d1	0.0037952552
78	0x3d71ce30	0.059034526
79	0x3e2a79ee	0.16648075
80	0x3dc61a69	0.09673006
81	0x3d97f775	0.074202456
82	0x3c2db865	0.010603045
83	0x3e1d297b	0.15347855
84	0x3d24dc51	0.040249173
85	0xbdc089e8	-0.094013035
86	0x3e389276	0.1802462
87	0x3e6a0b6f	0.22855924
88	0x3d89b7ed	0.06724534
89	0xbdcdf6d0	-0.100568414
90	0xbe32b836	-0.17453083
91	0x3d6931f3	0.0569324
92	0xbd7b17ef	-0.06130212
93	0xbe09cf8d	-0.1345808
94	0x3d557330	0.052111804
95	0x3dfac23b	0.12244078
96	0xbb82e025	-0.0039940053
97	0x3db2c923	0.0872977
98	0x3e771663	0.24129634
99	0x3e35c8d6	0.17752394
100	0x3cae41b1	0.021271558
101	0x3e80ec40	0.25180244
102	0x3c026a29	0.007959881
103	0x3cd7c178	0.02633737
104	0xbe23a311	-0.15980174
105	0x3e8a882d	0.2705702
106	0x3f123962	0.5711881
107	0x3d0a7188	0.033799678
108	0x3da6065a	0.0810668
109	0xbdf8f0e8	-0.12155324
110	0xbe2bbddd	-0.16771646
111	0xbe12e297	-0.1434425
112	0x3ed07ef7	0.40721866
113	0x3e878aef	0.26473185
114	0xbe908a8e	-0.2823071
115	0x3e7c3b8d	0.24632092
116	0xbd8b6390	-0.068060994
117	0x3eb7e360	0.3591566
118	0xbe8290a3	-0.25500974
119	0xbdade550	-0.084910035
120	0x3e85babb	0.26119027
121	0xbc2915dd	-0.010320154
122	0xbdcf7d54	-0.10131326
123	0xbe1762ba	-0.14783755
124	0x3d9d61bc	0.07684657
125	0xbd99f442	-0.075172916
126	0x3c5655cd	0.01308198
127	0x3d6211f2	0.055192895
128	0x3e06a6d9	0.13149585
129	0x3dac6f25	0.08419637
130	0x3e308ad7	0.17240463
131	0x3e5c1c34	0.21495134
132	0x3dc4f786	0.09617524
133	0x3cbbddea	0.022932965
134	0xbcf58298	-0.029969499
135	0xbda6bf61	-0.081419714
136	0x3de5fb11	0.11229528
137	0xbce8798a	-0.028378267
138	0x3e563100	0.2091713
139	0x3e1f94a6	0.15584049
140	0x3e0891f7	0.13336931
141	0xbcd4bf5b	-0.025970152
142	0xbcf4a19e	-0.029862221
143	0xbe029e8b	-0.12755792
144	0x3e3070cd	0.1723053
145	0x3e056d03	0.13029866
146	0x3e40544c	0.18782157
147	0x3e30c5ff	0.1726303
148	0x3c5c2bca	0.0134381745
149	0x3e0c393c	0.13693708
150	0x3d20ef63	0.039290797
151	0xbe140be3	-0.1445766
152	0xbcfd0d5d	-0.030890161
153	0x3cd9266e	0.026507583
154	0x3d590b58	0.052989334
155	0xbd34040a	-0.043949164
156	0x3e9b244d	0.30301133
157	0x3d671388	0.05641511
158	0xbe259ea4	-0.16173798
159	0x3c06921b	0.008213545
160	0xbd31f596	-0.0434471
161	0x3dfa8f39	0.12234349
162	0x3e26da22	0.16294149
163	0x3ea835b1	0.32853463
164	0x3e0bc9f4	0.13651258
165	0xbd4daf9a	-0.050216295
166	0x3dbcca9e	0.09218334
167	0xbe0792f6	-0.13239655
168	0x3e282e7f	0.16423987
169	0xbe7517ce	-0.23934862
170	0x3e491c66	0.1963974
171	0x3dc98d0a	0.09841354
172	0x3e49fecf	0.19726108
173	0x3e59c66b	0.21267097
174	0x3d4c725d	0.049913753
175	0xbcefeb57	-0.029287023
176	0x3e94e9fa	0.2908476
177	0xbe78ee70	-0.24309707
178	0xbc8d935b	-0.017282179
179	0x3e4b6bbc	0.19865316
180	0xbc84112e	-0.016121473
181	0x3d26f414	0.040760115
182	0xbe7af90d	-0.24509068
183	0xbe4a6f70	-0.19769073
184	0xbde65c66	-0.11248092
185	0xbd5ebb14	-0.05437763
186	0x3c8f899b	0.01752167
187	0x3deeaf42	0.116545215
188	0x3d78d351	0.060748402
189	0x3e69fe0d	0.22850819
190	0xbd9e385b	-0.07725593
191	0x3eab63cf	0.33474585
192	0xbda3624f	-0.07977735
193	0xbc826dc3	-0.01592148
194	0x3d8277b0	0.06370485
195	0x3e1607f9	0.14651479
196	0xbe4711fa	-0.19440451
197	0x3e392ea6	0.18084201
198	0xbe74018b	-0.23828714
199	0xbe71fd2b	-0.23631732
200	0x3e0c091c	0.1367535
201	0x3e48e590	0.19618821
202	0x3e3a84f3	0.18214779
203	0x3e285ca8	0.16441596
204	0xbd71a2cd	-0.05899315
205	0xbdf45dca	-0.11931951
206	0xbcc9e741	-0.024646403
207	0x3e95ace4	0.29233468
208	0x3e7eee1f	0.24895523
209	0x3e412174	0.18860418
210	0x3e35617c	0.17712969
211	0xbe62c3df	-0.22145031
212	0x3e5a1773	0.21298008
213	0x3e2a299e	0.16617438
214	0xbd94d374	-0.07266894
215	0x3d24e8f7	0.040261235
216	0x3ed806dd	0.42192736
217	0x3ea2b717	0.3178031
218	0x3e6eaac2	0.23307326
219	0xbe0ec1ee	-0.13941166
220	0xbbb0250f	-0.0053755115
221	0xbdf23086	-0.11825661
222	0x3e103252	0.14081696
223	0x3ee8c4b6	0.4546258
224	0xbe816714	-0.25273955
225	0x3e954842	0.2915669
226	0x3e98eace	0.29866642
227	0xbe6c638c	-0.23084849
228	0xbd79a01e	-0.060943715
229	0x3dc065bc	0.09394404
230	0x3d02e7f7	0.0319595
231	0x3d85ce42	0.06533481
232	0xbe5ec91e	-0.21756408
233	0xbe1915a8	-0.14949667
234	0x3d604339	0.05475161
235	0x3e379c5a	0.17930737
236	0x3e61cb29	0.22050156
237	0x3c7d53c8	0.01546187
238	0xbe14e3e2	-0.14540055
239	0xbe487195	-0.19574578
240	0x3e53335a	0.20625058
241	0x3e219615	0.15779908
242	0xbe0502aa	-0.12989298
243	0xbe021d42	-0.12706473
244	0xbdb3a874	-0.08772364
245	0x3e8dad85	0.27671447
246	0x3e2a6079	0.16638364
247	0x3e13e31f	0.14442109
248	0x3c503d9b	0.01271
249	0x3e7a5fb5	0.24450572
250	0xbe21a0a6	-0.15783939
251	0xbdcfd1b5	-0.1014742
252	0xbe399ba9	-0.18125786
253	0xbd9641a4	-0.07336739
254	0xbe4bc5e0	-0.19899702
255	0x3e2bdcb6	0.16783413

fc3.bias f4 [37]
0	0x3ec90306	0.3926012
1	0x3e8a860e	0.270554
2	0x3e010c38	0.12602317
3	0x3db3fe3d	0.087887265
4	0x3d101cb3	0.03518362
5	0x3c87d530	0.016581148
6	0x3d1ce519	0.038304422
7	0x3e8e5af3	0.27803764
8	0xbdb02418	-0.08600634
9	0xbdab2668	-0.08356935
10	0x3e82bdc8	0.25535417
11	0x3e405d90	0.18785691
12	0x3dde0c50	0.10842192
13	0xbdae4105	-0.08508495
14	0x3ccfa651	0.02534786
15	0x3e2458cf	0.16049503
16	0x3dd08051	0.101807244
17	0xbd32d3cb	-0.043659013
18	0xbbd9a45f	-0.006641909
19	0xbdfb8d47	-0.12282806
20	0x3db17d93	0.086665295
21	0xbc94e2df	-0.018174587
22	0x3ecbe736	0.39824837
23	0xbd3f1ec4	-0.0466602
24	0x3d88d964	0.06682089
25	0x3ead2e4e	0.3382439
26	0xbd3160e6	-0.0433053
27	0x3e2def10	0.16985726
28	0x3eb81852	0.35956055
29	0x3dbc56c5	0.091962375
30	0x3e92f4bb	0.2870234
31	0xbd1d7146	-0.038438104
32	0x3e8bdc15	0.27316347
33	0x3eaee3df	0.34158227
34	0x3d34d796	0.04415091
35	0xbd96894e	-0.073504075
36	0x3e3aba5e	0.18235156
