CaseModels/03 37-Bus/_baseModel_vpu.pth (torch, 18193 bytes, 7 tensors)

bias f4 [37]
000000 48 8c a5 3e 20 0d 92 3e 31 72 af 3e a8 d2 96 3e
       0.3233359 0.2852564 0.3426681 0.29457593
000010 55 ec 9d 3e b9 de a4 3e 13 07 98 3e ec 39 91 3e
       0.3084437 0.32201174 0.29692897 0.28364503
000020 03 21 85 3e 36 47 8f 3e d2 82 59 3e 4f 26 82 3e
       0.26001748 0.27984017 0.2124131 0.25419852
000030 1b 55 ad 3e 9d c9 a1 3e 2d 02 a7 3e df f0 8b 3e
       0.33853993 0.3159913 0.32618847 0.27332208
000040 5e bf 9f 3e 31 58 9b 3e 12 a8 8a 3e 9b 64 a2 3e
       0.3120069 0.30340722 0.27081352 0.3171738
000050 d0 44 84 3e 15 5c 94 3e ed 54 a3 3e 68 8c 98 3e
       0.2583375 0.28976503 0.3190073 0.2979462
000060 07 77 c5 3e af 13 93 3e 43 8e a5 3e cd eb 9a 3e
       0.38567373 0.28725955 0.323351 0.30258027
000070 cf 5d a2 3e bc 03 8c 3e a1 54 94 3e 0c f7 76 3e
       0.31712195 0.273466 0.28970817 0.24117678
000080 25 cd ac 3e d4 b9 ad 3e f7 41 99 3e f5 cf 81 3e
       0.33750263 0.33930838 0.2993314 0.2535397
000090 5f 6f 95 3e
       0.29186532

fc1.weight f4 [30, 91]
000000 39 80 49 bb 6a c1 01 bd fc ed c1 bc 78 67 36 3c
       -0.0030746593 -0.031678595 -0.02367305 0.011133067
000010 05 fb d4 bc 18 ce 67 bd 13 0c db bb 36 68 18 bd
       -0.025998602 -0.05659303 -0.006684789 -0.03720876
000020 3b ff 0f bc 94 89 a6 bd c2 2a c0 3c c0 98 67 bd
       -0.008788879 -0.0813171 0.023457889 -0.056542158
000030 c2 83 fd bd 43 ae 25 be c9 64 19 bd 54 db d9 bc
       -0.123786464 -0.16179757 -0.03744963 -0.026593842
000040 5f 6c 0b 3c 61 3c 79 bb 4c 6b 00 bd 25 61 49 bc
       0.008509724 -0.0038030373 -0.031352326 -0.0122912275
000050 c7 76 9a 3d ca 46 fe bc a0 5f ed bb 56 03 87 bc
       0.07542186 -0.031039614 -0.0072440654 -0.016481083
000060 93 3e 95 bd 4d 90 b6 3d 77 55 b4 bc a6 fb 07 3d
       -0.07287326 0.08914242 -0.022013409 0.033198975
000070 7e 1a 25 3d 47 a7 d2 3d 18 0c c0 bd 58 33 88 bd
       0.040308468 0.10285812 -0.09377307 -0.06650418
000080 5a 70 97 bd 11 e9 34 bd ea 00 1e 3d d8 ee 0a 3c
       -0.07394476 -0.044167582 0.03857509 0.008479796
000090 90 07 67 bd a7 85 cd 3d 54 cd f6 3c 64 e4 dc 3c
       -0.056403697 0.10035258 0.030127205 0.026964374
0000a0 87 ea c9 3d 94 a2 e6 bc 22 2b 72 3d cd c6 8b 3d
       0.09859186 -0.028153695 0.059123166 0.068250276
0000b0 ca 5d 56 bd 43 ef b0 bd 1f e5 ba 3d e9 17 cb 3d
       -0.052335538 -0.086393856 0.09125733 0.0991667
0000c0 33 87 c8 3d 00 2c f6 ba c2 9d 23 bd 92 ed 1c 3d
       0.09791412 -0.0018781424 -0.03994537 0.038312502
0000d0 f9 81 aa 3d 9e b1 ad bd f0 98 1b 3c 62 0a eb 3b
       0.083255716 -0.084811434 0.009496912 0.0071728686
0000e0 1c 12 d8 bc 6c 0d 94 bd 59 70 c5 3d 48 af 99 3c
       -0.026375823 -0.072291225 0.09640569 0.018760338
0000f0 91 6d 96 3d 92 92 a9 bd 58 cd e6 bc 48 b1 71 3c
       0.07345117 -0.08279909 -0.028174087 0.01475174
000100 2c 55 b5 bc db 5e 69 bd 11 fb 88 3d 00 b9 11 bc
       -0.02213534 -0.056975227 0.06688512 -0.008894205
000110 c0 99 0c bc d4 80 ed 3c ea 35 29 3d 22 78 75 3d
       -0.008581579 0.028992094 0.041311182 0.05992902
000120 08 4e ae bc da 83 84 bd 60 3c 2d bc 64 1f bc 3c
       -0.021277443 -0.06470461 -0.010573477 0.022964187
000130 60 df 20 3d 40 6b 6d 3c 21 16 b7 3d c5 8d e9 bc
       0.039275527 0.014490902 0.08939768 -0.028509984
000140 08 51 8b bd 8d 99 01 bd 10 14 63 bc a6 58 17 bd
       -0.06802565 -0.031640578 -0.013859764 -0.036949776
000150 c8 f4 cb bc d2 67 70 bd a0 83 15 bd d6 b2 bb bd
       -0.024896994 -0.05869276 -0.03650248 -0.091649696
000160 4a ed 45 be 95 55 39 3e a9 ab f3 3d a0 8b c7 bb
       -0.193288 0.18099053 0.11897976 -0.0060896426
000170 24 0a e9 3c e4 56 77 3d 6e 53 2b 3d 79 1f 1c bc
       0.028447218 0.0603856 0.04182761 -0.009528988
000180 10 5a 95 3d 73 f7 bd bc 25 03 b6 3d 5d 65 6e 3c
       0.07292569 -0.023189282 0.088873185 0.014550534
000190 9e f3 d1 bb f8 f9 a7 3c 98 c2 af bc 28 01 da bd
       -0.0064072153 0.020504937 -0.021455094 -0.10644752
0001a0 b6 51 eb bd f6 5e a1 3c 05 0a b4 bc 6e 29 b4 3d
       -0.114901945 0.019698601 -0.021977434 0.087969646
0001b0 e2 20 60 ba 97 2b 41 3c c4 a4 93 3c bb fa 03 3d
       -0.0008549822 0.011790178 0.018022902 0.032221537
0001c0 c7 05 41 bd ab be 43 bd 7d ff 5b bd 84 1e e5 3b
       -0.04712465 -0.047789257 -0.05371045 0.006992163
0001d0 4f 6f d1 bc d7 30 d7 bc b0 23 8b 3b a6 f0 4b bd
       -0.025565771 -0.026268406 0.0042461976 -0.049790047
0001e0 8e 51 21 3d 79 e2 c6 3d 78 d6 eb bc 80 65 c6 bd
       0.039384417 0.09711165 -0.02878879 -0.09687328
0001f0 53 6a 2d bd 1c 6a d5 3c e6 ef 6d 3d 71 7f d6 bd
       -0.042337727 0.026051573 0.058090113 -0.10473526
000200 88 96 1b bc 07 af 85 3d fa 1a 7a 3d d3 07 33 bd
       -0.009496339 0.065275244 0.061060883 -0.043708634
000210 46 4c c3 bd 2c be bf bd 8c d1 bd 3c 8c ee c4 3c
       -0.095360324 -0.09362444 0.023171209 0.02403953
000220 94 45 9c bd 1e f8 41 3d 8a 65 15 3d 40 11 ec ba
       -0.076304585 0.047355764 0.03647379 -0.0018010512
000230 eb 77 ae bd 22 09 5f 3d 12 b7 67 3d d0 92 4e 3c
       -0.08518966 0.05445207 0.056571074 0.012608245
000240 5a 5d 70 3d 16 1f a2 bd 27 cd cc bc 12 99 14 3d
       0.058682777 -0.079160854 -0.025000168 0.03627879
000250 fe 09 21 bd bf b9 ad 3d 50 08 87 bd 4a d5 04 3d
       -0.03931617 0.08482694 -0.06593382 0.03242997
000260 0f a4 80 bd ea 3a 3e 3d 5a a0 d2 bd bc 3f 93 bd
       -0.06281292 0.046442904 -0.10284491 -0.07189891
000270 09 1e 45 bd 7b 84 a3 3d 76 ed bb bd 62 80 7b 3d
       -0.048124347 0.07984253 -0.091761515 0.061401732
000280 be 4a 19 3d f6 3c b1 bd a0 a3 90 3b 02 b9 a0 bd
       0.037424795 -0.086542055 0.004414037 -0.078477874
000290 ec 87 b1 bc 8c 25 e6 bc c0 70 60 bb ec ae 70 bd
       -0.021671258 -0.028094076 -0.0034246892 -0.05876057
0002a0 f6 86 b5 bd 01 e5 62 bd 96 c7 54 3d d5 e5 3a be
       -0.088636324 -0.055394176 0.051948152 -0.18251736
0002b0 fe fa 66 bc 51 ba ae 3d 90 a5 a3 3b 56 9b 02 bd
       -0.014097927 0.08531631 0.004994102 -0.03188642
0002c0 dc cf ad bc 31 92 f5 39 d3 bb aa bc 73 1d ea bd
       -0.02121728 0.00046838963 -0.020841515 -0.11431398
0002d0 ca 2c 93 3a 4b 46 73 3d 26 c0 7a 3d ce df 8e 3d
       0.0011228558 0.05939321 0.061218403 0.06976281
0002e0 77 9e f9 bb 1b f2 3b 3c fd 91 28 3d 08 6f 81 3d
       -0.0076177674 0.011471297 0.04115485 0.06320006
0002f0 f6 b5 3e 3c 8d 6c c2 3c d1 11 6e 3d 1d 73 ea 3c
       0.011640063 0.023733402 0.05812246 0.028619343
000300 87 da 97 3d b5 66 a4 3c 0c 27 3a bc 69 ef c4 3c
       0.07414728 0.020068506 -0.011361849 0.02403994
000310 74 62 98 3d 42 a6 83 3d 26 97 d1 3d aa 46 ed 3c
       0.074406534 0.064281955 0.102339074 0.02896436
000320 67 da 3e bd 18 a2 c4 bd 65 58 0c 3e 70 be aa 3b
       -0.046595003 -0.096012294 0.13705595 0.00521069
000330 3a 24 fd 3d 3e 9f 51 3d ab 01 a8 3d 92 b2 05 3e
       0.12360425 0.051177256 0.08203443 0.130564
000340 20 1d 48 3d ce 47 29 3d 04 92 f6 3c bd 83 2e bd
       0.0488559 0.041328244 0.030098923 -0.042606104
000350 40 bc 2f bc 62 36 10 3d 42 e9 37 3d 70 a9 8a 3b
       -0.010726035 0.035208113 0.044900186 0.0042316243
000360 02 e2 2a 3d f7 d0 80 3d 00 c9 d5 b9 25 5e a7 3d
       0.041719444 0.06289857 -0.00040776283 0.081722535
000370 14 9e 66 bd 88 dd 91 bc 00 91 4c ba 00 93 3c bb
       -0.0563031 -0.01780583 -0.0007803589 -0.0028774142
000380 63 42 ae 3d 2c 82 e4 3c ed 46 56 bd 50 14 97 3c
       0.08508756 0.027894102 -0.052313734 0.018442303
000390 0a 13 36 3d 24 16 b3 bc 9d f0 92 bd 01 f5 8c 3d
       0.04445175 -0.021861143 -0.071747996 0.06882668
0003a0 15 67 78 bd 8c cc 9d bc 97 0c d0 bd 0c 67 ea bc
       -0.06064518 -0.019262575 -0.10158651 -0.02861359
0003b0 2c 18 dc 3c 77 e8 92 bc da 47 6f 3d 00 ea 94 bc
       0.026866995 -0.017933114 0.058418132 -0.018177986
0003c0 52 c0 76 bd e0 15 52 3b 2a dc 85 bd 2a 7e cc bd
       -0.060242005 0.0032056496 -0.065361336 -0.099850014
0003d0 65 b0 31 bd 5a 0b b2 bd 0d fc b7 3d 66 f2 6f 3d
       -0.043381114 -0.086935714 0.08983622 0.05858078
0003e0 3a 30 00 3d e6 49 6d 3d ef 1d be 3d 8c 27 b1 bc
       0.031295992 0.057931803 0.09283053 -0.021625303
0003f0 d6 36 26 3d c6 68 31 3d 2c 7b 38 bd a2 d9 8d bd
       0.04057964 0.04331281 -0.04503934 -0.06926276

fc1.bias f4 [30]
000000 4d 72 7e 3e 87 73 53 3e aa 7b c6 3e 7e 38 e6 3e
       0.2484829 0.20649539 0.38766223 0.44964975
000010 1a c2 a2 3e 54 fa 9f be e5 c5 f6 3e 27 51 cd bd
       0.31788713 -0.31245673 0.48197857 -0.10025244
000020 d0 1c bb 3e e7 03 ac 3e 60 cb ba 3e b0 35 e3 3e
       0.3654542 0.33596727 0.36483288 0.44376898
000030 7e 41 9d 3d 8b 15 c2 3e 65 1a 86 3d 33 c4 a3 3e
       0.07678507 0.3790706 0.06548003 0.31985626
000040 2f c3 b2 3c 6e b9 5b 3e 11 ee ac 3e 99 87 a5 3e
       0.021821586 0.21457455 0.3377538 0.32330015
000050 1c 07 7e be 13 2d 98 3e 7a f7 c1 be 93 93 9c 3e
       -0.248074 0.2972189 -0.37884122 0.3058134
000060 77 ca 42 be b1 3d f1 3e fe 44 89 be 6d e5 c8 3e
       -0.19022547 0.4711738 -0.2681045 0.39237538
000070 9b 5c ac be ca e9 c3 bd
       -0.33664402 -0.09566076

fc2.weight f4 [15, 30]
000000 ca b1 de 3d 78 82 20 3e 81 ce 5f 3b d2 1c ac bc
       0.10873754 0.1567477 0.0034150186 -0.021009836
000010 a5 d4 47 3c 9c 83 1b be f9 a4 c0 3e 3e bd b0 3c
       0.0121966945 -0.15186924 0.37625864 0.021574613
000020 c9 eb 18 3e fa 25 10 3e 10 d9 c5 bd c9 2f d1 bc
       0.14933695 0.14076987 -0.09660542 -0.025535481
000030 dc b5 e1 bd 94 e1 5f bd 97 8d a3 3c fa 10 16 3d
       -0.11021015 -0.054658487 0.019964976 0.036637284
000040 65 ae d8 3d 91 3b d2 3c 0c 91 9d 3d 77 60 97 3c
       0.10580138 0.02566317 0.07693681 0.018478615
000050 38 72 e8 bc a5 30 cf 3c be 75 aa 3d 62 1f d7 bc
       -0.028374776 0.02529175 0.08323239 -0.026260082
000060 42 7e 0d bc 62 54 06 3e c3 42 d5 bd 32 11 20 3e
       -0.008636059 0.13118127 -0.104131244 0.1563156
000070 e1 3c 5d 3d 3a f5 69 be 50 6a 0a 3d ba e0 2d 3c
       0.054013137 -0.22847453 0.033792794 0.010612661
000080 d5 c5 45 3c b9 12 4f bd ad 37 83 3d 16 f0 02 be
       0.012071093 -0.050554965 0.06407104 -0.12786898
000090 3e 1e 1d 3d e2 03 57 bd 76 b1 c8 bd 73 d2 ce 3c
       0.03835892 -0.052493937 -0.09799473 0.025246834
0000a0 c4 e5 bc 3d cd 7f 70 3e 1d 0a 2c 3d a9 fa 4e 3d
       0.09223512 0.23486252 0.042001832 0.050532017
0000b0 ce 4b 12 3b dc ac 1d 3c ba 64 ef 3d 3d 9f b0 3c
       0.0022323015 0.009623732 0.11689134 0.021560306
0000c0 e0 c1 29 bd bd ee 9f 3b 88 3c 8e 3d 43 de 06 3d
       -0.04144466 0.0048807547 0.06945139 0.03292681
0000d0 56 33 4a 3c a8 a9 85 3d 58 a8 39 be fe e7 c9 3d
       0.012341341 0.065265 -0.18130624 0.09858702
0000e0 cf 36 43 be e7 db 34 bd 90 07 3e 3e 64 57 27 be
       -0.19063877 -0.044155028 0.18557572 -0.1634193
0000f0 20 37 95 3e 99 2a 0c bf 4a 2b 0e bd 4a 46 65 bf
       0.2914362 -0.547525 -0.034709252 -0.8956038
000100 7c 13 05 bf e9 66 41 40 92 02 50 bf b0 ea d3 bf
       -0.51982856 3.0219061 -0.8125392 -1.6555996
000110 03 27 9b 3d 7b be a9 be 85 4e 5c 3d 21 e0 07 bf
       0.075758 -0.33153138 0.05378582 -0.5307637
000120 13 ab f7 be 8d 54 18 3f 52 79 da be 78 02 11 be
       -0.48372707 0.59504014 -0.42670685 -0.14161098
000130 76 62 45 bf 7a bf 40 bd 7f 22 2c bf ca 53 ba be
       -0.77103364 -0.047057606 -0.67240137 -0.3639205
000140 dd c6 86 3d a6 e9 71 3e b1 a7 46 bf cb 1d 53 bf
       0.06580899 0.23624286 -0.77599627 -0.82467335
000150 61 bf 20 40 5c 11 60 bd 2e 8d 15 40 b2 b4 95 3f
       2.5116808 -0.054704055 2.336742 1.1695769
000160 1d 2c 80 bf ed 27 a9 3f cf f4 0f be be 84 c9 3c
       -1.0013462 1.3215309 -0.14058231 0.02459943
000170 e6 c2 c7 bc c4 0e 8d 3d 47 c0 a8 bc b5 05 9f bc
       -0.024384927 0.06887582 -0.020599497 -0.019411901
000180 8e 45 49 be bd f3 9b bc 5d 7c 00 3b 9a 26 53 3d
       -0.1965544 -0.019037122 0.0019605376 0.051550485
000190 d1 41 fd 3d 24 5d 65 3e cf 9e aa bd af 97 6a 3c
       0.12366069 0.22398812 -0.083310716 0.014318391
0001a0 cb 32 dc bd 77 c7 c1 3c aa b1 6e bc 30 47 8e b9
       -0.107518755 0.023654683 -0.014568726 -0.0002713739
0001b0 5c 6c af bd 73 85 54 3c d9 85 d0 3c bd b5 25 3d
       -0.0856559 0.01297127 0.025454449 0.040456522
0001c0 b4 0e 0f be f0 70 ab 3d 60 94 75 bd 44 1e 4c bd
       -0.13970453 0.083711505 -0.059955955 -0.04983355
0001d0 fa fc ef bc 3d 92 bf 3d 10 25 58 bd 16 f0 85 bc
       -0.029295433 0.093540646 -0.05276972 -0.016349833
0001e0 9f e1 05 bf a0 06 7c be a8 5c 93 be cf f9 53 3f
       -0.52297395 -0.24611902 -0.2878163 0.8280305
0001f0 78 5d 54 be a9 01 3f 3f 7a 2d f3 3f fe b0 77 be
       -0.2073878 0.7461191 1.8998253 -0.24188611
000200 ea 99 e6 be c5 73 c9 be 7b 79 47 bf 48 6d c9 3e
       -0.45039302 -0.39346138 -0.7791974 0.39341187
000210 98 52 05 3e 9b 94 5b be ec df 83 bf 98 01 8e bd
       0.13019788 -0.21443407 -1.030271 -0.06933898
000220 14 18 36 bf 41 f6 a1 3d ee de ab be 92 e4 49 3e
       -0.7113049 0.07908297 -0.3356852 0.19716099
000230 1c 61 b6 3f d6 47 e9 bd 7e 7c 97 3e 6f 88 9e 3e
       1.4248385 -0.11390655 0.29587168 0.30963466
000240 e5 f2 84 be d0 7a ab 3d b6 7e ab 3f 59 0c bb bd
       -0.25966564 0.08373034 1.3398044 -0.091332145
000250 e2 b7 b3 3f 82 7c ac 3f f5 79 d9 3e 32 28 7c 3f
       1.4040492 1.3475497 0.42475858 0.98498833
000260 a5 1d cd 3d f5 ce ef be 3d 24 b2 3e 04 c4 df bf
       0.1001542 -0.46837583 0.34793273 -1.7481694
000270 02 dc 99 3e da 5f 5d 3f ba 39 d5 be 07 0e 1e bf
       0.30050665 0.8647438 -0.41645604 -0.61740154
000280 40 93 8f 3d 5b 2e 7b bf cb e1 87 3e ca 98 34 3d
       0.070105076 -0.9811761 0.26539454 0.044091024
000290 06 a8 38 bf 5a f3 df bb 69 df 01 3f 87 7e 86 be
       -0.72131383 -0.0068344297 0.5073152 -0.26268408
0002a0 82 59 97 bd 11 61 f7 be 94 e1 19 be 8f 6e 46 3f
       -0.07390119 -0.48316243 -0.15027457 0.7751245
0002b0 0f ac 0c 3f 56 57 bd be fd e8 ee bd 73 98 22 bf
       0.5495004 -0.36980695 -0.11665533 -0.6351387
0002c0 92 69 3a 3f ed 78 4f 3c 2a b5 7a 3e e7 3b 09 3f
       0.7281734 0.012663108 0.24483171 0.5360703
0002d0 61 12 c4 bd 1d ab 07 3c 50 6b 88 3c a7 02 d9 3a
       -0.09573818 0.008280543 0.016652733 0.0016556577
0002e0 a1 f3 d0 bd 1f 02 af 3d 3a 79 cc bd e8 54 4d bd
       -0.102027185 0.085453264 -0.0998406 -0.0501298
0002f0 2c 47 d4 3d 06 59 b5 3d 1c e4 40 3e 33 98 af bd
       0.103651375 0.088548705 0.18837017 -0.085739516
000300 c1 17 17 3e 99 92 66 3d e5 03 ee bd 14 11 a1 3b
       0.14755155 0.05629215 -0.116218366 0.004915366
000310 cf 41 94 bd f2 81 44 3b bb 40 d7 3d a9 2b 46 bb
       -0.072391145 0.002998468 0.10510393 -0.0030238426
000320 97 c8 bb 3c 34 ff 17 be 90 21 27 3e b2 19 1b 3c
       0.022922797 -0.14843446 0.16321397 0.009466575
000330 d8 ff 88 be b3 b6 59 3d da 75 80 3d 54 02 18 bd
       -0.26757693 0.05315275 0.062724784 -0.037111595
000340 35 96 b3 3c 92 6e a1 bd 93 48 91 3d 07 55 0c 3c
       0.02192221 -0.07882418 0.070939206 0.008565194
000350 e9 e0 c6 3c ed 3a 20 3e 37 a2 24 3d 80 f8 26 be
       0.024277167 0.15647478 0.040193763 -0.16305733
000360 ca 0d c0 3d c7 97 b0 3d 79 ac 1e 3d cb cf 5d bd
       0.0937763 0.08622699 0.0387387 -0.054153245
000370 17 df 53 3e 8a fd 83 3c 5e 12 f3 3c d7 10 63 3d
       0.20690571 0.016112108 0.029671844 0.05543598
000380 b5 37 8a bd 9e 2d 88 3c 06 96 77 bd 41 4f b2 3c
       -0.067489065 0.016623314 -0.060445808 0.021766307
000390 82 eb 0f 3e 50 ec b0 3b 77 43 f7 3d 6b 5d 91 bc
       0.14054683 0.0053992644 0.12073415 -0.01774474
0003a0 32 9c 53 be 26 1a d2 bd c5 5b 1a be e0 bb a2 3d
       -0.20665053 -0.10258894 -0.1507407 0.079459906
0003b0 ec 82 81 bd a8 66 22 3d f8 a2 b3 3d a8 d5 a6 be
       -0.063237995 0.039648682 0.08771318 -0.32584882
0003c0 7a 99 07 be 29 97 f1 bd 94 56 9f 3b 04 23 2e bd
       -0.1324214 -0.1179641 0.004862616 -0.042513862
0003d0 f1 37 0d 3d 76 43 bd 3d 3d 2d 36 be 6a 6a 91 bb
       0.034477178 0.09241383 -0.17790695 -0.0044377344
0003e0 97 4f 0c be 54 01 29 3c 63 7e 38 3e d4 90 18 3e
       -0.13702236 0.010315258 0.18016963 0.14898998
0003f0 1f d1 0e be 71 f9 e1 3d 8f ef 21 bd 2b fa 83 bb
       -0.13946961 0.11033905 -0.0395351 -0.004027625

fc2.bias f4 [15]
000000 4b fd 61 3e a2 99 fd 3d 50 e5 6b bb b0 38 87 3e
       0.2206928 0.12382819 -0.0035994835 0.26410437
000010 07 9e 20 bf fa 99 f3 bd e1 72 64 3e 77 6d 80 3e
       -0.6274113 -0.11894603 0.22309448 0.25083515
000020 f3 24 b4 3e 75 d2 bb be ca 8e c8 be 5d de d8 3e
       0.3518444 -0.36684003 -0.3917144 0.4235715
000030 57 92 85 bb d7 28 a7 3e 82 3b e2 bd
       -0.004076283 0.32648346 -0.110465065

fc3.weight f4 [37, 15]
000000 fd 28 e5 bd 8e e7 07 3d 61 0e 87 bd fa 1a c1 3d
       -0.111894585 0.033179812 -0.065945394 0.094289735
000010 94 87 a2 be 81 87 f7 3d 8d 79 f5 3d 33 e7 17 3e
       -0.31744063 0.12086392 0.119860746 0.14834289
000020 4c 5a b4 3d 56 42 f4 bc ec e1 a8 3d 2b 03 8e 3e
       0.08806285 -0.029816788 0.08246216 0.27736792
000030 09 92 ed bb 65 a1 1d 3e 63 52 4b be 9e ab ea 3c
       -0.0072500748 0.15393598 -0.19855647 0.028646287
000040 cc 9a 0f 3d 00 36 dd bb f4 f0 90 3d 99 d2 6c be
       0.035059735 -0.006750822 0.07077208 -0.23127212
000050 24 fb 8d 3e 01 3e 62 3d 43 35 8c bc 46 63 bb 3c
       0.27730668 0.055234913 -0.01711524 0.022874486
000060 29 d2 44 be 6e b4 ee bd 80 bb 83 bd 39 d2 15 be
       -0.19220795 -0.11655508 -0.06432247 -0.14630975
000070 59 3f 80 3e c5 94 e2 3d 6d 16 57 3e 30 8d fe 3c
       0.2504833 0.11063532 0.21004649 0.031073183
000080 e7 b9 8b be 1f 98 76 3d ea f2 10 bf 57 3f c3 ba
       -0.2729027 0.060203668 -0.5662066 -0.0014896196
000090 5b 3b 03 3d 6a 76 0d bb 4a f4 89 3e b6 f7 5f 3f
       0.032039028 -0.0021585473 0.2694419 0.8748735
0000a0 fa 52 50 bd 92 57 52 3e 5f 89 1b 3d e0 89 a3 bd
       -0.050860383 0.20541218 0.037972804 -0.07985282
0000b0 1a a8 49 be 3c 17 79 3d 01 4e 53 be 42 f8 47 3f
       -0.19693032 0.060813174 -0.20635225 0.78113186
0000c0 79 3d be bd 7a 67 48 be 6c 6c 38 3e 6b ca fd 3d
       -0.09289069 -0.19570723 0.1801011 0.12392124
0000d0 86 68 b5 3e 6e c5 fb 3d b9 ef 72 3d f0 ea 37 be
       0.35431308 0.12293516 0.05931065 -0.17960715
0000e0 91 dd 9f 3e bd 83 3b 3d 4d 36 44 3c a5 42 63 bf
       0.3122373 0.045779932 0.011975837 -0.88773566
0000f0 ae 22 62 3e e0 62 c9 3c 9f b3 e2 3d 0d 12 1b 3e
       0.22083542 0.02458328 0.11069416 0.15143605
000100 82 eb 25 be a8 f3 70 3e 42 1c f2 3d 57 cb d2 bd
       -0.1620312 0.23530447 0.11821796 -0.1029269
000110 6f f0 9d 3c fb 4b b4 be 72 52 74 be 83 a4 08 be
       0.019279687 -0.35214218 -0.23859575 -0.13344006
000120 a4 be a7 be d8 90 79 3e e3 04 56 bd 11 df 9e bc
       -0.32762635 0.2437166 -0.052250754 -0.019393476
000130 03 0b 1b 3e 62 7f 7d 3e 76 ca 47 bd 97 16 d7 3a
       0.1514092 0.24755624 -0.048777066 0.001640993
000140 b5 86 1f bd b3 68 9a 3c 19 4d 67 3c f5 93 5d 3e
       -0.038946826 0.018848753 0.014117503 0.21638472
000150 79 2b 92 be 7b dd 93 be 73 81 c0 3e 8c 89 27 be
       -0.28548792 -0.28879914 0.37598762 -0.16361064
000160 e1 13 56 bd a1 9e 81 3e be 37 54 3e 36 cf e4 3d
       -0.05226505 0.25316337 0.20724389 0.11172335
000170 68 b4 0a 3f c9 eb b4 bd f3 03 87 3c f6 35 aa bd
       0.5418153 -0.08834035 0.016481375 -0.083110735
000180 b3 9d 8f bc cb d3 a1 bd 6e 4a 88 3e 05 34 19 bf
       -0.017531252 -0.079017244 0.26619285 -0.59845
000190 1b b8 45 be 76 91 a6 3d d9 22 85 be c3 89 81 3d
       -0.19308512 0.08133213 -0.2600315 0.06325104
0001a0 2a f2 bb 3e c2 d7 17 bd 14 0f 85 be f6 c6 ad 3e
       0.36708194 -0.037070997 -0.25988066 0.33940858
0001b0 64 50 b3 3e 68 b3 51 bc ca af 14 bf b7 be 0f 3d
       0.3502227 -0.012799121 -0.5808073 0.03509399
0001c0 ff 24 c7 3d 3c 00 10 3e 9a 2f 0b bf c2 8a 45 bf
       0.09723853 0.1406259 -0.5436951 -0.7716485
0001d0 ef 98 92 3e 50 58 ba 3f 97 e2 9e 3e 78 06 f7 3e
       0.28632304 1.4558201 0.3103225 0.48247123
0001e0 75 0b 32 be 02 de b0 3d 21 9b b5 bd 35 8f 9e 3d
       -0.17387183 0.08636095 -0.08867479 0.07742158
0001f0 d4 eb df 3d bf 6d 89 3d 4d 42 f4 bd 24 57 3d 3e
       0.109336525 0.067103855 -0.11926708 0.18490273
000200 80 4f 2f 3e 2c be 97 be 92 72 0e be 10 67 73 3e
       0.1712017 -0.29637277 -0.13910893 0.23769784
000210 a7 26 10 3e 47 6e 2e 3e 25 77 26 be c5 16 a0 bc
       0.14077245 0.17034255 -0.16256388 -0.019542107
000220 1e d4 55 3d 3d 4d cf 3e 3d f7 da bc 7e 15 25 3e
       0.052204244 0.40488616 -0.02672922 0.1612148
000230 4f 3b 43 3f 8d 83 db 3c b6 cd 8a bd b6 e3 23 3e
       0.7626237 0.026796127 -0.067775175 0.16004834
000240 52 1d 1f bf 61 3d 1b bf 67 94 82 3e 9e 48 11 bf
       -0.62154114 -0.6064053 0.25503847 -0.5675143
000250 e4 42 3e 3e fd 60 0c 3f 7b 1d 04 be fe 82 2e be
       0.18580204 0.5483549 -0.12901871 -0.17042157
000260 e1 74 94 3e 7c 53 5a 3e 63 62 53 3f b8 a9 52 bf
       0.28995422 0.2132091 0.82572 -0.8229022
000270 db 46 78 be 52 0d 81 3e 4c 9b 8e bd 5b af 98 3f
       -0.24245779 0.25205475 -0.06963214 1.1928514
000280 d6 24 64 bf a4 4a c1 3d 4b 08 6c bf 48 f2 9b 3e
       -0.8911871 0.09438065 -0.92200154 0.30458283
000290 2c 5a 95 3e bb d4 6f 3d e7 19 5e 3d a2 cc cc be
       0.29170358 0.058552485 0.05422392 -0.39999872
0002a0 0a aa 30 bd 99 09 87 3e c2 0b 6d be ba 6e 30 be
       -0.043130912 0.2637451 -0.23149016 -0.17229739
0002b0 7f 2c 14 3e 1b 84 96 3e dd dc 18 bf 79 70 ed be
       0.14470099 0.29397663 -0.5971201 -0.46374872
0002c0 31 e2 a4 3e 14 a0 5d 3e 96 88 44 be 24 e8 02 be
       0.3220382 0.21643096 -0.19192728 -0.12783867
0002d0 9b 9b 58 3e 19 74 1a 3d 25 60 4d 3f 72 6d c7 bd
       0.21153109 0.037708376 0.8022483 -0.09737672
0002e0 a9 f7 34 3e a9 e0 d1 be d6 d5 b3 bd f6 69 9b 3d
       0.176726 -0.40991715 -0.0878102 0.0758857
0002f0 8b 13 f9 3d 8a bb e0 bd 01 66 08 be df 3e fa bb
       0.12161931 -0.1097327 -0.13320161 -0.0076368893
000300 d6 dc 7b bc 75 50 52 bd ad 40 2d be bd 81 3c 3e
       -0.015372476 -0.05134626 -0.16919203 0.18408866
000310 ad 33 24 be b1 e1 09 be 1a b4 4c 3e 4d 69 03 3e
       -0.16035338 -0.13465 0.19990578 0.12833138
000320 ec 83 96 bd de 8b 93 3c b4 e3 fd 3d 6d 86 22 3e
       -0.07349381 0.01801103 0.123969465 0.15871592
000330 18 90 a6 be e4 32 fc 3a 85 6f 5f 3d 42 af c3 bd
       -0.3253181 0.0019241241 0.054549713 -0.09554912
000340 07 cf 22 3e e2 9b 19 bf 9a 75 09 3e a0 e3 01 3e
       0.15899287 -0.60003483 0.13423768 0.12684488
000350 7d 3e e5 bd ef 35 ee 3e 03 1e fc 3e e4 d5 15 be
       -0.11193559 0.46525523 0.49241647 -0.14632374
000360 9a 14 0a 3e 32 63 a5 bd 4a 75 17 be d2 84 cc be
       0.13484421 -0.08075561 -0.14790836 -0.39945084
000370 8a c1 0a bf 37 e7 11 3e 56 57 76 be 24 1e 1a bd
       -0.5420157 0.14248358 -0.24056754 -0.0376264
000380 97 e2 5b bf 69 19 bb 3e f8 cd 00 be 75 a6 37 3d
       -0.85892624 0.36542824 -0.12578571 0.04483648
000390 7c 24 c5 bd 51 06 d4 bc 99 44 03 3c 24 80 f2 bc
       -0.096260995 -0.025881918 0.00801196 -0.029602118
0003a0 f4 bb 0d 3c b3 12 de 3d d2 ea 0f 3e 32 83 fb 3d
       0.008650769 0.1084341 0.1405442 0.12280883
0003b0 a5 3f 87 3c 60 6d c2 bd ca a7 99 bd af bc 04 3f
       0.01650984 -0.09493518 -0.07502706 0.5185041
0003c0 1a f6 49 3d 10 f2 3e 3e e0 83 05 bf 15 d5 8c 3d
       0.049306966 0.18647027 -0.5215435 0.0687658
0003d0 43 fd 0e bd fa 66 af 3e 99 6c d0 bd 25 31 1f 3e
       -0.034909498 0.34258252 -0.10176963 0.15546091
0003e0 cf 78 d0 bd 68 5d 85 be b5 fa 3b be de a4 c8 3d
       -0.101792924 -0.26047826 -0.18357356 0.09797071
0003f0 a8 7a 9b 3e 6e 8b 3e 3e 7b 06 3d 3f 9f bf 41 3e
       0.30367017 0.18607876 0.73838013 0.18920754

fc3.bias f4 [37]
000000 a0 98 f9 3d f2 83 ee 3e 88 94 1a 3e e3 fe 9d 3d
       0.12187314 0.4658504 0.15095723 0.077146314
000010 af a5 a8 3e 72 21 3c 3e cb 03 9a 3e 03 77 08 3d
       0.32938907 0.18372133 0.3008102 0.033316623
000020 79 85 83 3e 06 3d 8f 3e 42 c5 c0 3e 65 4d 90 3e
       0.2568777 0.27976245 0.37650496 0.28184047
000030 8d a5 da 3e e2 83 db 3d 8a ac 08 3e d9 f1 f5 3e
       0.4270443 0.10718514 0.13347068 0.48036078
000040 e5 36 1c 3e 8a bd b3 3d 26 0a bf 3e 0a 1c 55 3e
       0.15255316 0.08776386 0.3731243 0.20811477
000050 68 be f5 3e 6f e5 6d 3e c9 fc 3b 3e b2 31 d9 3e
       0.4799683 0.23232053 0.18358149 0.42420727
000060 7e 42 0f 3e a5 04 d8 3e 68 0f 44 3e bb ba 95 3e
       0.13990209 0.42191043 0.19146502 0.29244027
000070 07 0e d2 3e 7c 88 af 3e df 0d c2 3e 05 68 ea 3e
       0.41026327 0.34283817 0.37901208 0.45782486
000080 38 40 3b 3e 58 c3 53 3e 8b 62 98 3e e0 d5 cc 3e
       0.18286216 0.20679986 0.29762682 0.40006924
000090 d9 f1 ea 3e
       0.4588764
