CaseModels/03 37-Bus/_baseModel_vang.pth (torch, 18301 bytes, 7 tensors)

bias f4 [37]
000000 62 a9 a5 3d 0b 7d 5b 3d ae 05 ad bd a6 75 80 bd
       0.08088948 0.053586047 -0.08448349 -0.0627244
000010 c8 4d 47 bd 1c a0 a0 bd ce aa be 3d bc e9 cc 3a
       -0.048658162 -0.078430384 0.09309922 0.0015633623
000020 e6 40 2d 3d b7 98 52 bd 47 71 f9 bc df 8c e4 bd
       0.04229822 -0.05141517 -0.030449523 -0.111596815
000030 e4 67 c1 3c 2c 4e cb bd 0e 07 f3 3d 6a a9 f1 3d
       0.02360911 -0.099270195 0.1186658 0.11799891
000040 ab e4 bf bd 5e 15 ca 3d ef 25 9d bd e3 17 de bc
       -0.09369787 0.09867357 -0.07673251 -0.027111
000050 a0 67 e4 bd a5 5d 82 bd 2f 1e c7 3d b5 d0 9a bd
       -0.111525774 -0.063655175 0.09722554 -0.07559339
000060 7b 80 12 3e 24 5f 66 bd 0b a7 bc 3d c0 f7 d1 bb
       0.14306824 -0.056243077 0.092115484 -0.006407708
000070 52 36 e6 bd 15 d6 f7 bd ab b5 4e bd d1 18 a2 3c
       -0.112408295 -0.1210138 -0.05046622 0.019787224
000080 b9 bb 86 bd 46 3c 14 bd 9a 65 90 bc 2a bc 46 3d
       -0.06578774 -0.036190294 -0.017626572 0.04851929
000090 35 ab 23 bd
       -0.039958198

fc1.weight f4 [30, 91]
000000 91 c7 05 3d f7 8d ac 3b fa f8 9d 3a f5 ec 3c 3e
       0.032661024 0.005265947 0.001205235 0.18449767
000010 a5 0d 82 3d fb b7 5b be cf 93 ba 3c 75 b1 ac 3a
       0.06350259 -0.21456902 0.022775559 0.0013175445
000020 4b c9 6c be ca 81 f7 bd b4 a8 d6 3c 4f 6c 98 bd
       -0.23123662 -0.12085302 0.02620349 -0.07442533
000030 fc 21 77 be cb 4c 1a be 68 fd 5d 3c 4a 95 c5 3d
       -0.24134058 -0.15068357 0.013549186 0.09647615
000040 bd 2b 46 bd 78 5b e8 bd e9 fa 0d 3e eb b0 23 be
       -0.048381556 -0.11345571 0.13865246 -0.15985458
000050 dd 1b 51 bc 25 8b 5c be 04 60 e3 bd b1 08 30 be
       -0.012762991 -0.21537454 -0.11102298 -0.17190816
000060 da ea 0b be 05 45 9e bd aa 0e e9 bd 70 11 9b bd
       -0.13663808 -0.07728008 -0.1137975 -0.07571685
000070 3a fa 79 3d 00 dc 84 bd 80 cc 1b bc f4 e5 7f bd
       0.06102965 -0.06487274 -0.009509206 -0.06247516
000080 d0 89 1e bd 6a ce 6e 3d a5 76 c6 3d b7 6a 9b 3d
       -0.038705647 0.05830232 0.096905984 0.075887136
000090 26 5b 70 bd 54 53 ca 3c 3e c1 16 3d df f9 bd 3d
       -0.058680676 0.024697937 0.036805384 0.09276175
0000a0 00 79 df bb 6e 12 ba bd b4 7d b7 bd f3 7c 5c bd
       -0.0068198442 -0.090855464 -0.08959523 -0.0538301
0000b0 a1 41 84 3d 88 35 e2 bc 92 9e 0f 3d 62 0b 05 3d
       0.0645783 -0.027613416 0.035063334 0.03248156
0000c0 b3 bb c1 bd 91 9d bd 3d 70 23 f2 bc 9a 17 11 bd
       -0.09459629 0.09258569 -0.029557914 -0.0354229
0000d0 dc 24 ea 3c 34 5b be bc ce 75 55 bd 21 92 f9 bd
       0.028582029 -0.023236848 -0.0521143 -0.12186075
0000e0 35 fb 87 bd 81 29 87 bd a3 ea cd 3d d3 fc d5 3d
       -0.06639711 -0.06599713 0.10054519 0.10448613
0000f0 84 38 8f 3c 4e e5 32 3d 4e 8c 53 3d 91 42 b0 3d
       0.017483003 0.043675713 0.051647477 0.086064465
000100 57 7a d6 3d 4c 86 d9 3c 16 bc 6e 3d 9c ab df 3c
       0.10472553 0.026553296 0.05828484 0.02730351
000110 c9 3c ad bd 44 93 fb bc 64 eb 89 bc 2b 8f cf bd
       -0.084588595 -0.03070987 -0.016835876 -0.10134729
000120 d8 82 0d 3c f9 0f 4e bd f3 9e c7 bd ea 79 49 3d
       0.008637153 -0.0503082 -0.09747114 0.049188532
000130 87 71 cc 3c d0 d6 5e 3c ac ac ab 3c 82 44 0c be
       0.024956478 0.01360102 0.02095636 -0.13698009
000140 0b cb e5 bd 76 d3 38 be 88 26 a0 bd c8 d9 80 bc
       -0.11220368 -0.18049416 -0.07819849 -0.015728846
000150 b8 8d b0 bd bc 38 75 bd 2f ce 21 be 4a 56 59 be
       -0.08620781 -0.05986856 -0.15801309 -0.21224323
000160 ce 8c 2c bd 72 da 1e be 28 82 48 be fd 0e 00 3c
       -0.04212647 -0.15513018 -0.195809 0.0078160735
000170 f6 98 5c 3b 70 e7 77 3d b4 ae 40 3c 86 39 ef bb
       0.0033660508 0.06052345 0.0117604025 -0.0073005585
000180 69 41 23 3e 05 91 81 bc 64 17 20 3d cf db 2f bc
       0.1594292 -0.015816221 0.039084807 -0.010733559
000190 84 d8 f2 bc 91 d7 97 bd 28 57 c9 bd cd 1e 70 bd
       -0.029644258 -0.07414163 -0.09831077 -0.058623124
0001a0 11 a7 ca bd 3f d8 7e bc a0 e8 6b bd 81 9e 05 be
       -0.09895147 -0.015554487 -0.057594895 -0.13048746
0001b0 8d c7 b0 bd 8c 72 1f be 25 13 42 be 07 50 29 3e
       -0.08631811 -0.1557104 -0.18952616 0.16534434
0001c0 87 fd 57 3e 98 73 1f 3e 41 14 43 3e 2c 21 1a bc
       0.21092807 0.1557144 0.19050695 -0.009407323
0001d0 dc 09 39 bd 4e dd 00 be e5 0b ba 3d d2 79 7a 3d
       -0.04517542 -0.12584421 0.090843 0.061151333
0001e0 36 2b 09 bd 93 83 a8 3d db 51 78 bd 90 0a c3 3b
       -0.033488475 0.08228221 -0.06062494 0.005952187
0001f0 24 64 77 bd 00 1b 16 bd 22 e1 51 3d ae 13 47 3d
       -0.060398236 -0.036646843 0.051240094 0.048602752
000200 22 5c 9c bd 31 91 43 bd 53 c3 45 bd 7f 43 c5 3d
       -0.076347604 -0.047745887 -0.04828198 0.096320145
000210 fc b0 9a 3c 00 be a1 bc b0 c5 56 bc 0e cf 99 bd
       0.01888322 -0.01974392 -0.013108656 -0.07510196
000220 6e 8c 4c 3d 9e 18 0b 3d 53 3c d6 3d 4a a7 2f 3d
       0.04993861 0.033959024 0.10460725 0.04288415
000230 36 d1 b1 bd 14 4b 9c bd 34 e1 b2 3c e0 13 cf 3b
       -0.08682482 -0.076315075 0.0218359 0.006319508
000240 7c bd 21 bd 40 23 c0 3a e1 7c d5 3d 02 92 01 3d
       -0.039487347 0.0014658943 0.104242094 0.031633385
000250 cb db 3a bd f0 a4 4c bc 96 65 16 bd f0 d8 cd bb
       -0.045619767 -0.012490496 -0.036717974 -0.0062819645
000260 d8 cf 2b bc 89 08 a5 3d cd db d3 bd 1e f4 46 3d
       -0.0104865655 0.080582686 -0.10344658 0.048572652
000270 c6 15 5f bd 02 28 20 bd 74 4f bc bc 38 91 82 bc
       -0.054464124 -0.039100654 -0.022987105 -0.015938386
000280 f1 4a 91 bd 9b da c8 3d 1f 22 4e bd 73 0e 56 bd
       -0.07094372 0.09807321 -0.05032551 -0.052259874
000290 9a e4 2c bd ea 3c 4d 3d 44 4b 85 bd 62 19 bb 3d
       -0.0422102 0.05010692 -0.065084964 0.09135701
0002a0 18 cb b9 bd c0 3a bf bd a8 4b ff 3d 63 09 d3 3d
       -0.0907194 -0.093373775 0.12465602 0.10304525
0002b0 48 33 18 3e 3e 96 58 3d c8 8a 08 bd 26 cd 58 3d
       0.14863312 0.052877657 -0.033335477 0.05293002
0002c0 e0 bd e9 bc e7 81 f2 bb e9 91 17 3e 27 19 be 3c
       -0.028532922 -0.0074007395 0.14801754 0.023205353
0002d0 74 d7 55 3d 42 d7 3c bd 10 95 0a 3e c4 c6 82 bd
       0.052207425 -0.046103723 0.13533425 -0.06385568
0002e0 74 1c a1 bd b3 17 42 bc 1d f3 50 3d 8f 3d 4b bd
       -0.07866755 -0.011846471 0.0510131 -0.049619254
0002f0 0e 22 13 bc b3 4f f9 3b 17 77 13 be df 1a 4c be
       -0.008980287 0.007608378 -0.14400898 -0.19932126
000300 7a 5d eb 3d 1b 60 1e be 99 b8 fd bc 1f ac a8 bc
       0.114924386 -0.15466349 -0.030971812 -0.020589886
000310 b9 17 b6 bc db 64 b3 38 62 21 04 3e 5d 96 84 3c
       -0.022228109 8.554171e-05 0.1290336 0.01618498
000320 80 02 da be 1e f0 f4 3d 57 03 17 3e 67 79 31 bc
       -0.42580032 0.11959861 0.14747368 -0.010832167
000330 f2 f2 3e 3b ac 5e 6e 3d 97 7b b2 3d a7 a6 c8 bd
       0.0029136506 0.058195755 0.08714979 -0.097974114
000340 00 1a e2 bd 93 c3 a2 bd fc c2 94 3c 91 b2 9b 3d
       -0.11040115 -0.07947459 0.018159382 0.07602418
000350 95 53 83 bd 08 40 b2 bd 00 27 d1 39 10 63 13 3c
       -0.064124264 -0.08703619 0.00039892644 0.008995786
000360 fa 02 17 3d d7 ab ac 3d 80 e1 4f bc 4a 2b 9f bd
       0.036868073 0.08431213 -0.012688041 -0.077719286
000370 bd ec ca bd ae 28 85 bd a6 25 16 3d c3 36 95 3d
       -0.099084355 -0.065019 0.036656998 0.072858356
000380 54 84 d3 3c b6 ed 65 3d 84 37 d5 bd 5e 9f 87 bd
       0.025819935 0.056134902 -0.104109794 -0.06622194
000390 17 ca 8e 3d d4 65 f7 3c 30 04 0d bd 0f 2d ac 3d
       0.06972139 0.030199923 -0.03442782 0.08407032
0003a0 1e cf 66 3d fb 84 a7 bd e9 92 a3 bd 8e 9e 7a 3d
       0.056349866 -0.08179661 -0.07987005 0.061186366
0003b0 e0 b2 21 bb 13 df b9 3d c2 38 39 3d 17 56 a5 3d
       -0.0024673268 0.09075751 0.045220144 0.08073061
0003c0 5e 61 25 bd 61 2d cf 3d 84 83 ba 3c 75 7a 6b bd
       -0.04037606 0.10116077 0.02276779 -0.05748983
0003d0 41 58 d6 bd 5e ed 1c bd 59 09 6b bd 95 23 b2 bd
       -0.10466052 -0.03831231 -0.05738196 -0.08698193
0003e0 75 fd a1 3d 82 71 21 3d da a3 06 3d 9c 92 9b bd
       0.07909671 0.03941489 0.032871105 -0.07596323
0003f0 ab 97 ce bd 1b 58 cc bd a3 c3 9a 3d 55 93 b2 3d
       -0.10087522 -0.09977742 0.07556846 0.087195076

fc1.bias f4 [30]
000000 7e cd 62 be bb 78 9f 3d 48 f5 a1 bd f2 68 16 be
       -0.22148702 0.077866994 -0.07908112 -0.14688471
000010 ec 62 77 bd 8d de 5d 3c 26 40 ab bd ef 28 99 bd
       -0.060397074 0.01354183 -0.08361845 -0.074785106
000020 a1 68 08 be c9 bf 1e bd 7f d0 71 bd 67 9d a9 3d
       -0.13321163 -0.03875712 -0.059036728 0.08281975
000030 bb b7 6f 3d c2 e5 8b be 43 c0 07 be f1 71 47 3d
       0.05852483 -0.2732373 -0.13256936 0.048692647
000040 bf 52 9c bd bf e8 4f 3c b7 e4 56 be 4f 90 cb bd
       -0.0763297 0.012689768 -0.20985685 -0.09939634
000050 f8 8a 6f 39 0e 26 b9 bd d9 13 80 bc 91 a5 8b 3d
       0.00022844586 -0.090404615 -0.015634464 0.06818689
000060 89 a8 14 3d cd a8 df bd 8c fe 37 bd e2 8d d0 b8
       0.03629354 -0.10920868 -0.04492049 -9.9446406e-05
000070 2f 06 5a 3c 2f a6 cc 3c
       0.013307138 0.024981586

fc2.weight f4 [15, 30]
000000 22 a8 2b 3f 10 b9 fc 3e 59 0b 2d bf 20 5e 3c 3e
       0.67053425 0.4935994 -0.6759544 0.18395281
000010 97 a6 e4 3d dd 4d 85 3f ac d5 5e bf b2 d9 cb ba
       0.11164587 1.0414387 -0.8704479 -0.0015552549
000020 1f 5a e7 be 3a e9 3c 3f 69 2b 1f bf 57 cc f6 be
       -0.45185944 0.73793375 -0.62175614 -0.48202774
000030 89 f2 7d be dd 05 1c 3f a4 d6 9f be f4 af 4f be
       -0.24799551 0.60946447 -0.31218445 -0.20281965
000040 87 9c 0e 3f 98 9a 45 bf f0 03 bd be ea d7 2d bf
       0.5570759 -0.77189016 -0.36917067 -0.67907584
000050 3e ac f2 3e 7b 41 07 bf 3a a1 8c 3f 55 8a 3e bf
       0.47397035 -0.5283429 1.0986702 -0.7442983
000060 9b c1 e5 3e 56 a9 81 3f 6c c1 b5 bd b6 10 36 3e
       0.44874272 1.0129802 -0.08874783 0.17779812
000070 47 67 61 be 11 57 1b bf c7 10 10 3e 9e e6 46 3d
       -0.22012053 -0.6067973 0.140689 0.048559777
000080 e8 9e 4a 3d f9 14 5b 3e 95 1e c9 bd 55 5f 5f 3d
       0.04946795 0.21394719 -0.09820286 0.054534275
000090 f5 4d 40 bc f7 5c 93 3c a2 3a 70 3e d5 4f 95 be
       -0.011737336 0.017988665 0.23459867 -0.2916247
0000a0 7d 81 db 3d 8c be 3f 3d 5d c1 b9 3d 32 2a 5a 3e
       0.10718057 0.04681258 0.09070084 0.21305159
0000b0 20 5b b8 3d 04 f1 4c bd 55 e3 8b 3d d0 c8 2d bd
       0.09001756 -0.050034538 0.068304695 -0.042427838
0000c0 c8 40 74 bd fa 88 95 3c ea f9 0a bc 22 2a eb 3d
       -0.059632093 0.018253792 -0.008482436 0.114826456
0000d0 ba 5d bd 3d 76 ad 8f 3d d2 32 2e bd b1 d5 8b 3d
       0.092463925 0.07015507 -0.042528935 0.06827868
0000e0 72 b2 26 3c e3 6f b3 be bd 4c 07 bd f8 19 3d 3e
       0.010174381 -0.350463 -0.033032168 0.18466938
0000f0 3e e2 cf bd 72 08 e6 3c 39 f2 80 3e db 84 d7 3b
       -0.10150574 0.028080199 0.251848 0.006577117
000100 31 29 d5 3b b2 0d 44 bb d0 b6 99 bc fa 1a f9 bc
       0.0065051545 -0.002991539 -0.01876393 -0.030408371
000110 f3 30 39 3e 5d e3 ec bd 11 4f 91 bd 52 52 61 3a
       0.18085079 -0.115668036 -0.07095159 0.00085953355
000120 dc 8c 59 bd 1e e2 28 be 7a 0e 83 3d 98 4a 88 3d
       -0.05311285 -0.16492507 0.063992456 0.06654853
000130 ad 63 84 bd a9 ed af 3d be bf 00 3e cf 1c 80 3d
       -0.06464324 0.08590252 0.12573144 0.06255495
000140 a9 00 7d 3d 6c 7a b3 bd 8c 24 32 3d 0f 36 81 bd
       0.061768208 -0.087635845 0.043491885 -0.06309139
000150 19 bd a4 3d b5 51 e4 bd fd da 85 3d 79 c4 40 3c
       0.0804388 -0.11148397 0.06535909 0.011765593
000160 38 77 74 bc 3c 8f 55 3e 00 5e bc bd ed 3d 56 bf
       -0.014921002 0.20855421 -0.091976166 -0.8368824
000170 82 28 c2 be c7 b9 93 3e da df 37 bf e7 58 eb be
       -0.3792153 0.28852674 -0.71825945 -0.45966265
000180 5c 75 3d 3e 8b 89 ff 3e bf 7a bc bd b4 ff 5a 3f
       0.185018 0.49909624 -0.092030995 0.8554642
000190 61 2b 0b be be 6a 13 bf 09 b4 74 bb cc 32 26 3f
       -0.13590766 -0.5758475 -0.0037338755 0.6492126
0001a0 a4 2d b5 3e 8c 9d 8d bf 05 6e 3b 3f 31 72 d3 3e
       0.35386384 -1.1063704 0.7321475 0.4129806
0001b0 2a 2b 16 bd c3 ba 30 bf 2f 53 b0 3f 14 11 34 bf
       -0.03666226 -0.69034976 1.3775386 -0.7033856
0001c0 92 3f 31 3f d9 0b ea be 60 d2 c6 be ad 9c 79 3f
       0.69237626 -0.45712164 -0.38832378 0.97504693
0001d0 11 74 67 3d 94 80 1f 3f 4b b6 aa bf 6a 1c 33 3d
       0.056507174 0.6230557 -1.3336881 0.04372827
0001e0 12 d1 8c 3d d2 24 a9 3d c3 c4 88 bd 88 88 22 3d
       0.068758145 0.08258976 -0.06678154 0.039680988
0001f0 42 c3 d0 bd ca ab c6 3c 70 3f 54 be 2c e9 06 bd
       -0.101934925 0.024251837 -0.20727324 -0.032937214
000200 7e a9 50 3d 3e 61 62 be f3 50 6f bd 6e 1e 6a bd
       0.05094289 -0.22107407 -0.05842681 -0.057157926
000210 c1 b3 5d be dd db 9a be 5c 77 e4 bd ad a7 a4 3d
       -0.21650602 -0.30245867 -0.111555785 0.08039794
000220 60 38 86 3c 02 99 27 3e 54 3c d2 be c2 87 9b 3d
       0.016384304 0.16366962 -0.41061652 0.07594253
000230 14 23 ba 3d bc 93 05 3e ff de 89 bd d0 6a cf 3d
       0.09088722 0.13044637 -0.06731986 0.10127795
000240 33 bd 3e 3c b8 df 2a be 70 f7 48 3d e6 22 25 be
       0.011641788 -0.16686904 0.0490641 -0.16126594
000250 23 ad 7a bd cc 8f 5a be 52 dc 16 3f 2b f6 20 3f
       -0.061200272 -0.21343917 0.5892993 0.6287562
000260 01 e5 c1 be 5b d0 4a bf a9 ec 4e 3f 06 2f 92 bf
       -0.3787003 -0.79224175 0.80829865 -1.14206
000270 ae 72 41 bf e2 14 91 3e e3 22 62 3f 68 4f 2a 3f
       -0.7556561 0.28336245 0.8833448 0.66527414
000280 5b ef 84 bf 18 9b 3d be 1c 23 27 be 8a bb 28 bd
       -1.0385545 -0.18516195 -0.16321987 -0.041194476
000290 64 5e 97 3a eb 5b 82 3e 07 9c 05 3f 08 44 6a be
       0.0011548516 0.25460753 0.52191204 -0.22877514
0002a0 28 a9 44 3f 04 81 51 3f 5c 8d 8a be b4 6a 4e be
       0.7682061 0.8183749 -0.27060974 -0.20157892
0002b0 d2 e5 3a bd 29 8c b5 be 7c 0c c0 bf 92 7b 8f 3f
       -0.04562933 -0.35458496 -1.500381 1.1209586
0002c0 be 9e 26 bf c6 d3 79 3f 96 51 61 bf 7b 6e ff 3d
       -0.6508597 0.97588766 -0.88015115 0.12472244
0002d0 44 3d 8e 3d f9 95 e7 be d0 c5 31 3f b3 a2 2f 3f
       0.06945279 -0.45231608 0.6944246 0.68607634
0002e0 ef 1a aa be da 68 11 3f 8c d7 11 3f fb 8a 0e c0
       -0.33223674 0.56800616 0.56969523 -2.2272327
0002f0 16 1e 53 3f 47 59 28 bf 89 3e 66 3e 13 61 8d be
       0.8246778 -0.65761226 0.22484793 -0.27613124
000300 6b 41 c9 be 89 45 63 3d f1 5a f4 bd ee a0 2b bd
       -0.39307722 0.055486236 -0.11931408 -0.04190152
000310 5b c4 cb 3e 06 b4 a9 bf 49 0e 8e 3f d3 5e 66 bd
       0.39798245 -1.3258064 1.109811 -0.056242775
000320 23 87 d3 3d 71 3b 24 bf b0 c5 66 3f eb a4 49 3f
       0.1032851 -0.641532 0.901454 0.7876727
000330 a7 ed 43 bf c4 11 43 3f 65 f8 8b 3f 17 58 05 3f
       -0.76534504 0.76198983 1.0935179 0.5208754
000340 7d f3 11 bd ea f1 7e 3e 56 a2 e4 bd aa a8 78 3d
       -0.0356326 0.2489697 -0.111637756 0.060707726
000350 e2 cd 12 3e 04 93 1a be 4d c5 59 bd d8 36 25 3d
       0.1433635 -0.15095145 -0.053166676 0.040335506
000360 da f3 dc bd 86 05 ea bc ae 03 0e 3d 2b 3f 83 bd
       -0.107886985 -0.028567087 0.034671478 -0.06408533
000370 bd 3c 2e 3e bd 2c 88 bd a6 41 a7 3e cb a9 54 be
       0.17015357 -0.06649158 0.32667273 -0.20767896
000380 58 20 98 3c 7f 2f ab 3d cb 71 d8 bd 2b d7 1e 3d
       0.01857011 0.083586685 -0.10568579 0.03877942
000390 52 b4 23 be f8 4e 4d bd d0 07 b8 3d 30 07 de ba
       -0.15986755 -0.05012414 0.08985865 -0.0016939398
0003a0 8b df 5c bc 84 c7 78 3d 36 84 e7 bd 03 cc f0 bd
       -0.013481031 0.060737148 -0.11304514 -0.11757662
0003b0 95 b1 ff 3d 2a 4c 24 3d 57 18 07 bc 29 fe a3 bd
       0.12485043 0.0401117 -0.008245549 -0.080074616
0003c0 64 b9 3c be f7 8a 78 3d b7 95 38 bd 64 50 a4 be
       -0.18430096 0.060679402 -0.045064654 -0.32092583
0003d0 ee 07 22 bc 44 ca 53 bd df c6 18 be ff d1 9d bb
       -0.009889586 -0.051706567 -0.14919613 -0.0048162933
0003e0 9c 62 a5 be da 42 a9 3e 99 c8 c0 be ef 53 94 bd
       -0.32301795 0.33058816 -0.37653044 -0.072425716
0003f0 4d cf d6 bd 40 e9 5f bd 26 b5 0c 3e 5f 6e c8 3c
       -0.10488758 -0.054665804 0.13740978 0.024466692

fc2.bias f4 [15]
000000 d5 0f 05 bc 4f a8 33 bd c9 aa 35 3e a4 05 08 3e
       -0.00812145 -0.043861683 0.1774093 0.13283402
000010 b8 ad 01 3e 01 bd 2d 3e fb 79 88 3d ac 84 e4 bc
       0.12663925 0.1696663 0.06663891 -0.027895294
000020 04 f0 28 3d 6a 9e a9 3d 52 01 0d be 1d 44 ac bd
       0.04124452 0.08282168 -0.13770035 -0.08411429
000030 6a 98 39 bd f8 79 02 3d 2e 47 c6 bc
       -0.04531137 0.0318546 -0.024203863

fc3.weight f4 [37, 15]
000000 9d 15 2c 3e 34 c9 02 be be 2d 90 bd c3 fa 42 3e
       0.1680512 -0.12772065 -0.07039975 0.1904097
000010 87 c3 ad 3b 00 7f ba 3c d2 99 0b 3e a7 b3 b5 bc
       0.0053028497 0.022765636 0.13632897 -0.022180391
000020 8b 39 42 bc dd ba 80 bd 2b e3 d8 bc e8 cb 60 3e
       -0.01185454 -0.06285641 -0.02647551 0.21952784
000030 b9 18 2c 3c df 08 58 bd a5 e3 30 3d a4 ed 33 be
       0.010503941 -0.052742835 0.04318585 -0.17571121
000040 af ba 90 be e7 7a 79 be 5b 59 ca 3e 74 8d 4f 3d
       -0.28267428 -0.2436329 0.39521298 0.05067201
000050 cb 92 04 bf 7c e9 3e 3e 7b 41 33 bc 30 d5 03 bd
       -0.5178649 0.18643755 -0.010940905 -0.032185733
000060 d6 f4 13 be 16 a4 d0 be 64 e8 15 3e bd 83 5b 3d
       -0.14448866 -0.40750188 0.14639431 0.053592432
000070 03 c6 20 3b 5e 6d 32 3d 6e c5 82 bf 61 52 1a 3e
       0.0024532087 0.043561332 -1.0216501 0.15070488
000080 e6 e4 29 3e 30 7e 77 3f 96 ba fb bd ad 43 f3 3e
       0.16591224 0.9667692 -0.12291448 0.4751257
000090 7a c4 df 3e b4 7d e1 bd ff a8 6a 3d b1 e6 14 bb
       0.43704587 -0.11010304 0.057290073 -0.002272051
0000a0 d0 ff 05 bf 3c 1b a5 3d e7 bd cc bd 90 ff e7 bd
       -0.52343464 0.08061835 -0.099971585 -0.113280416
0000b0 2c 3d c3 bc 7c 3b fb 3e ff bd a7 be 70 f6 32 be
       -0.02383288 0.4906882 -0.32762143 -0.17476821
0000c0 6d 63 03 bc c3 62 1c bd f3 fa 06 bf 42 42 d2 be
       -0.00801931 -0.038180124 -0.5272667 -0.41066176
0000d0 34 02 16 bd ef a8 a0 3d 6b 38 88 3e 85 b8 fa be
       -0.036623195 0.078447215 0.26605543 -0.48968902
0000e0 7c eb 23 bf 2a 7b 87 be d3 40 45 be aa aa f1 bd
       -0.64031196 -0.26461154 -0.1926301 -0.1180013
0000f0 7b 72 4a 3e 97 55 0e be 03 fa 55 bd 92 f0 3a 3e
       0.19770233 -0.13899837 -0.052240383 0.18255833
000100 74 ca 64 bc 3b da 3d 3d 69 6c f0 3d e5 3f c3 bc
       -0.013964284 0.0463507 0.117394276 -0.023834178
000110 a6 94 29 3c a0 a1 71 bd c6 0c 81 3c cb eb a4 3e
       0.010350382 -0.05899203 0.015753161 0.32211146
000120 b3 58 b3 3b 7f 7d 26 bd 4f 06 de 3c d9 eb 9f be
       0.0054732203 -0.040647026 0.027102618 -0.31234625
000130 32 ff e0 bd 46 18 34 3d 2d 84 7c 3e f2 61 d2 bd
       -0.10986175 0.04396846 0.24659796 -0.10272588
000140 48 13 5d 3d 6c 0b 10 3e 80 e3 80 bd 92 ad 60 3d
       0.053973466 0.14066857 -0.06293392 0.05485303
000150 45 bd 53 bd 8e fc 76 3e 19 b1 26 bd 25 1d 2a bd
       -0.051694173 0.2411978 -0.040696237 -0.0415317
000160 38 8a 73 bd 60 b0 38 bd 69 d2 bc be ec ea 2f be
       -0.059457988 -0.04509008 -0.3687928 -0.1717946
000170 ce be 06 3b 9e 42 8e bc 8f 7e c8 bd 84 56 21 3e
       0.0020560506 -0.01736575 -0.09789764 0.1575566
000180 39 bf 04 3d 47 0d 58 bd c7 d5 7a 3d 78 b3 2e bd
       0.032408927 -0.052747037 0.06123903 -0.042651623
000190 16 ae a6 3e 4b ce e5 bc 7a c9 38 bd f8 27 5d bd
       0.32554692 -0.02805247 -0.045114018 -0.053993195
0001a0 12 bc 72 bd f5 ea f2 bd ca fa 58 be 98 06 eb bc
       -0.05926139 -0.11861221 -0.21189418 -0.028689668
0001b0 4b 57 6f 3e 6b 3e a3 3e 74 46 f2 bc 66 a2 b0 3f
       0.23373143 0.3188356 -0.02957461 1.379956
0001c0 e1 90 16 bd b5 2e ad be 7e c7 85 3e c7 06 78 3f
       -0.03675926 -0.33824697 0.26128763 0.9688534
0001d0 5a 3d 4d 3f 1d 1c e2 bd 89 a8 23 3e db 55 bb 3c
       0.8017174 -0.110405184 0.1598226 0.022868088
0001e0 39 46 4e 3e 0a 1c 1a be 5a 6e 41 bd ea 8a 1c 3e
       0.20143975 -0.15049759 -0.04722438 0.15287367
0001f0 77 5c be bc 64 cd 84 3d 05 12 d3 3d 76 22 c1 bc
       -0.02323745 0.06484488 0.10306171 -0.023576003
000200 f4 1e b8 3c 15 0d 75 bd 9a 14 54 3d 0f 8b c4 3e
       0.022475697 -0.05982693 0.05177746 0.38387343
000210 a3 42 9b 3b 4f b9 02 bd 8a 54 94 3c b5 b9 24 bf
       0.0047381683 -0.031915005 0.018106718 -0.64345866
000220 16 b7 8e be cb 82 b8 bd 5e 44 00 bf cc 2c ab bd
       -0.27874058 -0.09009322 -0.5010432 -0.08358154
000230 88 da 75 3e 90 16 ab 3b ea 07 f2 bc 5f c5 a0 3d
       0.24009144 0.0052211955 -0.02954479 0.078501455
000240 a0 5f 06 be bc 2d 24 3f 93 d6 80 3e e7 aa 3e 3c
       -0.13122416 0.64132285 0.25163707 0.011637426
000250 9b 7b 8c 3c c1 25 89 bd 60 df 25 be cc 8b b3 be
       0.017148783 -0.06696654 -0.16198492 -0.35067594
000260 cb 6c ce 3e 0b 47 62 3f 89 29 7f bd a9 c3 47 3e
       0.40317377 0.8838965 -0.06229547 0.19508232
000270 5d db 9d be d6 4c 26 3e 8f 8d 37 be 40 d7 d3 bd
       -0.30831423 0.16240248 -0.17925094 -0.1034379
000280 e5 03 94 3e 35 02 0c bf a6 c6 f6 3d df 5e be 3d
       0.2890922 -0.5469087 0.12049608 0.09295439
000290 39 6e 22 bd 33 23 1b 3f e8 fb 23 3e a8 87 4c 3e
       -0.039655898 0.60600585 0.16014063 0.19973624
0002a0 2b 19 15 3f 0c e6 57 be 7e 32 13 bf 35 1c ff 3e
       0.5824153 -0.2108385 -0.5749892 0.49826208
0002b0 d1 6c 3b be eb 7a 11 3e 64 8f 68 bd 72 59 56 3f
       -0.18303229 0.14207046 -0.056777373 0.8373023
0002c0 42 b0 38 be d0 7a c6 bd dc c7 0c be 3a 4c 69 bd
       -0.18035987 -0.096913934 -0.13748115 -0.05695746
0002d0 d6 9f fe bd 93 66 56 be d3 c0 ec 3c 84 8c 5b be
       -0.1243283 -0.20937566 0.02890054 -0.21440321
0002e0 c3 c7 d7 bd a4 af d1 3e 45 59 8a be 10 f1 3a bd
       -0.105361484 0.40954316 -0.27021232 -0.04564005
0002f0 b9 ff 46 3d c5 e6 c7 3d c1 aa 55 3e 59 cb a4 be
       0.04858372 0.09760813 0.20865919 -0.32186392
000300 99 2c 01 be 24 f2 f3 bd 2d 9d cf bd 15 89 e4 3e
       -0.12614669 -0.11911419 -0.10137401 0.44635835
000310 79 10 1b be 18 18 94 bc 55 c4 6b 3e 55 76 17 bd
       -0.15143003 -0.018077895 0.23024113 -0.036978085
000320 60 83 a9 3d b1 12 a7 3d 19 35 b0 bc 46 8c 38 3d
       0.08277011 0.08157862 -0.021509694 0.04505565
000330 12 df 2d bd 06 19 56 3c ed ab 1c 3f c7 1a d4 b6
       -0.042449065 0.0130674895 0.6119984 -6.3212096e-06
000340 f6 52 98 bc 5a 78 47 3c ab c9 b7 3f 1e aa 33 be
       -0.018594246 0.01217469 1.4358419 -0.17545363
000350 11 71 ed 3d a8 fa f3 3e a0 e4 de bd c8 11 48 3e
       0.11593831 0.47652173 -0.108834505 0.19538033
000360 d6 be 08 bd 25 5a 4c bc c1 11 1b 3e af b6 bf 3c
       -0.03338512 -0.012472664 0.15143491 0.02340254
000370 0b bb 63 bd d1 ad cd 3f 4f cf a3 bc 81 e9 42 3d
       -0.0555983 1.606867 -0.019996313 0.047585968
000380 ad 44 e7 bc 47 d8 5d be 5c 1e 2a 3c ce 5c bd 3d
       -0.02823099 -0.21664535 0.010383215 0.09246217
000390 ca 40 b2 bd 30 c0 e9 bd 2a b6 2e 3f 28 a0 a8 bd
       -0.08703764 -0.1141361 0.6824671 -0.082336724
0003a0 2d b1 16 be dd 6b 9d bd 32 c4 94 3d 05 fb b2 be
       -0.14716025 -0.07686589 0.07263984 -0.34957138
0003b0 de ef 0f be bb 80 17 bd b0 78 2a be 6c b1 e8 bd
       -0.14056346 -0.036988 -0.16647601 -0.113619655
0003c0 bf 78 fd 3e 81 22 d9 3d d8 ea 85 3d 2d 8c a3 bd
       0.49506184 0.10602284 0.065389335 -0.07985721
0003d0 49 94 ce bd a2 f1 4d be 3e c0 2e 3e 3a cf 6f be
       -0.10086877 -0.20111707 0.17065522 -0.23418894
0003e0 b0 ed 48 be c6 30 83 bd e9 a4 4f be 2e 87 43 be
       -0.1962192 -0.06405787 -0.20277752 -0.19094536
0003f0 40 dc dd 3d ef 58 0c be 17 08 0b be d1 66 c3 3e
       0.10833025 -0.137058 -0.13577305 0.3816438

fc3.bias f4 [37]
000000 da 71 b6 bb 14 72 92 3b b6 a6 a4 3d 3c ce 84 3d
       -0.0055677714 0.0044691656 0.0803961 0.064846486
000010 c5 e5 dd 3d 30 51 96 3d 3a 56 c3 bd 64 bf 01 3d
       0.10834841 0.07339704 -0.09537931 0.031676665
000020 66 83 2a 3c 03 da 8f 3d 26 7f 48 be 22 93 04 3e
       0.010407304 0.07024004 -0.19579753 0.12946752
000030 a7 ce 56 bd 4d c1 0f 3e cc ae 07 be 52 b3 f6 bd
       -0.052443173 0.14038582 -0.13250273 -0.120459214
000040 67 f9 09 3e f3 bb 55 bd 35 e2 9d 3d b9 fb 05 bd
       0.13474046 -0.052181195 0.07709161 -0.032710765
000050 0a ad bf 3d ac 3d 07 3e 7d 44 c7 bd 58 84 17 3d
       0.093591765 0.1320712 -0.0972986 0.036991447
000060 1e 6a 73 bd 38 51 ee 3d 53 4f 8c bd 09 19 f1 3c
       -0.059427373 0.11636585 -0.068510674 0.029430883
000070 f8 f3 e8 3d d9 48 04 3e 6d 06 75 3d a5 00 6d bd
       0.11374658 0.12918414 0.05982058 -0.057861943
000080 f1 6e 81 3d 42 22 35 3d d7 8f ef 3d d7 44 be bd
       0.063199885 0.044222124 0.11697357 -0.09290474
000090 6a 62 0b 3e
       0.1361176
