CaseModels/03 37-Bus/_genModel_MW.pth (torch, 31483 bytes, 7 tensors)

bias f4 [37]
000000 c8 55 33 bc 69 bd d8 bd bc 3e 8a bd 4f 6b 74 3d
       -0.010945745 -0.10583002 -0.06750247 0.05967265
000010 e0 ce 8f bd 45 06 03 bb e2 5f 9a 3b 73 a3 40 bd
       -0.0702188 -0.001999275 0.004711137 -0.047030877
000020 55 80 d5 3d de d6 fd bc 18 6c 1c be 5b 85 3d 3d
       0.10424868 -0.030986246 -0.1527561 0.046269756
000030 42 5b 29 3d 15 e0 88 3d b0 0e 97 bc e6 66 06 3e
       0.041346796 0.06683365 -0.01843962 0.1312519
000040 1e 40 9b bd cb 22 cf 3d 3d 56 47 3c 07 07 d8 bd
       -0.07580589 0.10114058 0.012166557 -0.10548215
000050 58 c3 0f 3e e4 c1 0e be 66 0a 85 3d 18 c5 d3 bd
       0.14039361 -0.13941151 0.06496124 -0.10340327
000060 cf f8 94 bc d4 0a 36 3c aa fb 1d 3e af 97 55 3e
       -0.018185047 0.01111098 0.15428033 0.20858644
000070 bf 40 e2 3c 54 ee 31 3d 32 b2 45 3b ab c4 0b be
       0.027618764 0.043440178 0.0030166027 -0.13649242
000080 e9 2b 70 3d 48 73 c8 3d 4b 26 9f 3e 70 11 36 3d
       0.058635626 0.09787613 0.31083903 0.044450223
000090 fd 45 2a 3e
       0.16628261

fc1.weight f4 [42, 128]
000000 7d 54 ca 3d 54 e0 2b 3e c1 8d 81 3d c1 b3 52 3e
       0.09879396 0.16784793 0.063258655 0.20576383
000010 ba 5e 33 3e f1 19 47 3e e8 30 66 3e da 2f f3 3d
       0.17516604 0.1944349 0.22479594 0.11874361
000020 92 b2 0c 3e f4 ad aa 3d c9 c4 a8 3d 15 4e 35 3e
       0.13739994 0.0833396 0.08240659 0.17705567
000030 4c 22 6e 3e ee e8 5b 3e 83 d0 1f 3e ea 73 f9 3d
       0.2325527 0.21475574 0.15606885 0.12180312
000040 98 b8 38 3e 78 72 73 3d 66 86 66 3e 55 e9 2c 3e
       0.18039167 0.059435338 0.22512206 0.16885884
000050 95 27 e7 3d ba 49 2d 3e 5c 73 08 3e b2 08 40 3e
       0.112868465 0.16922656 0.13325256 0.18753317
000060 76 95 bc 3d b6 d3 af 3d f5 2f 1a 3e cf 6e 82 3d
       0.09208195 0.085853025 0.15057357 0.06368791
000070 3e 50 6b 3d 92 df 08 3d c2 f3 08 bd 35 ad 95 3d
       0.05744957 0.03341634 -0.03343559 0.07308427
000080 88 ac e8 bc 40 8f ef 3a da 20 7c bd 88 7c a7 bc
       -0.028402582 0.0018276945 -0.061554767 -0.020445123
000090 7f 02 8e 3d 65 91 23 bd 9c 71 33 bd 10 e3 12 bc
       0.0693407 -0.03993358 -0.04380952 -0.008965269
0000a0 e8 05 8a 3c 82 52 36 3d 20 a2 91 3b b2 08 1f 3d
       0.01684852 0.04451228 0.0044443756 0.038826652
0000b0 5e 37 0d 3d e0 4d 01 3d 1c 79 cf bc 27 24 aa 3d
       0.03447663 0.031568408 -0.025326304 0.08307677
0000c0 c4 95 f7 3c 8e ea 08 bd f4 39 81 3c 70 7c 3f 3c
       0.030222781 -0.033426814 0.015774705 0.011687383
0000d0 42 f4 5a 3d 32 18 ec bc 92 d9 06 3d 3f 14 3f bc
       0.0534556 -0.028820131 0.032922335 -0.011662542
0000e0 e0 b0 af bd 1b 02 0c bd 88 0a 57 bc 7e 2d 6f 3d
       -0.08578658 -0.034181695 -0.013125069 0.058392994
0000f0 32 a5 1c 3d 82 eb e4 bc 5d 3e 9e 3d a0 5f 0f 3d
       0.03824348 -0.02794433 0.077267386 0.035003304
000100 80 36 ae bd 8e f9 02 3d 00 b5 9e 3a a6 5a 74 3d
       -0.08506489 0.031976275 0.0012108386 0.05965676
000110 cf 32 2f bd 40 00 6d bb 82 80 06 3d 28 8d a4 bd
       -0.042773064 -0.003616348 0.0328374 -0.08034736
000120 72 2a 43 3d 47 c0 ad 3d 58 fa e1 3c 3f 6e 95 3d
       0.0476479 0.084839396 0.027585194 0.072964184
000130 0f 2e 8f bd 63 84 aa 3d 64 ef 92 3c 05 17 f8 bd
       -0.06991207 0.08326032 0.017936416 -0.121137656
000140 7c a9 25 bc 94 33 a2 bd 08 7d 64 bc 6b 3a 58 bd
       -0.010111209 -0.07919994 -0.013945825 -0.052790087
000150 f2 ba 31 3d 31 6e 88 3d 52 a6 8a bd fa 20 a1 bc
       0.043391176 0.06661642 -0.06770004 -0.019669045
000160 19 8a 15 bd 5c 5c 89 bd 83 33 ab bd 92 08 30 3d
       -0.036508653 -0.06707069 -0.083594345 0.042976923
000170 e6 20 95 bd 66 62 67 bd cc 85 b8 bc 60 d3 58 bd
       -0.072816655 -0.056490324 -0.022524737 -0.052935958
000180 a4 c8 b8 bc f0 ad 39 bc 00 68 18 ba 44 07 93 bd
       -0.02255661 -0.011332974 -0.0005813837 -0.0717912
000190 60 20 06 bd 7f 17 8b 3d 12 ec 72 3d cd d5 9b 3d
       -0.03274572 0.06791591 0.059307165 0.07609139
0001a0 3e 92 06 3d 78 81 a4 bc cc fb 02 3d b0 43 9b bd
       0.03285431 -0.020081267 0.031978413 -0.0758127
0001b0 b7 a7 99 3d ff d9 6c bd 00 75 da 39 42 69 19 3d
       0.07502692 -0.057825085 0.00041667372 0.037453897
0001c0 c8 d1 4c 3c d1 30 b3 bd e7 07 9e bd 51 1e ad 3d
       0.012501188 -0.08749545 -0.07716351 0.08453048
0001d0 57 8b a7 bd 19 64 35 3b e5 f2 02 3e 60 6f 25 3c
       -0.08180874 0.002767807 0.1278797 0.010097355
0001e0 b6 7b d4 bc d5 82 79 bd d0 91 80 bc 17 91 11 be
       -0.025937896 -0.060915787 -0.015694529 -0.14215504
0001f0 49 45 7d 3d b2 5f b4 bc 33 ff a8 bc be c3 72 bd
       0.061833654 -0.022018287 -0.020629501 -0.059268706
000200 d8 3f 22 3e e8 b5 0e 3e d0 49 4c 3e b2 bc ba 3d
       0.15844667 0.13936579 0.19950032 0.09118022
000210 46 4c 1c 3e 65 60 43 3e 58 f0 1e 3e 0f d1 68 3e
       0.15263471 0.1907974 0.15521371 0.22736
000220 c3 7e 05 3e 7e 85 49 3e c7 11 e6 3d 3d ea 33 3e
       0.13036637 0.1967983 0.112338595 0.17569824
000230 87 53 24 3e 6b 54 1e 3e 02 1f 29 3e da ba 51 3e
       0.16047488 0.1546189 0.16515735 0.20481434
000240 87 e6 3c 3e 3f 01 87 3e f7 7b 3a 3e 28 6c 04 3e
       0.18447314 0.26368138 0.18211351 0.12931883
000250 08 45 6d 3e 6b 5d 26 3e bc 56 57 3e 02 34 b1 3d
       0.23170865 0.16246574 0.2102918 0.08652498
000260 17 b8 66 3e b0 ed e3 3d 57 97 08 3e c0 eb ad bc
       0.22531162 0.1112932 0.13338982 -0.021230578
000270 3b f5 b3 3d 2e b9 1e 3d fc bc c0 bc 30 72 a9 bc
       0.087870084 0.03875082 -0.023527615 -0.020684332
000280 c0 33 5d bb 53 e6 2b bd 90 50 93 3c 70 d3 80 bc
       -0.003375277 -0.0419677 0.017982751 -0.015725821
000290 ef a9 9c 3d 61 dd 09 bd c8 03 34 3c 16 86 71 3d
       0.076496 -0.03365839 0.01098723 0.058965765
0002a0 97 f8 9f 3d a0 be 34 3c f5 67 89 3d 2e 5b 2d 3d
       0.078110866 0.011031777 0.06709281 0.042323284
0002b0 16 46 72 3d e2 73 67 3d ec db cc 3c 4a 97 67 3d
       0.05914887 0.056507 0.02500721 0.056540765
0002c0 18 e7 77 bc a8 73 7e bc 4e 5e 66 bd 00 1c 43 bc
       -0.015130781 -0.015530504 -0.05624228 -0.011908531
0002d0 b2 3f 54 3d 6c 1b c6 bc b9 d3 a6 bd b3 88 10 be
       0.051818557 -0.024182998 -0.08145852 -0.14114647
0002e0 20 38 22 bd 54 ff f6 3c 33 9c 93 bd 79 57 a5 3d
       -0.039604306 0.030151047 -0.07207527 0.08073325
0002f0 ba 26 69 bd 22 ae 25 bd 90 f0 9a bd 90 2a 9b bc
       -0.0569217 -0.04044927 -0.07565415 -0.018941194
000300 ba 5b 22 3d 21 56 3c bd 8c 7b ba 3c a3 ac b4 bd
       0.03963826 -0.045980576 0.02276399 -0.0882199
000310 69 b7 38 bd 3f 2f 4e bd e8 b0 40 bc ac e6 0f 3d
       -0.04509679 -0.050338026 -0.011760928 0.035132095
000320 c0 e0 84 bd 2d 14 2a bd 89 4d 64 bd 20 ef 36 bb
       -0.0648818 -0.041523147 -0.055738006 -0.0027913526
000330 53 8c d2 bd 2b ae 9b 3d a0 ca b3 3b cb 50 84 bd
       -0.10280671 0.07601579 0.0054868013 -0.064607225
000340 d1 01 32 bd 64 f5 05 bd ae aa 76 3d af 6e 61 bd
       -0.043458764 -0.032704726 0.060221367 -0.055037197
000350 7a 6a 6d 3d f0 4f e1 3c f2 fc 9a bd 11 b0 33 be
       0.057962872 0.027503937 -0.07567777 -0.17547633
000360 58 6d bd bd 94 9d d4 bd a4 5b 02 be 6d 10 68 bd
       -0.09249371 -0.10381618 -0.1273027 -0.05665629
000370 06 79 b5 bd 80 d8 66 bc 7c 28 8f 3c 29 85 54 bd
       -0.08860974 -0.014089704 0.01747536 -0.051884804
000380 38 9e 6d bc 0a cf 34 3d de d2 37 3d de 42 ab bd
       -0.014503054 0.04414276 0.044878833 -0.08362363
000390 0e 34 e8 bc 18 54 0b bc a0 79 a0 3c 2a a6 a4 bd
       -0.028345134 -0.008503936 0.019589245 -0.08039506
0003a0 7c c6 2d bd 77 d6 ae bd 00 7c b3 bb c8 95 31 3c
       -0.042425618 -0.08537 -0.0054774284 0.010838933
0003b0 37 c9 a9 3d df ab 8a bd de aa 3a 3d 0d b0 5c bd
       0.08290332 -0.06771063 0.045573108 -0.053878833
0003c0 10 5e fc 3b cd 9e dd bd 35 1b 81 3d e0 e1 2b 3b
       0.007701643 -0.108213045 0.063040175 0.0026227161
0003d0 0b 37 d8 bd 6e 13 f1 3d 6d ea 00 3e 56 59 41 3d
       -0.105573736 0.11771284 0.12589426 0.047204338
0003e0 65 5e 9d 3d 60 f6 23 3c e7 aa a0 3d 6b dc e6 bc
       0.0768402 0.010007471 0.07845097 -0.028181275
0003f0 6f f2 a0 3d a5 24 61 bc 6b 67 07 be 07 c6 24 be
       0.078587405 -0.013741647 -0.13223045 -0.16091166

fc1.bias f4 [42]
000000 b0 e4 88 bc 5b 63 ea bd 4e 51 bc 3d c2 76 f1 bd
       -0.01671061 -0.11444732 0.09195195 -0.117902294
000010 87 3e cb 3e c7 8f 02 bf 68 58 86 bd 55 e4 5c be
       0.39696142 -0.51000637 -0.06559831 -0.21571477
000020 42 90 a9 bd 33 35 1c 3d 71 45 a3 3d 30 b8 d2 3d
       -0.08279468 0.038136672 0.07972229 0.10289037
000030 bd 8f c4 3c 45 f9 07 be d3 dc 50 3d 71 24 0c bd
       0.023994321 -0.13278683 0.050991844 -0.03421444
000040 a5 7f b1 3d fd 0c 07 be ac 31 19 3e 03 3d 23 bd
       0.086669244 -0.13188548 0.14960355 -0.039853107
000050 91 6e 32 bd bd 21 8d be 57 73 9f bd 22 7f 09 be
       -0.043562476 -0.27564803 -0.07785671 -0.13427404
000060 5b 1f 8f bc 5a ca 26 bd 94 7e be bc fc 64 46 be
       -0.017471006 -0.04072032 -0.023253717 -0.1937446
000070 bb f4 cf bd 13 5f f4 bd f3 8b 01 be e0 4d b7 3d
       -0.101541005 -0.119321965 -0.12651043 0.089504
000080 6f 8f 96 bd 4f e8 e0 3d 0b c9 9a bd d9 9c db 3b
       -0.073515765 0.10981809 -0.07557877 0.0067020473
000090 58 3b 75 bd f2 02 34 be d7 83 2a 3d d7 57 f9 39
       -0.059871048 -0.17579249 0.04162964 0.00047558427
0000a0 3b ae 23 be 64 71 ec 3d
       -0.15984432 0.11545065

fc2.weight f4 [21, 42]
000000 48 d3 54 3c 12 55 68 bd b7 c9 11 3d 86 e4 33 be
       0.0129898265 -0.056721754 0.03559276 -0.17567644
000010 27 07 4c bd b9 c7 ed bd 0c d2 0e 3e 4f 1f 2c be
       -0.04981151 -0.1161036 0.13947314 -0.16808818
000020 a1 c5 23 be 09 a0 53 be 36 63 c1 bd 98 c0 2e be
       -0.15993358 -0.20666517 -0.09442751 -0.17065656
000030 dd 5a a6 3d d6 96 f7 bd af f7 c7 bd d7 9e e1 bc
       0.081227995 -0.120893165 -0.09764039 -0.027541561
000040 4f 25 ca 3c ce d8 3d be d1 7d a1 3d ba a8 37 be
       0.024675993 -0.18539736 0.07885326 -0.17935458
000050 f1 f0 38 be b1 cc 07 bd b1 9d 19 be 15 d2 d6 bc
       -0.18060662 -0.033154193 -0.15001561 -0.026223222
000060 36 9d e0 bd a2 3c c3 bd 93 0b 16 be 10 29 40 be
       -0.109674856 -0.09533049 -0.14652853 -0.18765664
000070 51 11 af bc eb 96 64 bd 9a 97 31 3d 67 67 42 3e
       -0.021370562 -0.05580799 0.04335747 0.18984757
000080 b0 1e f5 bd 99 12 22 3e 18 a5 92 bc 2d 4b 63 be
       -0.11968744 0.15827407 -0.017900988 -0.22196646
000090 f8 7b 31 bc bc f0 24 be 3e 34 60 3e d5 ca 1d be
       -0.010832779 -0.16107458 0.21894929 -0.15409406
0000a0 18 2e 15 be 31 f4 41 3d f7 8c ef bd 38 18 d8 bd
       -0.14568365 0.04735202 -0.11696809 -0.10551494
0000b0 9c 02 89 bc df 79 ab bd 05 36 73 3e f7 f1 d0 be
       -0.016724877 -0.083728544 0.23751076 -0.40809605
0000c0 e8 3e 3c be 7c 31 2b ba 0d 39 eb bd 75 22 eb bd
       -0.18383372 -0.0006530506 -0.11485491 -0.114811815
0000d0 03 02 6c bd 5b 8c 19 3e 3b 82 62 3c 8f 3f 81 3d
       -0.057619106 0.14994948 0.013824995 0.06310951
0000e0 82 82 52 be 85 5d 1e bc 16 77 42 3d 43 f4 b8 3c
       -0.20557597 -0.0096658515 0.04747685 0.02257741
0000f0 c2 ed e8 3c cf 35 2e be 17 40 05 bb 72 4b 8f bd
       0.028433684 -0.17012714 -0.002033239 -0.06996812
000100 0f aa b8 bd de 06 59 be 23 78 df bc be 3c fe bd
       -0.09016811 -0.21194026 -0.027278965 -0.124139294
000110 ed 1b 0c be 3f df 50 bd 2b 01 99 bd 55 7b 4a be
       -0.13682528 -0.050994154 -0.07470926 -0.1977361
000120 70 25 82 bd 04 76 41 3c ef ce 7a be 3e 5b 34 bd
       -0.06354797 0.011807922 -0.24493001 -0.044032328
000130 58 8a 19 bc 57 28 86 3c 6e 79 72 3c 8b 31 46 be
       -0.009371363 0.016376657 0.014799459 -0.19354837
000140 e8 bc ee 3b c2 e5 07 be c5 e0 4d bd f9 b9 38 3e
       0.007285703 -0.1327124 -0.050263185 0.18039693
000150 84 fc 3a 3c 12 9c d1 bd 7c 10 6a 3c 5c 0f 00 be
       0.0114127435 -0.10234846 0.014286157 -0.12505859
000160 58 c8 a6 be 6c 1a d9 3e f7 2d e9 3d 75 d2 43 be
       -0.32574725 0.4240297 0.1138572 -0.19123252
000170 2e 54 41 be d4 f6 aa bd 84 50 0f 3e 6d 7b 25 3c
       -0.18879768 -0.0834786 0.13995558 0.010100228
000180 b9 68 37 3e 8a 35 8a bc 23 99 96 3d d4 0b e2 bd
       0.17911042 -0.016871233 0.07353427 -0.11037412
000190 fe fd 0b 3d 3e ca 54 be 17 d3 a6 3d 1c 7e 89 bd
       0.034177773 -0.20780274 0.08145731 -0.067135066
0001a0 98 e6 07 be 5e 3b 99 be ed 6a 2e 3d e2 c7 09 3b
       -0.13271558 -0.29928106 0.04258244 0.002102368
0001b0 af 0f 1e bd 5c c2 e2 bd 3e 3c 34 be 5f 43 f7 bd
       -0.038589176 -0.11072227 -0.17601106 -0.12073397
0001c0 d4 8d fa bb 78 7e 84 3d 26 c9 10 be cd e3 75 3d
       -0.0076463018 0.064694345 -0.14139232 0.0600317
0001d0 0d 37 dd bc cd b1 4a 3b 17 49 5e bd 8a 42 59 bd
       -0.02700379 0.0030928731 -0.054268923 -0.053041972
0001e0 7c 18 9d bc ca f5 ff bc 75 8c 90 3e 6b 3b 2b be
       -0.019176714 -0.031245131 0.2823216 -0.16721885
0001f0 df 2a ea bd df 19 33 3e 89 5d 82 ba 8d e6 fc 3d
       -0.11433958 0.17490338 -0.0009946089 0.123486616
000200 91 37 29 be ac f8 a6 bc 7f 27 a2 bc f9 42 c0 3d
       -0.16525103 -0.020382248 -0.019794224 0.09387774
000210 d8 8a d9 3d 9b cc bf 3d d4 18 34 3e a1 40 55 3c
       0.106221855 0.09365197 0.17587596 0.013015897
000220 6a fd 5f 3d ec 8d 4b 3c ff dd d1 3c dc c9 3c bc
       0.054685034 0.0124239735 0.025618551 -0.011522736
000230 c0 c1 2f 3c 3b 4c 22 bd a5 70 58 bd 0c 25 07 3c
       0.010727346 -0.03962348 -0.0528418 0.008248579
000240 35 2a 6a be 5d 62 ec 3d f2 11 17 bd d2 43 ae 3d
       -0.22867663 0.11542199 -0.03688235 0.085090294
000250 c2 9d a6 3c da 4c 83 3e fe d6 56 3d a6 83 d3 bd
       0.020338897 0.2564457 0.052451126 -0.10327844
000260 5e fb 19 3e 58 d2 0d 3d 6d 08 2b 3e 54 15 6b 3c
       0.15037295 0.034624428 0.16702433 0.014348347
000270 72 ca 0e 3d 74 c0 44 be d3 6c 70 3c 0c fb 08 be
       0.034861036 -0.1921404 0.014674383 -0.13377017
000280 27 ff 44 3e d0 37 32 3e 64 1d 5e be 68 80 4e 3e
       0.19237958 0.17404103 -0.21690899 0.2016617
000290 05 72 39 be b2 21 ef 3c 9e 7e 2b 3e 75 ad 74 be
       -0.18109901 0.029190872 0.1674752 -0.23894294
0002a0 09 ef 3e 3e ea 44 13 bd 32 0a 9e 3e c6 bd 42 3e
       0.18645872 -0.035954393 0.30867153 0.19017705
0002b0 e4 c3 84 3e 09 cd b5 3d 3d 91 54 bd 59 e5 e7 3d
       0.25930703 0.08876998 -0.051896323 0.113230415
0002c0 3e 47 b3 3d 7c 5c af be 8e d5 49 3d f9 ab 2f be
       0.08753823 -0.34250247 0.049275927 -0.17155446
0002d0 94 c6 32 3e ae 98 2a 3d f2 14 ba bd d4 ef c1 3d
       0.17458564 0.041649513 -0.09086026 0.09469572
0002e0 f8 12 50 bd f6 86 39 bd eb 37 e2 bd 14 b9 d2 3d
       -0.05079934 -0.045294724 -0.11045822 0.10289207
0002f0 a7 32 ae 3b 7b 11 94 3d 13 ac cb 3d 23 16 22 3e
       0.005316097 0.07229897 0.0994493 0.15828757
000300 95 2d b8 3d 7c f8 a2 3b 80 db 19 bd c4 32 66 bd
       0.08993069 0.0049734693 -0.037562847 -0.056200758
000310 d1 22 1f 3e 87 54 81 3e a6 fb 2c 3e 84 76 ad 3d
       0.15540625 0.25259802 0.16892871 0.08469871
000320 01 20 35 3d d4 6a 3e bd 52 e0 09 3e 44 3d 3c 3e
       0.044219974 -0.046488598 0.13464478 0.18382746
000330 c8 33 0e 3e 56 a9 86 bc ac 3a bf bc 8f 22 18 3e
       0.1388694 -0.016438168 -0.023343407 0.14856933
000340 db 6f 2a 3d 38 d4 10 be cc 26 5f bc 32 09 ce bd
       0.04161058 -0.14143455 -0.01362009 -0.100603476
000350 78 33 10 bd a3 b4 5d bd aa 32 08 bf 18 75 b9 bd
       -0.035205334 -0.054127347 -0.5320231 -0.09055537
000360 a5 75 db 3d 3a c0 23 be 7e 5d 3f be 1d bb 00 3e
       0.10715798 -0.15991297 -0.18688008 0.12571378
000370 3b cb e4 bc 18 0d 28 be 6e a8 35 bc 9d ed 4e be
       -0.02792894 -0.16411245 -0.01108752 -0.2020783
000380 6a bb 11 3e 13 e6 94 bd 1d cb 1e 3e a9 a7 16 be
       0.14231649 -0.07270446 0.15507169 -0.14712395
000390 8c e0 07 3d de 9f 3b be 7b 88 68 be 6c 45 c3 bd
       0.03317313 -0.18322703 -0.22708313 -0.095347255
0003a0 08 df 2a be a1 5a 8b be f1 07 4c be f9 03 4d be
       -0.16686642 -0.27217582 -0.19924904 -0.20021047
0003b0 ee 7f 11 bd 3d d9 41 be c5 57 1c be d5 42 af bd
       -0.035522394 -0.18930526 -0.15267856 -0.08557669
0003c0 d8 d5 37 be 75 c2 18 3d 11 6a 00 be 37 83 89 3e
       -0.17952669 0.037294824 -0.12540461 0.2685792
0003d0 cc 49 52 be 1b a1 02 be bd d6 94 bd eb 73 02 be
       -0.20535964 -0.1275677 -0.072675206 -0.12739532
0003e0 ff a2 54 3e c1 1e d4 bd a8 93 01 be 90 4d 59 3c
       0.20765303 -0.10357428 -0.12653983 0.013263121
0003f0 39 be 2c 3e 1c 08 70 3e 88 c3 52 be bd 39 92 3e
       0.16869439 0.23440593 -0.20582402 0.28559676

fc2.bias f4 [21]
000000 b7 9c 35 3d ee 8d 80 3d 1d 3a 50 be 86 b4 c7 bd
       0.044338908 0.06277071 -0.20334668 -0.09751229
000010 7f d5 5b be d6 ef 47 be 14 ac 48 ba b6 1d 00 3e
       -0.21468161 -0.19525084 -0.0007655036 0.12511334
000020 b6 47 0f bd 53 96 5e 3d 06 be 3c 3c bd 12 76 bd
       -0.0349805 0.05434258 0.0115199145 -0.060076464
000030 21 fb fd 3d 7d 62 ba 3c 2d 91 c3 bd 60 e5 10 be
       0.12401415 0.022752041 -0.095491745 -0.1415
000040 d9 76 9a bb 1b 1c bb bd ee 77 cc bd 12 a8 3c 3d
       -0.004713875 -0.0913622 -0.09983812 0.04605872
000050 2a 68 cc bb
       -0.0062380033

fc3.weight f4 [37, 21]
000000 ad d7 67 be f5 b2 cf 3a 82 60 59 3e 5f 33 58 bb
       -0.22640868 0.001584618 0.21228221 -0.0032989604
000010 f7 aa f8 3d bb 1e 9a bd 32 7c 1e be 9d 61 9b 3d
       0.12141984 -0.075253926 -0.15477064 0.07586978
000020 ff 2b 64 3e 58 1b d6 bd 86 f1 54 b9 da 62 04 b8
       0.22282408 -0.10454434 -0.0002030787 -3.1563315e-05
000030 1c 16 16 3e e6 fa f7 3c ab 90 d6 bd d4 af 1c be
       0.14656872 0.030271005 -0.10476812 -0.15301448
000040 8a 86 00 bd 87 54 1f be ec 73 4d bd b9 e9 c7 bd
       -0.031378306 -0.15559588 -0.05015938 -0.09761376
000050 f6 c9 0a bd 04 f5 58 3d 18 98 ac 3d 4a d6 0e be
       -0.03388401 0.05296804 0.08427447 -0.13948932
000060 d0 26 10 be 71 12 ac 3d 26 d3 63 3e e8 08 6d 3d
       -0.14077306 0.08401955 0.22248515 0.05786982
000070 8b 62 10 3e 13 2f 9c 3d 69 23 84 bd 67 4b 57 b9
       0.14100091 0.07626166 -0.064520665 -0.00020532087
000080 01 fb ce ba a4 37 01 bd 6a 21 b1 bd 60 33 b2 3d
       -0.0015791358 -0.031547204 -0.08648951 0.08701205
000090 88 74 a4 ba 41 b4 4c 3d 39 04 c3 bd e5 41 06 be
       -0.0012546936 0.04997659 -0.0952229 -0.13111074
0000a0 a2 b0 eb bc 28 40 bb 3d d8 1f 0b 3e be 78 aa 3d
       -0.028770749 0.09143096 0.13586366 0.08323811
0000b0 70 b4 40 3e 3f b0 c0 3d ec 8a 00 3e 46 28 66 bd
       0.18818831 0.09408616 0.12552994 -0.05619075
0000c0 f3 d1 f2 3d 85 86 04 3e 2b dd 94 bc 1a d1 ad bb
       0.11856451 0.1294194 -0.018171867 -0.005304468
0000d0 60 75 21 3a a1 0c ef b8 37 de a8 bd 7e 5d f1 3d
       0.0006159153 -0.000113987604 -0.08245509 0.1178541
0000e0 49 6f 97 bd d9 c7 fe 3d ab fb 95 bd 5a 8a 2a 3d
       -0.07394273 0.12440462 -0.073233925 0.04163585
0000f0 c3 47 06 be 94 0d ec 3d 72 82 57 3d ca 71 05 3e
       -0.13113312 0.11526027 0.052614637 0.13031688
000100 86 45 38 be 24 f5 ef 3c 97 f7 f7 bd 7b e7 5f 3d
       -0.17995271 0.029291697 -0.12107771 0.054664116
000110 b7 ca 47 be 0b 1a b0 bd 3e 42 db 3d ad 95 2e 3d
       -0.19510923 -0.08598717 0.10705994 0.04262321
000120 76 0f 11 3d ea b3 d8 38 50 51 38 bb 06 d5 f4 3d
       0.035415135 0.00010333194 -0.0028124638 0.119546935
000130 cc 79 cd bd 6d a9 1f 3e 5d e9 4b bc db 7d 92 bc
       -0.100329965 0.15591975 -0.012445775 -0.017882278
000140 2b 66 f2 ba 96 b0 b5 bd 8a 8a 04 bd a7 18 05 be
       -0.0018493583 -0.08871572 -0.032358684 -0.12997685
000150 7d 74 7d 3e 55 5c 6b 3e dd b6 85 3d d3 02 23 be
       0.24751468 0.2298444 0.06529019 -0.15919046
000160 ff 92 b9 3d 40 d0 f4 bd 53 60 16 3d 47 38 3b bb
       0.090612404 -0.11953783 0.036712956 -0.002856748
000170 a4 1c cf 3d bb c8 a7 bd a0 7f f3 b9 e2 58 aa 39
       0.10112885 -0.08192583 -0.0004644366 0.0003249115
000180 3a 57 12 be 40 38 90 3d 13 06 f7 3b ec cf 41 bd
       -0.14291087 0.07041979 0.007538566 -0.04731743
000190 b4 71 79 3d ef f4 78 3e 3d a9 bc bd 91 39 25 3e
       0.06089945 0.24312185 -0.09211967 0.16135241
0001a0 b9 23 97 3d ae 0c e5 3d f4 f1 e1 3d 37 49 1e 3d
       0.073798604 0.11184059 0.11032477 0.038644042
0001b0 66 cb c4 bd f9 94 ec bb e6 c7 0a be 35 d4 57 3c
       -0.09609108 -0.0072199074 -0.13552818 0.013173153
0001c0 e5 88 6b bd d0 1c fe 3d ee a1 2e 3d a4 15 82 b6
       -0.0575036 0.12407839 0.042634897 -3.876821e-06
0001d0 40 44 0f ba 69 df e3 bd eb 3c a8 bb ef 41 ee 3b
       -0.0005465187 -0.111265965 -0.005134215 0.0072710435
0001e0 9b 8d 1e bd 03 43 94 bd 7f 2c cc 3d 98 1b c1 3d
       -0.038709264 -0.07239344 0.099694245 0.09429091
0001f0 a2 aa eb bd 2c fe ab bd 1d 3e bf 3d 30 6c 8f bd
       -0.11507155 -0.08398089 0.09338019 -0.07003057
000200 4d 27 15 be 54 16 82 3d e3 77 f8 bd bd d7 47 3d
       -0.14565773 0.06351915 -0.121322416 0.04878973
000210 e0 6c 0d be 41 db 15 be 29 5c fd 3c f6 4c d2 bd
       -0.13811064 -0.1463442 0.030927734 -0.102685854
000220 bb c7 64 ba f5 b9 78 3b 51 eb bc bd 3f ba 9e 3d
       -0.0008727272 0.0037952636 -0.092245705 0.077503674
000230 67 8a ea 3c bc ba 29 bc ee fa 21 3e 50 32 b7 3d
       0.028630449 -0.010359462 0.15818378 0.08945143
000240 ef 19 28 bc 81 01 39 3d 6e 7b 06 bd b7 b6 34 3b
       -0.010260089 0.04516745 -0.032832555 0.0027574727
000250 2d 0a 03 3d e4 19 0d be 2a a0 2f 3e f8 af 2b 3e
       0.031992126 -0.13779408 0.17150941 0.16766346
000260 f6 b3 1c 3e 56 a7 38 3e 66 bf e8 bd b2 85 8e bd
       0.15303025 0.18032584 -0.11364631 -0.06959094
000270 cf 04 d8 bd 23 f5 4e 3a 16 66 13 bb 1e 2d 2e be
       -0.10547792 0.00078948046 -0.0022491268 -0.17009398
000280 13 4c 10 3c 78 26 2c 3d 1c 41 5c 3e 67 22 10 bd
       0.0088072 0.042028874 0.21509212 -0.03518906
000290 a8 89 80 bd e7 6c 39 be 34 c5 90 bd 77 95 70 be
       -0.06276256 -0.18107949 -0.070688635 -0.23494516
0002a0 5f 3d 15 3d 65 1f eb 3d 8f ef 61 be a7 5f a7 bc
       0.03643548 0.114805974 -0.2206404 -0.020431353
0002b0 a0 ac 29 be 1a b6 d2 3d 1c 50 a6 3c ea d1 b0 bc
       -0.16569757 0.10288639 0.020301871 -0.02158447
0002c0 fd e6 38 be c1 2b f7 bd 86 16 d1 ba ae 63 80 3a
       -0.18056865 -0.12068892 -0.0015952147 0.0009795332
0002d0 f8 61 20 bc 11 39 95 bd fc 5e ef 3d 92 77 e5 bd
       -0.009788983 -0.07286275 0.11688039 -0.11204447
0002e0 f2 3c 3f 3e 88 7d 35 3e b0 8c f5 3c c3 80 0d 3e
       0.18675593 0.17723668 0.029974312 0.1381865
0002f0 d3 94 1e 3e 8a 9b 5d be 01 28 19 bd 68 5d 3a 3e
       0.1548646 -0.21641365 -0.037391666 0.18199694
000300 42 7a 2d be 88 97 e4 3d ad 57 ef 3d f8 3d db 3d
       -0.16941169 0.11161715 0.11686645 0.10705179
000310 a5 bd 18 be 1f 67 29 3d 62 9d 2a 3d 04 01 97 38
       -0.14916094 0.04135811 0.041654 7.20043e-05
000320 3a 53 ed ba 76 55 8f 3d 7d 73 06 bd 1a 4d b3 bd
       -0.0018106468 0.06998722 -0.032824982 -0.0875494
000330 4b eb 9c 3d 66 9f 89 bd 23 e1 4b bd a0 51 4b 3c
       0.07662066 -0.06719856 -0.049775254 0.012409598
000340 34 4a 59 be 0b 2e df 3d 89 7a 51 bd b9 6d cb bc
       -0.21219712 0.10897454 -0.05114225 -0.024832593
000350 0a 08 73 3e 94 d8 2b bd 26 b3 5e bd f6 8e e0 3c
       0.23733535 -0.041954592 -0.054370068 0.02741192
000360 26 c6 02 3e 70 2a a7 bd bc 2d c1 bc cc 2a d6 3d
       0.127709 -0.08162391 -0.023581378 0.104573816
000370 cc 8b a2 38 bf d8 86 39 63 f7 9e 3d 2d b0 85 bd
       7.750801e-05 0.0002571996 0.07762029 -0.065277435
000380 7b f6 dd bd f5 df ad bc ff 6b 46 3c b2 0e 6e 3d
       -0.10838028 -0.021224955 0.012110709 0.058119483
000390 5e 74 56 39 80 b5 1c bc 52 cb de 3d 43 c2 56 bd
       0.0002045198 -0.009564757 0.10878624 -0.052431356
0003a0 89 8e 72 3c f8 05 82 bc df b2 8b 3d 55 57 bf bd
       0.014804491 -0.015871987 0.06821226 -0.09342829
0003b0 e4 c5 3c 3e ef ce 4c bc df 3d 58 3e 02 de fc 3d
       0.18434864 -0.012500509 0.21117352 0.12347032
0003c0 c5 59 2f be d8 1e ca b9 c1 58 e0 b9 d6 dd 79 bd
       -0.17124088 -0.00038551423 -0.00042790736 -0.061002575
0003d0 55 da 68 be 7e 19 ec 3d 9d 45 03 bd 33 65 f6 3d
       -0.22739537 0.115283 -0.03204881 0.12031021
0003e0 90 82 54 bd 62 92 92 bb a7 71 f0 bd 49 93 c7 3c
       -0.051882327 -0.0044730166 -0.117404275 0.024362223
0003f0 45 36 3e 3c 52 68 eb bd 20 4e 6e bd 34 93 9f 3d
       0.011609619 -0.11494507 -0.058179975 0.07791749

fc3.bias f4 [37]
000000 be 6b f1 bd 4a 55 33 bc 83 9e 34 3d f8 38 08 be
       -0.11788128 -0.0109456275 0.04409648 -0.13302982
000010 dc e0 d6 bd 96 9a 5b 3e 08 45 08 be 19 6e 3e 3d
       -0.10492107 0.21445689 -0.13307583 0.046491716
000020 ac 8f df bc 8c 13 30 bd a4 89 12 be 43 b9 d1 bd
       -0.027290188 -0.04298739 -0.14310318 -0.10240414
000030 ba bb 9e bd 96 dd 3d 3c d9 a3 fd 3d f4 14 98 3d
       -0.0775065 0.011588475 0.12384767 0.074258715
000040 1c 9e 50 be 3b a6 74 3c 5d 87 cc bd c7 97 23 be
       -0.20372814 0.014932211 -0.09986756 -0.15975867
000050 46 df a6 3d 0b 78 6c 3d 9d 89 19 be d2 d3 e7 3d
       0.08148055 0.05773167 -0.14993902 0.113196984
000060 b3 49 25 be 88 af 89 3d c5 1c ae 3e ba 16 93 3e
       -0.16141395 0.06722933 0.34006324 0.28728276
000070 23 aa 3f 3d 3e 92 f8 bd 75 cb 4d 3d b7 9f 0d be
       0.046793114 -0.121372685 0.05024286 -0.13830458
000080 29 19 b4 3d 7d 27 2e 3e 6d b1 a0 3e de e8 38 3e
       0.087938614 0.17007251 0.31385365 0.18057582
000090 8b 91 a8 3e
       0.3292354
