CaseModels/03 37-Bus/_genModel_Mvar.pth (torch, 31505 bytes, 7 tensors)

bias f4 [37]
0	0xbda5b29e	-0.08090709
1	0xbd7f64dd	-0.06235205
2	0xbd2d4e10	-0.042310774
3	0xbc96093e	-0.018314954
4	0xbd12cf73	-0.03584237
5	0xbce34471	-0.027742596
6	0x3c90cc5b	0.01767557
7	0xbcfc41c2	-0.030793075
8	0x3be402bf	0.006958335
9	0x3b170891	0.0023045877
10	0xbd40b21e	-0.047044866
11	0x3b9afe16	0.0047299964
12	0x3db2a12a	0.08722146
13	0x3d3f90c5	0.046768922
14	0xbca689b7	-0.02032934
15	0x3da635ca	0.08115728
16	0xbd28b50b	-0.04118828
17	0x3cd29dd8	0.025710031
18	0xbd1fecca	-0.03904418
19	0x3d3789d0	0.044809163
20	0xbe08fca0	-0.13377619
21	0xbd2d860a	-0.042364158
22	0xbdc5509b	-0.09634515
23	0x3d6dd558	0.05806479
24	0xbd80954b	-0.062784754
25	0x3c9141ef	0.017731635
26	0xbdd0f2e7	-0.1020258
27	0x3d29c1e2	0.041444667
28	0x3d1e1c06	0.038600944
29	0xbd5c52a9	-0.05378977
30	0xbc72b2eb	-0.014813165
31	0x3dd7650a	0.105173185
32	0xbdfb9ae7	-0.12285405
33	0x39406256	0.0001834718
34	0x3c3aed82	0.011409165
35	0x3e286b7f	0.16447257
36	0xbda39463	-0.07987287

fc1.weight f4 [42, 128]
0	0xbd74cd8c	-0.059766337
1	0xbd14ccec	-0.03632824
2	0xbd8a51d6	-0.0675389
3	0xbcfcdbd6	-0.030866545
4	0xbd39389e	-0.04522001
5	0x3b082c7f	0.0020778475
6	0xbd915574	-0.07096377
7	0xbce0cd82	-0.027441744
8	0xbcedf4ae	-0.029047336
9	0xbd0559e6	-0.032556437
10	0xbd6065c7	-0.054784562
11	0xbc61816b	-0.013763766
12	0xbd10804e	-0.03527861
13	0xbcafacc6	-0.02144469
14	0xbc21aad4	-0.009867389
15	0xbd5e64cf	-0.054295357
16	0x3cb25283	0.02176786
17	0xbba1d31b	-0.004938496
18	0x3e8fbc8f	0.28073546
19	0x3eaafe90	0.3339734
20	0x3dd7d72d	0.105390884
21	0xbe65b258	-0.22431314
22	0xbdae3ad2	-0.08507313
23	0xbe1dc6e4	-0.15407902
24	0x3e374c92	0.17900303
25	0xbdbd72ca	-0.0925041
26	0x3edf7c1e	0.4364938
27	0x3d0468e6	0.0323266
28	0x3d8de70d	0.06928835
29	0xbda215af	-0.07914292
30	0xbd6ea23a	-0.05826018
31	0xbda6e674	-0.08149424
32	0xbd03f656	-0.032217346
33	0x3d8f94af	0.07010781
34	0x3d7199aa	0.058984436
35	0xbd5cbadc	-0.05388914
36	0x3ab14440	0.0013524368
37	0xbdaddff9	-0.08489985
38	0xbd6bb85f	-0.057548877
39	0x3930ca00	0.00016859919
40	0x3d5a4962	0.05329264
41	0x3db1863f	0.086681835
42	0x3cb461e4	0.022019334
43	0xbd610003	-0.05493165
44	0xbd9644c9	-0.073373385
45	0xbd3d2c76	-0.04618498
46	0x3be39530	0.006945275
47	0xbd7f552c	-0.062337086
48	0x3d8684df	0.06568312
49	0x3ce57820	0.028011382
50	0x3d296566	0.041356467
51	0x3daa27af	0.0830835
52	0xbd5ef20e	-0.05443006
53	0xbda572bd	-0.08078525
54	0x3d056be6	0.032573603
55	0x3ab35771	0.0013682676
56	0xbcffd534	-0.031229593
57	0x3d2df756	0.042472206
58	0xbd91e76a	-0.07124217
59	0xbd413b85	-0.047175903
60	0xbda4af20	-0.08041215
61	0xbc555eb8	-0.013023071
62	0x3d8ada97	0.06779974
63	0xbc095d88	-0.008384116
64	0x3d923ee9	0.071409054
65	0xbd8a817c	-0.067629784
66	0xbcb0064c	-0.021487378
67	0xbdae8d04	-0.0852299
68	0x3da911bf	0.08255338
69	0xbd9aa013	-0.07550063
70	0xbd245004	-0.04011537
71	0xbd9be777	-0.07612508
72	0x3c907118	0.017632052
73	0xbb97caa0	-0.004632309
74	0xbb95a3b0	-0.004566632
75	0x3c8cfca8	0.01721032
76	0xbcb9d8bd	-0.022686357
77	0xbd1969d9	-0.03745446
78	0x3b1a3c80	0.0023534596
79	0x3df636a1	0.120221384
80	0x3d589172	0.052873082
81	0x3e038574	0.12843877
82	0x3d7b488a	0.061348476
83	0x3d386c22	0.045025
84	0xbd6a05ad	-0.05713432
85	0xbcc9f4ec	-0.02465292
86	0x3dbc3f2c	0.091917366
87	0x392c0199	0.00016403793
88	0x3db5e70b	0.088819586
89	0x3d992ac9	0.07478864
90	0x3dfa91cc	0.1223484
91	0xbcbbd890	-0.022930413
92	0x3d1257e2	0.035728343
93	0x3d2e217a	0.042512394
94	0x3d29dbc2	0.041469343
95	0xbd8597a5	-0.065230645
96	0xbd7cafa4	-0.06169094
97	0xbc9bda5c	-0.01902502
98	0xbc338dc0	-0.010959089
99	0xbc6a4410	-0.014298454
100	0xbd8f89a2	-0.07008673
101	0x3d97cb3d	0.074118115
102	0xbce9d97e	-0.028546091
103	0xbc2bfd18	-0.010497354
104	0x3d3a493e	0.045480005
105	0xbcced418	-0.025247619
106	0x3c8a3948	0.016873017
107	0xbd89fef0	-0.067380786
108	0xbcc7f3b0	-0.024408191
109	0x3d67d71a	0.05660162
110	0x3d1c42aa	0.038149513
111	0x3c6a2830	0.014291808
112	0xbc89bd0c	-0.016813777
113	0x3bc788ce	0.0060893064
114	0x3ceece34	0.02915106
115	0xbdaafdd2	-0.08349194
116	0x3d935df4	0.071956545
117	0xbe053f38	-0.13012397
118	0xbdb1ba49	-0.08678109
119	0xbabb30c0	-0.0014281496
120	0xbc8363a0	-0.016038716
121	0xbd2988db	-0.04139028
122	0x3ac77800	0.0015218258
123	0xbd0465ff	-0.032323834
124	0xba64324f	-0.00087050063
125	0x3dba7cdc	0.09105846
126	0x3df14e08	0.117824614
127	0xbcb8d06d	-0.022560323
128	0x3c48c807	0.0122547215
129	0xbda9a1f3	-0.082828425
130	0xbd855856	-0.06510989
131	0xbc821761	-0.015880289
132	0xbbe049cb	-0.0068447343
133	0xbdc3394e	-0.095324144
134	0xbd368990	-0.044564784
135	0xbcee38eb	-0.029079875
136	0xbc99d6da	-0.018779207
137	0xbcf81199	-0.030281829
138	0xbc9c9ea6	-0.019118618
139	0xbd9e8b8e	-0.07741462
140	0xbd88744d	-0.066628076
141	0xbdb64f87	-0.089018874
142	0xbd663117	-0.05619916
143	0x3e999520	0.29996586
144	0xbd77ea12	-0.06052596
145	0xbbdcf206	-0.0067427186
146	0xbdf26da3	-0.11837318
147	0x3bbb6f37	0.005720045
148	0x3f0517a0	0.51989174
149	0x3ee4f5c6	0.4471876
150	0x3ed37f68	0.4130814
151	0x3ed3f688	0.41399026
152	0xbbb0bcbd	-0.005393593
153	0x3ebcfa3f	0.36909673
154	0xbe2e92f9	-0.17048253
155	0xbca6bd78	-0.020354018
156	0xbd707e78	-0.05871436
157	0xbda857ca	-0.082198694
158	0xbd08cf63	-0.033400904
159	0x3d57404e	0.05255156
160	0xbda22fc6	-0.07919268
161	0xbcccc520	-0.02499634
162	0xbdaa4bdf	-0.083152525
163	0x3ceb27dc	0.02870553
164	0x3cae9098	0.021309182
165	0x3d58899e	0.052865617
166	0xbcb723a8	-0.02235587
167	0xbd26dece	-0.040739827
168	0x3d03cd7e	0.032178394
169	0x3c627188	0.013821013
170	0xbd24009e	-0.04003965
171	0xbd6464d3	-0.055760216
172	0xbd2c521b	-0.04207049
173	0xbd906452	-0.070503846
174	0xbda7ee05	-0.081996955
175	0xbc6c0840	-0.014406264
176	0xbd5266dd	-0.05136763
177	0x3d2e6046	0.042572282
178	0x3d966d9b	0.07345124
179	0x3d9d69b1	0.07686175
180	0xbd68238d	-0.05667453
181	0x3cefae54	0.02925793
182	0xbda869a0	-0.08223271
183	0x3d1f8266	0.038942717
184	0xbcfdd8e6	-0.030987214
185	0xbcd74d40	-0.026281953
186	0xbda6ba86	-0.08141045
187	0xbd9bf496	-0.076150104
188	0x3d3045a6	0.043035172
189	0x3d49fd96	0.049314104
190	0xbd16b24f	-0.036791142
191	0xbdb307a2	-0.0874169
192	0x3d793816	0.060844503
193	0x3d194d8e	0.037427478
194	0x3c357980	0.011076331
195	0x3d202aba	0.039103247
196	0x3d84141f	0.0644915
197	0xbd41b59e	-0.047292344
198	0xbd074c69	-0.033031855
199	0xbd9c7d46	-0.076410815
200	0xbd95f77f	-0.07322597
201	0x3c324898	0.0108815655
202	0x3d87d91b	0.066332065
203	0x3d45be52	0.048277207
204	0x3da66dba	0.081263974
205	0x3d6962ee	0.056979112
206	0xbd9db218	-0.07699984
207	0x3d84277c	0.064528435
208	0x3e0ff4fc	0.14058298
209	0x3da2860a	0.07935722
210	0xbd667234	-0.056261256
211	0xbd0db940	-0.034600496
212	0xbcdc7998	-0.02691345
213	0x3d941c8f	0.072320096
214	0x3cbc38f9	0.022976385
215	0x3e161871	0.14657761
216	0x3ccbe581	0.02488971
217	0x3cf3d7a9	0.02976592
218	0x3ddc64da	0.107614234
219	0x3cccd8ec	0.02500578
220	0x3dd8c027	0.10583525
221	0xbbd82100	-0.006595731
222	0xbd60b3ca	-0.05485896
223	0xbcce83e4	-0.025209375
224	0xbd99fc26	-0.075187966
225	0xbd164373	-0.03668542
226	0x3d3b75b2	0.04576654
227	0xbcbc7a38	-0.023007497
228	0xbd82aebb	-0.063809834
229	0xbcc49b38	-0.023999795
230	0xbd678791	-0.05652577
231	0xbcfeb88c	-0.031093858
232	0x3cdf7a18	0.027279899
233	0xbd9ab8e1	-0.07554794
234	0x3d16d5ea	0.036825098
235	0x3d7c7fe2	0.061645396
236	0xbca2fa0c	-0.019894622
237	0x3d1e53e2	0.038654216
238	0xbc9ad49c	-0.018900208
239	0xbcd60094	-0.026123323
240	0xbd135a04	-0.035974517
241	0x3cbd0c30	0.0230771
242	0xbb9c5ff0	-0.004772179
243	0x3ccaf108	0.024773136
244	0x3e218499	0.15773238
245	0xbe1b380e	-0.15158102
246	0xbdb4d0e4	-0.08828905
247	0x3c257f28	0.010101117
248	0xbdad842c	-0.084724754
249	0xbd80f760	-0.06297183
250	0xbd687d9c	-0.056760415
251	0x3e37d771	0.17953278
252	0xbde33c1a	-0.11095448
253	0x3dc48a41	0.09596682
254	0x3d17bfbb	0.037048083
255	0x3dec632b	0.11542352

fc1.bias f4 [42]
0	0x3d9da087	0.07696634
1	0x3dfee3b8	0.12445778
2	0x3d685238	0.056719035
3	0x3ce96722	0.02849156
4	0xbdb02bbd	-0.086020924
5	0xbdc2447a	-0.09485717
6	0xbe18cd97	-0.14922176
7	0xbd66c108	-0.056336433
8	0xbd2a3849	-0.041557584
9	0xbc8c781c	-0.017147116
10	0xbe02a3d6	-0.12757811
11	0xbdcc862a	-0.09986527
12	0xbe18d3d3	-0.14924555
13	0xbdc2d09a	-0.09512444
14	0x3dcc96c7	0.09989696
15	0xbe18c566	-0.14919052
16	0xbd1c6189	-0.038178954
17	0xbe1cf73f	-0.15328692
18	0xbd94ce1e	-0.07265876
19	0xbd29e122	-0.04147447
20	0x3b7c4589	0.0038493595
21	0xbcb14acc	-0.021642111
22	0x3c4caf0b	0.012492905
23	0xbdf3ddb5	-0.11907522
24	0x3bb43b7e	0.005500256
25	0xbc8168a7	-0.015796972
26	0x3d5a2184	0.05325462
27	0xbd80102e	-0.06253086
28	0xb987f6c5	-0.00025933064
29	0x3d7ffa8d	0.062494803
30	0xbe03d5d5	-0.12874539
31	0xbe802746	-0.25029963
32	0xbe035702	-0.1282616
33	0xbd478122	-0.048707135
34	0x3c8c8167	0.017151548
35	0x3b9e4824	0.004830377
36	0x3d107695	0.03526934
37	0xbe6c9b57	-0.23106132
38	0x3dcc2f46	0.09969954
39	0xbce94eeb	-0.028480014
40	0xbeb25246	-0.34828395
41	0xbcda55f9	-0.026652323

fc2.weight f4 [21, 42]
0	0x3e944f62	0.28966814
1	0xbe2b351b	-0.16719477
2	0xbe904d7d	-0.2818412
3	0xbe4f9267	-0.20270692
4	0xbe8c91c4	-0.2745496
5	0xbe65f157	-0.22455345
6	0xbdc711b5	-0.09720174
7	0xbb423dbe	-0.0029638852
8	0xbf1e96a5	-0.61948615
9	0x3e8f613e	0.28003877
10	0xbec05051	-0.37561277
11	0xbe9fd473	-0.31216773
12	0xbb5bc57f	-0.0033534465
13	0xbe887f19	-0.26659468
14	0x3d8ed379	0.06973929
15	0xbe5dd78a	-0.21664253
16	0x3e8687d9	0.2627552
17	0x3d803a0e	0.06261073
18	0x3e965f54	0.29369605
19	0x3e33635f	0.17518376
20	0xbe644ca5	-0.22294863
21	0x3e1fca5e	0.1560454
22	0xbd24dbb1	-0.040248577
23	0xbdf970c0	-0.121797085
24	0x3e8693e0	0.26284695
25	0xbd85a327	-0.065252595
26	0xbdde66e8	-0.108594716
27	0x3d6fa59f	0.058507558
28	0x3daa0a84	0.08302787
29	0x3d4cdcc9	0.050015245
30	0xbd95573c	-0.07292029
31	0xbf03fab9	-0.5155445
32	0x3c0fdcac	0.00878064
33	0xbe41cb92	-0.18925312
34	0x3b0cdd52	0.0021494222
35	0x3d56667f	0.05234384
36	0x3d19313e	0.037400477
37	0xbf40799b	-0.75185555
38	0xba5eb7ac	-0.0008495997
39	0x3d70c77d	0.058783997
40	0xbf0628e0	-0.5240612
41	0x3da85568	0.08219415
42	0xbca07481	-0.019586803
43	0x3e1efd54	0.15526325
44	0x3b353583	0.0027650304
45	0x3cf7c643	0.030245906
46	0xbbea70cf	-0.007154561
47	0x3d7719dc	0.060327396
48	0xbe455d1c	-0.192738
49	0xbe08f8eb	-0.13376205
50	0x3d7588bf	0.059944864
51	0x3e70d9e9	0.23520626
52	0xbe082ce1	-0.1329837
53	0xbe87ce3b	-0.2652453
54	0xbd175774	-0.036948636
55	0x3d918640	0.07105684
56	0x3e57bc93	0.21068029
57	0xbeb039e7	-0.34419176
58	0xbe011947	-0.12607299
59	0x3bb3981b	0.005480779
60	0x3e3218d4	0.17392284
61	0xbe8c67ed	-0.2742304
62	0x3db1b15e	0.08676408
63	0x3e2f824c	0.17139548
64	0xbe2383d9	-0.15968265
65	0xbe817459	-0.2528408
66	0xbee24bd9	-0.44198492
67	0x3d35313b	0.044236403
68	0xbe4d2494	-0.20033485
69	0x3eaa9abd	0.3332118
70	0xbe023328	-0.12714827
71	0xbccab930	-0.024746507
72	0xbdfb6b6b	-0.12276348
73	0xbf0d1c23	-0.5512106
74	0xbea7e08c	-0.32788503
75	0xbc9acf3b	-0.018897643
76	0xbe04f789	-0.12985052
77	0x3d9bc9fb	0.07606884
78	0xbe33bc3d	-0.17552276
79	0x3f3880ee	0.7207173
80	0x3e06012d	0.13086386
81	0xbe37ca32	-0.17948225
82	0xbf4e1457	-0.80499786
83	0xbdfa5214	-0.122226864
84	0xbd12ac12	-0.03580863
85	0xbdacf945	-0.08445982
86	0xbe94bc65	-0.29049984
87	0xbe920aaa	-0.2852376
88	0x3b163dda	0.002292505
89	0xbdbe0f82	-0.09280302
90	0xbdd36d6b	-0.10323604
91	0xbe45ecad	-0.19328566
92	0x3ed54f5a	0.41662103
93	0xbee9ee57	-0.4568965
94	0xbd39fa20	-0.045404553
95	0xbe135175	-0.14386542
96	0x3c9374df	0.018000064
97	0xbc8390e2	-0.016060296
98	0x3e4d9ce9	0.20079388
99	0x3dcb5a89	0.099293776
100	0xbdc5376f	-0.09629714
101	0x3cad3883	0.021145111
102	0xbef810b7	-0.48450252
103	0x3ccf400f	0.0252991
104	0x3d01c84d	0.031685162
105	0x3e98ebe4	0.2986747
106	0x3e0f077d	0.139677
107	0xbeca43b2	-0.39504772
108	0x3d2a814c	0.041627213
109	0x3f095eb2	0.5366012
110	0xbdbc1e39	-0.09185452
111	0xbdd5c49e	-0.104378924
112	0x3cd97be0	0.026548326
113	0xbb44a71c	-0.0030006832
114	0xbe8829bc	-0.2659434
115	0xbf1adcc7	-0.6049313
116	0x3df40d90	0.11916649
117	0x3e4c32a0	0.19941187
118	0x3e5018cd	0.20321961
119	0x3e113eeb	0.14184158
120	0x3c2b7b32	0.010466384
121	0xbf9ae9e4	-1.2102628
122	0xbe43baed	-0.19114275
123	0xbd81abd0	-0.06331599
124	0xbf31c9d4	-0.6944859
125	0xbe97dff9	-0.29663065
126	0xbd50b318	-0.050952047
127	0x3d87c186	0.066287085
128	0xbc75ca1e	-0.015001802
129	0xbc930f72	-0.0179517
130	0xbe0113f0	-0.12605262
131	0x3e197fff	0.14990233
132	0x3d581599	0.052754972
133	0xbc7e8ea4	-0.015536938
134	0x3dab0079	0.083496995
135	0x3e566bfc	0.2093963
136	0x3d10742d	0.035267044
137	0xbd73fd90	-0.059567988
138	0x3e18ea4c	0.14933127
139	0x3daba0d5	0.08380286
140	0xbdc42c3c	-0.095787495
141	0x3e21529a	0.15754166
142	0x3d929e01	0.07159043
143	0x3dd2a047	0.10284477
144	0x3e5be870	0.21475387
145	0x3c1a6943	0.00942451
146	0x3e2686bc	0.16262335
147	0x3d4ca8df	0.049965736
148	0x3db5b7b4	0.08872929
149	0x3e1438a1	0.14474727
150	0x3e02b2ca	0.12763515
151	0xbdfc3872	-0.123154536
152	0xbd488e6a	-0.04896394
153	0x3dd7adb8	0.10531181
154	0x3c70f8ec	0.014707785
155	0x3d0b418a	0.03399805
156	0x3dab7b4e	0.08373128
157	0x3e67b1fe	0.22626492
158	0x3dcf515b	0.10122939
159	0x3e92711c	0.2860192
160	0x3d8134bd	0.06308887
161	0x3db0f394	0.08640209
162	0x3da8c54a	0.08240755
163	0xbc11c517	-0.008897088
164	0xbe0bd03e	-0.13653657
165	0x3bbf10cf	0.005830861
166	0x3e5e967c	0.21737093
167	0x3d31a943	0.04337431
168	0xbdd6c490	-0.1048671
169	0x3d8d1141	0.068880565
170	0x3d5ecbb4	0.054393485
171	0xbd943e27	-0.07238417
172	0x3d68ad4c	0.056805894
173	0x3e93eeae	0.28893036
174	0x3cb95457	0.022623224
175	0xbdbcd0b5	-0.09219495
176	0x3ce965d8	0.028490946
177	0xbd08bca8	-0.03338304
178	0x3e21902e	0.15777656
179	0xbbddd16e	-0.0067693507
180	0x3dc520ca	0.09625395
181	0xbd7f28d6	-0.062294804
182	0x3dd7d502	0.10538675
183	0x3db5ae6b	0.08871158
184	0xbc8f84b1	-0.017519327
185	0xbd05f3cf	-0.032703217
186	0xbc96b930	-0.018398851
187	0x3e57a3ae	0.21058533
188	0x3e05144f	0.12996028
189	0xbbb528ce	-0.005528546
190	0x3d18cf32	0.03730697
191	0xbd4077fa	-0.04698942
192	0x3c7c89f3	0.015413749
193	0x3e3a70a6	0.18207034
194	0xbd635351	-0.05549938
195	0xbde35e22	-0.11101939
196	0x3d509fe2	0.050933726
197	0x3c566f29	0.013088026
198	0x3cc6b7d0	0.02425757
199	0xbd18249f	-0.0371443
200	0x3d906aff	0.07051658
201	0x3e525329	0.20539536
202	0xbc4d070a	-0.012513885
203	0x3da2e4de	0.07953809
204	0xbcddb56c	-0.027064048
205	0xbd932420	-0.07184625
206	0xbe0c0b48	-0.13676178
207	0x3b8a97bb	0.0042295135
208	0x3db14a64	0.08656767
209	0xbca3f7ef	-0.020015685
210	0xbc5e92a5	-0.0135847675
211	0xbe2725cc	-0.16323012
212	0x3d45fb51	0.048335377
213	0x3e20fb96	0.15720972
214	0x3e1437d7	0.14474426
215	0x3e7f95bc	0.24959463
216	0x3bbd6b0a	0.0057805823
217	0xbbc95bc5	-0.006144973
218	0xba9c87a1	-0.0011942276
219	0xbe44ebca	-0.19230571
220	0x3e4f911f	0.20270203
221	0x3e9cecc0	0.30649376
222	0xbdcff077	-0.10153287
223	0x3da687fc	0.08131406
224	0xbde8d260	-0.11368251
225	0x3d191286	0.03737118
226	0xbc0f8d92	-0.00876178
227	0xbd88de4e	-0.06683026
228	0xbe1b7bb0	-0.15183902
229	0x3d8b3890	0.06797898
230	0x3e008590	0.1255095
231	0xbcc6a771	-0.024249764
232	0x3c0c4800	0.008562088
233	0x3dde60de	0.1085832
234	0xbbd0835e	-0.0063633164
235	0xbcca12cf	-0.024667172
236	0xbe1b9452	-0.15193298
237	0xbe119e46	-0.14220533
238	0x3ddf187c	0.10893342
239	0x3afa3c26	0.0019091412
240	0xbc707993	-0.014677423
241	0xbe0d3d78	-0.1379298
242	0x3d080762	0.033210166
243	0xbde1ca1d	-0.11024878
244	0x3d9ea9a3	0.077471994
245	0xbe152e41	-0.14568426
246	0x3b661e56	0.0035113296
247	0x3d7c3776	0.06157633
248	0x3e41910d	0.18902989
249	0x3d723df5	0.059141118
250	0x3c506b0d	0.012720835
251	0xbd5a6ac3	-0.053324472
252	0xbe5cf512	-0.21577862
253	0x3dfe22c8	0.12408978
254	0xbe4eb1c7	-0.20185004
255	0x3e1a69d5	0.15079434

fc2.bias f4 [21]
0	0x3d174ff9	0.036941502
1	0xbdf86370	-0.12128341
2	0xbe19a95a	-0.15006009
3	0x3e0070b1	0.12542988
4	0x3d0df1cf	0.034654435
5	0xbd80d78a	-0.06291111
6	0xbcb85a4a	-0.02250399
7	0xbd4ec5ec	-0.05048172
8	0xbd557f23	-0.0521232
9	0xbe708dc6	-0.23491582
10	0x3cb5a848	0.02217497
11	0xbd45b70b	-0.048270267
12	0xbe534aad	-0.20633955
13	0xbcbad703	-0.022807604
14	0xbdca0ad8	-0.098653495
15	0xbd4a5a22	-0.049402364
16	0x3e90e6f0	0.2830119
17	0x3da4e03d	0.080505826
18	0xbcfe1903	-0.031017786
19	0x3e62144a	0.22078052
20	0xbe0c0681	-0.13674356

fc3.weight f4 [37, 21]
0	0xbc25213c	-0.0100787245
1	0x3dfd43e9	0.123664685
2	0xbe79e7d4	-0.24404842
3	0xbd3e7065	-0.046493907
4	0x3d444c93	0.04792459
5	0xbb8ef762	-0.0043629864
6	0xbba03af3	-0.00488984
7	0x3ccf7632	0.025324915
8	0x3bbe3122	0.005804197
9	0xbcb967d6	-0.02263252
10	0x3bc37eca	0.005966042
11	0x3c0970e9	0.008388736
12	0xbd3bcc3a	-0.045849063
13	0xbea26b27	-0.31722376
14	0x3dd5a98f	0.10432731
15	0x3c381541	0.011235536
16	0x38783866	5.9180333e-05
17	0xbca46ad5	-0.020070473
18	0xbdb975ec	-0.09055695
19	0xbcc6a0f9	-0.02424668
20	0x3c66a446	0.014077252
21	0xbe9ccf97	-0.30627128
22	0xbeaedee3	-0.34154424
23	0xbd877d49	-0.06615693
24	0x3e0da6f6	0.13833222
25	0x3e8dd398	0.27700496
26	0x3ea07080	0.3133583
27	0xbe2c7534	-0.16841584
28	0x3d6e6612	0.05820281
29	0x3eb99b50	0.36251307
30	0x3eae4525	0.34037128
31	0x3cee5ab3	0.029095983
32	0xbdfbbc75	-0.12291805
33	0x3e1c65a4	0.15273148
34	0xbe71abcb	-0.2360069
35	0xbea8831e	-0.32912534
36	0x3e6ab8d3	0.22922067
37	0x3e1b632c	0.1517455
38	0x3e614cbc	0.22001928
39	0xbdb7da04	-0.0897713
40	0xbed45dc2	-0.41477782
41	0x3eb9c10c	0.36280096
42	0x3e23ee47	0.16008864
43	0xbe22d3b7	-0.15901075
44	0x3e288fbd	0.16461082
45	0xbe013b58	-0.12620294
46	0x3dd2af6f	0.102873676
47	0xbd30b87c	-0.043144688
48	0x3e8fac9d	0.2806138
49	0x3d1bc931	0.038033668
50	0x3d4626d2	0.048376866
51	0x3c7a5ea9	0.015281358
52	0x3c36661f	0.011132746
53	0x3d76be46	0.060240053
54	0xbc57c4a9	-0.013169446
55	0x3d19d473	0.037556123
56	0x3e2b24bb	0.1671323
57	0x3c868a07	0.016423238
58	0x37b6aea4	2.1777414e-05
59	0xbd47e931	-0.048806373
60	0x3e562b0c	0.20914859
61	0xbd99772e	-0.07493435
62	0xbd726a35	-0.05918332
63	0xbc44d736	-0.012014201
64	0xbdfed767	-0.124434285
65	0x3ee61edf	0.44945428
66	0x3d471fe5	0.0486144
67	0xbd8e616d	-0.06952176
68	0x3d2cf7d7	0.042228546
69	0x3c6f73cc	0.0146150105
70	0x3d41bb27	0.047297623
71	0x3d751592	0.059835024
72	0x3d034cb2	0.032055564
73	0xbd3ac4e3	-0.045597922
74	0xbcc4df7e	-0.02403235
75	0xbdb3ceb7	-0.08779662
76	0x3e507419	0.20356788
77	0x3d4e0fe1	0.050308112
78	0x3ce9f636	0.028559785
79	0xb972b254	-0.00023145351
80	0xbdc39f4e	-0.09551869
81	0x3da9c7ee	0.08290087
82	0x3d378814	0.04480751
83	0xbd2ca16f	-0.042146143
84	0x3e245bec	0.1605069
85	0x3c9ffe5f	0.019530473
86	0xbe2e28be	-0.1700773
87	0xbe2c0e6f	-0.16802381
88	0x3e273fa4	0.1633287
89	0xbe170ce7	-0.14751016
90	0xba0afaa7	-0.00053016323
91	0x3d2cb510	0.042164862
92	0x3df14320	0.11780381
93	0x3d5442c1	0.051821474
94	0x3d01d442	0.031696565
95	0x3d9871d5	0.07443587
96	0x3d2b41c3	0.041810762
97	0x3d93c58d	0.07215414
98	0xbdf32dc2	-0.11873962
99	0xbe092f60	-0.13396978
100	0xb9d6c5a7	-0.00040964523
101	0xbc9ae9a0	-0.01891023
102	0xbdec1cf1	-0.11528958
103	0xbcbbfca4	-0.022947617
104	0xbdf5ce7b	-0.12002274
105	0xbd74f476	-0.05980345
106	0x3d2d1af1	0.04226202
107	0xbdc54d84	-0.096339256
108	0x3dd53d1e	0.10412048
109	0xbdcdc854	-0.10047975
110	0x3dc6c765	0.09706
111	0xbe09dbf0	-0.13462806
112	0xbbd9b1e4	-0.0066435207
113	0xbd679944	-0.05654265
114	0xbd16490f	-0.036690768
115	0xbc2adc95	-0.010428567
116	0xbd9bc516	-0.076059505
117	0xbd9cee80	-0.07662678
118	0xbd2e27af	-0.042518314
119	0x3a331c45	0.00068325206
120	0x3d4178ad	0.047234226
121	0x3803826f	3.135431e-05
122	0x3c90f3af	0.017694322
123	0xbe88c5fc	-0.2671355
124	0x3d67a177	0.05655047
125	0x3d88ce21	0.06679941
126	0x3d0c309d	0.03422605
127	0xbd32cbf9	-0.043651555
128	0x3d9dcd35	0.07705156
129	0xbdc2326e	-0.09482275
130	0x3d903753	0.07041802
131	0x3c66ed64	0.014094684
132	0x3e61376f	0.21993802
133	0x3d695dfa	0.05697439
134	0x3cd62077	0.026138527
135	0xbc90781a	-0.017635394
136	0x3c1700c3	0.00921649
137	0x3c6dcec7	0.014514632
138	0xbdcb5f0a	-0.09930237
139	0xbe18eac7	-0.1493331
140	0x3db5dc81	0.088799484
141	0x3d42d9e4	0.047571078
142	0xb8918dba	-6.9405374e-05
143	0xbd593347	-0.053027418
144	0x3d89d8c1	0.06730796
145	0xbd3ed8d0	-0.046593487
146	0xbcadc3e9	-0.021211581
147	0x3e8551ba	0.26038915
148	0x3e81e8a5	0.25372806
149	0xbc42f27a	-0.011898631
150	0x3d7f53b7	0.062335696
151	0xbcf8b385	-0.03035904
152	0xbddfe9a1	-0.10933233
153	0xbe318dd2	-0.17339256
154	0xbb94d3f9	-0.0045418707
155	0x3de34177	0.11096471
156	0x3da81511	0.08207143
157	0xbd50f415	-0.051014025
158	0x3d0c84de	0.0343064
159	0x3dd5c8dd	0.10438702
160	0xbd8e6ffd	-0.06954954
161	0xbddfbee7	-0.109250836
162	0xbe084c50	-0.13310361
163	0xba11aaf8	-0.00055567874
164	0xbd662ba2	-0.056193955
165	0x3cada325	0.021195957
166	0x3d91cfbf	0.071197025
167	0xbd8bd1f3	-0.06827154
168	0xbdf1eb0a	-0.11812408
169	0x3d071851	0.032982174
170	0xbe00b19e	-0.12567756
171	0xbb744520	-0.0037272647
172	0x3b1e676f	0.0024170538
173	0xbc233ef6	-0.0099637415
174	0xbda05ce5	-0.07830218
175	0x3d0ea63a	0.034826495
176	0x3d39df36	0.045378886
177	0x3c291cd7	0.010321817
178	0xbc96933e	-0.018380757
179	0xb9c6349c	-0.000378047
180	0xbd447ff6	-0.047973596
181	0xbd5a4879	-0.05329177
182	0x3a8c39cd	0.0010698378
183	0xbc798122	-0.015228542
184	0xb94d5172	-0.00019580664
185	0xbd6074ba	-0.05479882
186	0xbe2bfe34	-0.1679619
187	0x3c88be58	0.016692325
188	0xbc81de07	-0.015852941
189	0xbe6ba846	-0.2301341
190	0xbcbb440a	-0.022859592
191	0xbe20c36f	-0.15699552
192	0x3d696f80	0.0569911
193	0xbd49ca9f	-0.0492655
194	0x3d61f634	0.05516644
195	0x3e5f3da0	0.21800852
196	0xbd2cde43	-0.042204153
197	0xbdb5a736	-0.088697836
198	0xbd231bd7	-0.039821472
199	0xbc176321	-0.009239943
200	0xbb10ef9f	-0.0022115482
201	0x3ce19c1d	0.02754026
202	0xbcec0f40	-0.028815866
203	0x3c1e0cdc	0.009646621
204	0x3dbda44e	0.09259854
205	0x3a885c9c	0.0010403576
206	0x3ca764f8	0.020433888
207	0x3dc6b040	0.09701586
208	0xbd4722a3	-0.048617017
209	0x3db87b39	0.09007878
210	0xbe31c23c	-0.17359251
211	0xbc716e5e	-0.014735786
212	0xbcde0eb5	-0.027106622
213	0x3ab8b763	0.001409274
214	0xbc46f89b	-0.012144233
215	0x3c8ea696	0.017413419
216	0x3dc5e09b	0.09661981
217	0x3d1be872	0.038063474
218	0x3d08ea49	0.033426557
219	0x3b9c34eb	0.0047670505
220	0xbce62f76	-0.028098803
221	0x3b574ded	0.0032852844
222	0xbd85ca9d	-0.06532786
223	0x3d615db8	0.055021018
224	0x3d59941a	0.053119756
225	0x3d0f4527	0.03497806
226	0x3a18308c	0.0005805574
227	0xbd9dcd49	-0.07705171
228	0xbd8a5ebc	-0.067563504
229	0xbc0514a0	-0.008122593
230	0xbba02eb4	-0.00488838
231	0xbdb5bc3f	-0.08873796
232	0x3e26262d	0.162255
233	0xbe877533	-0.26456603
234	0xbdc20bb7	-0.09474891
235	0x3db4b488	0.08823496
236	0xbd3e3b88	-0.046443492
237	0xbdae9bf6	-0.08525841
238	0x3da21e3f	0.07915925
239	0x3db8bed5	0.09020773
240	0x3ba6e97c	0.0050937515
241	0xbc10f05f	-0.008846371
242	0x3cd4d9ae	0.025982704
243	0xbdc41b6a	-0.09575541
244	0xbeb312b7	-0.34975216
245	0x3dbfa9d7	0.09358566
246	0xbcfe7d02	-0.031065468
247	0xba496827	-0.00076830614
248	0xbdbd5e1a	-0.09246464
249	0xbe442ccd	-0.19157715
250	0xbc37892a	-0.011202136
251	0xbd2f4be4	-0.042796984
252	0x3dbb0588	0.091319144
253	0xbe9ad94c	-0.3024391
254	0x3eae1a79	0.34004572
255	0x3e047b50	0.12937665

fc3.bias f4 [37]
0	0x3de1abfa	0.1101913
1	0xbdd76ccd	-0.10518799
2	0x3df7720f	0.12082302
3	0x3bb19a41	0.00542
4	0x3cc06842	0.023487214
5	0xbc8b330f	-0.01699212
6	0x3d2ac34f	0.041690167
7	0xbd2169cb	-0.039407533
8	0xbc361a81	-0.011114717
9	0x3d88bde1	0.066768415
10	0x3da91904	0.082567245
11	0x3c984664	0.018588252
12	0xbdc9d822	-0.09855677
13	0xbc7e1d0b	-0.015509854
14	0xbcaaa30d	-0.020829702
15	0xbda7160e	-0.081585035
16	0x3e1c05c4	0.15236574
17	0xbcdbfd18	-0.026854083
18	0x3d031ce2	0.032009967
19	0xbe180a24	-0.14847618
20	0x3cb5e835	0.022205452
21	0x3e09d13c	0.13458723
22	0xbdb2df05	-0.08733944
23	0xbccc9bc8	-0.024976626
24	0x3d6e31b4	0.05815287
25	0x3e33059c	0.17482609
26	0xbd3edbe6	-0.04659643
27	0x3da25c5f	0.07927775
28	0xbd3ce816	-0.046119772
29	0x3de9f2c7	0.11423259
30	0xbd6a8066	-0.057251357
31	0xbde5bfee	-0.11218248
32	0xbddcd6ab	-0.10783132
33	0xbe1e2b1e	-0.15446135
34	0xbdeedd2f	-0.11663281
35	0x3ddd4221	0.10803629
36	0x3dc18fad	0.09451232
