CaseModels/03 37-Bus/_genModel_Mvar.pth (torch, 31582 bytes, 7 tensors)

bias f4 [37]
000000 2f 3b fb bd 72 81 d3 bd 39 bf bc 3d fc 68 cb 3d
       -0.12267148 -0.10327424 0.0921616 0.099321336
000010 43 a4 98 3d 88 9e 5b 3d a5 a0 43 bd 4c fe 82 3d
       0.074532054 0.053617984 -0.047760624 0.063961595
000020 7a 91 46 bd 03 1c 2c 3d 14 e9 97 3c 65 8e 92 bd
       -0.04847858 0.0420189 0.018543757 -0.07156066
000030 2d f4 3e bd 23 0c 03 3c c4 42 98 bd 80 0f 17 3d
       -0.046619583 0.007998499 -0.074346095 0.036880016
000040 23 91 a7 3d 5c fd 84 3d 39 6b 8d 3b 46 4b a4 bd
       0.081819795 0.06493637 0.0043157605 -0.0802217
000050 6e 15 97 bd 7b 45 51 bb e2 86 78 bc 96 98 a3 3d
       -0.07377134 -0.0031932283 -0.015168877 0.07988088
000060 9b b4 7f 3d f4 a7 a3 bd 75 56 2c be 46 fb d5 bd
       0.0624281 -0.07991019 -0.16829856 -0.10448317
000070 03 4b 4f 3d 9e da a6 bd ae f0 d9 3d 62 40 0b bd
       0.050608646 -0.08147167 0.10641609 -0.033996947
000080 60 6a a7 bc 96 24 ed 3b 25 45 a4 bd 1a 56 9a bc
       -0.020436466 0.0072370274 -0.08021001 -0.018839885
000090 f1 b7 c0 3d
       0.09410084

fc1.weight f4 [42, 128]
000000 bc 7b 46 be 68 53 c8 3d 84 e1 a1 bd bd df 04 3e
       -0.19383138 0.097815335 -0.07904342 0.12975974
000010 2b 10 23 3c 14 c3 e4 3d dd ee 22 bd c2 46 39 3d
       0.009952585 0.11170021 -0.03977858 0.045233496
000020 75 fa 5f bd fb e6 b4 bd 8a 35 06 3d 4f 0a 96 bc
       -0.054682214 -0.088331185 0.032765903 -0.018315462
000030 e4 65 de 3c 82 12 d5 bd 7e a4 73 3d ef 69 09 be
       0.027148195 -0.10403921 0.059483044 -0.13419317
000040 53 35 2f be 40 52 10 3b 8c 13 2e 3d 23 24 94 bd
       -0.17110185 0.002202168 0.04249911 -0.07233455
000050 26 0e 5a 3e 11 5d 8e be 73 8b 71 be fb d9 10 be
       0.2129446 -0.2780538 -0.23588352 -0.14145653
000060 54 f6 44 bd d5 35 83 bd f0 d0 14 be 7c e5 7f bd
       -0.04808648 -0.06406752 -0.14532828 -0.062474713
000070 04 65 a2 3c 04 3b 85 bd 06 82 0e bd 00 ac 91 3b
       0.019823559 -0.06505397 -0.03479197 0.004445553
000080 20 18 ac bd 6c 4d a5 bd 06 e6 3a 3d 0a f6 78 bd
       -0.08403039 -0.08071408 0.045629524 -0.060781516
000090 b2 e5 28 3d 18 74 51 bd 83 93 a1 3d 40 0d 98 3b
       0.04123468 -0.051136106 0.07889464 0.0046402514
0000a0 17 78 5e bd ee 64 38 3d 95 62 10 bd 48 de 8c bd
       -0.054313745 0.04501813 -0.035250265 -0.06878334
0000b0 00 a3 ef 3b 1a 7d 38 3d 1f 5f 84 bd 61 df 88 3d
       0.0073131323 0.04504118 -0.064634554 0.06683231
0000c0 93 ba 44 bd 6b 0e 37 bd c7 24 8b 3d 00 66 ff bb
       -0.048029494 -0.044691484 0.06794124 -0.007794142
0000d0 b6 c5 e6 bc b4 34 f3 3c 2f 03 24 bd 26 cd 39 3c
       -0.028170448 0.029688217 -0.0400421 0.011340415
0000e0 60 cc 07 bd 4c aa 5c bd 56 c1 7d bd a2 5d f3 bc
       -0.03315389 -0.053873345 -0.061951958 -0.029707734
0000f0 ea 5d 8d bd ca b3 03 bd 12 2d 78 3d 68 57 51 bc
       -0.06902678 -0.032153882 0.060589857 -0.012777187
000100 f2 ef 0a 3d 48 7a 96 bd 80 3c 5c 3b 91 19 96 3d
       0.033920236 -0.07347542 0.0033605397 0.07329095
000110 e0 09 58 bc 01 00 02 bd e1 a0 54 bd de 63 3c 3d
       -0.013185948 -0.031738285 -0.05191124 0.04599368
000120 96 80 63 3d d9 2f 2f bd e4 47 da 3c be eb ea bc
       0.05554255 -0.04277024 0.026645608 -0.028676864
000130 bf aa b9 bc ac 29 a3 bd 8e 91 68 3d a1 ee 25 bd
       -0.022664426 -0.07966933 0.056779437 -0.040510777
000140 b1 a2 c0 bd 1a fe 75 bd c7 77 9d 3d 40 85 b4 ba
       -0.09406031 -0.060056783 0.07688861 -0.0013772622
000150 5e ef 7a bd 1c 9b 96 3c f9 1e 0c 3d 3f 1f 5b bd
       -0.061263435 0.018384509 0.034209225 -0.053496595
000160 87 dd 97 bd 0b 98 0a 3d a4 05 ec 3c f1 4f 9f 3d
       -0.074153 0.033836406 0.028811283 0.077789195
000170 44 13 5f bc ac d2 95 bc 96 fa 76 3d 10 e1 14 3c
       -0.013615433 -0.018288933 0.06029757 0.009086862
000180 a9 e0 8d bd 19 19 9b 3d 80 87 72 ba ee 54 25 3d
       -0.06927616 0.075731464 -0.00092517585 0.0403642
000190 bc 74 0e bd 03 00 8f 3d c0 02 90 3a 94 72 a0 3c
       -0.034779295 0.06982424 0.0010987148 0.019585885
0001a0 76 aa 49 3d 20 b0 f4 bb 80 1b 77 bb fa 27 5e 3d
       0.04923483 -0.007467285 -0.00377056 0.054237343
0001b0 22 03 5f 3d a3 6c 92 bd 27 3a 8c bd 34 32 e3 bc
       0.054446347 -0.07149627 -0.06847029 -0.0277339
0001c0 08 19 fa 3c 3b 67 d9 bd 86 15 95 bd e0 fa 53 bb
       0.030529514 -0.10615393 -0.07279496 -0.0032345578
0001d0 dd 64 ab bd d3 82 3b bd c0 1f 47 bd 40 46 89 bc
       -0.083688475 -0.04577906 -0.048614264 -0.01675713
0001e0 e0 93 4b 3c a1 af 0f bd 90 ef 88 bd dc 30 f3 bd
       0.012425393 -0.035079602 -0.06686318 -0.118745536
0001f0 d0 4f 2e bd 54 78 e7 bc 75 b0 b9 bd a9 e1 37 bd
       -0.042556584 -0.02825562 -0.0906686 -0.04489294
000200 0d d3 16 3e 8d 55 24 3e 93 fe 0b 3e b1 d0 23 3e
       0.14728947 0.1604826 0.13671331 0.15997578
000210 be c7 38 3e e0 3c 4f 3e 7d 8a 3a 3e 40 ee 4f 3e
       0.18044946 0.20238066 0.18216892 0.20305729
000220 06 0b 4f 3e 40 21 33 3e 18 42 44 3e 59 53 80 3e
       0.20219049 0.17493153 0.19165838 0.2506359
000230 99 21 5b 3e 7a ea 6a 3e aa 2c b9 3d fa 49 a8 3d
       0.21399535 0.22941008 0.09041722 0.08217235
000240 ca 20 48 3e 22 fd 0d 3c 6e c9 21 3e b1 3e 1f 3e
       0.19543758 0.008666309 0.15799496 0.15551259
000250 db c2 d0 3d e3 9c 03 3d 60 e7 99 3d 4a 5a a8 3d
       0.10193416 0.03213204 0.075148344 0.08220346
000260 18 64 f6 3d a9 97 ce 3d 2b dc 0a 3e 4b 44 52 bd
       0.1203081 0.10087521 0.1356055 -0.05133466
000270 02 ef 63 3d ff 9f 26 bd 4d 88 98 3d 82 0f 8a bd
       0.055647857 -0.040679928 0.07447872 -0.06741239
000280 8a 56 0b 3d 4f 37 a6 bd 57 2b b3 3d 21 13 8a bd
       0.034018077 -0.08116018 0.08748501 -0.0674193
000290 2c 28 d2 bc 4c 32 c5 bc 1b b4 ad bd 56 1b 6a 3d
       -0.025653921 -0.024071835 -0.08481618 0.057154976
0002a0 ce 49 4d 3d 6a 2b 25 3d 36 ca 1c 3d 7a 53 1b 3d
       0.050119214 0.040324606 0.03827878 0.037921406
0002b0 f2 a4 75 3d d5 01 83 bd c7 07 9b bd 6b c9 0a bd
       0.059971757 -0.06396834 -0.07569843 -0.033883493
0002c0 a4 bc ed 3c 2c 87 be 3c 36 1d 6b 3d 38 cb 66 3c
       0.029020615 0.023257814 0.057400905 0.014086537
0002d0 d6 b5 4d 3d 12 ba 43 3d 4c a8 80 3c af 7c 95 be
       0.05022224 0.047784872 0.01570525 -0.2919669
0002e0 3e a2 8e bd 4a e5 19 3d e0 d3 f2 3c e7 4e 8d bd
       -0.06964539 0.037572183 0.029642045 -0.06899815
0002f0 f4 f4 99 bc e6 4a 04 3d 00 02 ae 3a b4 a7 a2 3c
       -0.01879356 0.03229799 0.0013275743 0.019855358
000300 14 b5 8f bd 43 a0 a2 3d d2 0e 55 3d 1e f0 f2 bc
       -0.0701696 0.07940724 0.052016087 -0.029655512
000310 25 bb 43 bd c2 d2 37 3d d4 43 f5 3c 78 53 47 bc
       -0.047785897 0.04487873 0.02993957 -0.012165897
000320 a6 7e 7f bd ba 2d 26 3d 62 2c 66 3d 1b 59 84 3d
       -0.06237664 0.040570952 0.05619467 0.06462308
000330 80 49 b2 be 76 f9 15 3d 60 9a e6 bb 7c 6b b3 be
       -0.348217 0.036614858 -0.007037446 -0.35042942
000340 d0 42 a2 be 7f 1f 99 be 17 74 41 bd 35 52 a0 3d
       -0.316916 -0.29906842 -0.047229853 0.0782818
000350 40 a4 7a 3b 67 dd 95 3d 15 68 bc be 95 a4 63 be
       0.0038244873 0.0731762 -0.36798158 -0.22230752
000360 27 a0 ba be bb d2 b3 be c9 f3 c4 be 8a 70 47 3d
       -0.36450312 -0.35121712 -0.38467243 0.04869131
000370 69 17 76 be 8f 57 9c bd f2 67 85 bd df ad 5b bd
       -0.24032368 -0.07633888 -0.065139666 -0.053632613
000380 f0 9b b8 3b db c1 93 3d c5 a1 80 bd d7 7a 9e 3d
       0.0056338236 0.07214709 -0.06280855 0.077382736
000390 c0 6e fc bc 70 74 c9 bc 5f e7 89 bd 33 ed 5f bd
       -0.030814528 -0.024591655 -0.06733584 -0.05466957
0003a0 b0 5d c2 3b 1c fd 02 3d b9 95 8f 3d ff 6a ad 3d
       0.0059315786 0.031979665 0.07010979 0.084676735
0003b0 f1 70 95 3d 78 db 8a bd 00 c4 b8 bc fa e7 2f 3d
       0.072969325 -0.067801416 -0.022554398 0.04294584
0003c0 f3 93 89 bd f5 32 94 be e0 01 f6 3c 38 2f 70 bc
       -0.06717672 -0.28945127 0.030030191 -0.014659695
0003d0 1c cb 9d be 07 36 65 3e ac a4 be 3e 26 8f 59 3d
       -0.30819023 0.22383891 0.3723501 0.053115033
0003e0 7e 80 0d 3d d8 9c b5 3c 6b 11 8f 3d 22 1f 7b be
       0.034546368 0.022169515 0.06985744 -0.24523595
0003f0 71 0c 90 3e fd 5a af be 77 e8 b5 be d0 f8 b8 be
       0.28134492 -0.34249106 -0.3552892 -0.3612733

fc1.bias f4 [42]
000000 5f 35 9d bc a8 5f c8 be 17 58 bb 3c 17 9f 86 bd
       -0.019190488 -0.3913548 0.022869153 -0.06573313
000010 a2 a5 e6 bb 48 5d 0f 3c 4b e2 cf bd a3 86 1d bd
       -0.007038788 0.008750267 -0.10150584 -0.038458478
000020 c1 21 18 bd f0 e1 36 be 9f 90 ea bc 17 97 a6 3c
       -0.037141565 -0.17859626 -0.028633414 0.020335717
000030 75 15 8d bd 98 e3 c4 bd 8e c0 09 3e 7c 23 23 3e
       -0.06888858 -0.096137226 0.1345236 0.15931505
000040 91 73 b5 b9 f6 7f 20 3d b0 4a 3d bd f7 b0 59 3c
       -0.00034609114 0.039184533 -0.046213806 0.013286821
000050 19 05 19 3e c4 66 3e bd b9 2e 1e bd 54 dd 19 be
       0.14943351 -0.046484724 -0.038618777 -0.15025836
000060 1c 96 a4 3d 63 ac 95 bd 23 b9 35 3c 15 56 ca bd
       0.080364436 -0.07308271 0.011091503 -0.098797
000070 00 fd 74 bd a0 9b b6 bd 42 81 7e bd e7 27 30 bd
       -0.059811592 -0.08916402 -0.06213499 -0.043006804
000080 47 77 01 3e 66 ab 85 bd 6c a2 8d 3c 40 f4 31 bd
       0.12643157 -0.06526832 0.017289363 -0.043445826
000090 70 9b cc bd b4 6d e9 bc 32 db ad bd 6e ea 9a bd
       -0.09990585 -0.028494693 -0.08489074 -0.07564245
0000a0 cf 74 2c be 27 f4 26 be
       -0.16841434 -0.16304074

fc2.weight f4 [21, 42]
000000 01 21 6b bc 34 76 b2 bb d0 9e d2 bc f1 46 a2 3d
       -0.01435113 -0.00544622 -0.025710493 0.07923687
000010 e5 62 ca 3d 64 44 35 3e ed 94 2b 3e 18 f5 1f 3d
       0.09882144 0.1770187 0.1675603 0.0390521
000020 6f d9 68 be 71 22 bf 3d f1 72 80 bd d3 9d bb 3b
       -0.22739194 0.09332741 -0.06271923 0.005725601
000030 45 4b c4 bd 2a c0 3c 3e 01 c2 cb 3d 65 6b aa 3d
       -0.09584669 0.1843268 0.09949113 0.08321265
000040 26 91 76 3c 7d 7a 4d ba 92 b5 88 3d 14 60 67 3d
       0.0150492545 -0.00078383816 0.06675257 0.05648811
000050 23 02 8d be a1 8f 50 3e c1 4b fb 3d 14 a6 58 3d
       -0.27540693 0.2036729 0.12270308 0.05289276
000060 28 4f 0d be 88 5c ae 3e 9d 40 6e bd 1b f4 a0 3d
       -0.13799727 0.3405497 -0.05816709 0.078590594
000070 0b 93 55 3d ad c3 e0 3c 1a 8e 30 3d 45 6b 60 bd
       0.052142184 0.027437055 0.04310427 -0.0547898
000080 f4 6e 18 3d 44 a9 0e 3e dc cd c9 bd 76 4b 20 3d
       0.03721519 0.13931757 -0.09853718 0.039134465
000090 30 fd 9c bd bc c1 13 b9 af d1 68 3d 8b 1c 4c 3d
       -0.07665479 -0.00014091184 0.056840595 0.04983191
0000a0 5b db 00 bd eb e0 ee 3d d2 b0 09 bd 4f 58 4e be
       -0.031459194 0.116639934 -0.033615895 -0.20150875
0000b0 b0 77 71 be 0b 3f 14 be d4 23 ce be 4c 19 68 bb
       -0.23580813 -0.14477174 -0.4026171 -0.0035415469
0000c0 89 4e 92 bd eb d7 94 3d 19 47 cc bc 24 f4 15 bf
       -0.07143886 0.072677456 -0.024936246 -0.58575654
0000d0 36 50 72 be b5 1c 56 bd 7f 0f 20 bf 29 dc b0 3c
       -0.2366341 -0.05227347 -0.62523645 0.021589356
0000e0 d6 da 46 bb aa 88 3f 3d 89 0d fd be 4c 1f 4d be
       -0.0030342839 0.046761192 -0.4942439 -0.2003147
0000f0 95 05 0e 3f 8b fd 5c be 5c 4f 56 3d 24 99 4b 3d
       0.5547727 -0.21581094 0.052321777 0.049706593
000100 ef d3 76 3f fa 8a 1f be 1b 90 6f be d0 0f 6c 3e
       0.96417135 -0.15580359 -0.23394816 0.23052907
000110 06 59 14 3c 5e c1 0e 3e 4e 86 f2 3d 9f ba 2f be
       0.009054428 0.13940951 0.11842023 -0.17161034
000120 9a 4b 91 be a4 8b 64 bd 32 43 9f bd c7 24 f6 bd
       -0.28377992 -0.055797234 -0.07776488 -0.120187335
000130 ca 03 9d 3e f0 e1 6e be b3 19 fa be 9d 44 24 3e
       0.30666953 -0.23328376 -0.48847732 0.16041799
000140 1e 29 a4 bc 2a 5f 48 3b 5c a3 3c bc f3 bd 58 3e
       -0.020039137 0.00305743 -0.011513557 0.2116621
000150 dd fb 12 be 83 93 c8 3e fb bb 70 bd 08 a3 b2 bd
       -0.1435389 0.39175043 -0.058773022 -0.08722502
000160 1f 31 6b 3d f3 c4 74 be 65 be 3b be 9e e0 5c bd
       0.057419892 -0.23903255 -0.18334348 -0.05392515
000170 e3 50 14 bd 93 e4 64 3d 0d b9 de 3d 47 65 38 3c
       -0.036209952 0.055882048 0.108751394 0.011254615
000180 6c d7 48 3c e6 34 6a bd 26 9a 80 3e aa f3 a6 3e
       0.012258392 -0.057179354 0.25117606 0.32607776
000190 47 7c 2d bd b9 14 a8 3e b6 7b 7f 3d c0 04 78 3e
       -0.04235485 0.3282831 0.06237384 0.24220562
0001a0 a2 91 ac 3e cc c7 3a be 98 99 da bc 49 29 ec bc
       0.3370486 -0.18240279 -0.026684567 -0.02882828
0001b0 af 19 82 3d fc 2b eb bd eb c0 8c 3d af c4 05 3a
       0.06352555 -0.11482999 0.06872734 0.00051028555
0001c0 c3 80 5b be 08 20 72 bb af b0 d9 3d e7 7c 1e bc
       -0.21435837 -0.0036945362 0.10629403 -0.009673334
0001d0 aa 01 e6 bc 18 df 30 bd 61 c2 36 bc 09 e6 cf 3d
       -0.028076965 -0.04318151 -0.011154742 0.101512976
0001e0 50 c1 c1 3b a4 6f ec 3c 29 30 2f bd 61 d0 84 be
       0.005912937 0.028861828 -0.04277054 -0.2594023
0001f0 2d 22 3b 3e a6 18 83 3c cd 11 30 be de b2 90 be
       0.18274756 0.016002964 -0.1719429 -0.28261465
000200 25 f1 dc bd c3 59 f1 bd 96 92 59 3e d0 b2 1e 3d
       -0.10788182 -0.11784699 0.21247324 0.038744748
000210 2a 5d 21 3e 27 d3 01 be f2 cc 4c be 43 b6 1d 3c
       0.15758196 -0.12678204 -0.20000055 0.009625974
000220 68 4c 2b 3e ed d7 4a 3d 5f bc 8e 3d df 28 01 be
       0.16728365 0.04952233 0.06969523 -0.12613247
000230 ac 7a 85 be 8e d4 fe bc 20 90 09 3d 1d cb 51 3e
       -0.26070154 -0.031107213 0.033584714 0.20487638
000240 89 83 64 3d 3a 25 8e 3e 41 90 a8 3e 54 af b4 3d
       0.055789504 0.27762777 0.32922557 0.08822504
000250 b3 c1 ec bd c0 90 97 bd 44 ea c0 3e f8 8d 48 3e
       -0.11560383 -0.07400656 0.3767873 0.19585407
000260 e7 86 96 3d f2 d2 06 3e 87 c9 32 3d 19 fc db bd
       0.07349949 0.13166407 0.043649223 -0.10741443
000270 47 31 9d 3d 44 5a 86 be b1 63 de bd 10 b5 27 3e
       0.076754145 -0.26240742 -0.108588584 0.16377664
000280 25 d6 4a be 1d c9 94 bc 8c d9 7f 3d 17 ef 18 be
       -0.19808252 -0.018162305 0.06246333 -0.14934956
000290 6d 64 89 3d f6 bf 6b bd 5f b6 7e be c3 05 b5 bc
       0.06708608 -0.057556115 -0.24874257 -0.022097474
0002a0 97 cf ed 3c 2a 0d 4e 3d d2 af 90 be af 9e 24 be
       0.02902965 0.050305523 -0.2825914 -0.16076158
0002b0 bb c8 2c 3e b8 3c e0 bd 1c 39 4a bd 7d 30 b7 bd
       0.16873448 -0.10949081 -0.04937087 -0.08944795
0002c0 26 8a 82 bd 9b 43 10 bf 6a 1c 8f 3d 42 fc 66 be
       -0.06374006 -0.5635316 0.069878414 -0.22557166
0002d0 85 3a 0e bf 75 ca 22 be c7 26 58 bd 74 0f 90 3d
       -0.55558044 -0.15897544 -0.052771356 0.070341974
0002e0 8b c0 68 3e 86 48 ab 3c a5 c2 10 3f ef 53 4a be
       0.227297 0.020908605 0.56547004 -0.1975858
0002f0 9c d2 a8 bd e1 9a dd bd c8 1a a0 3f 58 45 9b bd
       -0.082432956 -0.108205564 1.2508173 -0.07581586
000300 cb 0b 3e be 58 e7 fd bd 71 14 89 3a e4 0d b6 be
       -0.18559186 -0.12397641 0.0010458363 -0.35557473
000310 b0 4d b6 3d 5a 3e 8a 3b 71 62 1c be bb a6 3e be
       0.089015365 0.0042188587 -0.15271927 -0.1861829
000320 6e 71 61 3e cb 65 07 be 73 91 b0 3b 62 66 a1 3e
       0.22015926 -0.13222425 0.0053884326 0.31523424
000330 5d 93 08 bf c0 9b 83 3e 88 17 9c 3b 60 66 48 be
       -0.5334986 0.25704765 0.0047635473 -0.19570303
000340 88 de 41 3e 27 4f 05 3f 64 73 b9 bd a0 e9 20 bd
       0.18932545 0.520739 -0.09055212 -0.039285302
000350 f4 1e 67 bd e8 62 5d 3c 3c 73 e1 3d 37 bb 1f 3e
       -0.056426004 0.013512351 0.11008307 0.1559876
000360 42 5b 1c 3e 83 9c fa bc ff 8d 1c be 7f 88 0b 3d
       0.15269187 -0.030592209 -0.15288542 0.03406572
000370 76 65 f4 3d 97 95 ad bd 27 6f 5b 3c ef 7a 5d bd
       0.11933415 -0.084757976 0.0133932 -0.054072317
000380 20 7a b3 3d af 6c cc bd 51 ad 43 3e 7a 2f 73 bd
       0.08763528 -0.09981667 0.19109084 -0.05937145
000390 3d 7b ef 3d 79 87 00 3e f7 b9 a2 bd 84 77 bc 3e
       0.11693428 0.12551679 -0.07945626 0.36809933
0003a0 24 12 b0 3d 49 e4 2b 3c 6f f8 b3 bc 33 9a 24 be
       0.0859721 0.010491439 -0.021969048 -0.16074447
0003b0 4b 8e 41 3e d4 52 96 bc b6 0f 02 be fc ad 05 3c
       0.18901937 -0.018350042 -0.12701306 0.008159157
0003c0 c7 de e6 3d 3b f0 b9 bd a8 ce a5 3c f2 12 f6 3d
       0.1127296 -0.090790235 0.020240143 0.12015332
0003d0 11 56 34 3d 48 95 ba 3c 73 9c f6 bc 26 b0 be bc
       0.04402739 0.022776261 -0.030103898 -0.023277353
0003e0 03 29 5a 3d a0 74 26 3d d0 d2 67 bd 5e 80 2c 3d
       0.053261768 0.040638566 -0.05659753 0.042114608
0003f0 d5 dd b0 3d ee 6f ca 3d 83 3a e3 3c f5 28 cd 3d
       0.08636061 0.0988463 0.027737861 0.100175776

fc2.bias f4 [21]
000000 30 55 4c 3b 91 e7 8c 3c 8a cd 63 3e 1c b7 5f 3c
       0.0031178705 0.017200263 0.22246376 0.0136544965
000010 30 81 0a 3d c2 7b 7d bd 41 6d b0 3b d8 92 4e be
       0.03381461 -0.061885603 0.005384118 -0.20173204
000020 5c 39 ac 3d 36 f1 90 3d 67 29 d5 3d 69 3b 67 3c
       0.08409378 0.07077257 0.104082875 0.014113286
000030 22 9e b4 3c ec fb 8c 3d d6 16 ac bd ef eb 0f 3e
       0.02204806 0.06883988 -0.08402793 0.14054845
000040 80 4e c3 bd 27 0f 4d be eb f5 a6 bd e4 60 f2 bc
       -0.09536457 -0.20025311 -0.08152374 -0.029587217
000050 56 8d c0 bd
       -0.09401958

fc3.weight f4 [37, 21]
000000 f0 7a ef bc 0b 26 72 3e 28 ea 59 b9 a9 7f c4 3b
       -0.029233426 0.23647325 -0.00020781963 0.0059966636
000010 82 db ad 3d c4 1b c6 3c eb 41 4f 3d 52 e4 12 ba
       0.084891334 0.024183162 0.050599974 -0.00056034804
000020 67 18 eb bc 38 46 f6 3b 72 e6 4c ba eb 6b fd bc
       -0.02869816 0.007515695 -0.00078163214 -0.030935248
000030 90 65 61 3d 2c 6d 83 3c d7 05 4b 3d 93 88 6a 3c
       0.0550285 0.016043268 0.049566116 0.014314788
000040 c5 64 6c bd fa a6 80 ba ab 12 90 3c b4 54 d6 3c
       -0.05771329 -0.0009815388 0.017587027 0.026163436
000050 4d 98 c6 bb 7c 0d 98 3e 86 58 16 be c7 a7 31 3e
       -0.006060636 0.29697788 -0.14682207 0.17349158
000060 5c f8 fe be 8e 53 fc bd 8b 1a 68 3e ae 7d 46 3e
       -0.49798858 -0.12320624 0.22666375 0.1938388
000070 d9 6e 29 3e 02 7f a7 bd b6 52 73 3d c3 11 49 3d
       0.16546191 -0.08178522 0.05940505 0.049089205
000080 f0 78 30 be 7a 8e cf bd 16 91 95 3e 0f 9a 27 be
       -0.17233634 -0.10134597 0.29212254 -0.16367362
000090 b7 b4 b2 bd 2c 82 78 3e 49 50 91 bb 51 32 4f 3b
       -0.08725875 0.24268407 -0.0044346196 0.0031615684
0000a0 0c 34 d6 3d 32 49 bf 3e 52 3c 1b bd d1 6d 15 3f
       0.10459146 0.3736053 -0.037899323 0.5837069
0000b0 34 20 94 3a c1 47 a0 bc a2 0d 13 3e b4 f4 12 bd
       0.0011301101 -0.019565465 0.1436067 -0.0358779
0000c0 6b 98 53 bd 00 f6 ee 3a 8b af 76 3e 41 48 3d 3c
       -0.05165903 0.0018231273 0.24090402 0.011552871
0000d0 7f 9a 78 3a 97 d1 a3 be 47 8e a3 bd f9 8a 87 3c
       0.0009483471 -0.31995842 -0.079861216 0.01654576
0000e0 6c 03 f2 3e 9f da 54 3c 6f 39 a7 3d 6c 95 d5 b9
       0.47268236 0.012991576 0.081652515 -0.00040737854
0000f0 d7 4c 45 3e 4e a0 04 bc 9f 87 be 3c d7 4d 0d bd
       0.19267593 -0.00809486 0.023258029 -0.034498062
000100 d5 00 3e 3d 09 43 11 39 77 45 a7 bc 8d 05 40 3d
       0.046387512 0.0001385325 -0.020418866 0.046880294
000110 ea 5d 19 3c 02 fa a3 3c 01 ab 2d 3a 7c f3 a1 3c
       0.00936077 0.020016674 0.0006624908 0.019769423
000120 94 5b b1 3c 7f 0c 80 3c 24 6b b7 bc 19 9d 4c bd
       0.021650113 0.015630959 -0.022389956 -0.049954507
000130 fe ce 24 3b 07 ea 80 bd ca 57 e7 3c 3f fd e4 bb
       0.002514779 -0.06294637 0.028240103 -0.006988197
000140 6b f6 f5 39 c6 30 99 3b e1 3e 0c 3d 1a 77 19 bc
       0.00046913637 0.0046750037 0.034239653 -0.009366775
000150 2e de 45 3d 66 47 10 3e 78 63 15 ba 5a 14 85 3d
       0.04830759 0.14089736 -0.0005698721 0.064980224
000160 78 2a 91 bd 4a ab 29 3c ae 33 98 3c 05 0d 2a bb
       -0.070881784 0.01035578 0.01857933 -0.0025947702
000170 57 7f 02 3e 48 bc 45 bd a3 80 2c bd 9c b4 57 be
       0.12743889 -0.048275262 -0.042114865 -0.21064991
000180 05 e9 8a 3e 85 ab 90 3c a2 df 8c 3e 19 42 5d bd
       0.27130905 0.017659912 0.27514368 -0.054018114
000190 96 9b 87 bd d2 cc ae 39 a7 a3 75 3d 35 d6 5c bd
       -0.066214725 0.0003334047 0.059970524 -0.05391522
0001a0 24 72 92 3c d4 6d 23 3d 5f f5 62 3d aa 8d d8 b9
       0.017876692 0.039899662 0.055409785 -0.00041304278
0001b0 29 2c 0e 3d 5d e9 a0 be 13 49 d0 3c 0a 44 16 bc
       0.034710083 -0.31428042 0.02542547 -0.009171495
0001c0 8c c4 a2 ba ee 7b 96 be 89 db 04 bd d9 11 b9 bb
       -0.0012418195 -0.29391426 -0.032435928 -0.0056478796
0001d0 53 83 b2 be 36 88 52 3e 2a fc 73 ba b5 18 0e 3e
       -0.34865817 0.20559773 -0.000930729 0.13876612
0001e0 99 39 0d bd 2d 6b 22 bd 57 f2 04 39 a6 57 17 be
       -0.034478758 -0.039652992 0.0001267878 -0.14779529
0001f0 f1 41 dd bc 37 d8 5a 3b 29 6a 1b 3b bf 52 7c be
       -0.027008982 0.0033393034 0.00237144 -0.2464094
000200 e0 67 77 b6 28 67 04 3c 33 a0 81 be 4f 7c 17 3d
       -3.6866331e-06 0.008081235 -0.25317535 0.036983784
000210 bb b0 50 3d 1f d8 33 ba 3f d1 2e 3d 8d 99 10 3a
       0.050949793 -0.00068605127 0.04268002 0.0005516045
000220 d6 9d 0b 3c d4 35 cc bb 03 88 09 3e 41 b2 99 bb
       0.008521518 -0.0062320028 0.1343079 -0.004690439
000230 87 b0 9c be 49 7d bf 3b 5f ad 94 bd db 1c ae ba
       -0.3060343 0.0058437926 -0.072596304 -0.0013283746
000240 fb 83 ec bc aa e4 ce 3c 87 e9 96 bc 87 63 e5 ba
       -0.028871527 0.02525552 -0.018421901 -0.0017500975
000250 1f 70 3d 3e 39 f2 3a ba 02 aa 43 3d 93 ad 6b be
       0.18499802 -0.0007131431 0.047769554 -0.23015432
000260 81 0f 87 3d 2b b6 cb 3d 26 ee 28 bb 59 19 00 be
       0.06594754 0.09946855 -0.0025776713 -0.1250967
000270 ab b8 99 bc c1 ec 58 bc 5d 1b 49 be ab b3 6d 3e
       -0.018764814 -0.01324004 -0.19639345 0.23213069
000280 92 d4 b0 3c 78 85 81 bc 95 f3 24 bc 8a fc 1f be
       0.021585736 -0.015810713 -0.01006784 -0.1562368
000290 c4 ba b6 b9 b8 74 4c bc 57 f3 a4 3c 9a 59 5a bc
       -0.00034852896 -0.012479 0.020135565 -0.013327027
0002a0 8d 6b 63 3d e4 4e 30 bf f4 87 47 38 6e c8 53 bc
       0.05552249 -0.6887038 4.7571913e-05 -0.012926204
0002b0 d8 ef 83 be 93 1d ab bc f2 c8 6b bd 9e f9 30 3a
       -0.25768924 -0.020888126 -0.057564683 0.0006751063
0002c0 30 8e 90 36 51 27 04 bc f5 e1 2c 3c c8 1f 67 3e
       4.3080872e-06 -0.008066014 0.010551919 0.22570717
0002d0 ce ec 0b bd 98 ea 1a bd 20 03 cb be 76 2b 93 bc
       -0.03416138 -0.037821382 -0.39650822 -0.01796506
0002e0 2a 27 80 3d ae 82 bd 3a 83 09 e2 bd b8 47 d3 bc
       0.0625747 0.0014458501 -0.110369705 -0.025791034
0002f0 11 73 b2 bb 5b cf 96 3d 6e de f7 be 36 be 1e ba
       -0.005445846 0.07363769 -0.48411888 -0.00060555653
000300 5f 59 8d 3c f8 72 8d be 77 aa 6b bc 16 65 43 bd
       0.01725453 -0.27626777 -0.014383904 -0.047703825
000310 20 1a 25 ba 65 dc c0 bd be 1b f3 bc d9 bd 20 bc
       -0.00062981434 -0.09417037 -0.029676314 -0.009810888
000320 c0 fa 32 3e 64 6f 8b 3c 44 18 db bc e9 95 65 be
       0.17478466 0.017020889 -0.02674497 -0.22420467
000330 fd ca 2c bd a0 4f f7 3c cd 38 78 3a e2 89 ae bd
       -0.042185772 0.030189335 0.0009468913 -0.08522393
000340 f6 96 49 bd 6b 5d 49 3b 47 49 35 bd 07 e1 fc 3d
       -0.049216233 0.0030725847 -0.044259336 0.12347608
000350 3e 63 27 38 b0 ee 42 3b 8e 41 05 3c f2 e5 3f 3d
       3.990833e-05 0.002974432 0.008133305 0.046850152
000360 b7 6f c1 3d 5d bc 68 ba 16 37 30 3b 4b b3 91 3c
       0.09445136 -0.0008878166 0.0026888303 0.017785689
000370 ac 0b dc 3b 4e 3c d3 3c 5a 38 15 3d 90 a2 85 3c
       0.0067152586 0.025785591 0.036430694 0.016312867
000380 1a 12 34 be f6 64 f5 3c 20 fb d7 bd d2 04 db ba
       -0.1758503 0.029955368 -0.10545945 -0.0016709811
000390 dd 07 01 3d 98 18 62 3d bf c6 a8 bc 8d de 6b 3d
       0.03150164 0.055199236 -0.020602582 0.057585288
0003a0 42 54 fa bc 34 75 8a ba 73 d9 64 3d 5e 89 69 be
       -0.030557755 -0.0010563494 0.05587144 -0.22806308
0003b0 ba 65 be 3c f2 82 a8 3c 06 81 26 bb de f6 4c be
       0.023241866 0.020570252 -0.0025406494 -0.20016047
0003c0 62 15 33 bd 3d b5 ee bc c7 9a 96 bc 18 b9 2e 3e
       -0.043721564 -0.029139156 -0.01838435 0.17062795
0003d0 d2 7e 5b 3b 32 81 1b 3d dd 3c 4c bd 3f dc 95 bd
       0.003349234 0.037965007 -0.04986273 -0.07317399
0003e0 02 00 d8 39 a8 fe 58 bd ce aa 29 bd 18 b9 8f 3b
       0.00041198736 -0.052977234 -0.041422658 0.0043860786
0003f0 a7 33 64 3d 21 f6 c5 be 8c 6d 9b b7 7d c1 fc bb
       0.055713322 -0.38664344 -1.8528452e-05 -0.0077134953

fc3.bias f4 [37]
000000 c3 8c b3 3d a6 c3 cf 3d b7 60 9e bd fa f5 f1 bd
       0.087670825 0.10144739 -0.07733291 -0.118144944
000010 69 3c 9d bd 32 8c 55 bd 45 01 a6 3c aa 49 ff bd
       -0.07677538 -0.052135654 0.020264277 -0.12465222
000020 59 f6 c5 3d 0d 79 2e 3b 34 65 a1 bd b9 d3 8f 3d
       0.09666128 0.0026622445 -0.07880631 0.07022805
000030 fa 18 fc 3d 6a 77 f8 bc 20 f6 75 3d 65 99 c2 3b
       0.123094514 -0.030330379 0.060049176 0.005938696
000040 b9 cc 51 bd 62 cb b7 bd d6 eb 97 3d 06 fc d5 3d
       -0.05122063 -0.08974339 0.07418029 0.1044846
000050 34 46 f7 3d 41 bd ea bc ba 0e 26 3d 84 bd 55 bd
       0.12073937 -0.028654696 0.040541388 -0.05218269
000060 03 a4 45 bd 84 bd d7 3d 40 f1 ea bd 02 fe bd 3d
       -0.048252117 0.10534194 -0.11471796 0.09276964
000070 71 1a 18 bd ea af 58 3d 3c 86 7c bd 2d e7 81 3d
       -0.03713459 0.05290214 -0.061651453 0.063429214
000080 66 ef 3f 3d 6f 38 8a bd 05 3d bf bb 80 c5 1b be
       0.046859168 -0.06749045 -0.0058361315 -0.15212059
000090 ce 08 31 bd
       -0.043221287
