CaseModels/03 37-Bus/_genModel_MAG.pth (torch, 18182 bytes, 7 tensors)

bias f4 [37]
0.17347136 0.12980346 0.08662441 -0.029566428 -0.071938604 -0.027967805 -0.0043189554 0.04666074
0.17548452 -0.054822683 0.2033362 -0.08841044 -0.17089637 -0.17760941 -0.028323192 0.036336903
-0.009646975 -0.13028805 -0.0630033 0.05242249 0.12866816 -0.06252943 0.04764 0.031892527
-0.1224289 0.22634858 0.30281252 0.11501225 0.14478952 -0.12808166 0.062750116 0.010616836
0.16221708 0.061565902 0.96459323 -0.12605612 0.3841916
00000000: 7aa2 313e 33eb 043e 2368 b13d 4b35 f2bc
00000010: 8c54 93bd bd1c e5bc 0686 8dbb 551f 3f3d
00000020: 37b2 333e c08d 60bd 5d37 503e 8810 b5bd
00000030: 75ff 2ebe 3edf 35be 0a06 e8bc 01d6 143d
00000040: 590e 1ebc 3b6a 05be e007 81bd f7b8 563d
00000050: 96c1 033e 6e0f 80bd 2922 433d bda1 023d
00000060: 01bc fabd ecc7 673e 3e0a 9b3e 8b8b eb3d
00000070: b443 143e d727 03be 2283 803d 3df2 2d3c
00000080: 3c1c 263e 872c 7c3d 95ef 763f db14 01be
00000090: c3b4 c43e

fc1.weight f4 [30, 91]
0.23057443 0.21912834 0.23789549 0.14317255 0.2260134 0.28678456 0.1305066 0.2661647
0.23926528 0.11675847 0.13156277 0.15068077 0.21475855 0.2319371 0.20406385 0.20169322
0.11240331 0.14380531 0.24442329 0.2568043 0.24683821 0.16757277 0.13098255 0.16734397
0.20527883 0.18903738 0.2578853 -0.055285756 -0.10395515 -0.053892307 -0.104718275 0.07236702
-0.04421267 -0.042675298 0.086258404 0.096143015 -0.02389244 -0.011297397 0.074754216 0.019185022
-0.0033009797 0.0009524375 -0.05311176 -0.0011818185 0.012932859 -0.013381749 -0.0701891 -0.0861875
0.0825846 0.094158016 -0.08760959 0.031929173 -0.060040776 -0.008821972 -0.035874 -0.0037669544
0.024482287 0.06322857 -0.09631826 0.093010046 -0.06926823 0.035206445 0.08627053 0.07341472
0.10354429 -0.09279109 0.09757931 -0.04049828 -0.010394186 0.08820767 0.03279171 0.007716544
0.040716194 0.008763291 -0.064394385 -0.07789878 -0.14983168 0.015938573 -0.01551079 -0.017347457
0.046892483 -0.04698914 0.100307055 0.051423036 0.046252258 0.07398298 0.037195157 0.047460843
-0.07706935 -0.107696876 -0.123439625 0.13107862 0.14515097 0.17665191 0.18125615 0.19361854
0.168632 0.19434908 0.2513 0.2342165 0.23212467 0.18026978 0.21790718 0.18577611
0.24662922 0.089683 0.20200609 0.1683428 -0.0013842992 0.18786976 0.17052865 0.27077398
0.24485373 0.2022422 0.1835525 0.23416127 0.25222126 0.1619661 0.015505984 0.03973902
-0.099274 -0.09887011 0.075370036 0.07435987 -0.010088071 0.04308229 0.071687125 -0.08131486
0.051626436 0.049524568 0.017007262 0.06275075 -0.09754308 -0.004557334 -0.021034136 0.077092506
-0.004480429 0.027317993 0.08932295 0.068955235 0.087137185 -0.07387474 -0.10411276 -0.014682248
-0.035691038 -0.09876393 -0.25273737 0.028276123 0.05582639 -0.07634828 0.0102780685 0.05396322
0.03836506 0.10088577 0.09698581 0.04987075 0.07589639 -0.017616943 0.08719652 -0.04054971
0.021330409 -0.062594295 0.0016116425 -0.05841891 0.013144977 0.078577705 0.039532267 -0.30076298
-0.10049717 -0.077760704 -0.4081929 -0.41195005 -0.22871229 -0.04644384 0.0011426061 0.057400353
-0.03114479 -0.37901184 -0.3236251 -0.39158422 -0.3273516 -0.22950384 -0.017472712 0.019757869
0.025868552 -0.012241326 -0.112393424 0.034417562 -0.031306732 -0.031129118 -0.038127296 -0.011140162
-0.016119573 0.004684498 0.021958353 0.042113844 -0.043732446 -0.028435685 -0.07930247 -0.016405916
-0.058459472 -0.123673506 -0.12405081 -0.082964376 -0.06561181 -0.028230416 -0.05005478 -0.080098994
-0.00036012402 0.042781062 -0.09839472 0.0962346 -0.04109937 -0.10104088 -0.009469405 -0.061073273
-0.08329405 0.06448353 0.07084075 0.068183385 0.021719672 0.0781152 0.053845458 -0.09952417
-0.033998594 -0.07456378 -0.00547643 -0.08992515 -0.0725621 -0.073255286 0.056794368 -0.03189563
-0.07937898 0.032397605 -0.06416938 -0.061456505 -0.09145084 -0.0076748133 -0.053959887 -0.069554165
0.10406206 -0.09940569 -0.02469454 0.075507976 -0.017842159 -0.071936116 -0.00029079616 0.0073636025
0.04673872 0.04094117 0.008897364 -0.008077778 0.023256563 -0.0785168 -0.011124007 0.0842701
00000000: b41b 6c3e 2e63 603e e09a 733e d39b 123e
00000010: 0f70 673e 6dd5 923e 86a3 053e bd46 883e
00000020: f501 753e 111f ef3d 64b8 063e 0f4c 1a3e
00000030: aae9 5b3e eb80 6d3e 1df6 503e ab88 4e3e
00000040: b533 e63d b341 133e 194a 7a3e da7b 833e
00000050: 28c3 7c3e 3298 2b3e 4a20 063e 385c 2b3e
00000060: 9d34 523e 0493 413e 8b09 843e 5173 62bd
00000070: 70e6 d4bd 2ebe 5cbd 8976 d6bd 2935 943d
00000080: 5818 35bd 4bcc 2ebd 3fa8 b03d a1e6 c43d
00000090: 14ba c3bc b818 39bc bd18 993d e829 9d3c
000000a0: 4055 58bb 00ad 793a b88b 59bd 40e7 9aba
000000b0: 58e4 533c 203f 5bbc 4ebf 8fbd 1283 b0bd
000000c0: 1d22 a93d ebd5 c03d a86c b3bd 2ac8 023d
000000d0: 51ed 75bd 088a 10bc 9ef0 12bd 02df 76bb
000000e0: 148f c83c fb7d 813d 8242 c5bd 0d7c be3d
000000f0: 80dc 8dbd a234 103d 9bae b03d 755a 963d
00000100: 070f d43d 4109 bebd a9d7 c73d 86e1 25bd
00000110: 604c 2abc 39a6 b43d 9a50 063d 10db fc3b
00000120: 06c6 263d e893 0f3c 34e1 83bd 6589 9fbd
00000130: 7a6d 19be 9c91 823c f820 7ebc 411c 8ebc
00000140: 5512 403d af77 40bd c96d cd3d f6a0 523d
00000150: 0273 3d3d 6384 973d f359 183d 4d66 423d
00000160: 89d6 9dbd 2e90 dcbd eacd fcbd 7939 063e
00000170: 75a2 143e 3de4 343e 369b 393e f043 463e
00000180: dead 2c3e 7203 473e 65aa 803e 73d6 6f3e
00000190: 17b2 6d3e a498 383e 0f23 5f3e 183c 3e3e
000001a0: 5f8c 7c3e b9ab b73d afda 4e3e 0e62 2c3e
000001b0: 6071 b5ba ee60 403e 109f 2e3e e3a2 8a3e
000001c0: f0ba 7a3e 9418 4f3e 30f5 3b3e f9c7 6f3e
000001d0: 2523 813e 71da 253e d00c 7e3c 62c5 223d
000001e0: 2b50 cbbd 6a7c cabd 9b5b 9a3d fd49 983d
000001f0: 7048 25bc 0e77 303d b3d0 923d 6888 a6bd
00000200: 3e76 533d 46da 4a3d d052 8b3c 7783 803d
00000210: abc4 c7bd b055 95bb c84f acbc ade2 9d3d
00000220: 90d0 92bb fcc9 df3c f3ee b63d 6738 8d3d
00000230: fb74 b23d a44b 97bd 1239 d5bd d08d 70bc
00000240: c430 12bd be44 cabd cb66 81be 54a3 e73c
00000250: 36aa 643d 7d5c 9cbd 5865 283c 8a08 5d3d
00000260: ae24 1d3d 339d ce3d 7fa0 c63d 4645 4c3d
00000270: 916f 9b3d 6851 90bc 1794 b23d 7417 26bd
00000280: 1cbd ae3c 7031 80bd c03d d33a ab48 6fbd
00000290: 085e 573c 59ed a03d 96ec 213d 9bfd 99be
000002a0: 76d1 cdbd 0141 9fbd a9fe d0be 1eeb d2be
000002b0: 8e33 6abe e53b 3ebd 80c3 953a a21c 6b3d
000002c0: 5c23 ffbc d70d c2be 30b2 a5be ba7d c8be
000002d0: a19a a7be 0e03 6bbe ef22 8fbc 41db a13c
000002e0: 49ea d33c d88f 48bc 862e e6bd 6ef9 0c3d
000002f0: 7d3b 00bd 7e02 ffbc 5e2b 1cbd 3a85 36bc
00000300: 320d 84bc 6b80 993b 01e2 b33c 917f 2c3d
00000310: cb20 33bd f4f1 e8bc 5569 a2bd b365 86bc
00000320: 3373 6fbd 8948 fdbd 5a0e febd 3ae9 a9bd
00000330: 7c5f 86bd 7943 e7bc 3e06 4dbd f10a a4bd
00000340: 07cf bcb9 323b 2f3d 2c83 c9bd a516 c53d
00000350: d057 28bd 85ee cebd 9025 1bbc f827 7abd
00000360: 1296 aabd f10f 843d f514 913d bba3 8b3d
00000370: 74ed b13c ddfa 9f3d 0e8d 5c3d 54d3 cbbd
00000380: 1c42 0bbd e5b4 98bd a073 b3bb ad2a b8bd
00000390: 709b 94bd de06 96bd 36a1 683d fea4 02bd
000003a0: 7291 a2bd 5ab3 043d 3c6b 83bd d1b9 7bbd
000003b0: 944a bbbd 007d fbbb 0b05 5dbd 6a72 8ebd
000003c0: 7d1e d53d 3695 cbbd 344c cabc eda3 9a3d
000003d0: b829 92bc 3e53 93bd 0076 98b9 604a f13b
000003e0: 1a71 3f3d eeb1 273d 40c6 113c a858 04bc
000003f0: 8c84 be3c 6bcd a0bd 7841 36bc cd95 ac3d

fc1.bias f4 [30]
-0.07470211 -0.24749479 0.026576022 0.058834832 -0.0030495378 -0.0942613 0.020806603 -0.058136273
-0.046770208 -0.04171755 -0.055891503 -0.058651466 0.007526868 -0.012197317 -0.15989292 0.027297087
-0.0017927837 -0.0641373 -0.005040849 -0.16684344 -0.07840793 -0.111100726 -0.12015437 -0.07190193
0.11323569 -0.01966681 -0.17459644 -0.32447487 0.008648014 0.0003332845
00000000: 6bfd 98bd 466f 7dbe f5b5 d93c cbfc 703d
00000010: c1da 47bb 120c c1bd 9c72 aa3c 4d20 6ebd
00000020: 1e92 3fbd 06e0 2abd 7dee 64bd 853c 70bd
00000030: f2a3 f63b 41d7 47bc f8ba 23be 249e df3c
00000040: d7fb eaba 6b5a 83bd b52d a5bb 02d9 2abe
00000050: 5694 a0bd c788 e3bd 7f13 f6bd 5241 93bd
00000060: 1de8 e73d 4a1c a1bc 69c9 32be 9221 a6be
00000070: 66b0 0d3c b0bc ae39

fc2.weight f4 [15, 30]
0.0890628 0.37894657 -0.12844893 0.032623935 0.050678514 -0.091068625 -0.11358144 -0.106566325
-0.1055569 -0.051266532 0.09502441 -0.0733776 0.22111166 -0.05222167 0.2441694 0.07486585
0.19436903 -0.12838288 0.12069911 0.27818906 -0.097993165 0.17161487 -0.035246503 -0.09132587
0.096678086 0.1173772 0.080537766 0.8070579 0.12834324 0.12178312 0.14802037 0.29744026
-0.013874254 -0.09065151 -0.010436958 0.047524575 0.085211545 0.06541181 -0.12292867 -0.04014222
0.20032424 -0.090847045 0.15346262 -0.059411384 0.029782213 0.0782851 -0.068782605 0.09988766
0.1281127 0.166872 0.15615414 -0.15771297 -0.09917809 0.13190317 0.064618774 0.17232384
0.19056498 1.0285478 -0.084637016 0.09305489 -0.13631633 0.01783931 -0.12117086 -0.16864087
-0.16684622 -0.101003505 -0.15308708 0.114338025 -0.08340658 -0.060593724 -0.13430275 -0.0067131817
0.1053476 -0.13159494 0.04844507 0.1504317 0.04384248 -0.09551213 0.07250283 -0.18994917
0.12789063 0.041667536 0.021419527 0.061630297 0.13585119 -0.022660445 -0.015723016 0.032981157
-0.13669112 -0.19372724 0.22612533 0.087386884 -0.09565332 -0.0032349615 0.19937699 -0.11937644
-0.07220779 -0.15516107 -0.11499883 -0.007093706 0.00799056 -0.09821698 0.24155281 -0.034677695
0.26065144 0.09629238 -0.0030884573 0.19532877 0.29507554 0.16279757 -0.1240313 -0.0029775149
-0.13023752 0.009767586 0.33644673 0.14231981 0.055799853 0.38278154 -0.020966485 0.23334415
-0.17869373 0.15707056 -0.08721294 -0.07877124 0.029151365 0.07536423 0.08308415 -0.09092258
-0.12878796 -0.1217521 -0.08004878 0.17452192 -0.13445412 -0.03794966 0.13413708 0.17861578
-0.07319889 0.043188274 0.14977942 -0.16319814 -0.044627834 0.0024333447 -0.046127103 -0.12266339
-0.067166075 -0.13379389 0.07586718 0.0070564747 0.08583669 -0.03392212 -0.16008973 0.024676725
-0.07955925 -0.13653356 -0.11595848 -0.0039034933 -0.15670115 0.1524638 -0.050325796 0.11217189
0.048784927 -0.15743315 -0.059156694 -0.16816445 -0.04409139 -0.03851734 -0.051336274 0.10563716
0.0018110424 -0.10820852 0.13188833 0.1340962 -0.10850445 0.14894679 -0.13362885 0.15348667
-0.16860944 -0.16079715 -0.007073015 -0.095224775 -0.090025835 -0.15599759 -0.07284663 0.035948843
-0.11364809 0.060581654 -0.080207855 0.15544051 0.010065511 -0.00042545795 0.12337461 0.038559645
0.05621682 0.014881 0.105517805 -0.07635211 -0.06314291 0.008724809 0.005220026 -0.11543854
0.11174777 0.012161568 -0.16001812 -0.121864155 -0.10756002 -0.16245891 -0.074449606 -0.056735992
-0.17871311 -0.06542203 0.2107952 0.2302291 -0.1299843 -0.13019735 0.16675767 -0.16364813
0.08552713 0.093886234 -0.11616088 -0.02947708 -0.093575 -0.015386202 0.27588078 -0.042151887
0.10118202 0.049629062 0.11512932 0.14798567 0.23867749 0.046422098 -0.12000563 0.1427825
-0.09418286 -0.046186533 0.27438262 0.294106 0.18439157 0.5310848 0.19742933 0.15705776
0.1809757 0.47407582 0.052903473 -0.009439409 0.2570921 -0.13512464 -0.11705832 -0.13976069
-0.12227465 -0.06440392 -0.10409488 -0.015854647 0.17331882 -0.0642061 0.08206405 -0.15692182
00000000: 8f66 b63d 4905 c23e 1e88 03be ada0 053d
00000010: 4694 4f3d 3082 babd 639d e8bd 723f dabd
00000020: 372e d8bd dbfc 51bd 289c c23d ff46 96bd
00000030: 186b 623e 64e6 55bd 8b07 7a3e 4453 993d
00000040: ad08 473e cd76 03be 1831 f73d cc6e 8e3e
00000050: a4b0 c8bd cfbb 2f3e a35e 10bd 0f09 bbbd
00000060: 29ff c53d 7563 f03d fcf0 a43d 599b 4e3f
00000070: 696c 033e 6e69 f93d a792 173e 174a 983e
00000080: d750 63bc 80a7 b9bd c6ff 2abc 21a9 423d
00000090: 6483 ae3d a1f6 853d 07c2 fbbd 2b6c 24bd
000000a0: cc21 4d3e 040e babd 4e25 1d3e 5a59 73bd
000000b0: d4f9 f33c f053 a03d e5dd 8cbd e791 cc3d
000000c0: fa2f 033e 7ee0 2a3e dfe6 1f3e 827f 21be
000000d0: e21d cbbd a011 073e d956 843d a975 303e
000000e0: 7723 433e 74a7 833f 2c56 adbd 9093 be3d
000000f0: 8296 0bbe bf23 923c 6e28 f8bd 31b0 2cbe
00000100: bcd9 2abe edda cebd dcc2 1cbe 0e2a ea3d
00000110: 12d1 aabd 2031 78bd a986 09be 40fa dbbb
00000120: 7cc0 d73d d3c0 06be 566e 463d c40a 1a3e
00000130: 2c94 333d dd9b c3bd 5d7c 943d 0982 42be
00000140: c3f5 023e 94ab 2a3d 0178 af3c 0d70 7c3d
00000150: 931c 0b3e 66a2 b9bc 8ecd 80bc 4017 073d
00000160: c2f8 0bbe 6f60 46be 668d 673e e5f7 b23d
00000170: e3e5 c3bd a601 54bb 7b29 4c3e a37b f4bd
00000180: aee1 93bd 8be2 1ebe 8284 ebbd 5272 e8bb
00000190: d6ea 023c fc25 c9bd 9f59 773e 330a 0ebd
000001a0: 1b74 853e f034 c53d b767 4abb 4404 483e
000001b0: 2414 973e 68b4 263e 1f04 febd 6922 43bb
000001c0: fc5c 05be 3a08 203c bf42 ac3e 49bc 113e
000001d0: 638e 643d f1fb c33e e8c1 abbc c5f1 6e3e
000001e0: 7dfb 36be 1bd7 203e b39c b2bd d152 a1bd
000001f0: d8ce ee3c 9058 9a3d 0628 aa3d 9e35 babd
00000200: fee0 03be 2a59 f9bd 9df0 a3bd e0b5 323e
00000210: 57ae 09be 1a71 1bbd 3b5b 093e 0ee7 363e
00000220: 4de9 95bd 30e6 303d c75f 193e 6a1d 27be
00000230: adcb 36bd c078 1f3b c6ef 3cbd f236 fbbd
00000240: 5e8e 89bd 4401 09be 4160 9b3d 003a e73b
00000250: 26cb af3d ecf1 0abd 90ee 23be d826 ca3c
00000260: f6ef a2bd 74cf 0bbe a47b edbd c0d1 7fbb
00000270: 4476 20be 781f 1c3e 6c22 4ebd 60ba e53d
00000280: b4d2 473d 2836 21be 4a4e 72bd 4d33 2cbe
00000290: 2c99 34bd 5cc4 1dbd fc45 52bd 4c58 d83d
000002a0: 8060 ed3a 6e9c ddbd bc0d 073e 8450 093e
000002b0: 9537 debd 8285 183e 00d6 08be 9c2b 1d3e
000002c0: f4a7 2cbe 02a8 24be c0c4 e7bb 3505 c3bd
000002d0: 775f b8bd d5bd 1fbe 9d30 95bd 183f 133d
000002e0: 54c0 e8bd 7824 783d 0444 a4bd cc2b 1f3e
000002f0: d0e9 243c 0010 dfb9 d4ab fc3d b8f0 1d3d
00000300: 9c43 663d 70cf 733c b819 d83d 7f5e 9cbd
00000310: 1251 81bd 80f2 0e3c c00c ab3b 0b6b ecbd
00000320: 04dc e43d 5041 473c cadb 23be ea93 f9bd
00000330: 6e48 dcbd a15b 26be 0979 98bd 0064 68bd
00000340: 9200 37be fcfb 85bd b2da 573e 2dc1 6b3e
00000350: 9b1a 05be 7452 05be 86c2 2a3e 6093 27be
00000360: d928 af3d 6d47 c03d c1e5 edbd eb79 f1bc
00000370: 40a4 bfbd 6916 7cbc 3f40 8d3e 75a7 2cbd
00000380: 8538 cf3d d847 4b3d ecc8 eb3d 8e89 173e
00000390: df67 743e 1925 3e3d 83c5 f5bd 9335 123e
000003a0: f1e2 c0bd 172e 3dbd e17b 8c3e 1095 963e
000003b0: 25d1 3c3e 2cf5 073f ea2a 4a3e c0d3 203e
000003c0: b251 393e 11ba f23e 50b1 583d c0a7 1abc
000003d0: 93a1 833e 1d5e 0abe 46bc efbd 6d1d 0fbe
000003e0: 226b fabd 34e6 83bd b22f d5bd 9be1 81bc
000003f0: 7d7a 313e 7d7e 83bd 3211 a83d 1db0 20be

fc2.bias f4 [15]
-0.17559153 0.058358643 -0.08457414 0.23119946 -0.16071188 0.15992057 -0.022057682 0.14306058
0.041847788 -0.042653255 -0.140401 -0.15013735 0.092074394 -0.06339345 0.044692453
00000000: 44ce 33be 7909 6f3d 3535 adbd 8dbf 6c3e
00000010: a891 24be 38c2 233e 50b2 b4bc 797e 123e
00000020: 9668 2b3d 2eb5 2ebd 48c5 0fbe 9bbd 19be
00000030: 8091 bc3d 6dd4 81bd 6f0f 373d

fc3.weight f4 [37, 15]
0.17557055 0.0058025457 0.21359819 -0.03793442 0.18753992 -0.21531512 0.1743308 0.0018009682
-0.2166285 0.17909436 0.007321407 0.07716292 0.044271886 -0.06483151 0.19268472 -0.07417011
0.02409029 0.13626926 -0.047735147 0.014092712 -0.086702794 0.22616574 0.070265174 -0.001626514
0.03862633 0.01276036 0.1776013 -0.12696002 -0.09291196 -0.034781303 0.023401909 0.014645823
-0.11470732 0.07152755 0.050854426 0.02713272 0.21608818 -0.1338856 0.0115428325 0.021833088
0.09346132 0.26235977 -7.8254736e-05 -0.22901732 0.09586674 -0.13974594 -0.017740214 0.038271423
0.0889027 -0.072769776 0.12920153 -0.042528346 -0.10680948 0.18162705 -0.05390536 0.20469406
0.07943889 -0.032956865 -0.046699535 0.26345497 -0.16114728 -0.106701456 -0.1693099 0.026209062
-0.11152241 -0.1659157 0.03964573 0.021171452 0.1327841 0.12472098 -0.20769244 -0.19998278
-0.16524822 -0.09982604 0.19776528 0.06488858 -0.005580085 0.058806553 0.10386713 -0.11254251
-0.24478549 0.11533207 -0.197173 -0.005669764 0.07849853 0.2284522 -0.19480346 0.1614099
-0.026991975 -0.037545722 0.0456253 -0.071495965 -0.23235045 -0.063173994 0.12209811 -0.21449669
0.24597016 0.15577559 -0.059764374 0.01339307 0.01784615 0.13767567 -0.008921407 -0.08063396
0.2227249 0.01167146 -0.09347083 -0.14870863 -0.03131441 0.0011647077 0.16498187 -0.21303594
0.12364523 -0.0048512616 0.0059929895 0.11471994 -0.09792972 0.01718819 -0.17772496 -0.24164581
-0.27307925 0.040033355 0.18673168 0.053531002 0.16438317 -0.06617233 -8.97944e-05 -0.10925567
0.19192713 0.09817081 0.22393905 0.062310897 -0.0048187277 0.025818476 0.04068797 -0.050339498
0.10044447 0.22515658 0.0029188218 0.1379301 -0.00025603175 -0.04940042 -0.0218294 0.05670647
-0.18013752 -0.053509105 -0.070287235 0.07027526 0.029147342 0.05842319 -0.0750029 0.28944916
-0.14016202 -0.09538992 -0.18923792 -0.12941937 -0.12353462 -0.056487016 -0.09943412 0.029399186
0.0936596 -0.088821456 0.047561336 -0.012601187 0.097553335 -0.1512994 -0.030811034 -0.15228997
-0.040635817 0.1445307 0.027771562 0.10846114 0.07927607 0.06295559 0.11415881 0.23258795
0.063560575 0.19004288 0.22542924 0.10663486 -0.12420485 -0.1603875 0.0023192246 -0.04351237
-0.07859971 0.10348144 -0.16462384 0.18659142 0.100504555 0.060714997 -0.10943339 0.08929675
0.06959788 0.16564229 -0.006432025 0.024781013 -0.11305972 0.034683436 0.0036289527 0.23493159
0.008799344 -0.2527808 0.08929047 0.07657888 -0.13629022 0.059205834 -0.1935731 0.17052586
0.24528244 0.15082172 0.03297233 -0.09886541 0.21263248 0.1603631 0.1780356 -0.12637803
-0.009882346 -0.1643111 0.13604759 -0.11628705 -0.018349903 0.11977026 0.082524456 0.00040909363
0.19948138 -0.090831704 0.08181701 -0.27441844 -0.020969564 -0.06494587 -0.044693023 0.04319802
-0.05163407 0.028158778 0.06271884 0.12047692 0.057890467 0.1950986 -0.1649611 0.056799393
-0.17168422 0.09323974 0.16879174 -0.07882745 0.18102305 0.043884367 0.20969099 0.12381704
0.082614586 -0.13174023 0.104438566 0.24154373 0.020636188 0.18327732 -0.07641384 -0.19461446
00000000: c4c8 333e 4823 be3b 7cb9 5a3e 1f61 1bbd
00000010: 770a 403e 917b 5cbe c683 323e 770e ec3a
00000020: ddd3 5dbe 8364 373e 6ae8 ef3b 9807 9e3d
00000030: 7056 353d 62c6 84bd 254f 453e 80e6 97bd
00000040: 0059 c53c 2b8a 0b3e ee85 43bd 1ee5 663c
00000050: 3c91 b1bd fe97 673e 30e7 8f3d c130 d5ba
00000060: a536 1e3d d410 513c 1ddd 353e cf01 02be
00000070: a048 bebd d776 0ebd 5cb5 bf3c 09f5 6f3c
00000080: aceb eabd 097d 923d bb4c 503d 7045 de3c
00000090: 3846 5d3e 4f19 09be 261e 3d3c 4edb b23c
000000a0: a668 bf3d 0554 863e b11c a4b8 8483 6abe
000000b0: c855 c43d 8f19 0fbe ed53 91bc 7fc2 1c3d
000000c0: 9e12 b63d 5208 95bd 684d 043e 3432 2ebd
000000d0: eebe dabd 71fc 393e decb 5cbd 529b 513e
000000e0: dbb0 a23d c7fd 06bd 0348 3fbd 92e3 863e
000000f0: cb03 25be 4b86 dabd 935f 2dbe 63b4 d63c
00000100: dc65 e4bd cee5 29be 9063 223d c16f ad3c
00000110: 8ef8 073e b76d ff3d 54ad 54be 49c8 4cbe
00000120: d436 29be 9871 ccbd fb82 4a3e 4ee4 843d
00000130: 25d9 b6bb 24df 703d 4ab8 d43d b07c e6bd
00000140: 0ca9 7abe 3833 ec3d b8e7 49be 6dc9 b9bb
00000150: d6c3 a03d 60ef 693e 8f7a 47be a348 253e
00000160: 461e ddbc 8bc9 19bd 98e1 3a3d 7a6c 92bd
00000170: 47ed 6dbe 5e61 81bd 930e fa3d 05a5 5bbe
00000180: 9adf 7b3e a383 1f3e 7dcb 74bd 9b6e 5b3c
00000190: 1732 923c dafa 0c3e 182b 12bc 6b23 a5bd
000001a0: ff11 643e a739 3f3c a26d bfbd 1347 18be
000001b0: 8a43 00bd 1ba9 983a 02f1 283e 1826 5abe
000001c0: b639 fd3d 55f7 9ebb d760 c43b 4af2 ea3d
000001d0: 618f c8bd 3fce 8c3c 88fd 35be 0072 77be
000001e0: 0bd1 8bbe 04fa 233d 9736 3f3e 5343 5b3d
000001f0: 1054 283e 5c85 87bd 0050 bcb8 70c1 dfbd
00000200: 8c88 443e c70d c93d 4750 653e b639 7f3d
00000210: 6be6 9dbb 4581 d33c 6ea8 263d ca30 4ebd
00000220: d5b5 cd3d 728f 663e b449 3f3b 8c3d 0d3e
00000230: 003c 86b9 1858 4abd 92d3 b2bc 0b45 683d
00000240: f875 38be 5d2c 5bbd c1f2 8fbd 7aec 8f3d
00000250: 68c6 ee3c 284d 6f3d 1f9b 99bd ae32 943e
00000260: a286 0fbe ca5b c3bd 96c7 41be 8386 04be
00000270: b8ff fcbd ee5e 67bd 1ea4 cbbd 90d6 f03c
00000280: 9bd0 bf3d 06e8 b5bd adcf 423d 3675 4ebc
00000290: 0bca c73d 3bee 1abe 6c67 fcbc e7f1 1bbe
000002a0: be71 26bd dbff 133e 3081 e33c e020 de3d
000002b0: 7e5b a23d dcee 803d 18cc e93d 892b 6e3e
000002c0: 0c2c 823d 9a9a 423e ecd6 663e 6163 da3d
000002d0: 1d5f febd 9f3c 24be 22fe 173b 073a 32bd
000002e0: e2f8 a0bd 14ee d33d 2793 28be d211 3f3e
000002f0: 55d5 cd3d 4ab0 783d 9d1e e0bd 37e1 b63d
00000300: 5589 8e3d 229e 293e bdc3 d2bb 8d01 cb3c
00000310: db8b e7bd 3810 0e3d b9d3 6d3b e891 703e
00000320: 202b 103c 7c6c 81be ecdd b63d 63d5 9c3d
00000330: aa8f 0bbe d181 723d 0738 46be 559e 2e3e
00000340: 522b 7b3e 0271 1a3e fe0d 073d f379 cabd
00000350: 54bc 593e 3936 243e f74e 363e 3e69 01be
00000360: 90e9 21bc 2b41 28be 0f50 0b3e e827 eebd
00000370: 8952 96bc 1c4a f53d 9502 a93d 9e7b d639
00000380: d944 4c3e f905 babd ad8f a73d 9380 8cbe
00000390: 5dc8 abbc 5702 85bd 0810 37bd 68f0 303d
000003a0: 3f7e 53bd 3dad e63c bc72 803d 9abc f63d
000003b0: 8e1e 6d3d edc7 473e 90eb 28be 7ba6 683d
000003c0: fdcd 2fbe 7af4 be3d bed7 2c3e 4970 a1bd
000003d0: 1b5e 393e 18c0 333d 3cb9 563e ca93 fd3d
000003e0: d631 a93d e9e6 06be e3e3 d53d 3d57 773e
000003f0: 390d a93c 0dad 3b3e dc7e 9cbd 0349 47be

fc3.bias f4 [37]
0.12542924 -0.0152288405 0.00038122156 -0.08410013 0.04339424 0.20811176 -0.0962743 -0.18481442
-0.081828654 -0.08768724 0.15973483 0.11907582 -0.032993898 -0.119558126 -0.18365057 0.14856802
-0.17145163 0.1274298 -0.08651276 -0.07988671 -0.08556235 0.14197496 -0.053464796 -0.114642575
0.036424242 0.39410472 0.30323738 0.22241785 -0.033874504 0.05357221 0.0026964992 0.13087031
0.109212935 0.04982249 0.9020092 0.04700035 0.14803405
00000000: 8670 003e 6382 79bc b1de c739 b03c acbd
00000010: 29be 313d 401b 553e 762b c5bd fe3f 3dbe
00000020: c895 a7bd 5e95 b3bd 8791 233e 06de f33d
00000030: 9c24 07bd e4da f4bd e50e 3cbe 3722 183e
00000040: 0491 2fbe f57c 023e 9a2d b1bd a59b a3bd
00000050: 503b afbd e261 113e e7fd 5abd bac9 eabd
00000060: 9631 153d 18c8 c93e ee41 9b3e 81c1 633e
00000070: febf 0abd 896e 5b3d c0b7 303b de02 063e
00000080: 08ab df3d ab12 4c3d 13ea 663f 7083 403d
00000090: 3d96 173e
