CaseModels/03 37-Bus/_updatedModel_vpu.pth (torch, 18290 bytes, 7 tensors)

bias f4 [37]
0.32938066 0.29917115 0.23260728 0.2543054 0.282865 0.28865013 0.29510868 0.23856708
0.21644421 0.26642838 0.3016484 0.23606996 0.28561774 0.2850265 0.16427694 0.20116302
0.19557352 0.24103184 0.2503157 0.18368316 0.23251216 0.29386348 0.28505504 0.30771104
0.34097835 0.32256618 0.26382554 0.32467595 0.26184496 0.23169169 0.23158374 0.23031795
0.3073515 0.36373276 0.3078201 0.276356 0.3359175
00000000: 95a4 a83e f62c 993e 9a30 6e3e 5134 823e
00000010: aed3 903e f3c9 933e 7c18 973e ee4a 743e
00000020: 8da3 5d3e 4d69 883e a971 9a3e 53bc 713e
00000030: 7d3c 923e feee 913e 3738 283e aefd 4d3e
00000040: 6d44 483e 0dd1 763e 6129 803e 7017 3c3e
00000050: ab17 6e3e 4675 963e bcf2 913e 4d8c 9d3e
00000060: b794 ae3e 6527 a53e 2414 873e ed3b a63e
00000070: 8b10 863e 9640 6d3e 4a24 6d3e 78d8 6b3e
00000080: 2d5d 9d3e 2e3b ba3e 999a 9d3e 897e 8d3e
00000090: 61fd ab3e

fc1.weight f4 [30, 91]
0.053903986 0.07373678 0.014 0.03509314 0.017958725 -0.062291667 0.0023446875 0.012604524
-0.0019376678 0.013841356 0.019211473 0.07785088 0.052782126 0.06986067 0.01986098 0.057462994
0.124204926 -0.000933459 0.052884247 0.031872507 0.070089966 0.0063505364 0.059948288 0.018541837
-0.009804739 0.029592618 0.01904307 0.051032774 -0.048165686 0.002945967 -0.039626807 -0.0057273954
-0.058512837 -0.043386962 -0.047411982 -0.07134426 0.022804312 0.03224773 0.0071867183 -0.08703906
-0.07407306 -0.013487756 0.06680968 0.075153746 -0.080207825 0.016988382 -0.014662288 0.06741194
0.056841157 0.0077385157 0.046771042 -0.07984316 -0.085831344 -0.05691064 -0.004806079 -0.01765858
-0.09896469 0.02989193 0.02622316 0.10309266 0.04343588 0.060319327 0.012270816 0.07038059
-0.033007458 0.07583011 -0.072567396 -0.063133776 0.010453485 -0.010713652 -0.06552732 -0.06658481
-0.038570225 0.05071924 -0.013337217 -0.040790536 0.04472612 -0.093418464 0.06430333 0.029870339
-0.1517868 0.037398398 -0.091747366 -0.098186344 -0.039969563 0.08796043 -0.017220225 0.06835179
-0.34966117 -0.24950871 -0.10319208 -0.053610757 -0.02276188 -0.02811596 -0.02887253 -0.038787205
0.0068519264 -0.04444589 0.021691171 -0.005685555 -0.009917799 0.007184112 0.0088353725 0.043360222
0.024482023 -0.027445821 0.01130549 -0.046330046 -0.030054474 -0.024775019 -0.07704639 -0.0021698943
-0.0055299303 0.0077010496 0.0066030025 -0.021199137 0.029420303 0.012049281 0.03437353 -0.090450354
-0.021121137 0.011776082 0.07592248 -0.00750605 0.0053521395 -0.085062325 0.06522582 -0.09992664
0.08945096 0.028299041 -0.035895333 -0.0030810311 0.062407263 0.06989706 0.058408283 0.07473146
-0.06821044 0.0468292 0.046459623 -0.05167731 0.02530653 0.090645336 0.08809126 -0.009793453
-0.0621994 -0.016538858 -0.09679442 -0.032437466 -0.030975223 -0.0693488 0.0046859384 -0.06360643
0.041161455 0.0792078 -0.09764268 -0.08185652 -0.043320693 -0.04843527 0.09291469 -0.060970478
-0.018866196 0.102878384 -0.059103608 0.010486722 -0.059901726 0.076789565 -0.015525363 0.043031912
-0.022859529 -0.08106364 0.0644556 -0.070773736 0.022955474 -0.027810916 0.035224043 -0.054937817
0.010278955 0.019803979 -0.070330165 -0.18873647 -0.29484197 -0.0067532565 -0.049833253 -0.18819761
-0.044375088 0.18316312 0.19807121 -0.24413039 0.06021457 0.12769826 -0.18150195 0.055306748
-0.08096399 0.030137282 0.004468764 -0.35484812 0.03002188 -0.37208188 -0.0847891 -0.086133905
0.12091901 -0.015875697 0.08844231 -0.3395137 -0.059830286 -0.107909895 0.5135115 -0.033781875
-0.22587661 0.030098997 -0.092821196 -0.042417295 -0.04536719 -0.0018904731 0.031003468 -0.06907268
-0.08660137 0.07199622 0.10381801 0.042611994 0.047551326 -0.09687644 0.004818462 -0.030089468
0.011941485 -0.01922264 0.08503326 -0.07932914 0.04532496 0.03876946 -0.06798027 0.029976092
-0.092275985 -0.08310973 0.0057580397 -0.02382788 0.05485677 -0.088288 0.10106567 -0.029177368
0.10448033 0.074354015 -0.034566976 0.09156314 0.08115453 -0.043730993 0.06800521 -0.032579124
0.09375373 0.07668356 -0.083317995 -0.03630945 0.061600395 0.080448724 0.060521744 -0.08103778
00000000: 6dca 5c3d 4f03 973d 4260 653c d3bd 0f3d
00000010: 2d1e 933c 8c25 7fbd 54a9 193b 3583 4e3c
00000020: 58f9 fdba dbc6 623c 6161 9d3c 4870 9f3d
00000030: 1232 583d 1c13 8f3d 7eb3 a23c 515e 6b3d
00000040: 275f fe3d 60b3 74ba 279d 583d bf8c 023d
00000050: 548b 8f3d 2918 d03b 568c 753d 0de5 973c
00000060: 0ea4 20bc 386c f23c 3600 9c3c be07 513d
00000070: 6249 45bd 2011 413b b84f 22bd e0ac bbbb
00000080: 28ab 6fbd 87b6 31bd 1133 42bd f01c 92bd
00000090: 1cd0 ba3c 3216 043d 907e eb3b 8941 b2bd
000000a0: 9eb3 97bd c0fb 5cbc 83d3 883d 35ea 993d
000000b0: 0044 a4bd 382b 8b3c 183a 70bc 450f 8a3d
000000c0: 46d2 683d 6093 fd3b fe92 3f3d d084 a3bd
000000d0: 58c8 afbd 221b 69bd 507c 9dbb baa8 90bc
000000e0: 00ae cabd ecdf f43c f4d1 d63c 3f22 d33d
000000f0: d2e9 313d 6611 773d 880b 493c b323 903d
00000100: d432 07bd d14c 9b3d 379e 94bd 484c 81bd
00000110: 1845 2b3c 5088 2fbc 3033 86bd 9e5d 88bd
00000120: d0fb 1dbd fabe 4f3d 5884 5abc fa13 27bd
00000130: bc32 373d 2e52 bfbd 77b1 833d a4b2 f43c
00000140: 006e 1bbe 102f 193d 0be6 bbbd ec15 c9bd
00000150: 20b7 23bd 9924 b43d 6e11 8dbc 06fc 8b3d
00000160: ca06 b3be 367f 7fbe 5f56 d3bd f496 5bbd
00000170: 1f77 babc 7153 e6bc 1686 ecbc 55df 1ebd
00000180: 2086 e03b e50c 36bd afb1 b13c e44d babb
00000190: 447e 22bc b368 eb3b 3dc2 103c 7d9a 313d
000001a0: 868e c83c 0fd6 e0bc a93a 393c 93c4 3dbd
000001b0: cd34 f6bc fbf4 cabc 7fca 9dbd c934 0ebb
000001c0: 6b34 b5bb 1659 fc3b 005e d83b d0a9 adbc
000001d0: d902 f13c 596a 453c 42cb 0c3d 093e b9bd
000001e0: 3c06 adbc 78f0 403c 3f7d 9b3d 50f5 f5bb
000001f0: 0061 af3b 2835 aebd 1d95 853d 57a6 ccbd
00000200: 1132 b73d 64d3 e73c fc06 13bd 20eb 49bb
00000210: c29e 7f3d 3126 8f3d 863d 6f3d cf0c 993d
00000220: eab1 8bbd facf 3f3d 724c 3e3d 96ab 53bd
00000230: a44f cf3c 43a4 b93d 3169 b43d b874 20bc
00000240: ccc4 7ebd 807c 87bc 273c c6bd 26dd 04bd
00000250: c0bf fdbc be06 8ebd 808c 993b 1744 82bd
00000260: ea98 283d b337 a23d e3f8 c7bd 64a4 a7bd
00000270: 0a71 31bd 1064 46bd 0f4a be3d 2ebc 79bd
00000280: 488d 9abc e7b1 d23d a016 72bd 80d0 2b3c
00000290: 835b 75bd d943 9d3d 185e 7ebc 3b42 303d
000002a0: e843 bbbc b204 a6bd 4c01 843d d2f1 90bd
000002b0: 1e0d bc3c b8d3 e3bc 1647 103d 7a06 61bd
000002c0: 1069 283c f43b a23c 4309 90bd 2244 41be
000002d0: 87f5 96be 6c4a ddbb f41d 4cbd e0b6 40be
000002e0: a7c2 35bd 1d8f 3b3e 2ed3 4a3e 51fd 79be
000002f0: 8ea3 763d 55c3 023e a6db 39be 5489 623d
00000300: 73d0 a5bd 76e2 f63c b66e 923b a7ae b5be
00000310: 72f0 f53c 8481 bebe e8a5 adbd f966 b0bd
00000320: 63a4 f73d c00d 82bc 3e21 b53d bdd4 adbe
00000330: 9a10 75bd ddff dcbd 7d75 033f dd5e 0abd
00000340: 334c 67be 2c92 f63c 0a19 bebd c2bd 2dbd
00000350: f2d2 39bd c0c9 f7ba fcfa fd3c fa75 8dbd
00000360: 0f5c b1bd c172 933d 899e d43d ea89 2e3d
00000370: 2ec5 423d 2867 c6bd 30e4 9d3b 307e f6bc
00000380: 38a6 433c cc78 9dbc eb25 ae3d 5177 a2bd
00000390: aaa6 393d bacc 1e3d 3d39 8bbd 6c90 f53c
000003a0: 31fb bcbd 6f35 aabd f0ad bc3b b032 c3bc
000003b0: 7eb1 603d 57d0 b4bd 85fb ce3d 6005 efbc
000003c0: c9f9 d53d eb46 983d 1a96 0dbd 7585 bb3d
000003d0: 5934 a63d 451f 33bd 5146 8b3d b071 05bd
000003e0: f501 c03d 450c 9d3d a0a2 aabd 38b9 14bd
000003f0: b250 7c3d 4dc2 a43d a6e5 773d 23f7 a5bd

fc1.bias f4 [30]
0.5367283 0.44490886 -0.17190228 0.11876746 0.14253633 0.3979255 0.2355255 0.43917075
-0.058285784 0.2502382 0.19040768 0.38073632 -0.8825246 0.5015228 0.33673763 -0.21970017
-0.19943774 0.2327685 0.469309 0.51425904 0.10563905 -0.4185793 -0.129891 -0.22084649
0.44398955 0.32658097 0.13709816 0.22088376 -0.29149407 0.45784172
00000000: 0767 093f 18cb e33e 2707 30be 5b3c f33d
00000010: 0bf5 113e e4bc cb3e 992d 713e fdda e03e
00000020: 13bd 6ebd 391f 803e 3bfa 423e dfef c23e
00000030: 22ed 61bf cc63 003f e068 ac3e 15f9 60be
00000040: 6839 4cbe de5a 6e3e 4549 f03e 7ba6 033f
00000050: 4959 d83d 0750 d6be 2502 05be 9525 62be
00000060: 9952 e33e 9f35 a73e 7663 0c3e 5a2f 623e
00000070: b63e 95be 3b6a ea3e

fc2.weight f4 [15, 30]
-0.6145606 0.11477264 0.5374296 -0.755583 -0.20741211 -0.21731648 -0.58243436 -0.89355373
-0.7289378 0.27132145 -0.065894864 -0.5101273 -1.077336 0.27412295 0.06719405 -0.054317437
-0.39623547 -0.04739433 -0.5578428 0.4649525 0.49750078 0.37035048 0.07042432 0.6197301
0.01894427 0.0499827 -0.038276613 -0.27604803 0.41204327 1.0730115 -0.11614274 0.43334356
-0.35461068 -0.6716453 -0.06810319 -0.03990854 -1.3605684 -1.3156123 -0.30844674 -0.6233964
0.23614684 0.21646854 0.7669394 -0.2016696 -0.13152198 -0.28772685 0.85743594 -0.9209952
1.3262197 0.8198103 -0.65090513 -0.5432938 -1.2433593 0.059332684 0.4303379 -1.3682395
-0.013181382 0.45915952 -0.830277 -3.0223384 0.20512317 0.028231956 0.04882168 -0.10799149
0.041319665 0.009819513 -0.035891376 0.05111685 0.09792435 -0.07250699 3.84696e-05 -0.0028882155
-0.051620644 0.016060678 0.014927278 -0.05049829 0.09612332 0.033465654 0.025902286 0.06622508
0.00773955 0.025943805 0.19938871 -0.12305223 -0.032621022 0.022353495 0.06335119 0.067080654
-0.112249844 0.030736871 0.010767448 -0.011975672 0.01834158 -0.08925224 -0.14566636 0.024674803
0.020451823 -0.041439943 -0.016744243 0.026196286 0.0025655658 -0.0377134 0.0009335339 0.056414142
-0.05780895 -0.07075436 0.047899406 0.06447405 0.10942384 -0.025267916 -0.015858347 0.07353922
-0.098491766 0.23086484 0.005456875 -0.015123438 0.0068939603 -0.022519182 0.08751197 0.03018933
-0.21764524 -0.049228862 -2.052505 0.095406115 -0.07552789 -0.0069326223 0.23918287 -0.1607062
-0.4712499 0.08538774 0.5242754 -0.7199349 -0.39855328 -0.4817348 -0.9636875 -0.43565333
-2.968298 0.49397582 -0.34254113 -0.13481082 0.17908697 -0.37063494 -1.0702244 -0.88337547
-0.15428649 -1.0467501 0.06924315 0.046937075 -0.41931003 0.48902234 -0.004776346 0.007067512
0.025309604 -0.07080257 0.09409926 0.0024629692 0.09354322 0.029871851 0.062135525 -0.05167749
-0.0026303856 -0.013669302 -0.0031460207 0.0047293375 -0.006680735 0.08713631 0.15894258 -0.071986616
-0.100994825 0.059359755 -0.006638782 0.23614113 -0.039666012 -0.122930184 0.0067506274 0.0044116816
0.23174405 0.04464202 -0.11200384 -0.04825949 -0.12547593 -0.008999772 0.07039059 0.10173738
-0.024951903 -0.004338071 0.07192378 -0.049072936 -0.13822755 0.0024315792 -0.012606773 0.06313006
0.044248153 -0.10561605 0.07551348 -0.036345292 -0.18209931 0.06777604 -0.076345295 0.053034365
-0.011597047 -0.19391836 -0.13226976 -0.083428115 0.02589871 0.010237452 0.22980452 -0.0077969227
0.06796645 -0.15507774 -0.5257294 -0.22316082 0.6029157 -0.25714967 0.77769464 0.056226674
-0.24129762 -0.09363609 1.1321203 0.0445239 0.8977418 -0.5708034 -0.25206587 0.04935931
0.13576564 -0.22953339 -0.48972985 0.16390456 0.027320277 -0.25163823 -1.4165387 0.9199324
1.237023 0.66757023 -0.12858246 0.50830454 -0.054843627 -0.11547979 -0.26004165 -0.06945673
-0.027637374 -0.003765783 -0.14583312 -0.086665705 0.20679744 0.03575652 -0.058737174 -0.024805078
0.13616212 0.019964078 0.0016582399 -0.011660679 -0.02539282 -0.07164588 -0.025646202 -0.02858241
00000000: d853 1dbf eb0d eb3d fc94 093f e36d 41bf
00000010: d763 54be 3688 5ebe 6b1a 15bf f0bf 64bf
00000020: ab9b 3abf a5ea 8a3e e3f3 86bd b497 02bf
00000030: 25e6 89bf d859 8c3e 099d 893d f67b 5ebd
00000040: 60df cabe 8f20 42bd c9ce 0ebf 410e ee3e
00000050: 6cb8 fe3e 949e bd3e a03a 903d a2a6 1e3f
00000060: 0431 9b3c a9ba 4c3d f0c7 1cbd 2b56 8dbe
00000070: 56f7 d23e 7158 893f 3fdc edbd 35df dd3e
00000080: 888f b5be f2f0 2bbf af79 8bbd 2377 23bd
00000090: 1b27 aebf fc65 a8bf bbec 9dbe e896 1fbf
000000a0: 7ad0 713e eea9 5d3e 2456 443f 7a82 4ebe
000000b0: b3ad 06be ef50 93be ec80 5b3f 57c6 6bbf
000000c0: 91c1 a93f 16df 513f b8a1 26bf 4d15 0bbf
000000d0: 6626 9fbf d406 733d 4055 dc3e 7922 afbf
000000e0: b9f6 57bc f516 eb3e 098d 54bf fe6d 41c0
000000f0: cf0b 523e b446 e73c 3ef9 473d a42a ddbd
00000100: cf3e 293d 06e2 203c d602 13bd e75f 513d
00000110: 908c c83d 8b7e 94bd 6b5a 2138 3748 3dbb
00000120: 2b70 53bd af91 833c 8b91 743c 4cd7 4ebd
00000130: 4edc c43d 4813 093d 0831 d43c 04a1 873d
00000140: 0d9c fd3b 1a88 d43c 8e2c 4c3e cf02 fcbd
00000150: 9f9d 05bd ad1e b73c 45be 813d 9561 893d
00000160: 3fe3 e5bd e4cb fb3c f369 303c 9c35 44bc
00000170: 1541 963c e1c9 b6bd 9029 15be d022 ca3c
00000180: 958a a73c eebc 29bd 392b 89bc 9899 d63c
00000190: 0d23 283b 5e79 1abd 66b8 743a 8412 673d
000001a0: 14c9 6cbd a9e7 90bd 2b32 443d f90a 843d
000001b0: 9b19 e03d a9fe cebc 5de9 81bc bb9b 963d
000001c0: 0db6 c9bd d567 6c3e 96cf b23b 4cc8 77bc
000001d0: bbe6 e13b 267a b8bc 7a39 b33d 9d4f f73c
000001e0: 65de 5ebe 34a4 49bd 3e5c 03c0 4864 c33d
000001f0: 5eae 9abd 0d2b e3bb 5bec 743e 2b90 24be
00000200: ab47 f1be c4df ae3d ea36 063f a74d 38bf
00000210: 2d0f ccbe f2a5 f6be 39b4 76bf f40d dfbe
00000220: 98f8 3dc0 66ea fc3e 8d61 afbe d90b 0abe
00000230: 9362 373e ddc3 bdbe 1dfd 88bf e524 62bf
00000240: 47fd 1dbe e8fb 85bf 5acf 8d3d 1741 403d
00000250: ceaf d6be 2361 fa3e e582 9cbb 9696 e73b
00000260: 1656 cf3c f000 91bd 1db7 c03d c469 213b
00000270: 9693 bf3d d0b5 f43c d281 7e3d c7ab 53bd
00000280: 8c62 2cbb 35f5 5fbc 782d 4ebb 8ff8 9a3b
00000290: 11ea dabb 8674 b23d d8c1 223e b86d 93bd
000002a0: 60d6 cebd 3723 733d 248a d9bb fbce 713e
000002b0: d478 22bd d2c2 fbbd 5e34 dd3b de8f 903b
000002c0: 504e 6d3e 8dda 363d 4562 e5bd beab 45bd
000002d0: c37c 00be c873 13bc f128 903d b05b d03d
000002e0: ef67 ccbc 6126 8ebb c64c 933d b400 49bd
000002f0: 868b 0dbe 215b 1f3b a38c 4ebc 554a 813d
00000300: 8d3d 353d 3a4d d8bd d0a6 9a3d cdde 14bd
00000310: 3e78 3abe 2ace 8a3d ec5a 9cbd 903a 593d
00000320: 8a01 3ebc 8992 46be b971 07be 5cdc aabd
00000330: 8829 d43c fcba 273c e051 6b3e 547d ffbb
00000340: fe31 8b3d b3cc 1ebe 3496 06bf 4584 64be
00000350: af58 1a3f 1fa9 83be ff16 473f f14d 663d
00000360: b916 77be 47c4 bfbd 51e9 903f b15e 363d
00000370: 68d2 653f 2c20 12bf c70e 81be fd2c 4a3d
00000380: 2606 0b3e cd0a 6bbe dfbd fabe 99d6 273e
00000390: c6ce df3c bad6 80be 2451 b5bf b180 6b3f
000003a0: c556 9e3f e2e5 2a3f 1fab 03be 3f20 023f
000003b0: b6a3 60bd ab80 ecbd 2e24 85be 543f 8ebd
000003c0: c667 e2bc 5bcb 76bb 4755 15be ca7d b1bd
000003d0: b5c2 533e 6e75 123d 6496 70bd 0534 cbbc
000003e0: 156e 0b3e b58b a33c 4c59 d93a 6f0c 3fbc
000003f0: 9a04 d0bc 13bb 92bd fc17 d2bc a925 eabc

fc2.bias f4 [15]
-0.36254263 -0.20993988 0.65231997 0.55819815 -0.06714223 0.5983329 0.4310083 0.26862687
0.26572075 -0.10496147 -0.26537603 0.10678812 -0.22003174 0.46004003 0.63700897
00000000: 309f b9be 7bfa 56be 71fe 263f 13e6 0e3f
00000010: de81 89bd 582c 193f 1fad dc3e 7689 893e
00000020: 8d0c 883e 0af6 d6bd 5edf 87be bbb3 da3d
00000030: 0050 61be 5e8a eb3e 0513 233f

fc3.weight f4 [37, 15]
0.0061530266 -0.10389027 0.06970946 0.1026914 -0.13662691 0.12527743 0.12650943 0.13083613
0.06992205 -0.07043509 -0.19386901 -0.06324796 -0.10870857 0.10654074 0.14954402 -0.25091612
-0.20375392 0.058409955 0.2148988 0.015230631 0.142807 0.1328604 -0.03239515 0.03378544
-0.08714815 -0.14613204 -0.051771473 -0.041760806 0.044680316 0.15954897 -0.24038693 0.46178007
0.045732405 -0.036277745 0.58419544 0.12892216 0.119473256 0.7868196 0.22636886 0.6788132
-0.52313113 -0.095259875 0.22225346 0.079324335 0.15986498 -0.5573239 -0.65588135 0.16530651
-0.12094467 -0.20448934 0.024977773 0.10970311 -0.09141682 0.11763028 0.9847127 0.6380839
-0.14892446 0.23162787 0.273769 0.19707982 -0.03259978 0.074510746 0.11911466 0.06998009
-0.25112146 0.053253874 0.10820386 0.17490326 0.03197539 -0.03303734 -0.27046904 0.045274798
-0.14346153 0.091408156 0.14089014 0.26134497 0.1286022 0.16321853 -0.029634543 -0.11049714
0.082612894 0.15742788 0.14954877 0.12538591 -0.04172376 -0.26835546 0.1303417 0.2901629
0.21487644 0.2177715 -0.13338879 -0.060479254 0.22385874 0.18152818 0.10184331 0.05033599
0.21658444 -0.055781815 -0.005143032 -0.04165399 -0.3299788 0.5182131 0.28985453 0.14715485
0.27107176 -0.5254453 0.2918294 0.46597764 -0.12544297 0.23251584 0.28170702 0.013385774
-0.13944872 -0.06989742 -0.039134912 -0.13376704 -0.015233233 -0.007845686 0.12661591 -0.22272587
-0.51586837 0.21660054 0.15568869 0.1920082 -0.08653941 -0.03942239 0.07803948 -0.030532718
-0.08876386 0.056894056 -0.3254745 0.36211464 -0.09512841 -0.043900743 0.13005684 0.22823171
-0.07661836 0.2622497 0.16294043 0.13512136 -0.11327589 0.23259975 -0.14913926 -0.16842411
-0.30731672 -0.573047 1.1775179 0.2984454 0.10211568 0.1792966 -0.53044885 0.60278714
0.20367064 0.063041076 0.7120846 0.031203378 0.026075939 -0.2656336 -0.010527501 -0.7988692
0.803805 -0.75995487 -0.22086827 0.2670069 0.29192245 -0.12440099 0.7833019 0.12902619
-0.037016895 -0.8389828 0.18276025 0.012681129 -0.45699272 0.31434038 0.109998606 -0.25958818
-0.0017671969 0.7515862 0.054373622 0.24686372 0.24623014 -0.2824622 0.22556265 -0.051552538
0.00785685 0.006791912 0.19564196 0.19410445 0.057169437 0.13374442 0.05580683 0.1794506
0.18206224 0.2804167 0.23388016 -0.6834001 0.34417078 0.23683223 0.24504796 -0.47329783
0.024380358 0.12828295 0.1763131 -0.03812079 0.06588508 -0.44252118 0.08601213 -0.43821242
2.1221771e-05 0.22940895 -0.7787535 0.9482107 0.3208029 0.08805614 -1.0348321 -0.08797489
0.023834072 0.36855713 -0.034689646 0.17921822 -0.39015585 -0.020141317 -0.9768633 -0.022024423
0.1951201 0.48822063 -0.09089573 0.25145426 0.07200684 0.34414294 -0.040694397 0.17712362
0.55205375 0.07816517 0.30407408 0.11254632 0.15750058 -0.017274769 -0.007466488 0.22860289
0.5946663 0.25961095 0.28153268 0.19325607 -0.015209195 -0.020467672 0.09782555 0.004788232
0.13117766 0.12736155 0.3738229 0.099575505 0.14218342 -0.24708945 0.2465455 1.1297946
00000000: 549f c93b 6cc4 d4bd d5c3 8e3d de4f d23d
00000010: ede7 0bbe ba48 003e b08b 013e e8f9 053e
00000020: 4b33 8f3d 4640 90bd 9985 46be 2588 81bd
00000030: 99a2 debd 0832 da3d 1122 193e 1478 80be
00000040: dea4 50be 473f 6f3d 6e0e 5c3e e689 793c
00000050: 003c 123e 8f0c 083e c7b0 04bd 9a62 0a3d
00000060: bb7a b2bd a3a3 15be 530e 54bd 610d 2bbd
00000070: b502 373d ce60 233e fe27 76be 706e ec3e
00000080: e751 3b3d f997 14bd d58d 153f 2c04 043e
00000090: 65ae f43d 026d 493f 3dcd 673e b4c6 2d3f
000000a0: eceb 05bf 9c17 c3bd 6996 633e cc74 a23d
000000b0: a5b3 233e c7ac 0ebf d7e7 27bf 1c46 293e
000000c0: d7b1 f7bd a765 51be 309e cc3c 06ac e03d
000000d0: be38 bbbd 25e8 f03d 2216 7c3f 7759 233f
000000e0: a77f 18be db2f 6d3e 732b 8c3e 4bcf 493e
000000f0: 5987 05bd 1799 983d 63f2 f33d b951 8f3d
00000100: fe92 80be bc20 5a3d fc99 dd3d d719 333e
00000110: a0f8 023d 2952 07bd eb7a 8abe 1172 393d
00000120: 94e7 12be 3334 bb3d 8145 103e 02cf 853e
00000130: 4cb0 033e c222 273e 24c4 f2bc 534c e2bd
00000140: f330 a93d c634 213e 5023 193e 2a65 003e
00000150: 89e6 2abd e365 89be 4b78 053e 3b90 943e
00000160: 9208 5c3e 7eff 5e3e 1297 08be 18b9 77bd
00000170: 3a3b 653e 86e2 393e 3a93 d03d 1c2d 4e3d
00000180: 50c8 5d3e 797b 64bd e186 a8bb 609d 2abd
00000190: fbf2 a8be 9da9 043f d067 943e c3af 163e
000001a0: ebc9 8a3e 9583 06bf aa6a 953e 9f94 ee3e
000001b0: 1f74 00be a218 6e3e e73b 903e 0150 5b3c
000001c0: a5cb 0ebe 6126 8fbd ee4b 20bd 3afa 08be
000001d0: cf94 79bc 318b 00bc 9aa7 013e 4012 64be
000001e0: f30f 04bf 88cc 5d3e db6c 1f3e cc9d 443e
000001f0: 933b b1bd 5f79 21bd 2ad3 9f3d c01f fabc
00000200: d4c9 b5bd be09 693d 98a4 a6be 1767 b93e
00000210: afd2 c2bd 44d1 33bd 9f2d 053e 93b5 693e
00000220: 16ea 9cbd 9845 863e dbd9 263e 415d 0a3e
00000230: 31fd e7bd a12e 6e3e f6b7 18be 5f77 2cbe
00000240: 9e58 9dbe 35b3 12bf e8b8 963f d6cd 983e
00000250: 0722 d13d 8799 373e 7fcb 07bf 4250 1a3f
00000260: 098f 503e ae1b 813d 2d4b 363f 3a9e ff3c
00000270: 359d d53c 2101 88be 8a7b 2cbc b182 4cbf
00000280: 2ac6 4d3f 678c 42bf 4b2b 62be 21b5 883e
00000290: dc76 953e f2c5 febd 7986 483f 711f 043e
000002a0: 079f 17bd 94c7 56bf 8125 3b3e 83c4 4f3c
000002b0: f3fa e9be 39f1 a03e f346 e13d bee8 84be
000002c0: 4aa1 e7ba f467 403f e0b6 5e3d d8c9 7c3e
000002d0: c123 7c3e e39e 90be e5f9 663e c128 53bd
000002e0: 04ba 003c b08e de3b 5e56 483e 51c3 463e
000002f0: 802a 6a3d 4cf4 083e b495 643d e6c1 373e
00000300: 866e 3a3e c792 8f3e 487e 6f3e 4ff3 2ebf
00000310: 2737 b03e 2684 723e daed 7a3e 1854 f2be
00000320: 51b9 c73c 9b5c 033e 6c8b 343e 8c24 1cbd
00000330: c2ee 863d 2392 e2be 2127 b03d 615d e0be
00000340: 6805 b237 2eea 6a3e 645c 47bf f0bd 723f
00000350: 4740 a43e c756 b43d 6175 84bf 2e2c b4bd
00000360: ac3f c33c 85b3 bc3e bb16 0ebd fb84 373e
00000370: 82c2 c7be 67ff a4bc b713 7abf 906c b4bc
00000380: 90cd 473e 0ef8 f93e 8a27 babd 9dbe 803e
00000390: 5278 933d 8133 b03e 2baf 26bd e55f 353e
000003a0: 6553 0d3f 1015 a03d 99af 9b3e af7e e63d
000003b0: d547 213e d183 8dbc 71a9 f4bb e016 6a3e
000003c0: 0d3c 183f baeb 843e 0d25 903e ebe4 453e
000003d0: fd2f 79bc d2ab a7bc c358 c83d 9ae6 9c3b
000003e0: 7053 063e 116b 023e b765 bf3e 3eee cb3d
000003f0: 8898 113e 0405 7dbe 6c76 7c3e 1c9d 903f

fc3.bias f4 [37]
0.25818676 0.25209397 0.46018815 0.28652433 0.34323823 0.19640478 0.042288113 0.35926962
0.47440895 0.2642326 0.078739084 0.29552907 0.14891051 0.13461979 0.38534665 0.34760052
0.37009102 0.056518327 0.44614935 0.31569493 0.20792843 0.21693179 0.40721565 0.16922659
0.13740867 0.14873134 0.38698703 0.4001139 0.34282073 0.45048273 0.37282658 0.41821328
0.1940247 0.11888945 0.20242502 0.34865603 0.10342036
00000000: 0e31 843e 7612 813e c89d eb3e 51b3 923e
00000010: ecbc af3e 561e 493e 4d36 2d3d 30f2 b73e
00000020: bbe5 f23e 7f49 873e f541 a13d 964f 973e
00000030: ff7b 183e c5d9 093e 284c c53e b2f8 b13e
00000040: 927c bd3e c37f 673d b06d e43e c4a2 a13e
00000050: 31eb 543e 5e23 5e3e 927e d03e bc49 2d3e
00000060: dcb4 0c3e 074d 183e 2a23 c63e bbdb cc3e
00000070: 3386 af3e aca5 e63e 20e3 be3e 0d20 d63e
00000080: 69ae 463e 507c f33d 8148 4f3e 0b83 b23e
00000090: 0ece d33d
