CaseModels/03 37-Bus/_updatedGenModel_MW.pth (torch, 31560 bytes, 7 tensors)

bias f4 [37]
-0.12595348 -0.18605275 0.048236452 0.07307673 0.14502698 0.033473004 0.22078925 -0.21479213
-0.06107054 -0.10047346 0.04694852 -0.16523267 -0.028133607 -0.019948665 0.11032593 0.0282154
-0.07580334 0.15338863 -0.059254993 0.18044627 0.08023069 -0.010100387 0.096252546 0.09514429
0.12566721 0.22814256 0.031724706 0.212554 0.057309024 -0.18001382 -0.19892216 0.046051096
0.06399961 0.050041135 0.4301803 -0.06103851 0.21550672
00000000: f3f9 00be 9d84 3ebe 9693 453d 41a9 953d
00000010: f481 143e fd1a 093d 9416 623e 78f2 5bbe
00000020: 1a25 7abd 08c5 cdbd 174d 403d c132 29be
00000030: 7378 e6bc 626b a3bc 90f2 e13d fc23 e73c
00000040: c83e 9bbd e911 1d3e 5db5 72bd e8c6 383e
00000050: fd4f a43d 187c 25bc 0e20 c53d 02db c23d
00000060: e8ae 003e 349e 693e c4f1 013d c1a7 593e
00000070: debc 6a3d 8b55 38be 40b2 4bbe 13a0 3c3d
00000080: 3a12 833d eff7 4c3d 9840 dc3e 8403 7abd
00000090: cbad 5c3e

fc1.weight f4 [42, 128]
0.11084395 0.06685601 0.075050935 0.16453958 0.12859517 0.16641928 0.21838422 0.18479575
0.15914845 0.0777345 0.071882226 0.10082143 0.16544779 0.1628405 0.09566345 0.08258742
0.1577113 0.18944441 0.14644259 0.14312437 0.12121979 0.18838869 0.15066914 0.23518717
0.1634173 0.1920445 0.1419114 -0.08804665 -0.06920697 -0.038631715 0.085861005 -0.024538033
0.00945951 0.018846266 0.08558024 -0.042853735 0.08109803 -0.01789575 0.05277901 0.013851233
0.0017773136 0.049125724 0.05909232 -0.0098214075 -0.07989247 0.03160376 -0.053504083 -0.05231759
0.018556826 -0.020218909 0.030251272 0.0031718314 -0.071501076 0.008876443 0.06225852 -0.05491509
-0.019329473 -0.010144725 0.08161291 -0.036950078 0.03600724 -0.0704393 0.043638863 0.055213593
0.030597515 -0.022088446 0.025399841 -0.07310413 -0.078334026 -0.08359247 0.05381485 0.026270643
0.061641745 -0.053396642 -0.07024808 -0.055577826 0.03453503 0.052591942 -0.01329834 0.031472698
-0.06419231 0.018853081 0.060983844 -0.052022245 -0.032842975 -0.07286895 0.039691478 0.019143328
-0.054865252 -0.025911678 -0.076282345 -0.0028167143 -0.13264832 -0.08722845 -0.045174878 0.054561235
0.077909864 -0.015257008 -0.015008606 0.0672761 0.077628575 0.08688379 0.03484612 0.005655609
-0.071986586 -0.009426318 -0.04824261 0.07804871 -0.06812286 -0.03709207 -0.008038461 0.047918282
-0.08194265 -0.08253573 0.012387082 0.028413236 -0.007846365 -0.026099583 -0.004142591 0.026568137
-0.055606686 0.046591185 0.07230798 -0.0486915 0.076409385 -0.07932562 0.017442953 -0.11111843
0.15372549 0.07148223 0.09391367 0.12193476 0.1020461 0.20249979 0.13564143 0.11980226
0.20822152 0.14748684 0.13938539 0.10952516 0.16889147 0.1834663 0.16130216 0.14292115
0.051121835 0.12653995 0.15793554 0.14014755 0.13755305 0.14833795 0.1368609 0.11956239
0.15062883 0.085517645 0.07815279 -0.016836643 0.07430441 0.07169803 0.04866714 0.001909323
0.011805497 0.00467436 0.08331568 -0.031598512 0.058678605 0.044265576 0.02541808 0.0669627
0.017748311 -0.03322437 0.057433166 -0.006861262 -0.06691936 -0.0015430674 -0.06940697 -0.042450547
-0.038413744 0.03234461 0.0869681 -0.07219623 -0.000967063 -0.06058345 -0.051165357 -0.094068855
0.04170587 -0.07187377 0.053866945 -0.041177914 0.06603541 0.015366659 0.0555244 -0.016179048
-0.059356406 -0.057670504 -0.037606716 -0.08354544 0.06346933 -0.06094135 -0.048690915 0.015278682
-0.0833751 0.05299189 0.06857576 -0.041673675 -0.013255092 0.05026003 0.06889979 -0.12389147
-0.13803722 -0.048006356 -0.024924539 -0.07423919 -0.07306712 -0.073720604 -0.051364284 -0.044548802
-0.14118712 -0.13496202 -0.0432622 -0.07243407 -0.07670423 -0.07686816 0.044163205 0.04936876
-0.0682662 -0.050248515 -0.0465399 -0.01611095 0.017480798 -0.055882927 -0.016445257 0.036530346
-0.0048065186 -0.08054152 0.008305997 -0.049723312 -0.08632787 -0.035927236 0.041293673 -0.0727268
0.022795953 -0.017775033 0.009015888 -0.031497 -0.12618245 0.13905433 0.16468091 0.031499967
0.02010665 -0.035856135 0.0784285 -0.033039853 0.054913323 -0.06471287 -0.03288931 -0.045659736
00000000: 2702 e33d ceeb 883d 4eb4 993d 107d 283e
00000010: 74ae 033e d169 2a3e 1da0 5f3e 193b 3d3e
00000020: d0f7 223e 4433 9f3d fd36 933d 777b ce3d
00000030: 256b 293e a9bf 263e 33eb c33d 9823 a93d
00000040: 127f 213e b7fd 413e 0cf5 153e 328f 123e
00000050: 1542 f83d f7e8 403e 0349 1a3e e8d4 703e
00000060: dd56 273e 50a7 443e 3951 113e cd51 b4bd
00000070: 62bc 8dbd 4a3c 1ebd e5d7 af3d fc03 c9bc
00000080: 10fc 1a3c 7c63 9a3c b144 af3d 6687 2fbd
00000090: b916 a63d 1c9a 92bc ce2e 583d 48f0 623c
000000a0: c0f4 e83a 0e38 493d ca0a 723d f8e9 20bc
000000b0: aa9e a3bd f272 013d 1927 5bbd f84a 56bd
000000c0: 7c04 983c 20a2 a5bc 84d1 f73c 80de 4f3b
000000d0: 286f 92bd 806e 113c ca02 7f3d a5ee 60bd
000000e0: d858 9ebc 1036 26bc ab24 a73d f758 17bd
000000f0: 547c 133d 7b42 90bd aabe 323d a627 623d
00000100: a4a7 fa3c d4f2 b4bc 5413 d03c 9eb7 95bd
00000110: 976d a0bd 8732 abbd f66c 5c3d 8835 d73c
00000120: 0e7c 7c3d 70b6 5abd 3ade 8fbd 93a5 63bd
00000130: 9b74 0d3d a66a 573d 48e1 59bc 84e9 003d
00000140: 4277 83bd c771 9a3c 32ca 793d 4715 55bd
00000150: 5b86 06bd 513c 95bd 8893 223d 78d2 9c3c
00000160: 63ba 60bd ba44 d4bc eb39 9cbd a098 38bb
00000170: f6d4 07be d4a4 b2bd 4b09 39bd 9a7b 5f3d
00000180: 358f 9f3d 88f8 79bc a8e6 75bc 0dc8 893d
00000190: bbfb 9e3d 21f0 b13d ceba 0e3d b052 b93b
000001a0: b46d 93bd d870 1abc 0b9a 45bd 01d8 9f3d
000001b0: ff83 8bbd dbed 17bd c0b3 03bc f645 443d
000001c0: 8cd1 a7bd 7e08 a9bd 30f3 4a3c e0c2 e83c
000001d0: 0a8e 00bc cbce d5bc 92be 87bb 6ca5 d93c
000001e0: d6c3 63bd 66d6 3e3d 3516 943d bd70 47bd
000001f0: 867c 9c3d 7875 a2bd 86e4 8e3c 0f92 e3bd
00000200: 376a 1d3e 4765 923d cf55 c03d eeb8 f93d
00000210: 8cfd d03d 1b5c 4f3e 96e5 0a3e e35a f53d
00000220: 0638 553e ca06 173e 0bbb 0e3e ba4e e03d
00000230: e3f1 2c3e 97de 3b3e 652c 253e ec59 123e
00000240: 2165 513d b093 013e dbb9 213e d782 0f3e
00000250: b5da 0c3e e7e5 173e 4425 0c3e 20dd f43d
00000260: 723e 1a3e e023 af3d 920e a03d 00ed 89bc
00000270: e92c 983d 6bd6 923d 3257 473d 4042 fa3a
00000280: d86b 413c 602b 993b 69a1 aa3d 716d 01bd
00000290: fa58 703d d24f 353d 9439 d03c bd23 893d
000002a0: e864 913c 4716 08bd 0a3f 6b3d 70d4 e0bb
000002b0: 040d 89bd c040 caba 3e25 8ebd a0e0 2dbd
000002c0: bb57 1dbd c87b 043d 551c b23d 9edb 93bd
000002d0: 8082 7dba 5a26 78bd c492 51bd 2ca7 c0bd
000002e0: c6d3 2a3d 8e32 93bd 96a3 5c3d 2caa 28bd
000002f0: 933d 873d 70c4 7b3c 8e6d 633d ec89 84bc
00000300: b41f 73bd e837 6cbd 8009 1abd df19 abbd
00000310: 35fc 813d a39d 79bd 2070 47bd 7053 7a3c
00000320: 90c0 aabd 060e 593d 7371 8c3d 04b2 2abd
00000330: e32b 59bc 76dd 4d3d 551b 8d3d d0ba fdbd
00000340: a159 0dbe 50a2 44bd 8c2e ccbc b70a 98bd
00000350: 37a4 95bd d4fa 96bd 5b63 52bd ce78 36bd
00000360: 5b93 10be 7c33 0abe b433 31bd 5058 94bd
00000370: 1b17 9dbd 0e6d 9dbd 7ae4 343d e636 4a3d
00000380: 26cf 8bbd 63d1 4dbd 9fa0 3ebd 1cfb 83bc
00000390: e433 8f3c 7fe5 64bd 34b8 86bc d8a0 153d
000003a0: 0080 9dbb f4f2 a4bd e015 083c acaa 4bbd
000003b0: abcc b0bd 7028 13bd 8e23 293d caf1 94bd
000003c0: 94be ba3c f29c 91bc 60b7 133c 0003 01bd
000003d0: f935 01be 4264 0e3e 1da2 283e 1c06 013d
000003e0: b4b6 a43c e2dd 12bd 1f9f a03d cc54 07bd
000003f0: cbec 603d 2e88 84bd f1b6 06bd b405 3bbd

fc1.bias f4 [42]
-0.042693596 -0.054422926 -0.017585555 -0.23572834 -0.083670475 -0.15632913 -0.027896902 -0.021877741
-0.12033944 -0.046522964 -0.09741668 -0.13014202 -0.06145375 0.013461316 0.40219653 0.013673193
0.019230602 -0.00031576384 -0.12121213 -0.057225067 -0.15090989 -0.118034355 -0.65209186 -0.025699299
-0.08489417 -0.042174235 -0.09695185 -0.04349046 -0.45018953 -0.039936498 -0.14329258 -0.3230252
-0.3407771 -0.15934327 0.07626758 -0.033822358 -0.034267593 -0.12881435 -0.046078138 -0.23466197
0.43200594 0.02506174
00000000: 7bdf 2ebd 93ea 5ebd 950f 90bc c562 71be
00000010: 6d5b abbd be14 20be 0b88 e4bc f338 b3bc
00000020: 8674 f6bd dd8e 3ebd 6582 c7bd f343 05be
00000030: edb6 7bbd da8c 5c3c b4ec cd3e 8705 603c
00000040: 7f89 9d3c 1b8d a5b9 113e f8bd d564 6abd
00000050: 1f88 1abe ffbb f1bd 7eef 26bf 5687 d2bc
00000060: ffdc adbd e4be 2cbd b18e c6bd 0d23 32bd
00000070: 3e7f e6be 7494 23bd 4abb 12be 8f63 a5be
00000080: 567a aebe e22a 23be 2d32 9c3d 5089 0abd
00000090: 2d5c 0cbd e9e7 03be 6ebc 3cbd 3a4b 70be
000000a0: e22f dd3e 474e cd3c

fc2.weight f4 [21, 42]
-0.059783563 0.065765455 -0.05125758 1.145664 -0.01974099 0.964373 -0.01284195 -0.13956213
-0.08546679 0.063182846 0.10973766 2.1118565 -0.11107704 0.13724607 -0.5318716 -0.14416113
0.12022743 -0.06285655 -0.004637291 -0.014459435 -0.08710476 -0.08545887 0.77919334 0.09674364
0.08611384 -0.057348672 0.043901686 0.17310053 0.30962104 -0.09391952 0.16756001 0.6833081
0.17870146 0.011144868 -0.06692086 0.009264791 0.5499754 -0.13517743 0.05006734 0.020589298
-0.776127 0.2004136 -0.15594952 -0.20749724 -0.0988999 -0.04622971 -0.08776991 -0.22675304
-0.060757976 -0.09446496 -0.2185503 -0.20322226 -0.15195045 -0.24645765 -0.24531761 0.12369617
-0.10581278 0.07979746 0.042300142 -0.15149657 -0.09090037 0.0397307 -0.1877681 0.031338908
-0.7392685 -0.08941384 -0.09768239 -0.18606195 -0.18276753 -0.23145625 -0.24813959 -0.031179398
-0.15362452 -0.15718177 -0.3263244 -0.12966426 -0.019183196 0.011538268 -0.19158864 -0.057491824
-0.20726481 -0.09976856 0.15271829 0.020465277 0.030760033 0.02684829 0.025871824 -0.24858612
0.19576955 0.07464431 0.113137014 -0.03491557 -0.0052977814 0.07166435 0.043821514 -0.29451653
-0.15635811 0.05349339 -0.16445212 -0.09667847 0.2033987 -0.028541002 -0.093510725 0.1477707
-0.08059173 -0.13418713 -0.80551887 -0.06080837 0.40171868 -0.1458642 -0.037986945 -0.095380776
-0.16951501 -0.01541696 0.098931104 -0.35365173 -0.27446726 0.020295773 -0.19717109 0.0010608744
-0.32350037 -0.1326912 -0.010851553 0.52871585 -0.012754437 0.05586138 0.09040474 0.084100574
0.22471316 0.1841392 -0.011857709 0.106466234 0.042917255 0.23115198 0.1298697 -0.05338495
0.26365632 0.24436212 0.11024235 -0.09784531 0.1434838 0.11000968 -0.10544833 0.12941578
-0.020195542 -0.09416975 -0.028368233 -0.019907609 0.60400814 -0.038580343 0.07217445 0.05841971
0.16152664 0.114506826 0.32352287 0.057748724 0.15130161 0.19526096 0.22206055 -0.02041633
0.1454662 0.20172407 0.10579034 0.18216112 0.027694551 0.13605638 0.07018095 0.19951692
-0.123424605 0.021755245 -0.0089209415 -0.3230892 0.027057255 -0.14204404 -0.1034886 0.14277044
-0.18884145 -0.05304724 0.15504959 -0.3865679 0.0019672648 0.009641634 -0.21900502 -0.09217828
-0.4481687 -0.024269376 0.06668892 0.10152149 0.044172507 -0.03271279 -0.93856573 0.03766527
0.3953799 -0.10274147 0.092443965 0.03201715 -0.23873983 0.045857605 0.0948017 -0.20147052
-0.7275143 -0.028726604 -0.10178946 -0.1074239 -0.77728665 -0.033485524 -0.17668122 0.058522265
-0.18760736 -0.018900033 0.1921304 -0.03443166 0.20150101 0.26017624 0.1507994 0.13356262
0.16342862 0.07165987 0.030736672 0.2242295 0.1681158 0.34573165 0.23928481 -0.023244856
0.2469579 0.07869746 -0.075275004 0.15028872 -0.0024061194 0.030916126 0.071030855 0.07930333
0.8422249 0.04976352 -0.060294714 0.19243993 0.16642934 0.19310178 0.442099 -0.024877865
0.20408155 0.25836542 0.29691344 0.12475168 0.033244304 -0.005963295 0.18396963 0.21463244
0.09431707 0.08366169 -0.08313031 0.135863 0.14288813 0.058735147 0.09039742 0.20105337
00000000: 9cdf 74bd 0ab0 863d 78f3 51bd 1ea5 923f
00000010: dbb7 a1bc 26e1 763f 0b67 52bc 60e9 0ebe
00000020: 3609 afbd 0266 813d 23be e03d a828 0740
00000030: 5c7c e3bd 3c8a 0c3e bd28 08bf fa9e 13be
00000040: cc39 f63d efba 80bd 6bf4 97bb 44e7 6cbc
00000050: fb63 b2bd 0f05 afbd 3779 473f 8821 c63d
00000060: 745c b03d 71e6 6abd 41d2 333d 4441 313e
00000070: a686 9e3e e158 c0bd da94 2b3e 48ed 2e3f
00000080: 84fd 363e f798 363c ce0d 89bd 5acb 173c
00000090: 30cb 0c3f f46b 0abe 6913 4d3d e3aa a83c
000000a0: 42b0 46bf 3939 4d3e 3bb1 1fbe 287a 54be
000000b0: 088c cabd 5d5b 3dbd b6c0 b3bd f331 68be
000000c0: 5bdd 78bd d876 c1bd a6cb 5fbe 7f19 50be
000000d0: e698 1bbe 655f 7cbe 8a34 7bbe 6b54 fd3d
000000e0: 5fb4 d8bd da6c a33d ea42 2d3d eb21 1bbe
000000f0: f929 babd a9bc 223d 4846 40be 3a5d 003d
00000100: b340 3dbf 9a1e b7bd b40d c8bd 0687 3ebe
00000110: 6927 3bbe de02 6dbe 4e18 7ebe f06b ffbc
00000120: bf4f 1dbe 42f4 20be fe13 a7be b5c6 04be
00000130: 1426 9dbc 010b 3d3c d02f 44be 8c7c 6bbd
00000140: 3a3d 54be 7553 ccbd 2f62 1c3e cca6 a73c
00000150: 77fc fb3c f2f0 db3c 26f1 d33c 5c8d 7ebe
00000160: d077 483e 1edf 983d 61b4 e73d a103 0fbd
00000170: 0399 adbb c2c4 923d 307e 333d dfca 96be
00000180: 571c 20be e31b 5b3d 2366 28be 5dff c5bd
00000190: c047 503e d2ce e9bc 8d82 bfbd 3451 173e
000001a0: 470d a5bd 5a68 09be 7c36 4ebf 3312 79bd
000001b0: 12ae cd3e 6d5d 15be 3398 1bbd ff56 c3bd
000001c0: 5895 2dbe 6b97 7cbc 649c ca3d d711 b5be
000001d0: f986 8cbe 5243 a63c 38e7 49be 0a0d 8b3a
000001e0: d7a1 a5be 34e0 07be b6ca 31bc ec59 073f
000001f0: fcf7 50bc e7ce 643d 1f26 b93d ec3c ac3d
00000200: 351b 663e fd8e 3c3e d646 42bc f80a da3d
00000210: 01ca 2f3d 1bb3 6c3e 90fc 043e 2daa 5abd
00000220: f6fd 863e 103a 7a3e bec6 e13d 1f63 c8bd
00000230: 6bed 123e c14c e13d 4bf5 d7bd 9285 043e
00000240: 1f71 a5bc 12dc c0bd 7f64 e8bc 4815 a3bc
00000250: 47a0 1a3f 6c06 1ebd 33d0 933d 8149 6f3d
00000260: 3d67 253e 8e82 ea3d caa4 a53e ed89 6c3d
00000270: cfee 1a3e 7df2 473e d763 633e 2640 a7bc
00000280: 17f5 143e c190 4e3e 9ba8 d83d 7288 3a3e
00000290: afdf e23c 5d52 0b3e 08bb 8f3d 2a4e 4c3e
000002a0: 0ac6 fcbd 0e38 b23c 2429 12bc f36b a5be
000002b0: 2da7 dd3c fe73 11be d5f1 d3bd 6a32 123e
000002c0: a75f 41be 1048 59bd 52c5 1e3e 3aec c5be
000002d0: 3aed 003b f2f7 1d3c da42 60be f7c7 bcbd
000002e0: 5e76 e5be 92d0 c6bc 3394 883d 80ea cf3d
000002f0: 3bee 343d d9fd 05bd d845 70bf e646 1a3d
00000300: 3c6f ca3e 1f6a d2bd 4353 bd3d 6a24 033d
00000310: 3778 74be 2fd5 3b3d 6527 c23d 4a4e 4ebe
00000320: 613e 3abf 0e54 ebbc fe76 d0bd 1001 dcbd
00000330: 42fc 46bf 1e28 09bd eceb 34be 0bb5 6f3d
00000340: 251c 40be 3ed4 9abc d5bd 443e 3608 0dbd
00000350: 4856 4e3e d235 853e 286b 1a3e a4c4 083e
00000360: d559 273e 69c2 923d 79cb fb3c 6b9c 653e
00000370: 8c26 2c3e bd03 b13e 1407 753e ff6b bebc
00000380: 88e2 7c3e 222c a13d c829 9abd 49e5 193e
00000390: fcaf 1dbb d143 fd3c a078 913d c969 a23d
000003a0: 0d9c 573f d5d4 4b3d 97f7 76bd f90e 453e
000003b0: 746c 2a3e 79bc 453e cd5a e23e aacc cbbc
000003c0: c1fa 503e 7948 843e 0a05 983e cf7d ff3d
000003d0: 2e2b 083d bf67 c3bb 8962 3c3e 9bc8 5b3e
000003e0: 4f29 c13d d256 ab3d 3940 aabd ac1f 0b3e
000003f0: 4451 123e 4494 703d 4822 b93d efe0 4d3e

fc2.bias f4 [21]
-0.2814351 -0.00017192069 -0.15921317 0.17378692 -0.0839534 -0.081859864 -0.09840943 -0.15365604
-0.03651622 -0.0960243 0.13481407 0.017813642 -0.09316548 0.09589127 0.21996677 0.116779044
-0.031152602 0.12260278 -0.009271646 -0.075253285 -0.07345845
00000000: 4318 90be 9c45 34b9 c708 23be 33f5 313e
00000010: c3ef abbd 25a6 a7bd e28a c9bd 0258 1dbe
00000020: 0892 15bd 63a8 c4bd b30c 0a3e eaed 913c
00000030: 8bcd bebd a462 c43d f83e 613e da29 ef3d
00000040: be33 ffbc 2b17 fb3d 1ae8 17bc 651e 9abd
00000050: 6271 96bd

fc3.weight f4 [37, 21]
-0.00051356043 0.20571159 -0.2047589 0.11334362 -0.38405383 0.054952987 -0.050274614 0.1265354
-0.02565638 -0.06610591 -0.021768406 0.0093633 -0.25250253 -0.072842285 0.04728152 0.17436707
-0.15879466 0.121687815 -0.012446373 0.010137127 -0.110689 9.531979e-05 -0.23015475 -0.26133662
0.082276404 0.16584122 0.15750599 -0.088449314 0.010813564 0.0060340194 -0.072877884 -0.081988566
-0.06831978 -0.04814034 -0.03863181 -0.005224428 0.06785882 -0.026763393 0.19804704 -0.004555234
0.27910367 -0.11857929 0.00039467574 -0.20230949 0.23297505 -0.07781354 0.40330425 0.12173329
0.21707095 0.080927506 -0.16315408 -0.11434987 -0.0027559814 0.18371537 -0.07084385 -0.01103688
-0.09719351 -0.23851638 0.18012756 -0.057762273 -0.05893992 0.08482171 0.082253456 -0.00022271201
0.059004106 -0.009137571 -0.065808415 0.29193193 0.058402196 0.12542728 0.012868016 0.06447353
-0.0031336213 0.07298473 -0.0018216651 -0.16826107 0.022468721 0.021560103 -0.14618932 0.21545088
-0.14472419 0.066169396 -0.010354836 -0.20014569 -0.000125686 -0.111934274 -0.051571894 -0.030530088
-0.16283852 -0.14279842 -0.13080104 0.12735566 0.13938922 0.015134179 0.19490008 0.029227242
-0.031458344 0.10664898 0.06256945 0.020794109 0.00033479652 -0.16413079 -0.14222877 -0.018179819
0.07808618 0.0004266877 -0.11963972 0.11942259 -0.087807804 0.04847918 0.09520391 0.19015355
-0.04587599 0.009056697 -0.16599347 -0.048896693 0.011930005 -0.20220573 -0.13070902 -0.049157675
-0.062017396 -0.12373059 0.11585933 -0.07119433 -0.22212246 0.10601169 1.0184314e-05 -0.00092282373
0.31540698 -0.06499163 0.24684279 0.14989522 -0.06946904 -0.18558328 0.053910814 -0.04496992
0.13213241 -0.04696101 -0.33673063 -0.009499451 0.0038212573 -0.19570428 0.084313676 -0.11441366
-0.13129558 0.11089392 0.11642905 4.2359752e-05 -0.14056966 -0.25227708 0.118442915 -0.25154597
-0.025978135 -0.09126293 -0.23509218 0.020836093 0.12315787 -0.095579356 -0.12308094 0.23139292
-0.06564501 0.14774452 0.12167454 -0.25524503 0.010755777 0.06092032 -0.04760253 -0.072712146
-0.00014071999 -0.027569124 -0.04829636 -0.1843188 0.0076705622 -0.13251065 0.045580827 0.07533296
0.14070912 -0.086665586 -0.0818311 -0.03917786 0.04862475 0.1099223 0.08113843 0.13905069
0.004546913 0.15687038 -0.02024702 0.011069779 0.012669193 -0.00014551135 0.02042967 -0.027688503
-0.053312164 0.002240726 -0.04522897 0.0013100794 0.22892158 0.0006222462 -0.023155274 -0.031453088
0.029925792 -0.021878522 0.059459805 -0.053994488 -0.0394359 0.11288829 0.111436166 0.047002938
-0.065233596 -0.057158068 0.0006864618 0.20832205 0.27128148 -0.006880084 -0.14490819 0.11164756
0.03840373 0.18969221 -0.08913059 0.059807673 -0.081529066 -0.058288433 0.25105944 -0.11916993
0.021458752 0.009148947 -0.05864816 0.003541135 -0.03543739 -0.09524131 0.1442899 0.00034811677
-0.024701202 -0.13877048 0.04003553 -0.12065037 0.08641888 0.19214904 0.14511667 0.05173965
-0.09289455 -0.11844356 -0.031648096 0.019847834 -0.05139683 -0.0074173557 0.1629679 -0.121011965
0.14297013 -0.064740054 -0.14903721 -0.13467342 -0.00016987776 -0.20641415 0.12372965 -0.08803504
00000000: 75a0 06ba 0fa6 523e 51ac 51be b320 e83d
00000010: b4a2 c4be 6216 613d c1ec 4dbd 7f92 013e
00000020: 542d d2bc 8962 87bd a853 b2bc 8768 193c
00000030: 0348 81be 562e 95bd 44aa 413d 488d 323e
00000040: 119b 22be 7637 f93d dfeb 4bbc 3116 263c
00000050: eab0 e2bd 6ce6 c738 b0ad 6bbe eacd 85be
00000060: 8880 a83d 48d2 293e 4049 213e ea24 b5bd
00000070: 602b 313c 06b9 c53b 0041 95bd 9fe9 a7bd
00000080: 3eeb 8bbd ce2e 45bd 643c 1ebd ae31 abbb
00000090: 91f9 8a3d e73e dbbc d8cc 4a3e 1344 95bb
000000a0: ade6 8e3e b3d9 f2bd 7bec ce39 382a 4fbe
000000b0: 0391 6e3e b55c 9fbd e57d ce3e 4e4f f93d
000000c0: d947 5e3e 52bd a53d dd11 27be 4430 eabd
000000d0: b29d 34bb e21f 3c3e 9516 91bd 08d4 34bc
000000e0: 640d c7bd a33d 74be 5c73 383e 2298 6cbd
000000f0: fc6a 71bd 01b7 ad3d 8074 a83d cd87 69b9
00000100: 4aae 713d c0b5 15bc 90c6 86bd 1a78 953e
00000110: 2437 6f3d 0270 003e 5fd4 523c b30a 843d
00000120: 715d 4dbb 0579 953d f0c4 eeba a14c 2cbe
00000130: 5310 b83c d09e b03c a7b2 15be 289f 5c3e
00000140: 9432 14be d283 873d 54a7 29bc fef2 4cbe
00000150: 94ca 03b9 cc3d e5bd 0d3d 53bd 3c1a fabc
00000160: 24bf 26be c039 12be b5f0 05be 8669 023e
00000170: 0cbc 0e3e 59f5 773c e393 473e f86d ef3c
00000180: 77da 00bd c86a da3d 6924 803d 6858 aa3c
00000190: a187 af39 e711 28be 6ba4 11be d8ed 94bc
000001a0: a6eb 9f3d 0eb5 df39 ab05 f5bd d593 f43d
000001b0: 94d4 b3bd 1b92 463d 44fa c23d 9db7 423e
000001c0: 76e8 3bbd 8a62 143c 31fa 29be e647 48bd
000001d0: 1176 433c 050f 4fbe 96d8 05be 8f59 49bd
000001e0: f405 7ebd 7766 fdbd a847 ed3d 55ce 91bd
000001f0: 1274 63be a81c d93d 4cdd 2a37 a7e9 71ba
00000200: 067d a13e 551a 85bd 5bc4 7c3e 227e 193e
00000210: c945 8ebd 8b09 3ebe 96d1 5c3d 6132 38bd
00000220: b84d 073e 305a 40bd f567 acbe 96a3 1bbc
00000230: 0f6e 7a3b b466 48be a6ac ac3d b551 eabd
00000240: 5972 06be 5a1c e33d 5b72 ee3d 70ab 3138
00000250: 7ef1 0fbe 762a 81be 3392 f23d a2ca 80be
00000260: 19d0 d4bc 0fe8 babd 01bc 70be 74b0 aa3c
00000270: 313a fc3d 1cbf c3bd dc11 fcbd 44f2 6c3e
00000280: e470 86bd 574a 173e 8030 f93d 7aaf 82be
00000290: 0039 303c 9687 793d dffa 42bd 1bea 94bd
000002a0: 3c8e 13b9 a5d8 e1bc 67d2 45bd 11be 3cbe
000002b0: 5759 fb3b dfb0 07be f6b2 3a3d 2b48 9a3d
000002c0: 0d16 103e ba7d b1bd 1097 a7bd f778 20bd
000002d0: bf2a 473d f11e e13d e82b a63d 4e63 0e3e
000002e0: 45fe 943b a1a2 203e 14dd a5bc 055e 353c
000002f0: 7292 4f3c 6894 18b9 205c a73c 00d3 e2bc
00000300: db5d 5abd 25d9 123b 0342 39bd f8b6 ab3a
00000310: 6b6a 6a3e 3c1e 233a 21b0 bdbc f4d4 00bd
00000320: ef26 f53c 963a b3bc 208c 733d 5329 5dbd
00000330: 8a87 21bd fa31 e73d a538 e43d 2786 403d
00000340: 3199 85bd 941e 6abd acf3 333a 6052 553e
00000350: 68e5 8a3e 5472 e1bb d062 14be 7aa7 e43d
00000360: 3b4d 1d3d ad3e 423e 198a b6bd e4f8 743d
00000370: b6f8 a6bd dabf 6ebd dd8a 803e 5d0f f4bd
00000380: 44ca af3c 77e5 153c 0e39 70bd 6312 683b
00000390: cc26 11bd e00d c3bd bbc0 133e 7183 b639
000003a0: 2d5a cabc d919 0ebe 4cfc 233d 8b17 f7bd
000003b0: 62fc b03d b8c2 443e 7799 143e f5ec 533d
000003c0: 7f3f bebd 8a92 f2bd 6fa1 01bd ed97 a23c
000003d0: 7b85 52bd 4a0d f3bb 0fe1 263e 1fd5 f7bd
000003e0: c366 123e 6f96 84bd 369d 18be d4e7 09be
000003f0: 3721 32b9 3b5e 53be f965 fd3d b74b b4bd

fc3.bias f4 [37]
-0.21226321 -0.30587256 0.18094872 0.16585335 0.31505936 0.15606664 0.062888585 -0.12771127
-0.039768703 -0.006988242 -0.020827902 -0.1329527 0.16210592 0.19511728 0.017024131 0.08478061
-0.08759205 0.28985015 0.047112603 0.13092953 0.2470145 -0.013433887 0.016575305 0.25156933
0.048294578 0.08365662 0.20632017 0.32032335 -0.13133813 -0.34147108 -0.32421538 0.002838055
0.05538405 0.1653916 0.50084907 -0.07485786 0.3010508
00000000: 875b 59be 549b 9cbe 9f4a 393e 76d5 293e
00000010: 764f a13e efcf 1f3e bbcb 803d bec6 02be
00000020: 82e4 22bd 9ffd e4bb 479f aabc c124 08be
00000030: 18ff 253e d3cc 473e 3176 8b3c 75a1 ad3d
00000040: 7663 b3bd 3d67 943e 25f9 403d 6412 063e
00000050: 5ef1 7c3e ce19 5cbc efc8 873c b2cd 803e
00000060: 89d0 453d 2954 ab3d 9845 533e 6c01 a43e
00000070: 817d 06be 4cd5 aebe 8fff a5be a9fe 393b
00000080: 63da 623d 6a5c 293e a537 003f 144f 99bd
00000090: 5523 9a3e
