CaseModels/03 37-Bus/_updatedGenModel_Mvar.pth (torch, 31582 bytes, 7 tensors)

bias f4 [37]
0	0xbd55c43c	-0.052189097
1	0x3c2a1cc9	0.0103828395
2	0x3db55bc7	0.08855396
3	0xbd0dea35	-0.034647185
4	0xbdc53f92	-0.09631266
5	0xbd02e623	-0.031957757
6	0xbd6ef8e5	-0.058342833
7	0x3ddb4720	0.107069254
8	0xbcee74c0	-0.029108405
9	0xbcaae258	-0.020859882
10	0x3cabfe0b	0.02099516
11	0xbc95d190	-0.018288404
12	0xbd52eeeb	-0.05149738
13	0xbda6a6fa	-0.08137317
14	0x3d667429	0.056263123
15	0xbdca78a7	-0.09886294
16	0x3d8bad06	0.06820111
17	0x3d02434d	0.031802464
18	0x3caa976b	0.020824155
19	0x3c8a2e13	0.016867673
20	0xbd39d7b6	-0.045371734
21	0x3d62cb45	0.055369634
22	0xbd171ee6	-0.0368947
23	0xbdb9fdb3	-0.090815924
24	0x3c73c21c	0.014877822
25	0xbb94fcd4	-0.004546741
26	0xbd2bb362	-0.04191912
27	0xbd4ff526	-0.0507709
28	0xbda9fcdc	-0.08300182
29	0x3cd4de28	0.025984839
30	0x3daadcd9	0.083429046
31	0x3cdd9fb7	0.027053697
32	0x3d08cd52	0.033398934
33	0xbe235841	-0.15951635
34	0x3dd68b6c	0.10475811
35	0x3d836ab2	0.06416835
36	0x3dd3618f	0.10321342

fc1.weight f4 [42, 128]
0	0xbd519d6a	-0.051175512
1	0xbd0139aa	-0.031549133
2	0xbd004025	-0.031311173
3	0xbd497e4d	-0.049192715
4	0xbc64d8a7	-0.01396767
5	0xbcb38dda	-0.021918226
6	0xbce71fdb	-0.028213432
7	0xbc808326	-0.015687536
8	0xbcefecc2	-0.0292877
9	0xbce63ff0	-0.02810666
10	0xbc981f56	-0.01856963
11	0xbcb6df1c	-0.022323184
12	0x3cd836c0	0.026393294
13	0xbcc49b2f	-0.023999779
14	0xbcbd1ba7	-0.023084475
15	0xbf32f77e	-0.69908893
16	0xbd3dd91c	-0.04634963
17	0x3c2115d1	0.009831862
18	0xbe1df69b	-0.15426104
19	0xbddb9747	-0.10722213
20	0xbf5d1720	-0.8636341
21	0xbf3c1d11	-0.7348185
22	0xbf44cecc	-0.76878047
23	0xbf2b1d96	-0.6684202
24	0xbec22360	-0.37917614
25	0xbf16890e	-0.5880288
26	0xbe58132a	-0.2110106
27	0xbda43efd	-0.080198266
28	0x3c821964	0.015881248
29	0x3c412d98	0.011790656
30	0x3cc84b0c	0.024449848
31	0x3d87e463	0.06635358
32	0xbcec4e88	-0.02884604
33	0x3d455afe	0.04818248
34	0x3d67d6b2	0.056601234
35	0x3bb493d0	0.0055107847
36	0xbd3d7ac9	-0.046259675
37	0x3d6a78ca	0.0572441
38	0xbd0fdb9d	-0.03512155
39	0x3c5bce80	0.013415933
40	0x3d815f35	0.063169874
41	0x3c63aee8	0.013896681
42	0x3ce9fc78	0.02856277
43	0x3d5e4aba	0.054270484
44	0xbccbc2ac	-0.0248731
45	0x3d979c15	0.07402817
46	0x3d69e276	0.057100736
47	0xbda5a38f	-0.08087837
48	0x3c0059e0	0.007833928
49	0xbcecb1b4	-0.02889333
50	0x3bd3d190	0.006464191
51	0x3cb828b4	0.022480346
52	0x3cf6002c	0.030029379
53	0x3d5297d6	0.051414333
54	0x3c2f0ac8	0.010683723
55	0x3eb09e6d	0.3449587
56	0xbd866b01	-0.06563378
57	0x3bdb7690	0.0066974834
58	0x3d815647	0.06315284
59	0x3d25b1a2	0.040452607
60	0x3d0c6996	0.034280382
61	0xbd5eab37	-0.054362502
62	0x3c8e6e88	0.01738669
63	0xbd623578	-0.055226773
64	0xbd6abf9a	-0.05731163
65	0x3cae079c	0.021243863
66	0xbd860d4c	-0.06545505
67	0x3d2a2266	0.04153671
68	0x3d8adb91	0.0678016
69	0x3dafecd1	0.08590091
70	0x3d64db52	0.055873223
71	0xbd252dbc	-0.04032682
72	0x3dab2dd9	0.08358354
73	0x3d859b5d	0.06523774
74	0x3d4b9906	0.04970648
75	0x3cbd0098	0.023071572
76	0x3e9a02d4	0.30080283
77	0xbd5c71df	-0.053819533
78	0xbd9323de	-0.071845755
79	0x3ea965a1	0.3308535
80	0x3ea242d5	0.31691614
81	0x3ed5ebac	0.41781366
82	0x3da715c7	0.081584506
83	0xbd8d6e27	-0.069057755
84	0x3d04e004	0.0324402
85	0x3d868123	0.065675996
86	0x3ea2f645	0.31828514
87	0x3ec20360	0.378932
88	0x3e9a0fdb	0.30090222
89	0x3ee35945	0.44404045
90	0x3eb90ce9	0.36142662
91	0x3dac68af	0.08418404
92	0x3ed6d952	0.41962677
93	0xbcb379e0	-0.0219087
94	0xbbc2a660	-0.0059402436
95	0x3d7921d6	0.060823284
96	0x3bb32ee0	0.0054682344
97	0xbd82d7c5	-0.06388811
98	0xbb9a62e0	-0.004711494
99	0x3da41025	0.08010892
100	0x3d999a29	0.07500107
101	0xbd24ad3e	-0.04020428
102	0x3daf0047	0.08544975
103	0xbd933fc3	-0.07189896
104	0x3c45e848	0.012079306
105	0xbd2c1734	-0.042014316
106	0xbd214f47	-0.039382245
107	0xbc92887c	-0.017887346
108	0xbb211a60	-0.002458237
109	0x3d4bf12e	0.049790554
110	0xbcb34d10	-0.021887332
111	0xbd93dff2	-0.072204486
112	0xbd359e64	-0.044340506
113	0x3eb66610	0.35624743
114	0xbda32c66	-0.07967453
115	0xbdabe9b1	-0.083941825
116	0x3eb21f97	0.34789726
117	0xbea7e6e8	-0.32793355
118	0xbeb8b051	-0.3607202
119	0x3d1085f8	0.035284013
120	0xbcc4959c	-0.02399712
121	0xbc3bdf40	-0.011466801
122	0x3dab3cc1	0.08361197
123	0x3ecd3d0e	0.40085644
124	0xbeadf3e3	-0.33975133
125	0x3eb5f845	0.35540977
126	0x3eb6abc7	0.3567793
127	0x3ec9c7e3	0.39410314
128	0x3e2726da	0.16323414
129	0x3d7f7811	0.062370364
130	0x3e39e6e5	0.18154486
131	0x3dfcc5f0	0.12342441
132	0x3e30edc3	0.17278199
133	0x3df3df5a	0.11907835
134	0x3e4de2d9	0.20106067
135	0x3e719947	0.23593627
136	0x3e0653ff	0.1311798
137	0x3e42ca38	0.19022453
138	0x3e19e356	0.15028128
139	0x3e7e3bbe	0.24827477
140	0x3e737f81	0.23779108
141	0x3e77c1e2	0.24195054
142	0x3caf7cb0	0.02142176
143	0x3d025dbd	0.031827677
144	0x3e0ccda6	0.13750324
145	0x3c346e2b	0.011012594
146	0x3e316e45	0.1732722
147	0x3e08e71c	0.13369411
148	0x3f088da8	0.5334115
149	0x3e1307f5	0.14358504
150	0x3cabe93c	0.020985238
151	0x3d12bfa1	0.035827283
152	0x3dd1d7d5	0.10246245
153	0x3d158c2b	0.036510628
154	0x3e0a4158	0.13501489
155	0x3d9b29d3	0.07576337
156	0xbd9a5c05	-0.075370826
157	0xbc683018	-0.014171623
158	0x3d1b632e	0.037936382
159	0x3da224c3	0.07917168
160	0xbd2ff49d	-0.04295789
161	0x3d10017c	0.035157666
162	0xbd5afea4	-0.0534655
163	0xbd358391	-0.044314925
164	0x3a97be00	0.001157701
165	0x3d2f1bce	0.042751126
166	0x3da3cbd5	0.07997862
167	0x3cfcebbc	0.030874126
168	0x3b6ab420	0.003581293
169	0x3b8d57a0	0.004313424
170	0xbd9b567c	-0.07584855
171	0xbc81b3b4	-0.01583276
172	0xbda6423b	-0.08118101
173	0x3c46cba0	0.012133509
174	0xbd2454d2	-0.040119953
175	0xbb92c310	-0.0044788197
176	0x3d6ce6d2	0.057837315
177	0x3d086ac4	0.033304945
178	0x3d28bf82	0.04119826
179	0xbd00e482	-0.031467922
180	0xbcb0ee30	-0.021597952
181	0xbcc05b90	-0.02348116
182	0xbd8baf79	-0.06820578
183	0xbf008ed3	-0.5021793
184	0x3d96d799	0.07365341
185	0x3d86217f	0.065493576
186	0x3d0afd42	0.03393293
187	0xbd29b4fb	-0.041432362
188	0xbd56a84b	-0.05240659
189	0xbd8ecb9a	-0.06972428
190	0xbcc9c8e0	-0.024631917
191	0xbd2223c6	-0.039584897
192	0xbd07b469	-0.033131037
193	0x3d0e0c06	0.034679435
194	0x3d9886e7	0.074476056
195	0xbcc9b934	-0.024624445
196	0x3d46e19e	0.04855501
197	0x3d74e0e2	0.059784777
198	0x3cb14928	0.021641329
199	0xbd8556ce	-0.06510697
200	0x3cffe308	0.031236187
201	0x3da9af95	0.08285443
202	0xbd7884bd	-0.060673464
203	0x3d81acd9	0.06331796
204	0xbf033f7d	-0.5126875
205	0xbcda86e2	-0.026675645
206	0x3d9d8dc7	0.076930575
207	0xbef52816	-0.47882146
208	0xbefc6f84	-0.4930383
209	0xbeccb900	-0.39984894
210	0x3d747dbe	0.05969023
211	0x3cbe7008	0.02324678
212	0x3ccdabd4	0.025106348
213	0xbd85635e	-0.065130934
214	0xbf052b54	-0.5201924
215	0xbef18336	-0.47170419
216	0xbefbfcf7	-0.49216434
217	0xbecbee55	-0.3983027
218	0xbef19079	-0.47180536
219	0x3c1201d8	0.008911572
220	0xbef6b22d	-0.48182812
221	0x3cb853ac	0.022500835
222	0xbd659090	-0.05604607
223	0xbd323038	-0.043503016
224	0x3cff0844	0.031131871
225	0xbd20194d	-0.03908663
226	0xbd723a34	-0.059137538
227	0xbd05e45f	-0.032688495
228	0x3d35bf72	0.04437203
229	0x3d080db2	0.033216186
230	0x3d32c12a	0.043641247
231	0xbd324380	-0.043521404
232	0x3be06200	0.00684762
233	0xbbd9a0e0	-0.0066414922
234	0xbd769ae6	-0.060206316
235	0x3aebd340	0.0017992035
236	0x3d29da6e	0.041468076
237	0xbd7aa294	-0.061190203
238	0xbd0bdc02	-0.034145363
239	0xbc8c1024	-0.01709754
240	0x3c3b8130	0.011444375
241	0xbefecb8c	-0.4976467
242	0xbbc8d4b0	-0.00612887
243	0xbbad4400	-0.0052876472
244	0xbef4afe0	-0.47790432
245	0x3ed1af30	0.4095397
246	0x3f057caf	0.5214338
247	0x3c5df4b8	0.013547115
248	0x3cfa9574	0.030588843
249	0x3d528f6e	0.051406316
250	0x3d13ca96	0.036081873
251	0xbf007a21	-0.50186354
252	0x3ef4898c	0.4776119
253	0xbefb7d20	-0.491189
254	0xbf0333c0	-0.5125084
255	0xbee44453	-0.44583377

fc1.bias f4 [42]
0	0x3ea416f3	0.3204876
1	0xbee84ea3	-0.45372495
2	0xbf08ab42	-0.5338632
3	0xbdb3e63c	-0.08784148
4	0xbe3d90d2	-0.18512276
5	0xbe705dba	-0.23473254
6	0x3e993061	0.29919723
7	0xbe9139c5	-0.28364387
8	0xbe94aa4c	-0.29036176
9	0xbe0c66b7	-0.13711058
10	0xbe77da12	-0.24204281
11	0xbce824ea	-0.028337914
12	0xbeb55326	-0.35415
13	0xbed2a169	-0.4113877
14	0x3ebed360	0.3727064
15	0xbea51987	-0.32246038
16	0x3db3774f	0.08762991
17	0xbe58c344	-0.21168238
18	0x3c1a1ba5	0.009406005
19	0x3e657809	0.22409071
20	0xbcb5ae66	-0.022177886
21	0xbdc2be0a	-0.09508903
22	0x3e62380f	0.22091697
23	0x3de83d0f	0.11339771
24	0x3edbabba	0.42904454
25	0x3ec8cb1c	0.3921746
26	0xbd855011	-0.06509412
27	0xbe0c8eca	-0.13726345
28	0xbdf48e66	-0.11941223
29	0xbd5638b1	-0.05230016
30	0x3e8ed00f	0.2789311
31	0xbc27f8f6	-0.010252228
32	0x3d0f13d8	0.034931034
33	0x3d40b7ec	0.0470504
34	0xbecc72dd	-0.39931384
35	0xbe229af1	-0.15879418
36	0x3dc502ba	0.09619661
37	0x3e92a7d6	0.28643674
38	0xbda3b4be	-0.07993458
39	0xbe6e438a	-0.23267952
40	0xbec8e517	-0.39237282
41	0x3d9e1e61	0.07720638

fc2.weight f4 [21, 42]
0	0x3f3b812c	0.73243976
1	0x3eb3ec7d	0.35141364
2	0x3d3db5ee	0.04631608
3	0x3ec1029b	0.376973
4	0xbdf6c5d7	-0.12049454
5	0xbc9b368e	-0.018946912
6	0xbe6b03fc	-0.22950739
7	0xbd7744c6	-0.06036832
8	0xbe3001cd	-0.17188187
9	0xbd0d9584	-0.034566417
10	0xbdc06640	-0.09394503
11	0x3a842a00	0.0010083318
12	0x3f446030	0.7670927
13	0x3c3c3434	0.011487056
14	0xbe4dcb92	-0.20097187
15	0x3e0633fd	0.1310577
16	0x3ea0081a	0.3125618
17	0x3d5f1088	0.054459125
18	0xbe36b8a0	-0.17843866
19	0x3e04c097	0.12964092
20	0xbe4617f7	-0.1934508
21	0x3e89f8a2	0.26947504
22	0xbe2191bc	-0.1577825
23	0x3f13dc9f	0.57758516
24	0xbe67cdc3	-0.22637086
25	0xbe370089	-0.17871298
26	0xbea5c41c	-0.32376182
27	0x3e0d3112	0.1378825
28	0xbda521fc	-0.08063123
29	0xbe081908	-0.13290799
30	0x3e0d08f4	0.13772947
31	0x3e37d092	0.17950657
32	0xbe086ac3	-0.13321976
33	0xbe1acab1	-0.15116383
34	0x3d14d55a	0.03633628
35	0xbc011c98	-0.007880352
36	0x3d6ed39d	0.05830728
37	0xbd266205	-0.040620822
38	0x3c148d6a	0.009066919
39	0x3c90f5c4	0.017695315
40	0x3f2ce902	0.6754304
41	0xbcca5f09	-0.02470352
42	0x3d18c8e6	0.037300967
43	0x3c248c02	0.010043146
44	0xbc308621	-0.010774166
45	0xbcaeb893	-0.021328246
46	0x3c4e8447	0.01260478
47	0xbdb0cb90	-0.086325765
48	0x3e63e2b1	0.22254445
49	0xbc09bd92	-0.0084070135
50	0xbca5bb5e	-0.020230945
51	0x3ecb902d	0.39758435
52	0xbc1c268e	-0.0095306765
53	0x3da8b630	0.082378745
54	0x3e7d7e52	0.24755219
55	0xbb8d0cbe	-0.0043044975
56	0xbda114e8	-0.07865316
57	0x3be13018	0.0068721883
58	0xbc0d2b9d	-0.008616355
59	0x3e8ddd7c	0.27708042
60	0xbd444f95	-0.047927458
61	0xbdd34eb1	-0.103177436
62	0xbe848f68	-0.2589066
63	0x3eba7123	0.3641444
64	0x3d265bc3	0.040614855
65	0xbe5deaa4	-0.2167154
66	0x3e42ef70	0.1903665
67	0x3dd310ba	0.10305925
68	0x3eada301	0.33913425
69	0xbca178a7	-0.019710852
70	0x3dcb5852	0.09928955
71	0xbe66294c	-0.22476691
72	0x3d6f3751	0.058402363
73	0x3be5c3a1	0.007011846
74	0x3cf4e4c6	0.029894244
75	0xbddf4a28	-0.10902816
76	0x3c0d41ee	0.008621676
77	0x3ee8e246	0.45485133
78	0x3d17a4be	0.037022345
79	0xbe9235ad	-0.28556576
80	0xbc403354	-0.011730988
81	0xbc80e93d	-0.015736217
82	0x3d1de021	0.038543824
83	0xbc52eac5	-0.012873356
84	0x3d8e8177	0.06958287
85	0x3f30fa72	0.6913215
86	0x3f7a9eb0	0.9789839
87	0x3cce2a89	0.025166767
88	0x3e1669b2	0.14688757
89	0xbe8056b2	-0.25066143
90	0xbf2522d9	-0.645063
91	0x3f208063	0.626959
92	0x3dd34bff	0.103172295
93	0x3da0846d	0.07837758
94	0x3d2db8d9	0.042412613
95	0x3d2ff489	0.042957816
96	0xbd44d62d	-0.048055816
97	0x3f7e3c47	0.99310726
98	0xbe30789b	-0.17233507
99	0x3f2b392d	0.6688412
100	0x3cf8c4b4	0.030367233
101	0x3e8ffb1f	0.28121278
102	0xbc128f65	-0.008945321
103	0xbf1c78d4	-0.6112187
104	0xbdebd866	-0.11515884
105	0xbd918016	-0.071045086
106	0xbf4474fc	-0.76741004
107	0xbe19beca	-0.15014187
108	0xbf81c813	-1.0139183
109	0xbf298f7e	-0.66234577
110	0xbd864627	-0.06556349
111	0x3e082e6c	0.13298959
112	0xbd3b24c4	-0.04568936
113	0x3dd144cc	0.102182
114	0xbf201059	-0.62524945
115	0x3da5fdb4	0.08105031
116	0xbd7f630e	-0.062350325
117	0xbd5f9a4e	-0.054590516
118	0x3e84995d	0.25898257
119	0x3d239851	0.039940182
120	0x3dc717ce	0.09721337
121	0xbef96c6b	-0.4871553
122	0x3e82027b	0.25392517
123	0x3ddcb9ec	0.10777649
124	0x3eb58672	0.35454136
125	0x3f3f6609	0.7476507
126	0xbe768f2b	-0.24078052
127	0x3cd623c5	0.026140103
128	0x3f450388	0.76958513
129	0xbe1abac5	-0.1511031
130	0x3e6042c7	0.21900474
131	0xbba3d32c	-0.004999539
132	0x3d93b239	0.07211728
133	0x3d03537a	0.03206203
134	0x3d85e806	0.065383956
135	0xbe57aa19	-0.21060981
136	0xbba0f495	-0.004911969
137	0xbd08250e	-0.033238463
138	0xbf189aab	-0.59611005
139	0xbd8d9c89	-0.06914622
140	0x3d653fd6	0.05596908
141	0x3d90acd0	0.07064211
142	0xbe221c9e	-0.15831229
143	0x3dcdc330	0.10046995
144	0x3e9dfb1a	0.30855638
145	0xbe244459	-0.16041698
146	0x3e9ecf42	0.310175
147	0x3e58cc6d	0.21171732
148	0xbd1a2b49	-0.037638936
149	0xbee50966	-0.44733733
150	0xbdf4a79a	-0.1194603
151	0x3e8232f4	0.254295
152	0xbc9dc022	-0.019256655
153	0x3e26d4ef	0.16292165
154	0x3e54ddf1	0.20787789
155	0xbd8b7f68	-0.0681141
156	0xbcdace4d	-0.0267097
157	0x3e379a4d	0.17929955
158	0x3e8e90e6	0.27844924
159	0x3e3dd22e	0.18537208
160	0x3ec00bd6	0.3750903
161	0xbdbe2e1d	-0.09286139
162	0xbc872c6f	-0.01650068
163	0x3dac58cf	0.084153764
164	0x3d6847ce	0.056709103
165	0x3e61bbbb	0.2204427
166	0xbef1d8f8	-0.47235847
167	0x3d8f4c5a	0.06996985
168	0xbb53fc93	-0.003234659
169	0xbe86aa80	-0.26301956
170	0x3da0eaeb	0.07857307
171	0x3e1c4fc1	0.15264799
172	0x3de63f22	0.112425104
173	0x3da14b87	0.07875734
174	0x3dba3341	0.09091807
175	0x3c2d061c	0.010560539
176	0xbcaddace	-0.021222498
177	0xbc37cb5f	-0.011217921
178	0x3d507a6e	0.050898008
179	0x3e0cb74d	0.13741799
180	0x3dcb1e97	0.09917944
181	0xbe02f7c5	-0.12789829
182	0xbdf55f7d	-0.119811036
183	0x3ddbe1f9	0.1073646
184	0x3e43aee8	0.1910969
185	0x3b2cfe26	0.0026396601
186	0x3e73f638	0.23824394
187	0x3da377b9	0.0798182
188	0x3dacc8d7	0.08436745
189	0x3e992917	0.29914162
190	0xbda777a7	-0.08177119
191	0x3ec58f57	0.38585922
192	0x3c2015e8	0.009770848
193	0x3c2f462f	0.010697885
194	0xbbfdd5a7	-0.0077464166
195	0xbbc0d739	-0.0058850315
196	0x3e47dfd0	0.19518971
197	0xbf3d76ed	-0.7400959
198	0x3dfd05a3	0.12354591
199	0x3d5f1cf0	0.054470956
200	0x3dcef25c	0.1010482
201	0x3d898dfc	0.067165345
202	0x3e124689	0.1428472
203	0xbe20be6a	-0.15697637
204	0xbdd9b15f	-0.10629534
205	0x3e02fa36	0.1279076
206	0x3d991909	0.07475478
207	0xba8ccbed	-0.0010741927
208	0xbd1475cc	-0.036245152
209	0xbd7ec5e8	-0.062200457
210	0xbe714d49	-0.23564638
211	0xbf65626c	-0.89603305
212	0xbd2a3c6d	-0.041561533
213	0xbd8e2dca	-0.06942327
214	0xbd518ea8	-0.05116144
215	0x3c76119c	0.015018847
216	0x3d47cf67	0.04878178
217	0xbdb9884f	-0.09059202
218	0xbf8c0686	-1.0939491
219	0x3e66b712	0.22530773
220	0xbeff2ede	-0.49840444
221	0x3e08ba46	0.13352308
222	0xbecf2fbc	-0.40466106
223	0xbe6c16df	-0.230556
224	0xbf47c794	-0.7803891
225	0xbe839e65	-0.25706783
226	0x3de2ea5f	0.11079859
227	0x3d3160d4	0.043305233
228	0x3d2366e0	0.03989303
229	0x3e2b4baf	0.1672809
230	0xbddfd19f	-0.10928654
231	0x3db0a2ae	0.08624779
232	0x3e20c902	0.15701678
233	0xbceb6f4a	-0.02873959
234	0x3dbbf5e4	0.09177759
235	0x3e49c64f	0.19704555
236	0x3d255d27	0.04037204
237	0xbe63cc4b	-0.222459
238	0xbcf4c101	-0.029877188
239	0x3e59f570	0.21285033
240	0x3e416c0c	0.18888873
241	0xbd1bc685	-0.03803112
242	0x3e470d6a	0.19438711
243	0xbe2fd581	-0.17171289
244	0xbed9be94	-0.42528212
245	0xbe7fc878	-0.24978817
246	0x3d49d242	0.049272783
247	0xbcc468ad	-0.023975695
248	0xbde84c5b	-0.11342689
249	0xbe0f6bd7	-0.14005981
250	0x3e81abbe	0.2532634
251	0xbe143429	-0.14473023
252	0x3e479cee	0.19493458
253	0x3ec1132c	0.3770994
254	0x3f44b39a	0.7683655
255	0xbd71c829	-0.05902878

fc2.bias f4 [21]
0	0xbdd661cb	-0.10467871
1	0xbd607d57	-0.054807033
2	0xbef44829	-0.47711304
3	0x3e6ef120	0.2333417
4	0xbd9bcbc6	-0.07607226
5	0xbe3e21af	-0.18567537
6	0xbc0f2a4d	-0.008738113
7	0x3e2956c8	0.1653701
8	0xbe00e4ba	-0.12587252
9	0xbe582835	-0.21109088
10	0x3e0e0eca	0.13872829
11	0xbe91ce3f	-0.28477666
12	0x3d475f2d	0.04867475
13	0xbe87b62a	-0.26506168
14	0x3d7ba3b9	0.061435435
15	0x3e1b6540	0.15175343
16	0xbdd7feb6	-0.10546629
17	0xbeac55c9	-0.336592
18	0x3dd9e0dc	0.10638592
19	0x3de672d8	0.112523735
20	0xbeb1e5da	-0.34745675

fc3.weight f4 [37, 21]
0	0x392a1b05	0.00016222529
1	0x3abfd759	0.0014636322
2	0x38954809	7.118291e-05
3	0x3a82f5fe	0.0009991524
4	0xbacf418a	-0.0015812379
5	0x3a26ed50	0.000636776
6	0x3a20e7d7	0.00061380625
7	0x383cf1d2	4.5047906e-05
8	0x3a3c2473	0.0007177062
9	0xbced288b	-0.028949996
10	0xb8a01543	-7.633355e-05
11	0xb8c03e79	-9.16691e-05
12	0xba87f608	-0.0010373006
13	0xbd9b64d3	-0.0758759
14	0x3b4a0e57	0.00308313
15	0xba32684d	-0.0006805703
16	0xbb8b4355	-0.00424997
17	0xb93fa7aa	-0.00018277639
18	0xbc4f269b	-0.012643482
19	0xb9f2ef7a	-0.0004633626
20	0x3d1e9878	0.038719624
21	0x3cf049c7	0.029332055
22	0xbb203efd	-0.0024451606
23	0x3f74a852	0.95569336
24	0x3e7f0988	0.2490598
25	0xbd1282e5	-0.035769362
26	0x3d6eb6e4	0.058279887
27	0x3ea92865	0.3303863
28	0x3e3c905a	0.18414441
29	0xbe776bdb	-0.24162237
30	0xbeaa5538	-0.33268142
31	0x3ca6d25f	0.020363985
32	0x3e8f24be	0.2795772
33	0xbd9d4344	-0.076788455
34	0xbe928f6a	-0.2862504
35	0x3ea6a664	0.3254882
36	0xbe43aabe	-0.19108102
37	0x3ea6fb4a	0.32613593
38	0x3e42c044	0.19018656
39	0x3dae274f	0.08503591
40	0x3ebfa441	0.37430003
41	0xbed0d29f	-0.4078569
42	0x3a225ccc	0.00061936374
43	0xbac5597c	-0.0015056576
44	0xbb4c879a	-0.0031208755
45	0xba3d0afe	-0.0007211416
46	0x3a8d5182	0.0010781738
47	0xba82f328	-0.0009990679
48	0xba6b5b5e	-0.00089781533
49	0xb81005a4	-3.433753e-05
50	0x3a3ff1bb	0.00073220924
51	0x3de644e0	0.112436056
52	0x388b9202	6.6552326e-05
53	0x3a1dc5d6	0.00060185546
54	0x3a9416f8	0.0011298349
55	0x3daa3e4c	0.083126634
56	0xbb2fca54	-0.0026823478
57	0xb978633e	-0.00023688094
58	0x3b6978a5	0.0035624888
59	0xb8ec1f2a	-0.00011259162
60	0x3c4c71cf	0.012478306
61	0x398bf862	0.00026697206
62	0xbde1b798	-0.11021346
63	0x389e81a0	7.558172e-05
64	0x39a72c24	0.0003188561
65	0xb895fe22	-7.1522096e-05
66	0x38d71f4b	0.00010257828
67	0xb99650fb	-0.00028670565
68	0x3937885a	0.00017503035
69	0x38f95010	0.00011888158
70	0xb817a1f5	-3.615204e-05
71	0x38ec3751	0.000112636604
72	0xbde03b70	-0.10948837
73	0xb90c046e	-0.0001335309
74	0xb7e1fa76	-2.693872e-05
75	0xb9b0bd35	-0.00033710306
76	0xbd19a11d	-0.037507165
77	0x3a505b0e	0.00079481385
78	0xb90a5132	-0.00013190953
79	0xbaa7edd9	-0.0012811973
80	0xb8de6a0d	-0.000106055384
81	0xbb6402b3	-0.0034791648
82	0xb8d77dfc	-0.00010275465
83	0x3dc8b576	0.09800236
84	0xb9012b32	-0.0001231849
85	0x3aaa5c7d	0.0012997534
86	0x3a145c16	0.0005659474
87	0x3a828e86	0.0009960688
88	0xbaafd810	-0.0013415832
89	0x3a04ef35	0.0005071045
90	0x3a399550	0.0007079439
91	0x37d8a1dc	2.5824578e-05
92	0xba443883	-0.00074852275
93	0xbd370920	-0.044686437
94	0x37b396f9	2.1408765e-05
95	0xb894f09b	-7.102006e-05
96	0xba8fbe0b	-0.0010966671
97	0xbd984a84	-0.07436088
98	0x3b3756b8	0.0027975272
99	0xba451d82	-0.00075193506
100	0xbb82f184	-0.003996076
101	0xb8a80f1d	-8.013679e-05
102	0xbc46f503	-0.012143376
103	0xb9dd6385	-0.00042226553
104	0x3d52b86c	0.05144541
105	0x3a5bd93b	0.0008386557
106	0xb7fab8a0	-2.9888295e-05
107	0xbb3b633e	-0.0028593089
108	0xb8fec68a	-0.000121486446
109	0x392dabbe	0.00016562545
110	0x38b268e8	8.507242e-05
111	0xb93818e2	-0.00017556877
112	0x3931fdfc	0.00016974652
113	0xb935d350	-0.00017340225
114	0xbcb40be7	-0.021978332
115	0x395c58b4	0.0002101388
116	0xb9348d46	-0.00017218766
117	0x38d8deae	0.0001034116
118	0xbaad68e1	-0.0013230109
119	0xb93dd2f9	-0.00018103038
120	0xb7b58008	-2.16365e-05
121	0xb78ef799	-1.7043016e-05
122	0xb909b23f	-0.0001313174
123	0x3a782ed0	0.0009467425
124	0x387151b5	5.7534973e-05
125	0x3c98d411	0.018655809
126	0xba550204	-0.00081256055
127	0xba0a8e00	-0.0005285442
128	0xba8c41af	-0.0010700728
129	0x3a405ff5	0.00073385175
130	0xb9e9c050	-0.00044584507
131	0xb8c055c4	-9.1712485e-05
132	0xb8be5fdd	-9.077762e-05
133	0xb8f6d911	-0.00011770626
134	0x3ab83949	0.0014055158
135	0x3d34d8e1	0.044152144
136	0xb9bcc0ed	-0.00036001895
137	0xba04b9a2	-0.0005063062
138	0xba19a980	-0.0005861744
139	0xbba4b550	-0.005026497
140	0x393720b5	0.00017464424
141	0xb95db016	-0.000211418
142	0xb9ed2c89	-0.00045237344
143	0xbac433d7	-0.0014969063
144	0xbb137cba	-0.0022504763
145	0xb8c6782f	-9.463762e-05
146	0xbd0c91b6	-0.03431865
147	0x3acf0501	0.0015794338
148	0xb97f3aeb	-0.00024340644
149	0xbb7e2436	-0.0038778908
150	0xb9c7046e	-0.00037959538
151	0x3a192ed1	0.0005843463
152	0xb8154898	-3.5591976e-05
153	0xba248aba	-0.00062767754
154	0x39873eb4	0.00025795924
155	0x3b035a14	0.0020042704
156	0x3d9e8786	0.07740693
157	0x39c71046	0.00037968362
158	0xba0b49a8	-0.0005313405
159	0x3a6bb213	0.00089910737
160	0x3d227a8c	0.03966765
161	0xba8fd02f	-0.0010972078
162	0x3a3957d0	0.0007070275
163	0x3ab8f260	0.0014110319
164	0x39489b3f	0.0001913132
165	0x3bb2df87	0.0054587754
166	0x38428cb8	4.638426e-05
167	0xbd9428aa	-0.072343186
168	0x37a37881	1.9487228e-05
169	0x39cd0b00	0.00039108843
170	0xb715d8d0	-8.931573e-06
171	0x3970beb8	0.00022959232
172	0xb9c5a8da	-0.00037700572
173	0x39400f4c	0.00018316245
174	0x391bea88	0.00014869322
175	0xb7fc0af2	-3.0045838e-05
176	0x38b4b0dd	8.616012e-05
177	0xbd357139	-0.04429743
178	0xb89702d8	-7.200771e-05
179	0xb7acfbb7	-2.0621212e-05
180	0xb99d0f62	-0.00029956835
181	0xbcd323e0	-0.025773942
182	0x3a5e997b	0.00084914983
183	0xb942ec3e	-0.00018589289
184	0xbaa36163	-0.0012464937
185	0xb8a85c6e	-8.0280806e-05
186	0xbb831e17	-0.0040013897
187	0xb88a845d	-6.6050074e-05
188	0x3d30350a	0.043019332
189	0x3ab2abb1	0.001363149
190	0xba69cc1e	-0.00089186605
191	0xbb953609	-0.0045535606
192	0xba2bde08	-0.00065562176
193	0x3a251451	0.0006297278
194	0xba265995	-0.0006345746
195	0xba4e7117	-0.0007875128
196	0xb8f70198	-0.00011778175
197	0xb8c8e194	-9.5787604e-05
198	0xbcd6b546	-0.026209485
199	0x38e4b98e	0.000109064495
200	0x3980f9e8	0.00024600257
201	0x3a01772c	0.00049387175
202	0x3cea02b7	0.028565748
203	0xbac146c8	-0.0014745826
204	0xb8168530	-3.5886827e-05
205	0x3abc704f	0.0014376732
206	0xb9ec6602	-0.0004508943
207	0x3bbdbef2	0.0057905847
208	0xb798f474	-1.8233644e-05
209	0x3c888ee2	0.016669694
210	0x38bcf7bd	9.0106834e-05
211	0xb97ab206	-0.00023908177
212	0xb96e6e56	-0.00022738552
213	0xb98f72f3	-0.0002736073
214	0x399e2889	0.0003016631
215	0xb790b99e	-1.7252572e-05
216	0xb91065d5	-0.00013770846
217	0xb84759c5	-4.75289e-05
218	0x38811c32	6.156451e-05
219	0xbdb011cb	-0.08597144
220	0xb912f518	-0.0001401495
221	0x380f730a	3.4200995e-05
222	0x389790a1	7.22718e-05
223	0xbbce3509	-0.0062929434
224	0xb9cf649a	-0.0003955707
225	0x38eb2310	0.00011212204
226	0x39d37200	0.00040329993
227	0xb891a850	-6.9454894e-05
228	0xb99b5fb8	-0.0002963522
229	0x388f5ec9	6.8364265e-05
230	0x3d942cc0	0.07235098
231	0x3b177e4a	0.0023116046
232	0x386cfc9c	5.6502045e-05
233	0xbb8ebc0e	-0.004355914
234	0xb9bb344f	-0.00035706392
235	0xb8ea1119	-0.00011161174
236	0xb8b67104	-8.699487e-05
237	0xba7ff0a5	-0.0009763337
238	0x37460f6c	1.180531e-05
239	0x3b844042	0.0040359804
240	0x3ceeb984	0.029141195
241	0x38f20104	0.000115396484
242	0xba3e9aca	-0.000727099
243	0x3a348ece	0.00068877346
244	0x3c222ba8	0.009898104
245	0xb968da3f	-0.00022206547
246	0x39d43847	0.0004047772
247	0x36862640	3.997964e-06
248	0xb8bc27a0	-8.971919e-05
249	0x3aaebf13	0.0013332091
250	0xb9a9deaf	-0.00032400104
251	0xbce03701	-0.027369978
252	0x39dd222e	0.0004217787
253	0x396e2aea	0.00022713435
254	0xbb740402	-0.0037233834
255	0x3902858e	0.00012447519

fc3.bias f4 [37]
0	0x3d5b1ff0	0.053497255
1	0x3da2b338	0.079443395
2	0xbdb63cc9	-0.088983126
3	0x3d0d1dd7	0.034452286
4	0x3dc75392	0.09732737
5	0x3d0474d9	0.032337997
6	0x3d732f8b	0.059371512
7	0xbddaa14e	-0.10675298
8	0x3cef86a0	0.029238999
9	0x3ca716a2	0.020396534
10	0xbcb1437d	-0.021638626
11	0x3c980e46	0.018561494
12	0x3d543cfd	0.051815975
13	0x3da4c91a	0.080461696
14	0xbd65b811	-0.056083743
15	0x3dcc736b	0.09982952
16	0xbd8eb74a	-0.06968553
17	0xbd02907e	-0.03187608
18	0xbcae1a55	-0.02125279
19	0xbc8b7ef1	-0.017028304
20	0x3d36e476	0.04465147
21	0xbd6023e1	-0.054721717
22	0xbe0175f5	-0.12642653
23	0x3db6d147	0.08926635
24	0xbc62f1a2	-0.013851555
25	0x3d4bb73c	0.049735293
26	0xbd3bc8ee	-0.04584592
27	0xbe799dc3	-0.24376588
28	0x3da6c88e	0.081437215
29	0xbccfa7fa	-0.025348652
30	0xbdadd09d	-0.084870555
31	0xbcccf8df	-0.025021015
32	0xbe08bfa4	-0.13354355
33	0x3c6a987f	0.014318584
34	0xbd6184e1	-0.055058364
35	0xbdad7c52	-0.08470978
36	0xbd817db3	-0.06322803
