CaseModels/03 37-Bus/_updatedModel_vang.pth (torch, 18301 bytes, 7 tensors)

bias f4 [37]
0	0xbd7c8dee	-0.061658792
1	0x3dfe08ce	0.12404023
2	0x3c46933b	0.012120063
3	0xbda4a9ab	-0.08040174
4	0x3da29860	0.079392195
5	0x3d044c7f	0.032299515
6	0x3dd43dd8	0.10363358
7	0x3da06d14	0.07833305
8	0xbd42ea5d	-0.047586787
9	0x3ceaf142	0.028679494
10	0x3d801ac8	0.06255108
11	0xbbadb200	-0.0053007603
12	0x3e09b224	0.13446862
13	0x3d059990	0.03261715
14	0x3d2c07a2	0.041999467
15	0xbd18b4a9	-0.037281666
16	0x3d639094	0.055557802
17	0x3cddf77b	0.027095547
18	0x3e092032	0.13391188
19	0x3d22a2d6	0.039706074
20	0xbba981df	-0.0051729525
21	0x3d2edb14	0.042689398
22	0xbce77792	-0.028255258
23	0xbd012bfc	-0.031536087
24	0x3ca70c10	0.020391494
25	0x3c0daf91	0.008647815
26	0x3cb87f88	0.02252175
27	0xbd85b217	-0.065281086
28	0x3e08f25f	0.13373707
29	0xbd3d524e	-0.04622107
30	0x3d4a1707	0.049338367
31	0xbd0503f2	-0.032474466
32	0x3d90cc97	0.070702724
33	0x3d75b4a4	0.059986725
34	0x3db353c2	0.0875621
35	0x3e16f391	0.1474135
36	0x3c9c29e7	0.01906295

fc1.weight f4 [30, 91]
0	0xbe96db05	-0.29463974
1	0x3dc31a34	0.09526482
2	0x3e81610a	0.25269347
3	0xbd1521f2	-0.036409326
4	0x3c83c1aa	0.016083557
5	0x3e263397	0.16230617
6	0xbe96f104	-0.29480755
7	0x3e402891	0.18765475
8	0xbe039982	-0.12851527
9	0x3e0a1b77	0.1348704
10	0xbccb5aaa	-0.024823505
11	0x3db4c0b8	0.08825821
12	0xbea23597	-0.3168151
13	0x3d4b4938	0.049630374
14	0x3e18f439	0.14936914
15	0x3e5ea913	0.21744184
16	0xbe80db61	-0.25167373
17	0x3de4d930	0.11174238
18	0xbd7fc1c2	-0.06244064
19	0xbe95bc56	-0.2924525
20	0xbdd35086	-0.10318093
21	0x3e9ec3ed	0.31008855
22	0x3d407241	0.04698396
23	0x3e96a774	0.29424632
24	0x3e67152f	0.22566675
25	0x3c2fb3bf	0.010724007
26	0x3e725c66	0.2366806
27	0x3dbe8725	0.093031205
28	0x3d555836	0.052086078
29	0x3cff6e94	0.031180657
30	0xbdbcc6e2	-0.092176214
31	0xbd573f6c	-0.05255072
32	0xbdafc71f	-0.08582901
33	0x3d0d56ae	0.034506492
34	0x3dcb3605	0.09922413
35	0x3d9b02f5	0.075689234
36	0xbd81bd77	-0.06334966
37	0xbbf0daf0	-0.007350318
38	0xbd76b0dc	-0.06022726
39	0x3d9a65fd	0.07538984
40	0x3b99db30	0.0046953186
41	0xbdd4afd9	-0.10385103
42	0x3d190016	0.037353598
43	0xbd5479b8	-0.051873893
44	0xbb746b40	-0.0037295371
45	0xbdce06c1	-0.10059882
46	0xbd9fa736	-0.07795565
47	0xbdaea608	-0.08527762
48	0xbd8f7227	-0.07004195
49	0xbd523143	-0.05131651
50	0x3c3ec0e0	0.011642665
51	0xbdd4d627	-0.10392409
52	0xbd2af29e	-0.041735284
53	0xbdc838b6	-0.09776442
54	0x3dca78af	0.098863
55	0xbe0d7377	-0.13813578
56	0x3d832f71	0.06405533
57	0xbd72c0de	-0.059265964
58	0xbd357b97	-0.044307318
59	0x3d14e596	0.036351763
60	0xbba56350	-0.0050472394
61	0x3d3dd12a	0.046342053
62	0x3d8f3bbd	0.06993816
63	0x3dd6375b	0.10459777
64	0x3d019706	0.031638168
65	0x3d513676	0.05107733
66	0x3d9861bf	0.074405186
67	0x3d480bbe	0.048839323
68	0x3db67ef9	0.08910937
69	0xbdb6662c	-0.089062065
70	0xbda126a6	-0.078687
71	0xbdcdcad2	-0.100484505
72	0x3d654c22	0.05598081
73	0xbdb5a65b	-0.088696204
74	0xbcc93bdc	-0.024564676
75	0x3d8dad99	0.06917877
76	0xbddc17bc	-0.107467145
77	0xbcab2878	-0.02089332
78	0xbc1b34f8	-0.009473078
79	0xbe2e1922	-0.17001775
80	0xbd771082	-0.060318477
81	0xbe25d6b5	-0.16195185
82	0xbd0c2c88	-0.034222156
83	0x3ced56c4	0.028972037
84	0xbd3eb605	-0.046560306
85	0x3dba8d9d	0.09109042
86	0xbe4fabd0	-0.20280385
87	0xbddfb1cc	-0.10922584
88	0xbe493896	-0.19650492
89	0xbde08297	-0.10962408
90	0xbb791435	-0.003800643
91	0xbe949a79	-0.29024103
92	0x3ec1a303	0.3781968
93	0xc001a95d	-2.025962
94	0xbdd5cf28	-0.104399025
95	0xbe08aa99	-0.13346328
96	0x3d4f24ac	0.050572082
97	0x3d5a409e	0.05328428
98	0x3e915d35	0.28391424
99	0x3e29e1e6	0.1659008
100	0xbef0fdb6	-0.47068566
101	0xbd4f7a1f	-0.050653573
102	0x3d63ac55	0.05558427
103	0xbf1279ab	-0.572169
104	0xbf140e44	-0.5783427
105	0x3e99f440	0.3006916
106	0xbe91ac61	-0.28451827
107	0xbed2e2ed	-0.41188756
108	0x3e4ae27a	0.19812956
109	0x3be7f84a	0.007079159
110	0x3d8867ff	0.06660461
111	0xbfa7b2b4	-1.3101411
112	0xbf0f2cbd	-0.5592764
113	0xbf478bc3	-0.77947634
114	0xbf2d0513	-0.6758587
115	0x3e97fdba	0.29685766
116	0xbec8909b	-0.39172825
117	0x3e2f7348	0.1713382
118	0x3d96565f	0.07340693
119	0x3da9488f	0.082657926
120	0xbd3a103b	-0.045425635
121	0x3a8cec80	0.0010751635
122	0x3c520538	0.012818627
123	0x3d614942	0.055001505
124	0xbd0f22f0	-0.03494543
125	0x3c862014	0.016372718
126	0x3b82d950	0.003993191
127	0x3d8b6f05	0.06808285
128	0xbcf3cbc4	-0.029760249
129	0x3d6df672	0.058096357
130	0x3d38b07e	0.04509019
131	0x3dc02da1	0.09383703
132	0xbdb9952b	-0.09061655
133	0xbcfd6de8	-0.030936196
134	0x3d598d2e	0.053113155
135	0x3c2d9ad0	0.010595992
136	0xbd56f20f	-0.05247694
137	0x3c91bd7c	0.017790549
138	0xbdb63aa4	-0.088979036
139	0xbcb8379c	-0.022487454
140	0x3d90f4c5	0.07077936
141	0xbd62808d	-0.055298377
142	0x3a814a40	0.0009864047
143	0xbdca8546	-0.09888701
144	0x3d05ab2e	0.032633953
145	0xbdd1874a	-0.102308825
146	0xbd6c189c	-0.057640657
147	0xbbcfb0e0	-0.006338224
148	0x3cd95da4	0.02653391
149	0xbd937f1c	-0.072019786
150	0x3d20161e	0.039083593
151	0x3dc5530b	0.0963498
152	0xbd10d106	-0.03535559
153	0x3d6200fa	0.055176713
154	0x3d7e01ae	0.06201332
155	0xbcc27eb8	-0.023742065
156	0x3d95a29d	0.07306407
157	0xbd63cd94	-0.055615976
158	0x3cdff754	0.027339615
159	0x3bc28330	0.005936049
160	0x3d1f1516	0.03883847
161	0xbdb4cf37	-0.088285856
162	0x3bb81f00	0.00561893
163	0x3d01387e	0.031548016
164	0xbd5a9613	-0.05336578
165	0x3db9caa3	0.09071853
166	0x3dbf42ad	0.09338889
167	0xbdee9c38	-0.1165089
168	0x3cad34b4	0.021143295
169	0x3dafcb91	0.08583749
170	0xbe379791	-0.17928912
171	0xbd29c667	-0.041448977
172	0xbe41b256	-0.18915686
173	0xbc077ec0	-0.008269966
174	0x3dac2c65	0.08406905
175	0x3d5d4952	0.054025
176	0x3dbd5c5f	0.09246134
177	0xbe0bd436	-0.13655171
178	0xbd52e73a	-0.051490046
179	0xbde41cec	-0.11138329
180	0xbd4fca64	-0.050730124
181	0xbe5e2225	-0.21692713
182	0x3def17ff	0.11674499
183	0xbcf54113	-0.029938256
184	0xbec2b318	-0.38027263
185	0xbdbccc0c	-0.09218606
186	0xbe349387	-0.17634402
187	0x3e0af3db	0.13569586
188	0x3e1378ef	0.14401601
189	0xbf0a1dba	-0.5395161
190	0x3c60866e	0.013703926
191	0xbe8f3662	-0.27971178
192	0x3e7e4aa3	0.24833159
193	0xbdfbe7bd	-0.1230006
194	0xbeaa85d4	-0.33305228
195	0x3de6762d	0.11253009
196	0xbce9ce0c	-0.028540634
197	0xbf4f2ae2	-0.8092481
198	0x3df972fb	0.12180134
199	0x3d433228	0.047655255
200	0xbea34ec0	-0.3189602
201	0x3e0c5a8f	0.1370642
202	0xbf439538	-0.76399565
203	0xbebb748f	-0.36612365
204	0xbf14d5ab	-0.5813853
205	0xbedd2314	-0.43190825
206	0x3f002e68	0.5007081
207	0xbf21e589	-0.6324087
208	0x3e815656	0.25261182
209	0xbd405b56	-0.046962105
210	0xbca7e640	-0.020495534
211	0x3db4ae05	0.08822254
212	0x3b9478f0	0.0045310184
213	0xbd8189f4	-0.063251406
214	0xbd49dfa1	-0.049285535
215	0x3d911303	0.07083704
216	0xbcf2e92c	-0.0296522
217	0x3dafe0f5	0.08587829
218	0xbc169b40	-0.009192288
219	0xbcc1c9f8	-0.023655877
220	0xbca2cba4	-0.019872494
221	0x3d41bbee	0.047298364
222	0x3aa8de00	0.0012883544
223	0xbcdfdafc	-0.0273261
224	0xbdbf8d36	-0.09353106
225	0xbdc93a05	-0.098255195
226	0xbd813d90	-0.0631057
227	0xbc799158	-0.015232407
228	0x3ccdf1c4	0.025139697
229	0xbca809c8	-0.020512477
230	0xbdb02aa6	-0.086018845
231	0xbd37d96f	-0.044885095
232	0xbcc1589c	-0.023601823
233	0xbdcc6354	-0.09979883
234	0x3d9f22bd	0.07770298
235	0xbd29380e	-0.041313224
236	0xbca4798c	-0.02007749
237	0xbe1e300e	-0.15448019
238	0xbca35cfc	-0.0199418
239	0xbd980e60	-0.07424617
240	0x3dc99207	0.09842306
241	0xbd87a1e2	-0.066226736
242	0xbd36e6ed	-0.04465382
243	0xbc4049e0	-0.011736363
244	0x3d34f4ea	0.04417888
245	0xbbfafdc0	-0.007659644
246	0x3da0fd53	0.07860818
247	0x3d93f615	0.07224671
248	0xbcf946a8	-0.0304292
249	0x3ccdaa0c	0.025105499
250	0x3dc0fafb	0.09422871
251	0xbd9cd306	-0.07657437
252	0xbdc9fa18	-0.09862155
253	0xbdc337c8	-0.09532124
254	0x3d50ce22	0.050977834
255	0xbda96a04	-0.08272174

fc1.bias f4 [30]
0	0xbb4ecf87	-0.0031556801
1	0xbe3d3e44	-0.18480784
2	0xbe188524	-0.14894539
3	0xbe85b579	-0.26115015
4	0xbd68aa7d	-0.056803215
5	0xbe4adb8e	-0.19810316
6	0xbe811d1d	-0.25217524
7	0x3ccb5515	0.024820844
8	0x3e059526	0.13045177
9	0xbe7562b5	-0.23963435
10	0xbe4f05fe	-0.2021713
11	0x3d528500	0.05139637
12	0xbe7a35cc	-0.24434584
13	0xbe76a822	-0.24087575
14	0x3c9966d7	0.018725796
15	0x3da7d84e	0.08195554
16	0xbe864258	-0.2622249
17	0xbd7758a9	-0.060387287
18	0xbdab6c4f	-0.083702676
19	0xbedca99b	-0.4309815
20	0xbc0c5ab3	-0.008566546
21	0x3dd80b03	0.10548975
22	0x3e226f42	0.15862754
23	0xbe0fb3a3	-0.1403337
24	0xbdd14fc6	-0.10220294
25	0xbedcb7f6	-0.431091
26	0x3e9f5a8b	0.31123766
27	0x3dd03ea9	0.101682015
28	0xbc7e1aed	-0.015509349
29	0x3b32e400	0.0027296543

fc2.weight f4 [15, 30]
0	0xbe5baea5	-0.2145334
1	0xbe51eda1	-0.20500804
2	0x3dd300ae	0.10302864
3	0xbc1125c3	-0.008859101
4	0x3c4acbd1	0.012377695
5	0x3eaab382	0.3334008
6	0x3dcbe8ae	0.099564895
7	0x3e0212d2	0.12702492
8	0xbcbbfbb9	-0.02294718
9	0x3da9e012	0.08294691
10	0xbedf1daf	-0.43577334
11	0xbd235fc2	-0.039886244
12	0xbd01c070	-0.031677663
13	0xbefcfc87	-0.49411413
14	0xbead3cb0	-0.33835363
15	0x3d4c6c4a	0.04990796
16	0x3c4701ab	0.012146394
17	0xbca55def	-0.020186393
18	0x3dcc974e	0.099897966
19	0xbc32ab6b	-0.010905127
20	0xbdd571af	-0.10422074
21	0x3ce46cec	0.02788397
22	0x3dc59208	0.09646994
23	0x3e81d798	0.25359797
24	0xbf09475c	-0.5362451
25	0x3e08cb59	0.13358821
26	0xbc02cb08	-0.007982977
27	0x3e29da33	0.16587143
28	0x3dc1a78e	0.09455787
29	0x3dd3cd72	0.1034192
30	0x3cb5a2e4	0.022172399
31	0xbe7137d0	-0.23556447
32	0x3d25084a	0.04029111
33	0x3d884268	0.06653291
34	0x3bdc19d9	0.0067169485
35	0x3e45d9a8	0.1932131
36	0xbe90ac00	-0.28256226
37	0xbcea62be	-0.028611537
38	0x3de7f82c	0.11326632
39	0x3da6601b	0.081237994
40	0x3eff8c05	0.49911514
41	0x3de954ed	0.113931514
42	0xbe956120	-0.29175663
43	0x3e82ebe1	0.25570586
44	0x3d8ce52a	0.06879647
45	0xbc2a34e9	-0.010388591
46	0xbb96256a	-0.004582097
47	0x3d201a48	0.039087564
48	0x3db1d069	0.08682329
49	0xbe1dc229	-0.15406097
50	0xbe0188e4	-0.12649876
51	0x3d3e227b	0.046419602
52	0xbc55557e	-0.013020871
53	0x3ce5cf11	0.028052839
54	0xbe5062cb	-0.20350187
55	0xbcc9061e	-0.02453905
56	0x3c0da944	0.008646313
57	0x3e3682be	0.17823312
58	0xbe6e26cd	-0.23256989
59	0x3dffece8	0.12496358
60	0x3c0e7181	0.008694054
61	0xbe94cee1	-0.29064086
62	0xbedc6317	-0.4304435
63	0xbe0d06b3	-0.13772087
64	0xbd3afae4	-0.045649424
65	0xbee12002	-0.43969733
66	0xbeb22663	-0.34794912
67	0xbdbede86	-0.09319787
68	0xbc5bed4c	-0.013423275
69	0xbd7a253b	-0.061070662
70	0xbe06b277	-0.13154016
71	0x3d4c0b81	0.04981566
72	0xbe4ce3b0	-0.20008731
73	0xbe70b27c	-0.23505586
74	0xbd789df0	-0.060697496
75	0x3be0e0e6	0.0068627475
76	0xbf144807	-0.57922405
77	0xbe5553c9	-0.20832743
78	0xbed81501	-0.42203525
79	0x3de00421	0.109382875
80	0x3e626729	0.22109665
81	0x3d3986ef	0.0452947
82	0xbdb7c728	-0.08973533
83	0xbe15b34b	-0.14619176
84	0xbc500f39	-0.012698942
85	0xbdc46bee	-0.095908985
86	0xbe409099	-0.1880516
87	0x3d8693b6	0.065711424
88	0x3e5e324f	0.21698879
89	0x3e314d5b	0.17314665
90	0xbe974785	-0.29546753
91	0xbe44f0ff	-0.19232558
92	0x3fafec96	1.3744075
93	0x40060784	2.0942087
94	0xbf515b70	-0.8178015
95	0x3e9553c9	0.29165486
96	0x3f5e10a6	0.86744153
97	0xbf23c73c	-0.6397588
98	0x3e8bf7ed	0.2733759
99	0xbde91bd4	-0.11382261
100	0xbf8df0ec	-1.1089149
101	0x3f2b9caa	0.67035925
102	0x3fa12bae	1.2591455
103	0xbfa32910	-1.2746906
104	0xbea103fc	-0.31448352
105	0xbf8f52b1	-1.119711
106	0x3eaf80bb	0.342779
107	0xbf4095c6	-0.75228536
108	0x3d9d0ef7	0.0766887
109	0x3f734813	0.9503185
110	0xbee2284b	-0.44171366
111	0xbfe6d4f0	-1.8033733
112	0xbf19447f	-0.5987014
113	0x3ff46529	1.9093372
114	0xbffb5395	-1.9634882
115	0x3fa41318	1.2818327
116	0xbe877f5a	-0.2646435
117	0x3f8a011b	1.0781587
118	0x3fac6f04	1.3471379
119	0xbf301e27	-0.6879601
120	0xbd782a98	-0.060587496
121	0xbed16799	-0.4089935
122	0x3e7039f6	0.2345961
123	0x3d5f3b85	0.05450012
124	0xbd608ade	-0.054819934
125	0xbe6f7b16	-0.23386797
126	0x3e5954ca	0.2122375
127	0xbec29860	-0.38006878
128	0x3e336b6b	0.17521445
129	0xbd5317b0	-0.051536262
130	0xbec24c44	-0.3794881
131	0x3cc88764	0.024478622
132	0xbe514bde	-0.20439097
133	0xbdff5b47	-0.12468582
134	0xbebab9af	-0.3646979
135	0x3d1fd834	0.039024547
136	0xbc431f25	-0.011909281
137	0xbe8fa229	-0.28053406
138	0xbe3ec20a	-0.18628708
139	0xbe93c08a	-0.28857833
140	0x3dad614e	0.08465825
141	0xbcc160f2	-0.023605797
142	0xbd77807e	-0.060425274
143	0xbe141110	-0.14459634
144	0x3e1aaeff	0.15105818
145	0xbe68eb1f	-0.22745942
146	0x3d3de082	0.046356685
147	0x3c5b2664	0.013375852
148	0xbd313224	-0.04326071
149	0x3de6c5b3	0.11268177
150	0x3d88265e	0.06647943
151	0x3e7d6578	0.24745739
152	0x3ea6db1d	0.32589045
153	0x3e74bed2	0.23900917
154	0xbd4fa7e7	-0.050697234
155	0xbdfce1c3	-0.12347748
156	0x3ecade3f	0.39622685
157	0xbe8b98d1	-0.27265027
158	0x3dc8c789	0.09803683
159	0xbd08cde3	-0.033399474
160	0x3e27d89a	0.1639122
161	0xbe1a0481	-0.1504078
162	0x3eb364c6	0.35037822
163	0xbe8fac1b	-0.28060994
164	0xbe146764	-0.14492565
165	0xbd48cef4	-0.04902549
166	0xbc580e21	-0.013186962
167	0x3e809d6b	0.251201
168	0x3e615fa5	0.22009142
169	0xbd941324	-0.07230213
170	0x3d9ee93e	0.07759331
171	0x3da73d7b	0.08166023
172	0xbd1e1a80	-0.03859949
173	0x3e4b8a7f	0.19877051
174	0x3e9d0aeb	0.30672392
175	0xbe1b5fc4	-0.1517325
176	0xbc1be415	-0.009514828
177	0x3df1c345	0.11804823
178	0x3d64175b	0.055686336
179	0x3de98d29	0.11403877
180	0xbe9d9f93	-0.30785808
181	0x3e93debe	0.28880876
182	0x3ddd1373	0.10794725
183	0xbb145040	-0.002263084
184	0xbcab59b6	-0.020916801
185	0xbd06e590	-0.03293377
186	0xbdcf96f7	-0.10136216
187	0x3eaee916	0.34162205
188	0xbbc78b2e	-0.0060895896
189	0x3b868adc	0.004105909
190	0x3d4588eb	0.04822628
191	0xbc36cb40	-0.011156857
192	0x3e667465	0.22505338
193	0x3e7fb19b	0.24970095
194	0x3e896090	0.26831484
195	0x3d58e22c	0.05295007
196	0xbeaf88cb	-0.34284052
197	0xbe8d35ba	-0.27580053
198	0xbe56e89c	-0.20987171
199	0xbe2e8004	-0.17041022
200	0xbcebfbcc	-0.02880659
201	0xbda5b070	-0.080902934
202	0x3c179fa7	0.009254373
203	0xbe0a4ab2	-0.13505057
204	0x3e893e39	0.26805285
205	0xbdadd73f	-0.084883206
206	0x3e22216d	0.15833063
207	0x3d93feeb	0.07226356
208	0x3e0efae1	0.1396289
209	0x3d3877f9	0.04503629
210	0xbcb73a01	-0.022366526
211	0x3eb77086	0.35828036
212	0xbdf7fac2	-0.12108375
213	0x3d36d0ce	0.044632725
214	0xbcd919d7	-0.02650158
215	0xbe265eb9	-0.16247071
216	0x3ea3f35b	0.32021603
217	0xbdf75d4b	-0.12078341
218	0x3de9ccbf	0.11416005
219	0xbad25cbc	-0.0016049366
220	0xbea7fac4	-0.32808506
221	0x3d6a9b3a	0.05727694
222	0x3ec3c70e	0.38237804
223	0x3ec1bff0	0.3784175
224	0xbb7ba953	-0.0038400486
225	0x3c91ea8b	0.017812034
226	0xbe1b1b9f	-0.15147255
227	0x3edd0caf	0.4317374
228	0x3e59a1f1	0.21253182
229	0x3f0c58de	0.548231
230	0xbd6a1651	-0.05715019
231	0x3bf6a30d	0.0075267614
232	0xbd3b2486	-0.04568913
233	0x3e35b3cb	0.17744367
234	0xbe4a1f1b	-0.19738428
235	0x3bde25d1	0.0067794104
236	0x3d6575af	0.056020435
237	0xbc94208c	-0.018081926
238	0xbeab3b3e	-0.33443636
239	0x3db6cf98	0.08926314
240	0xbdd3551c	-0.10318968
241	0xbdaf3513	-0.08555045
242	0xbd937e96	-0.07201879
243	0xbe8d1a0b	-0.27558932
244	0x3d0548f8	0.03254029
245	0xbd13e594	-0.036107615
246	0xbf01fca1	-0.50776106
247	0xbdf74ae5	-0.12074832
248	0x3e0d0794	0.13772422
249	0xbc288b8d	-0.010287178
250	0xbe6f3cd6	-0.23363051
251	0xbd6014ac	-0.054707214
252	0xbb97ada0	-0.004628852
253	0x3d883ee5	0.06652621
254	0x3d9778c5	0.07396082
255	0xbd2245d3	-0.03961737

fc2.bias f4 [15]
0	0xbd6e41e4	-0.058168307
1	0xbe2c43a6	-0.16822681
2	0x3e701805	0.23446663
3	0x3da0d8ab	0.07853826
4	0xbd9f3973	-0.077746294
5	0x3d64bdce	0.055845074
6	0x3d70dcf1	0.058804456
7	0x3c8d97db	0.017284324
8	0xbdc201fc	-0.09473035
9	0xbc4692f5	-0.012119998
10	0x3e1433d9	0.14472903
11	0xbc99748c	-0.018732332
12	0x3e6b72f9	0.22993077
13	0x3dc398c7	0.09550624
14	0xbeca9341	-0.3956547

fc3.weight f4 [37, 15]
0	0xbd58b8fd	-0.052910794
1	0xbdb06e14	-0.08614746
2	0xbc84f73f	-0.016231177
3	0xbca7e218	-0.020493552
4	0xbda5d72e	-0.08097683
5	0xbb0bfb99	-0.002135968
6	0xbe02a3fa	-0.12757865
7	0x3d28b459	0.041187618
8	0xbd5e4fdf	-0.05427539
9	0xbd25adf8	-0.040449113
10	0x3d823560	0.06357837
11	0xbbd224e8	-0.006413091
12	0x3d74ebbd	0.05979513
13	0xbd212193	-0.03933866
14	0x3c8a11bc	0.01685416
15	0xbdc12afe	-0.09432028
16	0xbdcba7be	-0.09944104
17	0xbca3a9cd	-0.019978428
18	0xbb8621f3	-0.0040934025
19	0xbda9499c	-0.08265993
20	0xbadb807d	-0.0016746667
21	0xbe13efbd	-0.14446922
22	0x3dbaabe7	0.09114819
23	0xbe02ce0c	-0.12773913
24	0xbd4bec55	-0.04978593
25	0xbe561d7b	-0.20909683
26	0xbbc7a453	-0.006092587
27	0x3d816be7	0.06319409
28	0xbe52f906	-0.20602807
29	0x3cb002e7	0.021485759
30	0xbe0e3405	-0.13887031
31	0x3dd4dfdd	0.10394261
32	0xbd3b6321	-0.045748834
33	0x3e4f65be	0.20253655
34	0xbd36f377	-0.04466578
35	0xbc9f889d	-0.019474322
36	0xbe172c8c	-0.14763087
37	0x3ca1ef32	0.019767378
38	0xbd80bf7b	-0.06286522
39	0xbb3501ae	-0.002761941
40	0x3e3e1a73	0.18564777
41	0xbd861ffa	-0.06549068
42	0x3dcb6891	0.09932054
43	0x4010bf89	2.2616904
44	0x3c917623	0.017756527
45	0xbe0a064e	-0.13478968
46	0xbe099804	-0.13436896
47	0x3d59a67a	0.05313728
48	0xbec0cc86	-0.3765604
49	0xbe93978e	-0.28826565
50	0x3e55befb	0.20873635
51	0x3e27e03f	0.16394137
52	0x3e4b3cd1	0.19847418
53	0xbe902bdf	-0.2815847
54	0x3d6cd047	0.057815816
55	0xbf89f1c2	-1.0776904
56	0xbe771ff3	-0.24133281
57	0xbe659ada	-0.22422352
58	0xbde86dc3	-0.113490604
59	0x3d09faae	0.033686332
60	0xbd9412b4	-0.0723013
61	0xbd8f6fb5	-0.07003728
62	0xbbe44026	-0.006965655
63	0xbd8cece5	-0.068811215
64	0xbddc7d46	-0.107660815
65	0xbbc49781	-0.005999506
66	0xbe012cb2	-0.12614706
67	0x3d096f7c	0.033553585
68	0xbcd52a52	-0.026021156
69	0xbd24c458	-0.04022631
70	0x3e2d792c	0.16940755
71	0xbd11d84c	-0.035606667
72	0x3d82e76b	0.06391796
73	0x3c8b6bdd	0.017019207
74	0x3ca9ba0e	0.0207186
75	0xbe2d2d59	-0.1691183
76	0x3ca9160d	0.020640397
77	0xbd1ea1f1	-0.038728658
78	0xbe532142	-0.20618156
79	0xbd5ff026	-0.054672383
80	0xbca607d9	-0.020267414
81	0xbe1ce9b4	-0.15323526
82	0xbd24fdf2	-0.040281244
83	0xbde45585	-0.11149124
84	0x3cefe1f6	0.029282551
85	0x3ee3ed12	0.44516808
86	0xbdfe2831	-0.1241001
87	0x3d6f0a2e	0.058359317
88	0x3e83b1ff	0.25721738
89	0x3d05d90d	0.0326777
90	0xbe296806	-0.16543588
91	0x3d1fc1d6	0.039003216
92	0xbc9b56f7	-0.018962367
93	0xbdc8fdae	-0.098140106
94	0xbdd29903	-0.10283091
95	0xbc26cda7	-0.010180867
96	0xbe1efc94	-0.15526038
97	0xbc46c83b	-0.0121327
98	0xbde22a5b	-0.11043235
99	0x3d87f69b	0.06638833
100	0x3f2f20de	0.68409526
101	0xbe19397c	-0.14963335
102	0x3d85695e	0.06514238
103	0xbd5ea93d	-0.054360617
104	0x3d0835e8	0.033254534
105	0xbe6ce8ef	-0.23135732
106	0xbe074893	-0.13211279
107	0x3d5080cd	0.050904084
108	0x3e875697	0.2643325
109	0xbdf5f2ab	-0.12009176
110	0xbdfac8fc	-0.12245366
111	0xbe36f9da	-0.17868748
112	0xbd987d51	-0.07445777
113	0x3dfb18d7	0.12260597
114	0x3e6125bf	0.21987055
115	0xbcafbc66	-0.02145214
116	0x3e40ea85	0.18839462
117	0xbe91dd8e	-0.28489345
118	0xbe92f394	-0.2870146
119	0x3d1e232d	0.038607765
120	0xbdaa4841	-0.083145626
121	0xbd714e37	-0.058912482
122	0xb9f538e8	-0.0004677244
123	0xbdb35f2d	-0.08758388
124	0xbdffbc69	-0.12487108
125	0xbc12f09d	-0.0089684995
126	0xbe027a13	-0.1274188
127	0x3cf4e415	0.029893914
128	0xbc167652	-0.009183483
129	0xbd1a46ac	-0.037665054
130	0x3e84ca42	0.2593556
131	0xbd55060b	-0.052007716
132	0x3d8c5746	0.068525836
133	0x3bc90cb2	0.0061355466
134	0x3cbc22d2	0.022965822
135	0xbe3c0752	-0.18362167
136	0x3e025042	0.12725928
137	0x3c10b998	0.0088333115
138	0x3cc23e4d	0.023711348
139	0xbe271a97	-0.16318737
140	0xbd3d7652	-0.046255417
141	0xbe6c51d5	-0.23078091
142	0xbc1d6d9c	-0.009608652
143	0xbd4d8904	-0.050179496
144	0x3de948c6	0.113908336
145	0x3fc45d2f	1.5340937
146	0xbe15fd92	-0.1464751
147	0x3e1fbcf3	0.15599422
148	0xbf4543bd	-0.77056485
149	0x3d1b3a55	0.037897427
150	0x3da6d343	0.08145764
151	0xbe9d5b22	-0.3073359
152	0xbdd0b40f	-0.101905935
153	0x3f832f24	1.0248761
154	0x3e5c6fd4	0.21527034
155	0xbe23d885	-0.16000564
156	0xbe8c4bac	-0.27401483
157	0xbe2ca0ad	-0.16858168
158	0xbe00669e	-0.12539145
159	0x3d0565c1	0.032567743
160	0xbf42e6d6	-0.7613348
161	0xbebfe25f	-0.37477395
162	0xbd6392f8	-0.055560082
163	0xbe676b5f	-0.22599553
164	0x3d50d721	0.050986413
165	0xbeb3e355	-0.35134378
166	0xbbae88e7	-0.0053263786
167	0xbdfa9492	-0.12235369
168	0xbfde3557	-1.7360028
169	0x3e045489	0.12922873
170	0xbcd0f8e0	-0.025509298
171	0xbd781339	-0.060565207
172	0xbe9d8d68	-0.30771947
173	0xbe2c10a7	-0.16803227
174	0xbdce636b	-0.10077556
175	0x3e0b49a1	0.13602306
176	0xbd465752	-0.04842312
177	0xbd1b5778	-0.037925214
178	0x3e24d9ba	0.16098681
179	0x3d3789d7	0.04480919
180	0xbe058e26	-0.13042507
181	0xbcab1094	-0.020881929
182	0x3c1687b2	0.009187626
183	0x3dd6b97f	0.10484599
184	0xbe32dc54	-0.17466861
185	0x3d7eefe4	0.062240496
186	0xbd5a9a26	-0.053369664
187	0x3d812631	0.063061126
188	0xbe216ae6	-0.15763435
189	0x3de858e0	0.113450766
190	0x3eb374af	0.3504996
191	0xbe7b7618	-0.24556768
192	0xbcf793ff	-0.030221937
193	0xbd458c07	-0.048229244
194	0x3d0ff474	0.035145238
195	0xbdbe31c2	-0.09286834
196	0xbd993d58	-0.074824035
197	0x3c954ee2	0.01822609
198	0xbe31b816	-0.1735538
199	0xbe2c9770	-0.16854644
200	0xbc14f7db	-0.0090922965
201	0xbdd240cf	-0.102662675
202	0x3ccb414d	0.024811411
203	0x3d5cfd08	0.053952247
204	0xbd8ba36a	-0.06818278
205	0x3e6b31ee	0.22968265
206	0xbda9510e	-0.08267413
207	0x3d6aad98	0.05729446
208	0x3de64528	0.11243659
209	0x3cd0afb7	0.025474412
210	0xbe22d34c	-0.15900916
211	0xbe1fc560	-0.15602636
212	0x3defc995	0.117083706
213	0xbf16caf5	-0.5890344
214	0xbec42034	-0.3830582
215	0xbc9e7461	-0.019342603
216	0x3caf8e6e	0.02143022
217	0xbcbe1179	-0.023201691
218	0x3eb967ab	0.36211905
219	0xbe567279	-0.20942105
220	0x3e837ea3	0.25682554
221	0xbe84d026	-0.25940055
222	0xbc0d5ee2	-0.008628579
223	0x3e6e44ee	0.23268482
224	0x3d17d32b	0.03706662
225	0xbe18cfe2	-0.14923051
226	0xbdccf028	-0.10006744
227	0xbd40c5cc	-0.047063634
228	0x3f03062a	0.5118128
229	0xbda6f9b6	-0.08153097
230	0x3d5ad8c4	0.05342938
231	0xbb388f90	-0.0028161742
232	0x3e00ab16	0.12565264
233	0xbdef3969	-0.11680872
234	0x3dcaf390	0.09909737
235	0x3ef566ff	0.47930142
236	0xbe2fb617	-0.17159306
237	0x3d3e36fe	0.046439163
238	0x3f764f58	0.9621482
239	0x3d0e7913	0.034783434
240	0xbe8aad27	-0.2708523
241	0xbe8f0b3d	-0.27938262
242	0xbe0e80a6	-0.13916263
243	0xbe4f9f06	-0.20275506
244	0x3e1cfe74	0.15331441
245	0x3c8aba17	0.016934438
246	0x3dcc2664	0.0996826
247	0xbca4fbc1	-0.020139577
248	0xbe27a552	-0.16371658
249	0x3b992008	0.004673008
250	0x3eafa77c	0.34307468
251	0xbd3629a1	-0.044473294
252	0x3c769f4e	0.01505263
253	0xbd6069f3	-0.05478854
254	0x3d3174c3	0.043324243
255	0xbe580570	-0.21095824

fc3.bias f4 [37]
0	0x3e08b12f	0.1334884
1	0xbdc4678d	-0.09590063
2	0x3da0453b	0.07825705
3	0x3d76d6ab	0.060263317
4	0xbc909bf1	-0.017652484
5	0x3c3b8534	0.011445332
6	0xbd93ec02	-0.07222749
7	0xbcafec8a	-0.021475095
8	0x3dd46ec3	0.103726886
9	0xbc8d060c	-0.017214797
10	0x3d908599	0.07056732
11	0x3d4186d0	0.047247708
12	0xbde67b3e	-0.11253975
13	0x3ca598a0	0.020214379
14	0x39798daf	0.00023799272
15	0x3d862522	0.06550051
16	0xbd7579d4	-0.059930637
17	0xbd46ee9d	-0.048567403
18	0xbdbb246f	-0.091378085
19	0xbd5e3c9a	-0.054257013
20	0x3e04e70b	0.12978761
21	0x3cc012dd	0.023446495
22	0x3ce78fec	0.02826687
23	0x3da68a7a	0.08131881
24	0x3d77c026	0.06048598
25	0x3d3e41d3	0.046449494
26	0x3d92f1f0	0.07175052
27	0x3e0a2f84	0.13494688
28	0xbd8acddd	-0.067775466
29	0x3de9996b	0.11406215
30	0xbddf3c78	-0.109002054
31	0x3d4d7a5a	0.05016551
32	0xbe3a04eb	-0.18165939
33	0xbddde96c	-0.10835537
34	0x3c1c457a	0.009538049
35	0xbda883b8	-0.08228248
36	0x3d996fa5	0.07491998
